models/simple_tag/DQN-shared/adversaries/qnet_target_0.pt (torch, 15172 bytes, 6 tensors)

weight f4 [32, 12]
00000000: 84b0 c13d a400 22bf 5d76 2a3e e642 26bf
00000010: aece 273d 44d3 b4be 02ad d33c 88ca 09bf
00000020: 49cd bbbd dcad 723f 14c2 bfbd d032 cd3e
00000030: f72f 53be 1ed3 373f 940e 603d 45ec a63c
00000040: 4ecf 243d 93e3 1f3e 58f1 533e ec4d 43bc
00000050: 9168 6f3e cbd9 d4bf 7861 6e3e 56c2 2abf
00000060: f123 21bb fe61 433e c5f0 74be 7b99 25be
00000070: 5cbf 283e e596 563d 1762 413e bfea 383e
00000080: c108 fabe 93f2 a7be ae4b 7cbe 4f9f 9bbe
00000090: 4159 44bf bfd5 efbd 184f 343c a132 3a3d
000000a0: 9d50 31be e5d8 833c 1861 6e3d 74bb 80bc
000000b0: 0fde 8d3f 3b70 48bd 9bc3 3d3f 24c3 c73d
000000c0: ee0b c03d 53b9 a13d e8b6 3fbd 5ffa b13d
000000d0: fdfe b13d 2bae 72be 297d c2bd a589 a33c
000000e0: 9e3a 813d 3b7a 8cbe 3d61 5c3e 76e8 a03e
000000f0: 6d36 a5bd 162d b63e c513 313f 9928 dbbd
00000100: 84ef c53e 3b04 353c 1500 243f 3019 33be
00000110: 50b2 ddbd 1cf7 1d3e 788b d63d 204d 353e
00000120: 1eb0 3ebe defa ae3e 28d0 09bf 9ef4 80bc
00000130: a2d2 52bf 5d73 cd3c beb9 52be 61c5 14bd
00000140: 34ca a33f b0c6 d8bd ae03 9f3e 9fb4 29be
00000150: 9e89 b93e c488 583e 8cc1 c7bd e2d4 21be
00000160: aef5 5cbf 325c 49bf 9fb7 8ebf f33b 18bf
00000170: b1f5 afbe d3f6 d2be ac2f 34be 919b 07be
00000180: 9f9f c93e 55ee ce3c ae46 3f3e 9a95 29be
00000190: 3b83 c33e a716 afbe 8ba2 4fbe c72d b33e
000001a0: bd5c 963e bdb5 4f3e 05c7 3fbe cdda 0bbd
000001b0: e56d 1abe 4133 0fbd ae37 113e 0d36 923e
000001c0: a4d3 a53e 87b3 54be 0573 a439 2ba6 143e
000001d0: 7934 223e cf7f 993e d68f 623d 1eb8 5cbe
000001e0: c39a 483d 2892 f03b 2d64 1bbf e229 62bf
000001f0: 2e20 17bf 28fb 43bf e030 b7be ab7a 3cbf
00000200: 909e 413f cfb1 f73e 204a 3a3f 7632 133f
00000210: e16c 91bb 15d1 1f3e b971 dc3b 0df5 6b3d
00000220: ad84 e63c 54fe 80bd 0685 16be cb2a d73f
00000230: cd77 af3d 557b b4bf 68dc 283c 5ff1 b8be
00000240: 3d2a 10be 7ca7 33bd fb73 06be 341e 58bc
00000250: 29cf b33d 2c23 3dbd fdb5 d7bf 6963 b7be
00000260: 0d58 a73f 9ed9 a93e 9cd9 c43e 83b3 a23d
00000270: f0c3 393c 0d04 07bd dde7 9b3e 27bd e93e
00000280: f1d1 b0bd 33c0 5cbe 1cd7 0abf ded2 3dbf
00000290: 4313 993f 7c4d b33f 8c11 d03e fdf1 cf3e
000002a0: 3d29 e8be 5235 f2be 8b17 153e a485 2c3d
000002b0: a45d 01bf 6da0 45bf 216b 8e3b 4946 19bf
000002c0: 39f7 843f d2d2 c73f afef 103f 9647 193f
000002d0: aae5 e6bd b6ee 733e 2f07 7cbe 8b52 313d
000002e0: 75f9 a7bd fffe c9be 3f46 a13c b826 50be
000002f0: 000e a2be 800c f33e fe7f e1bd f5a4 f43c
00000300: 9dab e63e af1e a9be 996d eb3b b9ea 03bc
00000310: 24ed 1f3c 5ae3 323d b4ab b4bb 96ea 30bc
00000320: 0968 d1bf 59ab a33f 0acb fcbe 5596 b53e
00000330: edc2 8d3b 6595 803d ad84 b2be eba9 a6be
00000340: 50b3 02be 3212 243d 463c a7bd 81ea 59bd
00000350: 2378 72bb 98da 4a3e 5201 493e 2f0c d0bd
00000360: 6346 60bd ef2b fabd e520 853d 5e4f f33d
00000370: b72d 9a3e 438a 523e 6f93 82be fae7 603d
00000380: 8a4a 02be b239 0dbe 996e 983d 0b8b dcbd
00000390: f429 0bbe 16ed 74bc 9fd0 be3d 009f 263e
000003a0: bffe cd3d 6668 72bd 7f5d aebb d333 d33e
000003b0: 3677 6a3c 8866 3abe 8224 a4be 92e3 7b3d
000003c0: 9f1f a4be 3ff5 803d 27b0 12bf c1d0 4fbc
000003d0: 4d1b cebe 97a3 0cbd f2b6 2abf 826f d73d
000003e0: 6b45 133f 838c 2f3d 2c02 b2bc 30b4 af3d
000003f0: e81e eebe 3f95 fdbe 7c7f 403b 067f d63c
0.09457496 -0.6328223 0.16646715 -0.6494583 0.04096859 -0.35317433 0.025839332 -0.53824663
-0.091700144 0.9479654 -0.09363189 0.4007783 -0.20623766 0.71806514 0.054701403 0.020376334
0.040236764 0.15614156 0.20697534 -0.0119204335 0.23379733 -1.6628965 0.23279369 -0.66702783
-0.0024588073 0.1908035 -0.23919971 -0.1617183 0.16479248 0.052389998 0.18885075 0.18058299
-0.48834804 -0.32802257 -0.24638245 -0.3039498 -0.7669869 -0.11710691 0.011005186 0.04545844
-0.17315908 0.016094634 0.058198065 -0.015714385 1.1083392 -0.048935156 0.74126595 0.09754017
0.093772754 0.07896676 -0.046805292 0.086903326 0.08691213 -0.23699252 -0.09496529 0.019963095
0.063100085 -0.27437004 0.21521468 0.31427354 -0.080670215 0.35581273 0.6917079 -0.10701103
0.38659298 0.011048372 0.64062625 -0.17490077 -0.10825026 0.15426296 0.1047582 0.17705202
-0.18621871 0.3417577 -0.53833246 -0.015741643 -0.8235265 0.025079424 -0.20578668 -0.036321048
1.2796082 -0.10584772 0.31057495 -0.16572808 0.36237806 0.21145922 -0.09753713 -0.15803865
-0.8631238 -0.78656304 -1.1149787 -0.59466475 -0.34367135 -0.41203937 -0.1759631 -0.13242938
0.39379594 0.02526013 0.18679306 -0.16560975 0.38186058 -0.3419697 -0.20276849 0.34995863
0.2936763 0.20284171 -0.18728264 -0.03414421 -0.15080984 -0.03496099 0.14181396 0.28556862
0.3238803 -0.20771609 0.00031366214 0.14516513 0.15840329 0.29980323 0.055312954 -0.2155461
0.048975717 0.007341642 -0.6069973 -0.8834516 -0.5903348 -0.7655511 -0.35779476 -0.73624676
0.7563257 0.48377845 0.72769356 0.5749887 -0.004438028 0.15607102 0.006727424 0.057606746
0.028139437 -0.06298509 -0.14699182 1.6809934 0.08567772 -1.4100138 0.010306455 -0.36121652
-0.14078613 -0.043860897 -0.1313018 -0.013190795 0.08779747 -0.04617612 -1.6852413 -0.3581803
1.3073746 0.3317384 0.38447273 0.079443954 0.011338219 -0.032962848 0.30450335 0.45652124
-0.08633793 -0.21557693 -0.5423448 -0.7414988 1.1959003 1.4008021 0.40638387 0.4061431
-0.45343962 -0.47306305 0.14559762 0.042119637 -0.5053351 -0.77197915 0.004346267 -0.5987287
1.0387946 1.5611212 0.5661573 0.59874856 -0.11274274 0.2382153 -0.24612115 0.04329161
-0.08201877 -0.3945236 0.019686816 -0.2032727 -0.31651306 0.47470474 -0.11010741 0.029863814
0.45052806 -0.33031222 0.007184696 -0.008051568 0.009761129 0.04367385 -0.0055136327 -0.010798117
-1.6359874 1.2786666 -0.49373657 0.35466257 0.0043262155 0.06278495 -0.3486685 -0.32551512
-0.12763715 0.040056415 -0.08165793 -0.053202156 -0.0036997877 0.1980995 0.1962941 -0.10158574
-0.054754626 -0.12215411 0.06500415 0.118803725 0.30113003 0.20560555 -0.25503108 0.05490873
-0.12723747 -0.1379154 0.0744297 -0.10768708 -0.13590223 -0.014949104 0.09317135 0.16271591
0.100583546 -0.059181593 -0.005321204 0.41250476 0.014310649 -0.18203175 -0.32059103 0.061496325
-0.32055375 0.06296777 -0.5730004 -0.012684048 -0.40255204 -0.0343357 -0.666854 0.10519315
0.575278 0.04285861 -0.021729551 0.0857929 -0.46507955 -0.49527928 0.0029372862 0.026183616

bias f4 [32]
00000000: 472d f43d 2e33 06bc f8b3 a83f 88bb 983c
00000010: 260c b03f 97d0 30bc c8e2 3f3d 8e34 3dbd
00000020: 594b 7f3f 69f7 903f 31e1 d43d 864f 023d
00000030: bfa4 a83c ef24 6d3f c076 22be 6143 b93f
00000040: d0a5 fdb9 35d1 ac3f a529 9d3f d563 8e3f
00000050: 88f1 013e 32f0 e7bb 9362 703c 6b54 d5bd
00000060: e8ec fa3e a4af 2b3e e3c0 993f 4126 0bbd
00000070: 3267 4bbc 4446 773f 5842 c7be 85f8 b5bd
0.119226985 -0.008190913 1.3179922 0.01864411 1.3753707 -0.010791919 0.046847135 -0.0461927
0.99724346 1.1325504 0.10394514 0.03181412 0.02058637 0.9263448 -0.15865612 1.4473687
-0.0004837946 1.3501345 1.2278334 1.1124216 0.12689793 -0.007078194 0.014671939 -0.10416492
0.4900887 0.1676622 1.2011989 -0.03397203 -0.01241474 0.9659159 -0.38917804 -0.08885292

weight f4 [64, 32]
00000000: 3c9b 3c3f 4e41 83bf e10d 8a3d e330 aa3e
00000010: 926a cbbd 137c 20be 8109 21bf 5437 8dbe
00000020: b974 5dbe cf89 bebe 8569 5c3f 932c c4be
00000030: 2a70 643f ae58 f4bd 2ad3 8f3e e81c c13d
00000040: 4e24 babe 31a0 403e 5981 2ebe e9bc b2bd
00000050: fbb5 bb3d 70e5 283f fbc7 1f3d c171 b5be
00000060: c84b debd d049 1cbf 4ae3 0c3e f8cf c2bd
00000070: eaaa 073f 91d5 09bf 6b06 513f 4520 db3e
00000080: 6abd a0bf debe 0a3f a558 b53e 4e27 063f
00000090: d87d be3e e402 583e 3d34 823e 8fec c53d
000000a0: 1d29 fa3d 674c 0c3f d0ae 78bc f980 a8bd
000000b0: 572f f0be 0756 ad3e 14f6 06bf 1452 593e
000000c0: c866 3fc0 4bc9 143f 7096 093f e41b 4e3d
000000d0: d1d7 6a3e 7b75 9dbe 5623 5cc0 f351 473d
000000e0: c74f 54bf 86f0 3e3f 6604 c03e b778 acbe
000000f0: 7fca 2ebf ac73 7f3e b0c1 2a3e 043a 49be
00000100: 9dce 173f f60d 613b 4c60 963d 3d89 873f
00000110: c584 f4be 1939 d83d 6c62 063f a88b fabe
00000120: 9572 c33d 0b25 a03e de24 82bf d9be 5c3e
00000130: 1dd3 d6be 50c2 763d eb38 ee3d c9aa f4be
00000140: 4a29 a23c 925e 07be 2746 80be 698c 653c
00000150: f116 f43e 09cc 863f 0045 1abd 19da 1f3e
00000160: 38bb 9b3c 45e2 11bf e62c 583e 0d82 043f
00000170: 37c0 e1be efa9 91bd fc3c b3bf f029 84be
00000180: 6478 71be a9a8 043d 66f4 753f b6b8 55bd
00000190: e531 483f ec57 09be fbed 1c3e 369f 083f
000001a0: cfee 2f3f a0f1 3f3f 92e4 06bd 28cb 71bf
000001b0: f65b 5bbf f232 413f fc0c f83d dde9 623f
000001c0: d556 babe 684d 603f 466f 3a3f 396e 463f
000001d0: ccaf f9be dc19 adbe 47e5 b6be 83ef 48bd
000001e0: 743d 133f f9a0 733f 86c9 2e3f 3e00 cdbf
000001f0: 1c5f 2abd f64b 833f 1939 f73c a9ce 9cbf
00000200: 9d39 703d 8811 22be e53d 4e3f 8334 7b3e
00000210: 2ca3 433f 1c53 f3bd 80b7 06be ab27 d33e
00000220: cf09 403f 089f 3f3f da83 3abd e5f9 84bf
00000230: de46 47bf 43ba 4f3f 4bc6 a53e 45c5 8a3f
00000240: 1d22 a5be c643 693f bc0f 773f 3a62 683f
00000250: c971 eebe 890b 823d f1e7 433e 5d9f b6bd
00000260: 537f b83e 4d67 7d3f 56da 3a3f a42c bbbf
00000270: f26f 1fbe 5726 553f c545 1d3c e477 61bf
00000280: f694 a63c 5fc5 29be c743 20be ec86 8a3d
00000290: 78e5 3cbc 3fc6 a0bd 6ef3 2c3d c933 c4bd
000002a0: 9c01 883c b17b 41bd b0e4 3cbe c5f5 933d
000002b0: e5d5 1d3c 9b92 f43d ace4 0a3b c304 6cbc
000002c0: 2277 673d 3699 1ebe bd2e 01be 2249 5ebe
000002d0: 0606 a33d b6d4 ab3d 6e8b 1cbe 7684 2f3c
000002e0: 6571 82bc d9e6 4ebe 5eda 99bd ad23 8dbc
000002f0: b91f 5e3d 6409 f2bd 50e0 37bd 1c64 823d
00000300: 5532 8c3e 33c1 d73e a2c7 4ebe 6d31 33bf
00000310: bde7 473e 7ae3 83be 8e51 1ebf a004 1e3f
00000320: 28a7 debe 3c53 04bf c3b5 9d3f 3708 c4be
00000330: 5d28 723d b08f ccbe e00f 45bf 8347 af3e
00000340: c08f e6be 828d 3e3d 0731 48be fca1 b6be
00000350: 13d1 bbbe 6a72 bcbe bca7 9cbd 87a5 013e
00000360: b349 b3bd 6ec2 cbbe 8fc0 96be 559d a0bf
00000370: e11a 143f 354d 9fbd 5b05 1d3f ec61 f33e
00000380: 1901 e2bd 04d6 273e 9e5b 5f3f 26ad 9bbd
00000390: ce9c 853f bfda ee3e 514a cabd 672e 093f
000003a0: ff06 383f 3db7 793f e1c1 a8bd 5d14 26bf
000003b0: 13c2 5bbf 30ef 773f f468 c83e 2484 703f
000003c0: 2ddb 06be 63a3 883f 9a73 803f 1c42 803f
000003d0: cc3c 0fbf 507c 10be 2a0b 093f ea44 1fbe
000003e0: f05f 1c3f 4b12 513f eb42 833f 61bc 52bf
000003f0: 047e 8e3e dc05 903f 906c 34be 8639 24bf
0.7367437 -1.0254304 0.067409284 0.33240423 -0.09932436 -0.1567233 -0.62905127 -0.27581275
-0.21626557 -0.37214515 0.8609851 -0.38315257 0.8923365 -0.11930977 0.28090793 0.094293416
-0.36355823 0.18811108 -0.1704153 -0.08727438 0.091655694 0.65975094 0.039009076 -0.3543835
-0.10854298 -0.6105013 0.13758579 -0.09512323 0.5299517 -0.538415 0.8165042 0.42798057
-1.2557805 0.5419749 0.35419193 0.52403724 0.37205386 0.21094853 0.2543048 0.096642606
0.12214873 0.5480408 -0.015178397 -0.082277246 -0.46911117 0.33854696 -0.52719235 0.21222717
-2.9906483 0.5811965 0.53745174 0.050319567 0.2293389 -0.30753693 -3.4396567 0.048662137
-0.8293423 0.7458576 0.37503356 -0.33685848 -0.68277735 0.24946469 0.16675448 -0.19651037
0.5929964 0.0034340597 0.07342586 1.0588757 -0.47757545 0.105577655 0.5249393 -0.48934674
0.09543339 0.31278262 -1.0167501 0.21557178 -0.41957942 0.060243905 0.1163195 -0.4778655
0.019795079 -0.1321967 -0.25053522 0.014010527 0.47673753 1.0531017 -0.03766346 0.15610541
0.019010171 -0.56985885 0.21110877 0.5176094 -0.4409196 -0.071124904 -1.4002986 -0.25813246
-0.23581082 0.03238741 0.9607605 -0.052178107 0.78201133 -0.13412446 0.15325157 0.53367937
0.6872377 0.74978065 -0.032932825 -0.94450617 -0.85687196 0.7546836 0.121118516 0.886381
-0.36394373 0.8761811 0.7282604 0.77511936 -0.48766935 -0.33808792 -0.357218 -0.04905654
0.57515645 0.951675 0.6827625 -1.6015699 -0.04159461 1.0257556 0.030178593 -1.2250568
0.058648694 -0.15827 0.80563194 0.2453175 0.76420856 -0.11881086 -0.13155937 0.41241202
0.75014967 0.7485204 -0.0455359 -1.0388762 -0.7784251 0.8114359 0.32377848 1.0841452
-0.3225259 0.9111904 0.96508384 0.9077488 -0.46571186 0.063498564 0.19131447 -0.08917115
0.3603464 0.9898575 0.72989404 -1.4622998 -0.15570047 0.83261627 0.009599154 -0.88073564
0.020334702 -0.16579197 -0.15650855 0.067640156 -0.011529319 -0.078503124 0.04222434 -0.0958019
0.01660233 -0.047237102 -0.18446612 0.07224611 0.009633516 0.11942025 0.0021193428 -0.014405432
0.0565101 -0.15488133 -0.12615485 -0.21707585 0.07960133 0.08390181 -0.15287563 0.0107127335
-0.015923211 -0.20205249 -0.07512353 -0.017228926 0.05422947 -0.11818197 -0.044891655 0.063667506
0.2738215 0.42139587 -0.20193341 -0.6999729 0.19521995 -0.25759488 -0.6184319 0.6172581
-0.43486905 -0.51689506 1.2321094 -0.38287517 0.059120525 -0.39953375 -0.7697735 0.34234247
-0.45031548 0.04652167 -0.19549952 -0.3567046 -0.36682948 -0.3680604 -0.0764918 0.126608
-0.087542914 -0.39796776 -0.29443786 -1.2548014 0.57853514 -0.07778398 0.61336297 0.47535646
-0.110353656 0.16390234 0.8724917 -0.07601385 1.0438478 0.46651265 -0.09877456 0.5358643
0.71885675 0.97545224 -0.082401045 -0.6487482 -0.8584301 0.96849346 0.39142573 0.9395163
-0.13169546 1.0674862 1.0035279 1.0020175 -0.55952144 -0.14109921 0.5353266 -0.15553632
0.6108389 0.8166854 1.0254797 -0.82318693 0.27830517 1.1251788 -0.17619538 -0.64150274

bias f4 [64]
00000000: bbd8 aebe f5ea 7f3e 4fe0 dcbe 83b7 953f
00000010: 1251 9c3f 1273 5dbe b005 3bbe b016 9c3f
00000020: baf5 573f d962 803e 47ea 5f3f e581 cc3e
00000030: 4193 5abe 2182 9e3f b47b 98be 0237 a53f
00000040: 4a38 c7bd 95c8 94be e7f5 993f 0d43 823f
00000050: e106 9b3f e451 fabe 3f21 a2be 68da 483d
00000060: b2ad 523f 4736 893f 7722 1e3f 9896 4abe
00000070: 3a6f f93d 561a 8d3f c701 473f 2e4e 6b3d
00000080: 08f0 523f 4db5 67be 4a2d 833f b01e ab3f
00000090: c742 87be 8571 05be 02d4 823f fe8b a73f
000000a0: 0a41 183e 299d 9b3f 8a94 ea3e 1780 0fbe
000000b0: 6cb9 8e3f 0339 c2be 8f8a 8cbe 8cbd d93e
000000c0: a919 bfbe a0d1 2d3f f40e 913f 4c87 15be
000000d0: 1221 d1be 5292 a13f 4375 9c3f 9408 75bb
000000e0: cbe9 a13f b982 8c3f 3633 883f ee97 773f
000000f0: 8bac febd 581e 81be 58b6 46be a006 293f
-0.34149727 0.24991973 -0.43139884 1.1696628 1.2212241 -0.21625927 -0.18263888 1.2194424
0.84359324 0.25075415 0.87466854 0.39942852 -0.21345235 1.2383462 -0.29781878 1.2907412
-0.09727533 -0.29059282 1.2028168 1.0176712 1.2111474 -0.48890603 -0.3166599 0.049036413
0.8229629 1.0719689 0.6177134 -0.1978401 0.12179418 1.1023662 0.77737087 0.057447605
0.8239751 -0.22627755 1.0248196 1.336874 -0.26418135 -0.13031586 1.022095 1.3089597
0.1486856 1.2157336 0.4581645 -0.14013706 1.1150336 -0.3793412 -0.27449462 0.42527425
-0.37324265 0.6789799 1.1332688 -0.14602393 -0.40845543 1.2622778 1.2223285 -0.0037389146
1.2649473 1.0977393 1.0640628 0.967162 -0.12435254 -0.25218463 -0.19405496 0.66025734

weight f4 [5, 64]
00000000: 0af1 70bf 4584 1d3f 70b1 72bf 9016 7d3f
00000010: ebcc 6a3f f64b ae3d c254 78bf d6cc 4c3f
00000020: 1a21 d63f cf0e 2c3e 1f7d 9e3f 192c 3a3f
00000030: 32dd b6be b371 683f 0b0d a3be 54e7 a43f
00000040: 0249 63bf b2ea 68bf 4f88 533f 8aea 133f
00000050: e6ac 9f3f 821b 44bf 272c 55bf 0e98 903d
00000060: e9ef 763f ff67 983f 5d13 1740 c3c1 2abf
00000070: e41c f6be fd8f 3b3f cc3c 903f e78c aa3e
00000080: ac14 c13f 2693 96bf 70a2 5f3f 19cc 323f
00000090: c116 f4be f0e8 99bf 6813 463f 5676 483f
000000a0: 919b cd3f 9dde 843f 3a88 c53e 68fa 66bf
000000b0: fbc2 a63f 65fb 38bf 29f6 10bf 4fa0 a93f
000000c0: 29fc abbf c745 8f3f 6cb3 7b3f dadc 85bf
000000d0: 7700 2fbf 6fc9 253f aafd 2d3f 8341 7ebd
000000e0: b324 463f 1a5d 8a3f 0aef 793f f029 9a3f
000000f0: 63ab b33f 57c8 b4bf 60c7 38bf d8f7 e63f
00000100: 0541 a6bf c3ae a03e 026c 7abf 40e7 7f3f
00000110: 4605 593f fc04 893d 7a00 95bf bb36 4b3f
00000120: 9ac4 ce3f 7b45 aebe 1031 783f 187d 4b3f
00000130: fb7b 97bf 75c3 393f e521 05bf aa37 a03f
00000140: 275a 2bbf 94e2 97bf 6992 853f 6111 223f
00000150: f64f a93f 4e85 bdbe 5d62 c9bf feb2 1ebd
00000160: 0bfa a03f e51b 8f3f f4c7 5a40 cf2c a33f
00000170: 475f 51be 6f5f 283f 2f05 d23f ccd3 f5bf
00000180: 1abd ba3f 967c 65bf aac7 5b3f 9929 3c3f
00000190: 933c 6bbe 58ef a9bf 944b 2b3f 282d 523f
000001a0: 9368 2a40 403b 803f 9141 f8bd 1d5b f3be
000001b0: 4b64 943f d5a4 14bf 503e 55bf 51a1 a93f
000001c0: d0a9 abbf 62ae 0d40 607b 8b3f 0902 aabe
000001d0: d195 46bf d3b8 363f 61dd 1e3f 9d3d 17be
000001e0: 5322 373f 7734 a33f f0ae 7b3f 0959 a43f
000001f0: 1cec 2340 2a15 e3bf e556 f1be 444c ec3f
00000200: 0a02 58bf 1a82 5c3f c771 a6bf 84a3 6e3f
00000210: 8d0e 653f bc49 093d 4fb3 5ebf 6845 383f
00000220: 5340 dd3f 4260 413f 7602 c13f 7929 073f
00000230: 09e7 33be 44b1 6f3f dc6f 46be 28a1 a03f
00000240: e4e2 c2bf a593 3dbf 0d07 6a3f 8423 283f
00000250: f4b0 a83f 6cfb 76bf ab6b 2abf 44ad 84bc
00000260: 5a6d 2e3f 2bf1 813f e811 3340 40af 3cbf
00000270: e03f 94bf caf3 363f 9ad9 253f 71ca 293f
00000280: 9879 c23f ea83 96bf 9cdc 4f3f 7eee 473f
00000290: 000d b4bf b54e 0cbf 3a3a 3f3f 5e48 3e3f
000002a0: 9c33 dc3f 31d2 903f 1aa7 293f ae31 e0bf
000002b0: 3873 a63f 7ff3 acbf a269 f0be 9c81 bd3f
000002c0: 5d7b bbbf 8cf1 8e3f 3df6 723f b445 70bf
000002d0: 268a 0ebf 39ff 2e3f a152 393f 0e54 2cbe
000002e0: bdb3 473f d002 7b3f 7af7 863f cc3a 9c3f
000002f0: 8731 b93f a3e7 c8bf 7044 68bf 47ea 2c40
00000300: de60 39bf 2550 523f be48 03bf 8b5e 903f
00000310: 9baa 523f cb96 723d 300e d5bf 5707 2b3f
00000320: 43fc ea3f c9af 6d3e cd03 ab3f 8dbb d33e
00000330: af05 f0bf 531a 543f eac8 bbbe 2405 9b3f
00000340: d6da a2bf c49f 58bf 649e 6a3f 5beb 2f3f
00000350: 70c8 af3f 1a68 a3be a92c c1bf 07a3 3f3d
00000360: 73c0 a23f 9203 5c3f 4252 3f40 c4f1 58be
00000370: 31e9 d13d 0499 1e3f 65cb cd3f 25a5 493f
00000380: 8af9 d23f f2df 87bf bb80 403f e309 473f
00000390: baf2 c5bf c654 e8bf e0b5 3b3f 2238 3d3f
000003a0: 9af3 0140 5836 4c3f 4e0a b33d 20bb 06bf
000003b0: abc9 723f af99 f4be 9f7a 2dbe b48c 0640
000003c0: 2386 ccbf fa10 c23f be83 7e3f 6a94 26bf
000003d0: 6904 ccbe 1bd5 483f 8e84 2f3f ad27 1dbc
000003e0: d9c9 463f 6434 a13f 68f7 903f 8c38 8c3f
000003f0: 39ff e33f 453f d8bf 4fad 1bbf 7507 1240
-0.94117796 0.6152995 -0.94802 0.9886255 0.9171893 0.08510582 -0.9700433 0.80000055
1.6728852 0.16802524 1.2381934 0.7272354 -0.35715634 0.9079849 -0.31845888 1.2883096
-0.88783276 -0.90983117 0.82629865 0.57779753 1.247464 -0.76604474 -0.83270496 0.07060252
0.96459824 1.1906737 2.3605568 -0.66701907 -0.48068917 0.73266584 1.1268554 0.33310625
1.5084434 -1.1763656 0.87357235 0.6984268 -0.4767361 -1.2024212 0.7737336 0.78305566
1.60631 1.0380436 0.38580495 -0.9022584 1.3028253 -0.722586 -0.5662561 1.3252047
-1.3436328 1.1193169 0.9832065 -1.0458024 -0.68360084 0.6476049 0.67965186 -0.062074196
0.7739975 1.0809662 0.9763037 1.2044048 1.4036678 -1.4123639 -0.7217922 1.8044386
-1.2988592 0.31383333 -0.97821057 0.99962234 0.8477367 0.06690404 -1.164077 0.7938039
1.6153748 -0.34037384 0.96949863 0.7948775 -1.1834711 0.7256387 -0.52004844 1.2516987
-0.66934437 -1.1866021 1.0435306 0.6330777 1.3227527 -0.37015766 -1.5733143 -0.03874492
1.2576307 1.1180388 3.4184542 1.274805 -0.20446502 0.6577062 1.6407832 -1.920526
1.4588959 -0.8964323 0.8585154 0.73500973 -0.22972326 -1.3276167 0.669122 0.8210015
2.6626327 1.0018082 -0.12121881 -0.4753045 1.1593107 -0.58064014 -0.83298206 1.3252355
-1.3411198 2.2137685 1.0897026 -0.33204678 -0.7757235 0.7137577 0.6205655 -0.14769597
0.7153675 1.2750386 0.9831381 1.2839671 2.561286 -1.7740834 -0.47136608 1.8460774
-0.8437811 0.8613602 -1.3003472 0.93218255 0.8947533 0.033517584 -0.86992353 0.71980906
1.7285255 0.755375 1.5078876 0.5279766 -0.17568602 0.9362986 -0.19378608 1.2549181
-1.5225492 -0.7405341 0.9141701 0.6567919 1.3179002 -0.9647739 -0.6657054 -0.0161959
0.6813561 1.0151724 2.797968 -0.7370491 -1.1581993 0.7146574 0.6478516 0.66324526
1.5193357 -1.1759007 0.81196 0.78098285 -1.4066467 -0.548076 0.7469822 0.74329174
1.720325 1.1314145 0.662706 -1.7515161 1.3003912 -1.3511809 -0.4695559 1.4805179
-1.4647022 1.1167464 0.9490698 -0.9385636 -0.5567955 0.6835819 0.72391707 -0.1682894
0.78008634 0.98051167 1.0544274 1.2205443 1.446824 -1.569569 -0.9072943 2.7017992
-0.7241343 0.8215354 -0.5128287 1.1278852 0.82291573 0.05922584 -1.6644955 0.66808075
1.8358234 0.23211588 1.3360535 0.41354027 -1.8751734 0.8285267 -0.36676723 1.2110944
-1.2723033 -0.84618783 0.91647935 0.687185 1.3733044 -0.3191536 -1.5091754 0.046786334
1.2714981 0.8594295 2.9893956 -0.21185976 0.10249556 0.61952233 1.6077696 0.78767616
1.6482403 -1.0615218 0.7519643 0.7774946 -1.5464699 -1.8150871 0.73324394 0.73913777
2.0304933 0.7977042 0.087422 -0.5262928 0.9483897 -0.477735 -0.16941307 2.1023378
-1.5978435 1.5161431 0.9941977 -0.6507021 -0.39847115 0.78450173 0.6856164 -0.009591979
0.77651745 1.2594113 1.1325502 1.0954757 1.7812263 -1.6894308 -0.6081132 2.2817051

bias f4 [5]
00000000: 99fe 453f 6d83 403f d80b 223f 7418 113f
00000010: bb75 183f
0.7734161 0.7520054 0.6329932 0.5667794 0.5955464
