models/simple_tag/A2C-centralized/adversaries/actor_0.pt (torch, 393608 bytes, 6 tensors)

weight f4 [160, 36]
0.03167983 0.24931915 -0.053020038 0.24656217 -0.11217177 -0.63294154 0.19192794 -0.13798514
-0.3177159 -0.36040077 0.4233714 0.08031385 0.066407576 0.19539787 -0.0048718276 0.5116452
-0.05104019 -0.4732875 0.31865537 -0.19564721 -0.06306587 -0.25315621 0.234559 0.08988665
0.17473422 0.05690728 -0.19444717 0.34145424 -0.2340076 -0.7095482 0.22624108 -0.09971147
-0.26221472 -0.29295993 0.28405133 0.006152754 -0.016596036 -0.3418264 0.29609022 -0.1710838
0.059106786 0.09082719 -0.2686358 0.15013404 -0.117089465 0.15903176 -0.19684182 0.13837628
-0.025711663 -0.16402036 0.105305046 -0.28896374 0.13474835 0.098501645 -0.1972073 0.1378838
0.11899826 0.24796762 -0.06363547 0.23970033 -0.1768638 -0.35716286 0.21408147 -0.027711896
0.1292045 0.2659782 -0.032691523 0.015988557 -0.11243551 0.2925974 -0.05477669 0.27980953
0.054548852 -0.22669366 -0.13504069 -0.08338172 0.10795242 -0.14994393 0.26040438 0.035250865
0.013575772 -0.07050586 0.055099048 0.042159107 0.2431107 -0.14412099 -0.003924995 -0.08786488
0.2590826 -0.4499867 0.26022705 0.1195868 -0.022451565 -0.07397925 0.16292475 -0.13216099
0.16341086 -0.21972442 0.022461116 -0.004916639 0.009923644 -0.37320498 0.16517778 0.1082622
-0.030703455 -0.078350306 0.045340143 -0.047359273 -0.20356396 0.13144487 0.069266155 -0.43658143
-0.28244922 0.13762158 -0.19379103 0.30302426 -0.13804288 0.32939735 -0.39294475 -0.15027761
0.09229258 -0.05947388 0.18296039 -0.15670991 -0.23152809 0.33634648 -0.15906645 0.1669911
-0.13976921 0.4257513 -0.39012152 -0.03022718 -0.024780989 0.100073315 0.26110217 -0.19248867
-0.42720366 0.36118352 -0.03799135 0.25831357 -0.19701986 0.37369293 -0.26314956 0.10184934
-0.23342644 -0.0046846233 0.03017278 0.5828965 0.27922577 -0.48897704 -0.07316321 -0.41489038
-0.49817795 -0.22922441 0.09612503 0.17286368 -0.0086881975 -0.17277923 0.19129205 0.41744366
0.25151077 -0.544361 -0.06828747 -0.5374058 -0.38889343 -0.13128173 0.017119063 0.17185925
-0.1158389 -0.1921157 0.027178915 0.56533885 0.07856206 -0.29571167 0.11467202 -0.34389856
-0.34626347 -0.3665281 -0.0017448274 -0.010670291 -0.012813272 0.08096379 -0.16554022 0.015816404
-0.16894758 0.02149929 0.13768236 0.15498605 -0.18278684 -0.17790684 -0.27350286 0.12152024
-0.28917903 0.2819089 -0.15131313 -0.032809842 -0.08646836 -0.0086207315 0.0684737 0.041319173
-0.10850176 0.007092625 -0.22283614 0.1672541 -0.06624497 0.18515667 -0.10854141 0.017362162
-0.09625886 -0.12942211 0.13912672 0.108156614 -0.072009675 -0.18406558 -0.22441831 0.08286168
0.10490726 -0.061330196 -0.011063335 -0.3794202 -0.2587462 0.26134574 -0.19114105 0.09238909
0.051339164 0.32400677 -0.3826859 0.0065524243 0.14327504 -0.025123833 0.025101637 -0.15729551
-0.42265165 0.16362655 -0.049257576 0.26741958 -0.13415493 0.46475124 -0.19862106 -0.3029
0.033837758 0.10936546 -0.049787536 -0.2231941 -0.29796147 0.25927916 -0.07936419 0.26614672
-0.226388 0.29854622 -0.23856755 -0.07098897 -0.1555885 -0.4183228 -0.018675994 -0.26207343
00000000: b6c2 013d 854d 7f3e 8a2b 59bd cb7a 7c3e
00000010: 50ba e5bd 7508 22bf c288 443e fa4b 0dbe
00000020: a9ab a2be 7386 b8be 23c4 d83e 967b a43d
00000030: b200 883d 6116 483e daa3 9fbb 2efb 023f
00000040: 850f 51bd bd52 f2be cc26 a33e be57 48be
00000050: ae28 81bd b19d 81be 3c30 703e 7e16 b83d
00000060: 87ed 323e 9c17 693d 291d 47be 17d3 ae3e
00000070: b09f 6fbe f3a4 35bf beab 673e 8735 ccbd
00000080: 0241 86be d8fe 95be 2d6f 913e 0b9d c93b
00000090: 69f4 87bc df03 afbe 2399 973e 9730 2fbe
000000a0: f519 723d 9b03 ba3d a28a 89be bdbc 193e
000000b0: 9acc efbd 39d9 223e e790 49be 83b2 0d3e
000000c0: 44a1 d2bc f4f4 27be 2caa d73d 0ef3 93be
000000d0: 79fb 093e 3bbb c93d b6f0 49be 6931 0d3e
000000e0: 5cb5 f33d 39eb 7d3e 5053 82bd 0174 753e
000000f0: c91b 35be 0dde b6be 2c38 5b3e 0f04 e3bc
00000100: 2f4e 043e 4b2e 883e 8ce7 05bd 6ffa 823c
00000110: 9744 e6bd 54cf 953e 865d 60bd 3243 8f3e
00000120: 9e6e 5f3d 6222 68be 1b48 0abe 09c4 aabd
00000130: 2916 dd3d e78a 19be b953 853e 3663 103d
00000140: ea6c 5e3c 6065 90bd 8aaf 613d 07af 2c3d
00000150: 03f2 783e 7494 13be 3f9d 80bb 81f2 b3bd
00000160: 79a6 843e a864 e6be 7b3c 853e ede9 f43d
00000170: 58ec b7bc 6f82 97bd bfd5 263e 3655 07be
00000180: 2d55 273e 70ff 60be 6000 b83c c21b a1bb
00000190: c896 223c b914 bfbe 5d24 293e 93b8 dd3d
000001a0: d085 fbbc 2076 a0bd 96b6 393d ccfb 41bd
000001b0: 1273 50be 7c99 063e 6adb 8d3d 9a87 dfbe
000001c0: 2f9d 90be acec 0c3e 2871 46be ff25 9b3e
000001d0: 1d5b 0dbe c5a6 a83e 0e30 c9be 60e2 19be
000001e0: e403 bd3d e29a 73bd f859 3b3e 9078 20be
000001f0: b315 6dbe 9b35 ac3e 51e2 22be b7ff 2a3e
00000200: a91f 0fbe 13fc d93e 02be c7be fe9e f7bc
00000210: 8001 cbbc 3df3 cc3d 2faf 853e c01b 45be
00000220: 70ba dabe 0ced b83e d19c 1bbd ad41 843e
00000230: 93bf 49be ae54 bf3e 8abb 86be 6396 d03d
00000240: 5707 6fbe 7881 99bb e82c f73c b438 153f
00000250: aef6 8e3e 335b fabe 98d6 95bd 836c d4be
00000260: 2e11 ffbe ceb9 6abe 33dd c43d 2d03 313e
00000270: f158 0ebc 0aed 30be 10e2 433e 2dbb d53e
00000280: 05c6 803e 3e5b 0bbf 4dda 8bbd 6d93 09bf
00000290: 0a1d c7be b86e 06be 473d 8c3c dffb 2f3e
000002a0: f23c edbd fab9 44be 51a6 de3c 0cba 103f
000002b0: 25e5 a03d 8567 97be 2ad9 ea3d 7913 b0be
000002c0: 7249 b1be 92a9 bbbe b1b2 e4ba 72d2 2ebc
000002d0: c2ee 51bc 58d0 a53d 6083 29be 6791 813c
000002e0: 9800 2dbe 471f b03c 9bfc 0c3e aab4 1e3e
000002f0: 792c 3bbe 362d 36be 9108 8cbe 9bdf f83d
00000300: 460f 94be 5d56 903e d4f1 1abe 9d63 06bd
00000310: 5316 b1bd f83d 0dbc f03b 8c3d 4b3e 293d
00000320: 2c36 debd 4069 e83b 282f 64be a944 2b3e
00000330: 71ab 87bd b699 3d3e f54a debd 183b 8e3c
00000340: 5d23 c5bd 3b87 04be 3c77 0e3e 3781 dd3d
00000350: cf79 93bd b07b 3cbe eacd 65be 62b3 a93d
00000360: 9ed9 d63d 5f35 7bbd fe42 35bc 5d43 c2be
00000370: 627a 84be 1ccf 853e 7bba 43be 7e36 bd3d
00000380: 0449 523d 37e4 a53e 68ef c3be b8b5 d63b
00000390: b1b6 123e 7fd0 cdbc f3a1 cd3c 1312 21be
000003a0: cc65 d8be b88d 273e 50c2 49bd 38eb 883e
000003b0: e95f 09be e0f3 ed3e 5263 4bbe b515 9bbe
000003c0: 7699 0a3d 00fb df3d 04ee 4bbd ff8c 64be
000003d0: 688e 98be 3dc0 843e b189 a2bd 6244 883e
000003e0: 42d2 67be 0ddb 983e 0d4b 74be aa62 91bd
000003f0: 9752 1fbe 682e d6be 66fe 98bc 7d2e 86be

bias f4 [160]
0.28490338 0.12096071 -0.17497303 0.15316938 0.41840047 -0.4458408 -0.15023243 0.09990362
0.2898024 0.16993266 0.3442496 0.10436082 -0.072137706 -0.2247595 0.20612049 0.19160527
-0.3036455 -0.262376 -0.13449672 0.10626769 0.28181243 0.5124161 0.21960992 -0.19297595
-0.16149206 -0.4006572 0.012637102 -0.19735631 0.24317613 0.14842848 0.059605848 0.27685302
0.293192 0.1949248 0.55194336 -0.12136652 -0.11577264 0.120299794 -0.188913 -0.15001562
-0.0024201623 -0.086981624 0.52956647 0.24594468 0.2756161 -0.39815187 -0.19356774 -0.07318607
0.23093072 0.15873082 -0.2195187 0.20076087 -0.2546343 -0.07959051 0.047313984 -0.24416555
0.3787551 0.20016605 -0.037900865 0.33570337 -0.44440693 -0.26882848 1.9528768e-05 -0.16037013
0.28603736 -0.051281378 0.29756162 0.101210795 0.119303785 -0.27161074 -0.34831324 0.2975989
-0.41956058 0.035614748 -0.226239 0.32633436 0.13194339 0.13474712 0.22699927 -0.24521813
0.4890896 0.027307907 0.050899863 -0.13501982 0.14018336 0.4197461 -0.024575427 -0.2910166
0.4400338 0.0026649812 -0.3222001 0.17102395 0.26088154 -0.13559557 0.06060193 -0.047060616
-0.0448333 0.49163017 0.14038159 -0.1730928 0.16228193 0.17173332 -0.016348463 0.15315074
0.22160955 -0.13463931 0.078565694 0.046655048 -0.46581647 -0.330897 0.1598962 0.054233085
0.18593588 0.100986995 0.056886327 -0.03563977 0.10209613 -0.025834918 0.27455145 0.10139226
-0.008870461 -0.38032877 -0.5124675 0.070493616 -0.21509373 -0.18955421 -0.13443463 0.09135049
0.12831971 0.23770602 0.1058366 -0.014661037 0.30352208 0.11747229 0.34713444 0.27714905
-0.059417207 -0.21323332 -0.38575563 -0.010804154 -0.15174985 -0.17990264 0.004338417 -0.27379733
-0.11282085 0.035774138 -0.24804375 0.06384102 0.25860143 -0.018648215 0.11929151 -0.22753844
-0.22903048 -0.12672657 -0.16879715 0.28938398 -0.11839747 0.019164039 0.071499944 -0.23052238
00000000: dbde 913e 40ba f73d 212c 33be 6fd8 1c3e
00000010: 9638 d63e 3f45 e4be 88d6 19be 459a cc3d
00000020: fb60 943e d402 2e3e 7c41 b03e 20bb d53d
00000030: efbc 93bd 5b27 66be 4011 533e 2c34 443e
00000040: 6c77 9bbe 2656 86be 82b9 09be e0a2 d93d
00000050: b849 903e b42d 033f 6ce1 603e 7d9b 45be
00000060: 2d5e 25be f122 cdbe d90b 4f3c c617 4abe
00000070: 2a03 793e a3fd 173e 4325 743d aebf 8d3e
00000080: 431d 963e 5e9a 473e 294c 0d3f 038f f8bd
00000090: 351a edbd bd5f f63d 6972 41be b29d 19be
000000a0: 969b 1ebb 6c23 b2bd ab91 073f ecd8 7b3e
000000b0: 8e1d 8d3e 90da cbbe 9f36 46be 94e2 95bd
000000c0: 1a79 6c3e 558a 223e 83c9 60be 4294 4d3e
000000d0: 6d5f 82be 5900 a3bd 4fcc 413d 8906 7abe
000000e0: 30ec c13e 54f8 4c3e f03d 1bbd 50e1 ab3e
000000f0: 4e89 e3be e3a3 89be b6d1 a337 1138 24be
00000100: 7d73 923e 6c0c 52bd ff59 983e 9b47 cf3d
00000110: 8b55 f43d 9010 8bbe 1d56 b2be e25e 983e
00000120: a5d0 d6be c5e0 113d 32ab 67be 4c15 a73e
00000130: 2b1c 073e 26fb 093e 7f72 683e 761a 7bbe
00000140: f469 fa3e d5b4 df3c 607c 503d a342 0abe
00000150: 3a8c 0f3e f6e8 d63e 6852 c9bc 2100 95be
00000160: 1c4c e13e f7a6 2e3b 69f7 a4be e720 2f3e
00000170: 4492 853e 91d9 0abe bb39 783d a2c2 40bd
00000180: 1fa3 37bd f3b6 fb3e 31c0 0f3e 3d3f 31be
00000190: 3c2d 263e dcda 2f3e 36ed 85bc 8cd3 1c3e
000001a0: 9ded 623e e3de 09be 0de7 a03d 5d19 3f3d
000001b0: 7f7f eebe 556b a9be d4bb 233e 8323 5e3d
000001c0: fa65 3e3e 45d2 ce3d a301 693d 02fb 11bd
000001d0: c717 d13d c0a3 d3bc 0292 8c3e bfa6 cf3d
000001e0: 6955 11bc 74ba c2be 1231 03bf f55e 903d
000001f0: 8841 5cbe 801a 42be 3ba9 09be f715 bb3d
00000200: 3e66 033e 3569 733e dcc0 d83d d934 70bc
00000210: 3f67 9b3e 5095 f03d 9bbb b13e 7be6 8d3e
00000220: 755f 73bd d659 5abe c381 c5be e803 31bc
00000230: 5064 1bbe 6638 38be 4829 8e3b 2a2f 8cbe
00000240: 9e0e e7bd e787 123d 2eff 7dbe 15bf 823d
00000250: 6867 843e 24c4 98bc 1b4f f43d d6ff 68be
00000260: f786 6abe 9cc4 01be 29d9 2cbe 232a 943e
00000270: 5f7a f2bd e7fd 9c3c 906e 923d 0f0e 6cbe

weight f4 [320, 160]
0.23412701 0.12454689 0.22728126 0.12170147 0.055140536 -0.030576047 -0.10360437 -0.23815376
0.03204809 -0.12344215 -0.16780934 0.0027369733 -0.15302011 -0.29282773 -0.011681621 0.048871495
-0.07098211 0.11634897 -0.0287731 -0.1222544 -0.017624522 0.083005935 -0.0055168527 -0.037464555
-0.08469638 -0.0890965 -0.048251197 -0.050446175 0.19702987 -0.14520563 0.1423627 0.31464946
0.33592626 -0.45981956 -0.0446464 -0.18571988 0.12362019 0.46242222 0.009535401 -0.09999348
0.2400578 -0.02574337 -0.25981468 0.21499407 0.06558021 -0.108948395 0.17803802 0.015343586
-0.077618524 0.20818712 0.1800743 0.12632458 -0.07199216 -0.15183121 -0.13463332 0.075792365
0.07458321 -0.049190458 -0.13035765 0.02548376 0.19777219 0.0686372 -0.03719592 0.04181181
0.16965094 -0.18197817 -0.14475656 0.231287 -0.24057543 0.104288995 0.14859602 -0.22465888
0.20061226 -0.13890138 0.060875118 -0.03391128 -0.0616531 -0.20240793 0.34865934 0.030700177
-0.16011345 0.058438286 0.024302661 -0.081728384 -0.03542391 -0.2915074 0.24919246 0.06829123
-0.18993285 0.22641964 -0.14331229 -0.13654053 -0.24872349 -0.21059462 0.24537663 0.05334463
-0.032874197 0.089672446 -0.027350191 -0.024454616 0.02644031 -0.29809445 0.20207848 0.28841254
0.14781016 -0.12759191 0.0471242 -0.07712836 -0.10872029 0.0005612072 0.1092161 0.038576674
0.33675545 -0.19995336 -0.020963522 -0.2789451 0.00039894538 0.02614428 0.13146605 0.07489028
-0.094063334 0.05524847 0.09270994 0.06472977 0.012085416 -0.07804554 -0.18876883 0.22086813
0.06937841 -0.1358565 -0.15693982 0.1759706 -0.13377947 0.031473424 0.28127366 0.35946566
0.47852603 0.15417098 -0.011635936 0.19004011 0.37235242 -0.050367273 0.35969073 0.065530404
-0.03470852 0.014128168 -0.19418249 0.053594425 -0.10244977 0.22359914 -0.3251497 0.08314699
0.012121148 0.007851355 -0.011853547 0.035088778 -0.14534439 -0.11521597 0.07989624 -0.1885694
-0.013838239 0.026215822 -0.028187603 -0.0043697935 -0.11296978 -0.057925947 0.012325893 -0.095720194
-0.08011503 0.023189746 -0.12974411 -0.057259914 -0.107502505 -0.01831025 -0.13519819 -0.07223198
-0.023451185 -0.053762052 -0.07713834 -0.047439802 -0.106637396 0.07315911 -0.033683002 -0.098280884
-0.07979644 0.04162574 -0.061326057 -0.032035604 0.0140384445 -0.08482857 -0.09088849 0.013143909
0.023961619 0.002990416 0.047371455 -0.025507769 0.0072470885 -0.04172949 0.09115708 -0.11467117
-0.09368899 -0.12281486 -0.0754393 -0.05631466 -0.065042734 0.03747072 -0.03698979 -0.10092722
-0.031077921 -0.01595604 0.016763858 0.058455985 0.031659763 0.009490564 -0.075716466 0.014933628
-0.01899315 -0.17736551 -0.05130085 -0.045510665 -0.07957321 0.0749315 -0.07604347 -0.03773894
0.070721716 -0.09847418 0.065355204 -0.022921221 0.032482017 0.09354947 0.001084516 -0.019200219
-0.014736276 -0.02955922 -0.048004296 -0.03737235 -0.06865713 0.005321761 0.046708476 -0.0037502078
0.0011560052 -0.10517482 -0.048874915 -0.07675043 -0.026493141 0.023347298 0.0468827 0.023303468
-0.09885853 0.08015216 -0.085182905 -0.009419599 -0.11881158 -0.0249019 0.08550705 -0.11131106
00000000: febe 6f3e 7112 ff3d 6bbc 683e 9f3e f93d
00000010: 0bdb 613d 9e7a fabc 872e d4bd 94de 73be
00000020: dc44 033d 3dcf fcbd 36d6 2bbe cb5e 333b
00000030: 4eb1 1cbe 84ed 95be 4564 3fbc 7a2d 483d
00000040: 125f 91bd 5e48 ee3d 90b5 ebbc 8460 fabd
00000050: 4d61 90bc 04ff a93d b7c6 b4bb 6f74 19bd
00000060: 4c75 adbd 3a78 b6bd 0ca3 45bd a6a0 4ebd
00000070: 33c2 493e c9b0 14be 87c7 113e bc19 a13e
00000080: 87fe ab3e 786d ebbe 25df 36bd 5a2d 3ebe
00000090: 952c fd3d 9bc2 ec3e 5f3a 1c3c 62c9 ccbd
000000a0: b6d1 753e c3e3 d2bc 6e06 85be 6827 5c3e
000000b0: eb4e 863d 5620 dfbd 994f 363e aa63 7b3c
000000c0: 76f6 9ebd 012f 553e 6665 383e 3b5b 013e
000000d0: a070 93bd a479 1bbe 51dd 09be 0739 9b3d
000000e0: 15bf 983d ef7b 49bd 7a7c 05be 51c3 d03c
000000f0: cb84 4a3e a991 8c3d c05a 18bd dc42 2b3d
00000100: fab8 2d3e 7c58 3abe 103b 14be 80d6 6c3e
00000110: 6859 76be 7895 d53d 8e29 183e fa0c 66be
00000120: 4d6d 4d3e 2a3c 0ebe 3058 793d 8ee6 0abd
00000130: f687 7cbd 0644 4fbe 7a83 b23e f07e fb3c
00000140: c8f4 23be fc5c 6f3d 6016 c73c 3661 a7bd
00000150: a918 11bd 7540 95be 4f2c 7f3e 46dc 8b3d
00000160: c27d 42be 8dda 673e 75c0 12be 48d1 0bbe
00000170: 5fb1 7ebe 1ea6 57be 0344 7b3e e67f 5a3d
00000180: 18a7 06bd 30a6 b73d 820d e0bc 0c55 c8bc
00000190: 5999 d83c d69f 98be a9ed 4e3e cfaa 933e
000001a0: 8c5b 173e 74a7 02be 4e05 413d 79f5 9dbd
000001b0: bea8 debd fa1d 133a b1ac df3d 9302 1e3d
000001c0: 366b ac3e 93c0 4cbe b1bb abbc e4d1 8ebe
000001d0: 8b29 d139 872c d63c 099f 063e 1360 993d
000001e0: 47a4 c0bd 384c 623d b6de bd3d 0b91 843d
000001f0: e901 463c 57d6 9fbd 9e4c 41be 412b 623e
00000200: 4516 8e3d f71d 0bbe d5b4 20be a331 343e
00000210: 7cfd 08be 47ea 003d 1a03 903e e20b b83e
00000220: 5d01 f53e ffde 1d3e a7a4 3ebc e099 423e
00000230: faa4 be3e ea4d 4ebd 6229 b83e ce34 863d
00000240: 852a 0ebd d579 673c c6d7 46be d485 5b3d
00000250: 2fd1 d1bd 2cf7 643e 057a a6be f848 aa3d
00000260: c897 463c f8a2 003c 6135 42bc 40b9 0f3d
00000270: 29d5 14be 5af6 ebbd a4a0 a33d 5618 41be
00000280: c8b9 62bc 90c2 d63c b0e9 e6bc 7c30 8fbb
00000290: b35c e7bd c243 6dbd 8bf2 493c f308 c4bd
000002a0: 5913 a4bd 6cf8 bd3c a4db 04be 5f89 6abd
000002b0: 462a dcbd 61ff 95bc 6571 0abe 5cee 93bd
000002c0: b31c c0bc 9935 5cbd b5fa 9dbd 3d50 42bd
000002d0: b564 dabd 72d4 953d 30f7 09bd 7d47 c9bd
000002e0: 516c a3bd c07f 2a3d 0831 7bbd c437 03bd
000002f0: 8101 663c 9aba adbd bf23 babd 8d59 573c
00000300: 284b c43c dbfa 433b 9208 423d abf5 d0bc
00000310: fc78 ed3b 8bec 2abd 90b0 ba3d b8d8 eabd
00000320: 03e0 bfbd 5b86 fbbd eb7f 9abd 33aa 66bd
00000330: 2035 85bd e67a 193d 9b82 17bd eeb2 cebd
00000340: 2097 febc 3eb6 82bc 5c54 893c 8b6f 6f3d
00000350: abad 013d 507e 1b3c 3c11 9bbd 2dac 743c
00000360: 8697 9bbc 4e9f 35be d720 52bd 6469 3abd
00000370: 47f7 a2bd b075 993d aebc 9bbd 2694 1abd
00000380: 8cd6 903d d5ac c9bd f3d8 853d 49c5 bbbc
00000390: dd0b 053d dd96 bf3d 5226 8e3a c749 9dbc
000003a0: 6c70 71bc 2d26 f2bc 27a0 44bd c013 19bd
000003b0: 1c9c 8cbd 2b62 ae3b 6351 3f3d 0cc6 75bb
000003c0: 1985 973a e565 d7bd 1031 48bd 542f 9dbd
000003d0: 2508 d9bc d542 bf3c 1308 403d eae6 be3c
000003e0: 5776 cabd d126 a43d 6074 aebd a954 1abc
000003f0: 7c53 f3bd 12ff cbbc 521e af3d 0ef7 e3bd

bias f4 [320]
0.10895888 -0.01962302 0.245577 0.30604902 -0.11559938 -0.17449331 -0.1482541 -0.04160269
-0.023824338 0.13516374 -0.14722258 0.371448 -0.024750385 -0.0751989 -0.0065835253 0.19372693
-0.14204687 0.4146642 -0.06644383 0.01718126 -0.29536486 -0.3106692 -0.115026355 0.10221677
-0.11707619 0.007691041 0.09461727 -0.09004776 -0.029432759 -0.21780686 0.06675827 -0.09810861
0.17879371 -0.017223038 -0.018870678 -0.056942835 0.004929158 0.020168614 -0.011899125 -0.009859371
-0.26548085 -0.062210962 -0.18714231 -0.3716906 0.114068635 0.36858916 -0.032893904 -0.01729586
-0.0422144 -0.07289018 0.0054500727 0.19955891 -0.008098186 -0.009905445 0.1346611 0.27757457
-0.05072942 0.23469941 -0.058280524 0.17054056 -0.0638224 -0.121071756 0.25201485 -0.15621543
-0.021896133 -0.025924735 -0.15171777 0.39629406 0.47719622 -0.016574468 -0.079593286 0.0021585133
-0.098138504 0.04554293 -0.07025652 -0.19386461 -0.13954033 -0.11972693 -0.0005359136 -0.07760714
-0.17301868 0.049961455 -0.3478875 0.36270583 -0.08989952 -0.00969318 0.19550355 -0.11134934
-0.10256751 0.1643885 -0.38624582 -0.21501413 0.26563448 -0.004948084 0.018875126 0.025333146
0.02996944 -0.042062484 0.033600047 -0.2051475 -0.08273875 -0.15517996 0.18606253 0.028492091
-0.11324705 -0.0140373595 -0.34095576 0.027113233 0.19990668 -0.19468449 -0.112454616 -0.30104563
0.025375687 0.32897386 -0.043346807 0.04285359 0.024983454 0.24440257 0.14983842 -0.100219905
-0.042657282 -0.058155242 0.0036055278 -0.06428364 -0.22786163 0.07329531 0.29321444 -0.016041482
-0.059828036 -0.07338163 0.025453366 0.12190121 0.08341131 0.2226581 -0.19316448 -0.16989097
-0.0625422 -0.07347975 -0.037081882 -0.04100716 -0.1364155 -0.0853184 0.02063177 0.025410658
-0.11420601 -0.23307824 -0.17885436 -0.16931018 -0.07982942 -0.029944913 -0.015331527 -0.012320447
-0.037820656 -0.35325474 0.048873775 0.3288272 -0.029551398 -0.038868893 -0.012623452 -0.075782746
-0.1406192 0.1189098 -0.20332073 -0.035604946 0.030886311 -0.017143212 -0.12393798 -0.014972852
-0.093103364 -0.07030228 -0.021777872 -0.082273535 0.14575137 -0.19135527 0.12882563 -0.12018455
-0.076914385 -0.033365145 -0.12661706 -0.15971322 -0.012949814 0.03762202 -0.010965318 0.047557976
-0.20695338 -0.07290853 -0.093282335 -0.006695803 0.028460884 -0.019620683 0.11704098 -0.11988548
-0.13790661 -0.062338233 -0.4775607 0.038342074 0.22760515 -0.026986387 -0.21346155 -0.07298675
-0.057097275 -0.24879381 -0.0639713 -0.094389506 -0.0960922 -0.061429635 0.14904968 -0.014182378
-0.088031895 -0.13591842 -0.1399835 0.094901524 -0.37049702 -0.013292209 -0.022651745 -0.027176028
-0.42217374 -0.103068344 -0.08697794 0.022382159 -0.12744102 0.00887157 0.034538783 -0.10877702
0.093082204 -0.2365761 -0.027993921 -0.08728816 0.07734617 -0.10737343 -0.10552727 -0.027158292
-0.03171665 -0.017516013 -0.038472388 -0.02834988 0.035327192 -0.05971069 0.046589106 -0.11658076
-0.16526632 -0.10928614 0.15196447 -0.084954366 0.29150423 -0.09985486 0.018981883 0.054269843
0.24338925 -0.17438719 0.33780357 0.17598572 -0.026612269 -0.13800566 -0.017582482 0.01060277
00000000: d525 df3d 75c0 a0bc 8978 7b3e 75b2 9c3e
00000010: 5ebf ecbd 60ae 32be eccf 17be 9567 2abd
00000020: 422b c3bc 5d68 0a3e 84c1 16be 6f2e be3e
00000030: 52c1 cabc e201 9abd 9dba d7bb 5a60 463e
00000040: bc74 11be de4e d43e b413 88bd b7bf 8c3c
00000050: 103a 97be 0910 9fbe f092 ebbd 0757 d13d
00000060: a4c5 efbd 2105 fc3b b3c6 c13d f66a b8bd
00000070: f81c f1bc c308 5fbe 8fb8 883d 2bed c8bd
00000080: b315 373e 5417 8dbc ae96 9abc e43c 69bd
00000090: c684 a13b a638 a53c 8cf4 42bc 3389 21bc
000000a0: 1bed 87be ecd0 7ebd 3ca2 3fbe 3b4e bebe
000000b0: d19c e93d b8b7 bc3e c2bb 06bd 0cb0 8dbc
000000c0: 02e9 2cbd 7247 95bd 8696 b23b 2c59 4c3e
000000d0: 41ae 04bc 734a 22bc 99e4 093e 411e 8e3e
000000e0: a7c9 4fbd 0b55 703e 8fb7 6ebd 2fa2 2e3e
000000f0: 52b5 82bd 78f4 f7bd 1708 813e f0f6 1fbe
00000100: 855f b3bc 1c60 d4bc e75b 1bbe 0ee7 ca3e
00000110: 1053 f43e 2ec7 87bc ce01 a3bd d875 0d3b
00000120: d7fc c8bd 398b 3a3d a6e2 8fbd 7284 46be
00000130: a9e3 0ebe 6533 f5bd 8e7c 0cba 7ef0 9ebd
00000140: cf2b 31be 62a4 4c3d 4f1e b2be 94b4 b93e
00000150: 3d1d b8bd 25d0 1ebc 1532 483e 1f0b e4bd
00000160: ea0e d2bd 7555 283e 03c2 c5be aa2c 5cbe
00000170: 3e01 883e 8923 a2bb 02a0 9a3c 7587 cf3c
00000180: 7982 f53c b649 2cbd 34a0 093d 3012 52be
00000190: ef72 a9bd 7fe7 1ebe 2d87 3e3e 3f68 e93c
000001a0: 12ee e7bd f4fc 65bc c191 aebe 921c de3c
000001b0: 56b4 4c3e 5f5b 47be 9b4e e6bd a722 9abe
000001c0: ace0 cf3c 436f a83e 6c8c 31bd 3f87 2f3d
000001d0: 1aaa cc3c ab44 7a3e 3e6f 193e 1840 cdbd
000001e0: 67b9 2ebd 3134 6ebd b84a 6c3b 24a7 83bd
000001f0: 8f54 69be da1b 963d 3420 963e 6d69 83bc
00000200: 3e0e 75bd 1c49 96bd 9483 d03c 57a7 f93d
00000210: 8dd3 aa3d 7c00 643e e9cc 45be e6f7 2dbe
00000220: 2016 80bd 8d7c 96bd 2ce3 17bd 20f7 27bd
00000230: 81b0 0bbe 6abb aebd f503 a93c 032a d03c
00000240: d7e4 e9bd 10ac 6ebe 9925 37be a65f 2dbe
00000250: 9b7d a3bd 094f f5bc 1631 7bbc b3db 49bc
00000260: d5e9 1abd cedd b4be de2f 483d 0a5c a83e
00000270: c615 f2bc fd34 1fbd 98d2 4ebc fc33 9bbd
00000280: 7bfe 0fbe fb86 f33d 4f33 50be 7ed6 11bd
00000290: 4a05 fd3c ec6f 8cbc 32d3 fdbd b150 75bc
000002a0: faac bebd a4fa 8fbd 8267 b2bc 077f a8bd
000002b0: d93f 153e a3f2 43be deea 033e 5123 f6bd
000002c0: 4a85 9dbd e4a9 08bd e7a7 01be dd8b 23be
000002d0: 752b 54bc 8c19 1a3d e1a7 33bc 27cc 423d
000002e0: 96eb 53be 1151 95bd cf0a bfbd 7768 dbbb
000002f0: cd26 e93c 8ebb a0bc 2eb3 ef3d 8586 f5bd
00000300: 6437 0dbe 6056 7fbd d682 f4be 940c 1d3d
00000310: 5311 693e 8e12 ddbc aa95 5abe 147a 95bd
00000320: d5de 69bd cec3 7ebe 6303 83bd 494f c1bd
00000330: fdcb c4bd a49d 7bbd 7ba0 183e 345d 68bc
00000340: 114a b4bd 332e 0bbe d657 0fbe bb5b c23d
00000350: c9b1 bdbe 91c7 59bc 2790 b9bc 43a0 debc
00000360: 2827 d8be 7f15 d3bd 7d21 b2bd ca5a b73c
00000370: e67f 02be 105a 113c 8a78 0d3d 7cc6 debd
00000380: e2a1 be3d 0141 72be 8253 e5bc 23c4 b2bd
00000390: ab67 9e3d 9ae6 dbbd ae1e d8bd 117b debc
000003a0: 51e9 01bd be7d 8fbc 3995 1dbd 023e e8bc
000003b0: 3fb3 103d 3293 74bd 38d4 3e3d e5c1 eebd
000003c0: 933b 29be 69d1 dfbd 939c 1b3e 8efc adbd
000003d0: 0b40 953e b480 ccbd e57f 9b3c 0e4a 5e3d
000003e0: 083b 793e 8e92 32be 97f4 ac3e 9a35 343e
000003f0: f901 dabc 5b51 0dbe 2309 90bc 3eb7 2d3c

weight f4 [125, 320]
-0.01716476 0.088030845 0.04778575 -0.0379919 -0.0228679 -0.025870265 0.022070875 -0.055749144
0.059289075 0.057963602 0.049411673 0.055444665 0.045615546 -0.020316692 0.0684464 0.059581228
0.07641944 0.043026704 -0.0053884764 0.0071233436 0.049450383 0.07935148 0.007338463 0.06865168
0.018256122 -0.06388571 -0.007090561 -0.005276391 0.04596379 0.06483592 0.021218084 0.03383079
-0.025056245 0.006820406 0.013575697 0.0131410025 -0.013983777 0.006680853 0.04596541 -0.08446775
-0.0059774644 -0.0030664736 0.037839267 0.13564985 0.017368361 0.10619855 -0.0005381256 -0.030958107
-0.015434463 0.021277342 -0.030422485 0.019851552 0.051991694 -0.059039973 0.027116504 -0.003915098
-0.014309893 0.0026627036 -0.035083096 -0.013929495 0.008635221 0.03374283 0.1837985 0.024583088
-0.029293705 -0.00054397277 0.015721804 0.023572398 0.20403415 0.051996287 0.030291082 -0.044566445
0.032274008 0.07987527 0.02354914 -0.011676134 0.011648283 0.0024277293 -0.015364097 0.03975025
-0.020670481 -0.06501792 -0.010580784 0.059909817 -0.044214223 -0.004947269 0.054070562 0.018409558
0.015542774 0.056739718 0.0751291 -0.0634346 0.09087403 -0.0091323415 0.031767678 -0.030302951
-0.029654952 0.040076293 -0.008485136 0.052019045 0.023003483 0.057597745 0.040632103 0.08272589
-0.0011498575 -0.01013906 0.06133269 -0.01186982 -0.00706024 0.008317473 -0.01998168 0.03373126
-0.082774915 0.04754159 -0.0010634759 0.04533155 0.049401175 0.026458215 0.0208598 -0.04012667
-0.016514093 -0.0466548 0.014261802 0.10116598 0.09884857 0.029953625 0.033138357 0.024138149
0.037838712 -0.05708012 -0.0018349014 0.0014475357 -0.029849153 0.11530375 0.1386805 -0.04004296
-0.0035867172 0.037050746 -0.071095824 0.036145654 -0.016222622 0.06321089 -0.032408714 0.034617845
0.0669548 0.043202188 -0.02920574 -0.05035068 -0.030641532 0.00068647147 -0.04629193 0.013056497
0.027878216 0.00024980202 -0.01763538 -0.031099766 -0.032203335 -0.040444613 -0.063896075 0.0419955
0.06993268 0.020110024 0.017759414 -0.048039064 0.020936681 0.030843174 0.014673088 -0.0303423
-0.01845829 0.027799068 -0.02527854 0.046008453 0.0012300531 0.05012558 0.031753756 0.010847387
0.016062248 0.049923074 -0.059779387 0.0043499796 -0.030064996 0.030416604 -0.017904729 0.023030486
-0.009060246 -0.03087845 -0.028292524 0.067667186 0.047839575 0.049456075 0.062201794 -0.008015273
-0.013147431 0.03421166 0.07396076 -0.005248399 0.1060392 0.11258678 -0.036060646 -0.03437213
0.02620522 0.05926204 0.008793791 0.057009894 0.03947036 -0.037236612 0.0016556826 0.07736115
-0.07065661 0.021690853 0.026412439 0.04989602 0.0327228 -0.00551345 0.040147707 0.0047039785
-0.007420924 -0.04064837 0.06759652 0.007956538 0.04161098 0.10334189 0.01959361 0.0877623
0.055393394 0.03075808 0.057109755 0.04785702 0.01701084 0.060352705 -0.045765128 0.037282255
-0.048537508 0.018234208 -0.04696198 -0.008496263 0.053486794 0.16849627 0.0067966594 -0.06254164
0.014393061 0.0042124586 0.006767395 -0.016874626 0.00019130888 0.062135708 0.024971405 -0.032692637
-0.02493401 0.031741437 0.13640027 0.016413962 -0.024772935 0.05865521 0.03769188 -0.013641496
00000000: 1c9d 8cbc 8449 b43d feba 433d 659d 1bbd
00000010: 7655 bbbc e1ed d3bc fbcd b43c 3759 64bd
00000020: 1ad9 723d 3e6b 6d3d e563 4a3d f219 633d
00000030: 5ed7 3a3d 316f a6bc a02d 8c3d 720b 743d
00000040: cc81 9c3d c53c 303d d191 b0bb f06a e93b
00000050: 7c8c 4a3d 0783 a23d 7d77 f03b 4199 8c3d
00000060: dd8d 953c 83d6 82bd f057 e8bb 93e5 acbb
00000070: 8744 3c3d b2c8 843d 8cd1 ad3c 2892 0a3d
00000080: c142 cdbc b67d df3b 9a6c 5e3c 5c4d 573c
00000090: 361c 65bc 0feb da3b 3a46 3c3d 6dfd acbd
000000a0: 9bde c3bb e4f6 48bb 59fd 1a3d cbe7 0a3e
000000b0: 1848 8e3c a07e d93d ff10 0dba db9b fdbc
000000c0: d4e0 7cbc d24d ae3c 9338 f9bc b99f a23c
000000d0: 3ef5 543d e6d3 71bd 6e23 de3c 394a 80bb
000000e0: 0b74 6abc c180 2e3b 4bb3 0fbd 8938 64bc
000000f0: be7a 0d3c ec35 0a3d ad35 3c3e 7962 c93c
00000100: 5af9 efbc 6599 0eba 03cb 803c e71a c13c
00000110: 54ee 503e 0ffa 543d 0125 f83c 4e8b 36bd
00000120: c031 043d a595 a33d 20ea c03c 414d 3fbc
00000130: 71d8 3e3c 8a1a 1f3b b2b9 7bbc 28d1 223d
00000140: 2455 a9bc 1e28 85bd 065b 2dbc ff63 753d
00000150: f919 35bd b31c a2bb 1879 5d3d a4cf 963c
00000160: 1fa7 7e3c e867 683d 49dd 993d 00ea 81bd
00000170: 2a1c ba3d d19f 15bc d31e 023d e53d f8bc
00000180: f1ee f2bc 0a27 243d 3d05 0bbc ec11 553d
00000190: cd71 bc3c 9deb 6b3d d96d 263d 316c a93d
000001a0: d1b6 96ba 4d1e 26bc fd37 7b3d a279 42bc
000001b0: 9659 e7bb 0346 083c 9fb0 a3bc ca29 0a3d
000001c0: e585 a9bd f8ba 423d 5464 8bba 93ad 393d
000001d0: e358 4a3d e6be d83c 2ce2 aa3c dd5b 24bd
000001e0: 9048 87bc 1b19 3fbd 55aa 693c 1c30 cf3d
000001f0: 1e71 ca3d 4e61 f53c 16bc 073d 5ebd c53c
00000200: c4fc 1a3d d8cc 69bd 1381 f0ba 3dbb bd3a
00000210: 3686 f4bc 5f24 ec3d 4302 0e3e 1604 24bd
00000220: 210f 6bbb 86c2 173d b09a 91bd 770d 143d
00000230: 4ee5 84bc b674 813d 00bf 04bd 71cb 0d3d
00000240: 991f 893d c7f4 303d e040 efbc 843c 4ebd
00000250: f303 fbbc 52f4 333a 9b9c 3dbd ebea 553c
00000260: db60 e43c dcf7 8239 1378 90bc f0c4 febc
00000270: a5e7 03bd 40a9 25bd f2db 82bd 7903 2c3d
00000280: dd38 8f3d c7bd a43c 317c 913c 9cc4 44bd
00000290: 6783 ab3c d3aa fc3c 6467 703c 6a90 f8bc
000002a0: d735 97bc dfba e33c f114 cfbc 5c73 3c3d
000002b0: bc39 a13a 7b50 4d3d 3a10 023d 3db9 313c
000002c0: fa94 833c 237c 4c3d 3bdb 74bd 468a 8e3b
000002d0: de4a f6bc 3e2c f93c f0ac 92bc 6eaa bc3c
000002e0: 6d71 14bc cef4 fcbc b9c5 e7bc 1895 8a3d
000002f0: 6ef3 433d 7492 4a3d 4fc7 7e3d 7e52 03bc
00000300: 5368 57bc 8721 0c3d bd78 973d c3fa abbb
00000310: 152b d93d e693 e63d 54b4 13bd cac9 0cbd
00000320: 54ac d63c c1bc 723d d513 103c 3583 693d
00000330: acab 213d 6b85 18bd 7d03 d93a 866f 9e3d
00000340: 6ab4 90bd 04b1 b13c e65e d83c c55f 4c3d
00000350: 5808 063d 2caa b4bb ec71 243d d523 9a3b
00000360: 392b f3bb e87e 26bd 0b70 8a3d 245c 023c
00000370: 4670 2a3d eaa4 d33d c782 a03c b9bc b33d
00000380: 2fe4 623d 5ef8 fb3c ebeb 693d b905 443d
00000390: 515a 8b3c 6634 773d 3774 3bbd 47b5 183d
000003a0: 44cf 46bd e85f 953c 355b 40bd e933 0bbc
000003b0: f814 5b3d 498a 2c3e 83b6 de3b d515 80bd
000003c0: e0d0 6b3c aa08 8a3b 06c1 dd3b a83c 8abc
000003d0: 169a 4839 0382 7e3d d590 cc3c b7e8 05bd
000003e0: 6942 ccbc 4f03 023d 83ac 0b3e 9376 863c
000003f0: 9cf0 cabc 7240 703d cd62 1a3d 9580 5fbc

bias f4 [125]
-0.011135949 -0.06283756 -0.020289965 -0.08190838 -0.0006058744 0.073968254 0.015673019 0.04278969
-0.04804246 -0.086596295 0.0794411 -0.07080585 0.006455567 0.13630316 -0.008602638 0.0109969545
-0.017401237 -0.015197606 0.029748833 0.025869213 -0.054398276 0.038054083 0.076068245 -0.08596698
0.03179177 0.009041134 -0.044972904 0.028807186 -0.0031565756 0.20176561 0.0061284383 -0.06341566
-0.025681913 0.019857131 0.029064847 0.041084964 0.00042018836 0.08112892 0.037946213 0.13796677
-0.025781913 0.009258923 0.028975135 0.26727992 0.0031659335 -0.075631194 -0.063376576 2.2552042e-05
-0.009964937 0.056422994 0.11458226 0.0055010677 -0.03711015 0.008501079 -0.019092122 0.033064287
-0.014433387 -0.020273736 -0.02577882 -0.009412723 0.08162516 0.053633906 0.079155914 -0.017792104
0.08056421 -0.016680779 -0.013433357 -0.056807548 -0.03411034 0.24866113 -0.061654706 0.007623864
-0.0008614022 -0.02455692 0.033525273 -0.012848597 0.019825645 -0.07957753 0.024757473 0.037614755
-0.044586223 0.04110249 0.015372006 0.023965238 0.024122622 -0.017664189 -0.015527975 0.082436405
0.31202552 -0.0020845067 0.048178345 0.036815062 -0.0033152853 -0.028804919 0.14742531 -0.032893773
-8.064082e-05 -0.027385036 -0.07117336 0.032004636 0.023878988 0.10909208 -0.0003942068 0.055973493
0.031898092 0.025447972 -0.08456052 0.011709011 0.027166879 0.014468601 -0.028828032 -0.0022239774
-0.014740444 0.036446355 0.011103861 -0.007621604 0.02396107 -0.056623876 -0.07332779 0.018035205
0.004038992 0.038015034 0.010429982 -0.025439737 -0.0776841
00000000: 8e73 36bc fbb0 80bd 2437 a6bc 95bf a7bd
00000010: 8bd3 1eba ab7c 973d b464 803c 3e44 2f3d
00000020: 2cc8 44bd 6659 b1bd 04b2 a23d a802 91bd
00000030: 3989 d33b 0e93 0b3e 14f2 0cbc 922c 343c
00000040: 0a8d 8ebc 61ff 78bc d3b3 f33c aceb d33c
00000050: bad0 5ebd 99de 1b3d abc9 9b3d 750f b0bd
00000060: 1638 023d 4421 143c 8235 38bd 0cfd eb3c
00000070: 8dde 4ebb a59b 4e3e 11d1 c83b 12e0 81bd
00000080: e062 d2bc 6cab a23c 6719 ee3c b548 283d
00000090: ba4c dc39 eb26 a63d 7d6d 1b3d 2947 0d3e
000000a0: 9734 d3bc bdb2 173c 435d ed3c ead8 883e
000000b0: 8d7b 4f3b 87e4 9abd 94cb 81bd 242e bd37
000000c0: fa43 23bc cc1b 673d 1baa ea3d 4d42 b43b
000000d0: d000 18bd 1c48 0b3c 1567 9cbc 6b6e 073d
000000e0: 037a 6cbc 1b15 a6bc 1b2e d3bc d237 1abc
000000f0: 182b a73d 3aaf 5b3d 7f1c a23d bfc0 91bc
00000100: d9fe a43d 21a6 88bc 9517 5cbc 08af 68bd
00000110: 49b7 0bbd 06a1 7e3e a589 7cbd 9bd1 f93b
00000120: b9cf 61ba 982b c9bc cc51 093d ec82 52bc
00000130: 6469 a23c 8bf9 a2bd 2fd0 ca3c ee11 1a3d
00000140: 0ba0 36bd 165b 283d deda 7b3c bf52 c43c
00000150: ce9c c53c 7db4 90bc 0c69 7ebc 6bd4 a83d
00000160: cfc1 9f3e 389c 08bb a856 453d 64cb 163d
00000170: 4245 59bb 4bf8 ebbc a9f6 163e 9fbb 06bd
00000180: b61d a9b8 9556 e0bc 57c3 91bd 4b17 033d
00000190: de9d c33c ab6b df3d 8bad ceb9 7644 653d
000001a0: 93a7 023d 4478 d03c 112e adbd 27d7 3f3c
000001b0: 138d de3c b60d 6d3c c428 ecbc 26c0 11bb
000001c0: e781 71bc c648 153d f8ec 353c a6be f9bb
000001d0: 024a c43c 70ee 67bd e12c 96bd 91be 933c
000001e0: 8559 843b a7b5 1b3d 84e2 2a3c ff66 d0bc
000001f0: d718 9fbd
