models/simple_tag/A2C-not-shared/adversary_1/critic_0.pt (torch, 14098 bytes, 5 tensors)

weight f4 [32, 12]
0	0x3c15e739	0.009149366
1	0x3f1e1a07	0.61758465
2	0xbfec6ed5	-1.8471323
3	0x3fecd081	1.850113
4	0x3f93830e	1.152437
5	0xbf85f6e5	-1.0465971
6	0x3f528be1	0.8224469
7	0x3fa413c6	1.2818534
8	0xc0309c7c	-2.759551
9	0xbf2685c9	-0.6504789
10	0xbf607935	-0.8768495
11	0xbf0c512c	-0.5481136
12	0x3e3da594	0.18520194
13	0x3fb3a6e9	1.4035312
14	0x3fd66501	1.6749574
15	0x3fbdc8f7	1.4826955
16	0xbf9cf32e	-1.2261713
17	0x3de73b4f	0.11290609
18	0x3feed64d	1.865915
19	0x3e6e63c9	0.23280253
20	0x3f1f3bc9	0.622006
21	0xbe62c4fa	-0.22145453
22	0x3fa6135a	1.2974656
23	0xbf7f18db	-0.996473
24	0xbeb67633	-0.35637054
25	0x3f13b2f2	0.57694924
26	0x3f525431	0.82159716
27	0x3f510c05	0.81658965
28	0x3fd84815	1.6896998
29	0xbf1e6b4d	-0.6188248
30	0xbf88e637	-1.0695256
31	0x3e525f8f	0.20544265
32	0x3f4cee19	0.8005081
33	0x3f0ced91	0.5505
34	0xbe308751	-0.17239119
35	0xbf23a2b2	-0.6392013
36	0xbfc33d7f	-1.5253142
37	0xbf39d664	-0.7259276
38	0xbee45a6e	-0.44600242
39	0x3e58c05c	0.2116713
40	0xbe236b9e	-0.15959021
41	0xbd9d89e6	-0.07692318
42	0x3eac3314	0.3363272
43	0xbe958d3d	-0.2920932
44	0x40d05699	6.510571
45	0x3fd8ff38	1.6952887
46	0x3fc752df	1.5572165
47	0x3c969b8b	0.018384716
48	0x3f06cb7c	0.5265424
49	0xc0032af1	-2.049496
50	0xbf2103cd	-0.62896425
51	0x3d9c480c	0.07630929
52	0xbe49ed06	-0.19719324
53	0xbbd8be51	-0.0066144844
54	0xbc77bc94	-0.015120644
55	0xbdd205da	-0.10255022
56	0xbecdbe4e	-0.40184253
57	0x40e2e633	7.0906005
58	0xbf00d6bc	-0.5032766
59	0x40120f1b	2.282172
60	0x3f331069	0.69946915
61	0xbf3b8b0c	-0.73259044
62	0xbdfa87ea	-0.12232955
63	0x3f8e7845	1.1130453
64	0xbe20b576	-0.15694222
65	0x3f7a3003	0.9772951
66	0xbe239228	-0.15973723
67	0x3f5fdc25	0.8744529
68	0xbed0a6ea	-0.40752345
69	0x401675c3	2.3509376
70	0x3e8eb4f8	0.27872443
71	0xc0057a68	-2.085596
72	0xbfdd569b	-1.7292055
73	0xbf3dfb69	-0.74211746
74	0xbe55a3ce	-0.20863268
75	0xbf924f89	-1.1430522
76	0x3e163761	0.14669563
77	0xbd62b313	-0.05534656
78	0x3d1e7f36	0.038695537
79	0xbe91d0ca	-0.28479606
80	0xc0677ae0	-3.6168747
81	0xc0106eac	-2.2567549
82	0x4012562d	2.2865098
83	0x3f0b25cd	0.54354554
84	0xbfa5dde0	-1.2958336
85	0x3f0c7b81	0.5487595
86	0xbfa8aedf	-1.3178366
87	0x3fc392c3	1.5279163
88	0xbe85efdc	-0.2615956
89	0xbf0029dc	-0.5006387
90	0x3e4b2d21	0.19841434
91	0xbf751e1a	-0.95749056
92	0xbe832f42	-0.25621992
93	0x3f596fb3	0.84936064
94	0x3ff5a310	1.9190388
95	0x3f08d220	0.53445625
96	0x3f989eab	1.1923422
97	0xbe4359ec	-0.19077271
98	0x401889f7	2.3834207
99	0x4019a7e7	2.400873
100	0x3ec9c4ce	0.39407963
101	0x3cf30e73	0.029669976
102	0x3f16f657	0.58969635
103	0x3fa4b41a	1.2867463
104	0xbf49f9c3	-0.7889673
105	0x3f46ca63	0.7765257
106	0xbff3fafc	-1.9060969
107	0xbea4a974	-0.32160532
108	0xbf947c77	-1.1600484
109	0x3f7f90c5	0.99830276
110	0xbef1abd4	-0.47201407
111	0xbf2ab046	-0.6667522
112	0xbf36286d	-0.71155435
113	0xbff60c99	-1.9222594
114	0x3fabd9b7	1.3425816
115	0xbecc617d	-0.39918128
116	0x401eb14c	2.4795713
117	0x3f4a9379	0.79131275
118	0x3feeb48f	1.8648852
119	0xbfc86d8c	-1.5658431
120	0x3e8155c2	0.2526074
121	0x3c996822	0.018726412
122	0x3f8c60fb	1.0967096
123	0x3d7f0d30	0.062268436
124	0xbf4130ac	-0.7546489
125	0x3ec4e538	0.3845613
126	0x3e75e187	0.24011813
127	0x3ea8225d	0.32838717
128	0xbf122f84	-0.57103753
129	0x3fd1a67d	1.6378933
130	0xbc22025a	-0.009888256
131	0xbfab7857	-1.33961
132	0x3e880efb	0.2657393
133	0x3fe927ad	1.8215233
134	0x3da6488e	0.081193075
135	0xbe826dfc	-0.25474536
136	0xbe0b5f16	-0.13610491
137	0x3e555fa4	0.20837265
138	0x3d858d7e	0.06521128
139	0xbeb7decc	-0.35912168
140	0x3fad1759	1.352275
141	0x4026151f	2.5950391
142	0xbf6ac7e1	-0.9171124
143	0xc0682a28	-3.627573
144	0xbf071771	-0.52770144
145	0x3ed118f2	0.40839344
146	0xc083c985	-4.1183496
147	0xbfcd9139	-1.6059943
148	0xbf0a7d21	-0.5409718
149	0x3e71baad	0.23606367
150	0xbe76c8d1	-0.24100043
151	0xbfdaf6ae	-1.7106531
152	0xbe830229	-0.25587586
153	0x3fbefa13	1.4920067
154	0x3da20d73	0.079127215
155	0x3f648374	0.8926308
156	0x3ea29abc	0.31758678
157	0xbf29df2a	-0.66356146
158	0xbe1a9688	-0.15096486
159	0x3fd6a737	1.676978
160	0xc0019c29	-2.0251563
161	0x3edcc4a5	0.43118778
162	0x3d3bf5ec	0.045888826
163	0x3e5aee1d	0.21379896
164	0xbf964969	-1.1741153
165	0x3fa95668	1.3229494
166	0xbea3689d	-0.3191575
167	0xbdb3edb3	-0.08785572
168	0x3f664f26	0.8996452
169	0xbfce889e	-1.6135442
170	0xbe5a8952	-0.21341446
171	0xc01ae501	-2.4202273
172	0xbf8254f8	-1.018218
173	0xbf9390c0	-1.1528549
174	0x3f0f2c46	0.5592693
175	0xbf466a39	-0.7750583
176	0x40379a69	2.8687994
177	0x3f8b9c51	1.0907079
178	0x3f5661b4	0.83742833
179	0x401243a2	2.285378
180	0x3ee895cd	0.4542679
181	0x3f5253fb	0.82159394
182	0x3f6d978e	0.9280938
183	0x3e4abb2a	0.1979796
184	0x3f388135	0.72072154
185	0x3f495ae8	0.78654337
186	0x3e67a05c	0.22619766
187	0x3f29b839	0.66296726
188	0xbe669f97	-0.22521816
189	0x3fa0479e	1.2521856
190	0x3f9a8013	1.2070335
191	0xc002104b	-2.0322444
192	0x3f3f1d10	0.7465372
193	0x3f48ee7c	0.784889
194	0x3e19b91c	0.1501202
195	0x3ffa0572	1.9532912
196	0xbd5ab48e	-0.053394847
197	0xbf29d8f6	-0.6634668
198	0xbf6121e1	-0.8794232
199	0xbf389b51	-0.72111994
200	0x3f7ab5f6	0.979339
201	0x3e526b16	0.20548663
202	0xbec5659f	-0.38554093
203	0x3e410c3d	0.18852325
204	0x3e03fa87	0.12888537
205	0x3e2c290c	0.16812533
206	0x3fc69509	1.5514232
207	0xbf12ed44	-0.5739329
208	0x3f8ce265	1.100659
209	0x3f0cf5c6	0.5506252
210	0xbf61ce94	-0.8820584
211	0x3dfc9a1f	0.12334084
212	0x3f9229d9	1.1419021
213	0xbede5e28	-0.4343121
214	0xbee47d55	-0.4462687
215	0x3ce90da6	0.02844889
216	0x3f80028d	1.0000778
217	0xbe80eff1	-0.2518306
218	0x3f500a8f	0.8126611
219	0xbf0db370	-0.55351925
220	0xbf15337d	-0.5828169
221	0xbfdff3dd	-1.7496296
222	0x3f9338c4	1.1501698
223	0xc006fefb	-2.1093128
224	0xbf9389f8	-1.152648
225	0x3f43e955	0.7652791
226	0xbe0feabe	-0.14054391
227	0xbee65f23	-0.4499446
228	0xbe3342a3	-0.17505889
229	0x3f92da66	1.14729
230	0xbe9f8dd6	-0.311629
231	0x3f7f6b55	0.9977315
232	0xbf43ce8c	-0.7648704
233	0x3e927535	0.28605047
234	0x400460ab	2.0684001
235	0x3f8bfa11	1.0935689
236	0xbff232dc	-1.8921771
237	0xc0360a8c	-2.8443937
238	0x3f6074c1	0.8767815
239	0xbf973509	-1.181306
240	0x3ecb9287	0.3976023
241	0xbdcd5da2	-0.10027625
242	0x3f5316f1	0.8245688
243	0xbf8850ce	-1.064966
244	0x3f9aac65	1.2083861
245	0xbff87387	-1.9410256
246	0x3f4985de	0.7871989
247	0x3eccd283	0.40004358
248	0xc004a95b	-2.0728366
249	0x4054c0f2	3.3242764
250	0xbf6720d9	-0.90284497
251	0x3ff6ce0c	1.928163
252	0x3fd66e55	1.6752421
253	0xbfc09681	-1.504593
254	0x3ea01f48	0.31273866
255	0xbecd40b8	-0.4008844

bias f4 [32]
0	0xbfeec13b	-1.8652719
1	0xc007e3b0	-2.123272
2	0xc0224d2a	-2.5359597
3	0xbf343d6b	-0.70406216
4	0xbef3561e	-0.4752664
5	0xbf492167	-0.7856659
6	0x3f7ca911	0.98695475
7	0xbecc8db1	-0.39951852
8	0xbf9a49fe	-1.2053831
9	0xbf699b6c	-0.9125278
10	0xbfd9458c	-1.6974349
11	0x4005e4cc	2.0920897
12	0xbfa700c0	-1.3047104
13	0xbfd633a1	-1.6734506
14	0xbfe11da6	-1.7587173
15	0xc03d826d	-2.9610856
16	0xc030ca11	-2.7623332
17	0xbf71620b	-0.94290227
18	0xbfe02824	-1.751225
19	0xbe98a6be	-0.29814714
20	0xbf7bb2f6	-0.9831995
21	0x3fbad052	1.4594824
22	0xbf2a85a8	-0.66610193
23	0xbfad300a	-1.3530285
24	0xbece2f60	-0.4027052
25	0xbf300f1d	-0.6877306
26	0xbf8095e4	-1.0045743
27	0xbfee6c19	-1.8626739
28	0xbf41eaa9	-0.7574869
29	0xbfcb08bd	-1.5862042
30	0xc0095168	-2.1455936
31	0xbf57c88a	-0.84290373

weight f4 [64, 32]
0	0xbf46154d	-0.7737625
1	0xc02508b6	-2.5786567
2	0xc01b0bda	-2.4225984
3	0xbfd87da3	-1.6913341
4	0xbf8e2a97	-1.1106747
5	0xbf0999bd	-0.5375021
6	0xbfa75e20	-1.30756
7	0xbf90134b	-1.1255888
8	0xbf4e7e43	-0.8066141
9	0x3f19dc6c	0.6010196
10	0x3af92674	0.0019008652
11	0xc013ad05	-2.3074353
12	0xbf244294	-0.6416409
13	0xbfa96aff	-1.3235778
14	0xbf74969c	-0.9554231
15	0xbef15ba5	-0.47140232
16	0xbfa6a611	-1.301943
17	0xbfdb1caa	-1.7118123
18	0x3f9c7131	1.2222043
19	0xc09b4f57	-4.853435
20	0xc065a068	-3.5879154
21	0xbed2ce03	-0.411728
22	0x3ee40f32	0.44542843
23	0xbed1a534	-0.40946352
24	0x3db04805	0.08607487
25	0xc05abf02	-3.4179082
26	0xc021514e	-2.5205874
27	0xc00e99e6	-2.2281432
28	0xc030f463	-2.7649162
29	0xbef00d5c	-0.46885192
30	0xbf941921	-1.1570169
31	0xbfe1cb77	-1.7640218
32	0xbf7d5c88	-0.98969316
33	0xbf15709a	-0.5837494
34	0xbf773f50	-0.9658098
35	0xbdacd76c	-0.08439526
36	0xbe1ef6f1	-0.15523888
37	0x3f32f2f0	0.69901943
38	0x3fccbe0d	1.5995499
39	0xbe46102f	-0.19342111
40	0xbfaf5c84	-1.3700109
41	0xbf4a643a	-0.79059184
42	0x3f49bf9e	0.7880801
43	0x3f925947	1.1433495
44	0xbfb33cff	-1.400299
45	0xbf462ea4	-0.7741492
46	0xbfb04110	-1.3769855
47	0xbe935bf7	-0.287811
48	0xbfae1a0c	-1.3601699
49	0x3d8037fc	0.06260678
50	0xbf850d1f	-1.0394629
51	0xbefc5244	-0.49281514
52	0xbecabf7e	-0.39599222
53	0x3f8f15ab	1.1178488
54	0x3f8a67c0	1.0812912
55	0xbf1e63f8	-0.6187129
56	0xbf2f87d7	-0.6856665
57	0xbf8867ec	-1.0656714
58	0xbe1b5f27	-0.15173016
59	0xbfb1caa0	-1.3889961
60	0x3f7ef313	0.9958965
61	0x3ec38c8c	0.38193166
62	0xbef97a83	-0.48726282
63	0x3e737fc6	0.2377921
64	0xbf777630	-0.96664715
65	0xbefdf5ad	-0.49601498
66	0xbf23d33e	-0.63994205
67	0xbed7d588	-0.421551
68	0xbe345e94	-0.17614204
69	0xc00428be	-2.0649867
70	0xc01391ea	-2.305781
71	0xbeb8fd6a	-0.3613084
72	0xc00269f6	-2.0377173
73	0x3f0c71a3	0.54860896
74	0xbf91e3b5	-1.1397616
75	0xbe028b42	-0.12748435
76	0xbede2b0c	-0.43392217
77	0xbf4deec8	-0.80442476
78	0xbef91851	-0.48651364
79	0xbf920cc0	-1.1410141
80	0xbf05cd04	-0.52265954
81	0xbfefeb35	-1.8743654
82	0xbfd6b329	-1.6773425
83	0x3e8eef57	0.27916977
84	0xc0122526	-2.2835174
85	0xbf648e31	-0.89279467
86	0xbe8251ab	-0.25452933
87	0xbf7af251	-0.98025995
88	0xc01b0354	-2.4220781
89	0xbe7aa637	-0.24477468
90	0xbeb2b3b1	-0.3490272
91	0xbcc0d09b	-0.02353697
92	0xbfc8ef3e	-1.5698011
93	0xbf32a785	-0.69786865
94	0xbc2db380	-0.010601878
95	0xbfe8641e	-1.8155553
96	0xbfbabee5	-1.4589506
97	0xbfc98082	-1.5742342
98	0x3e65e67d	0.22451206
99	0xc00864c9	-2.1311514
100	0xbfcd76f8	-1.6051931
101	0x3e48cc9d	0.19609304
102	0xbf40ef07	-0.75364727
103	0xbf5f4a79	-0.8722301
104	0xbf37e6c2	-0.71836483
105	0xbeccf4ae	-0.40030426
106	0xbf501dea	-0.81295645
107	0xbf7b73c7	-0.9822354
108	0xbf7345d7	-0.9502844
109	0xbfbbdc78	-1.4676657
110	0xbfa80e23	-1.3129314
111	0xbf4a67ad	-0.79064447
112	0xbe90c734	-0.2827698
113	0xbf2d34a5	-0.67658454
114	0xbf06ec80	-0.5270462
115	0xbef54fae	-0.47912353
116	0xc03480e1	-2.8203661
117	0xbf511f7b	-0.8168866
118	0xbe0c7ec6	-0.13720235
119	0xbf584ee1	-0.8449536
120	0xbeda10cd	-0.42590943
121	0xbfcb887f	-1.590103
122	0x3e8325a8	0.25614667
123	0xbf9275d8	-1.1442213
124	0xc01da45a	-2.4631562
125	0xbf208c6d	-0.6271427
126	0xbf9f3099	-1.2436706
127	0xc00267e5	-2.0375912
128	0xbf7d7c64	-0.9901793
129	0x3c267f44	0.010162178
130	0x3debb99a	0.1151001
131	0x3f0eadf2	0.5573417
132	0x3e0973a6	0.13423023
133	0x3e7a0bb0	0.24418521
134	0xbeacd675	-0.33757368
135	0x3f379f37	0.7172732
136	0x3eb7d099	0.35901335
137	0xc01981a1	-2.398537
138	0x3d2a8d64	0.041638747
139	0x3e751760	0.23934698
140	0xc08e54f9	-4.4478726
141	0x3f7abfbb	0.9794881
142	0xc0299aa8	-2.6500645
143	0x3f9482e7	1.1602448
144	0xc0088042	-2.1328282
145	0xc03d4013	-2.9570358
146	0xbfc5166b	-1.5397466
147	0xbe7a7522	-0.24458745
148	0xc0aba53a	-5.3639193
149	0xbec97c58	-0.3935268
150	0xbf9b194f	-1.2117099
151	0xc024041d	-2.562751
152	0xbf45c8fa	-0.7725979
153	0xbf991bf3	-1.1961654
154	0xbf4c968b	-0.7991721
155	0x3f298cd5	0.6623052
156	0x3f602a7c	0.87564826
157	0xc04a53c3	-3.1613624
158	0x3fa96b5d	1.323589
159	0xbf59643a	-0.8491856
160	0x3ea4a7f5	0.3215939
161	0xc0260721	-2.594185
162	0xbf92f93b	-1.1482309
163	0xc01d4869	-2.4575446
164	0x3d3e86cd	0.046515275
165	0x3ecb9ee8	0.39769673
166	0xbf63b923	-0.8895437
167	0xbe863848	-0.26214814
168	0xbef64b08	-0.4810412
169	0xbfa0b25e	-1.2554433
170	0xbea3308a	-0.3187297
171	0xc005d3a8	-2.0910435
172	0xbf43cfbc	-0.7648885
173	0xbfdb7131	-1.7143918
174	0xbf22b0de	-0.6355113
175	0xbf75554d	-0.95833284
176	0x3ea3c9af	0.3198981
177	0xbf04aaae	-0.51822937
178	0xbfe99493	-1.8248466
179	0xbf76cee5	-0.96409446
180	0xbf2d80e8	-0.6777482
181	0xbfa929d6	-1.3215892
182	0x3ef94d83	0.4869195
183	0xbf960805	-1.1721197
184	0xbf758c0a	-0.9591681
185	0xbf84e79a	-1.0383179
186	0xbff55d3c	-1.9169078
187	0x3f85311d	1.0405613
188	0xbfcb55f5	-1.5885607
189	0xbe8e03ff	-0.27737424
190	0x3f7cbabd	0.9872244
191	0x3bb82f35	0.005620862
192	0x3f01694c	0.50551295
193	0xbf56d93d	-0.8392523
194	0x3fee1f06	1.8603218
195	0x3e6e9199	0.23297729
196	0x4002719b	2.038184
197	0x3f9aa6f8	1.2082205
198	0xbf89f240	-1.0777054
199	0xbee1b818	-0.44085765
200	0x3f9d4b3a	1.2288582
201	0xbf87ea4a	-1.0618374
202	0x3e922e91	0.28551152
203	0xc02f886f	-2.7427022
204	0x3f74cb78	0.9562297
205	0x3e1a0c16	0.15043673
206	0x3d2a101e	0.041519277
207	0x3f893e83	1.0722202
208	0x3f03914c	0.5139358
209	0xc00dccce	-2.2156253
210	0x3fa3785d	1.2771107
211	0xbf887c65	-1.0662962
212	0xbd017698	-0.03160724
213	0x3eff3455	0.49844614
214	0x3e9b4f4a	0.3033393
215	0xbe1dbe13	-0.15404539
216	0xbdb16f48	-0.08663803
217	0x3f47dd3f	0.7807197
218	0xbf5853a0	-0.845026
219	0x3f85591b	1.0417818
220	0xbfeea044	-1.8642659
221	0x4025cf20	2.590767
222	0x3f1f6a8a	0.6227194
223	0x3e3e1c2c	0.18565434
224	0xc0189fb3	-2.3847473
225	0xc04ebdae	-3.2303271
226	0x3e697c5c	0.22801346
227	0xbf9f301a	-1.2436554
228	0xbf6337cc	-0.88757014
229	0xbdb53a85	-0.08849052
230	0x3d0e80c9	0.034790788
231	0xbfae5840	-1.3620682
232	0x3f4b864b	0.7950179
233	0xbe924fe9	-0.28576592
234	0x3ed0d5b6	0.40788049
235	0xbec07a91	-0.3759351
236	0xbe299354	-0.16560107
237	0xbff2e6f2	-1.8976729
238	0xbf8797f9	-1.0593253
239	0xbf124141	-0.5713082
240	0xbed0e094	-0.4079634
241	0xbf0720ee	-0.5278462
242	0xbff983af	-1.9493312
243	0xc047aa7b	-3.1197803
244	0xc08eb375	-4.4594064
245	0xc0412127	-3.0176485
246	0xbed350b1	-0.412725
247	0xc064ae96	-3.5731559
248	0xbfc27b5c	-1.5193896
249	0xc000ce1f	-2.0125806
250	0xbf11aaef	-0.5690145
251	0xbf86b8a3	-1.0525097
252	0xbfcc2393	-1.5948356
253	0xc01aa8d5	-2.4165547
254	0xbfa0c5df	-1.2560385
255	0xbf17ee98	-0.5934844

bias f4 [64]
0	0x3f86f1fa	1.0542595
1	0x40f5b799	7.678662
2	0xbe229db5	-0.15880473
3	0x3f618dfe	0.8810729
4	0x3f449cf0	0.7680197
5	0xbfa4ec81	-1.2884675
6	0xbfb2ffad	-1.3984276
7	0x3ffdc4e9	1.9825717
8	0xbf5070bc	-0.8142202
9	0x3fcfd51c	1.6236911
10	0xbfe7e954	-1.8118081
11	0xbefb9eab	-0.49144492
12	0x401bbf07	2.4335344
13	0x40846d8f	4.138374
14	0xbeb93a00	-0.36177063
15	0xbe3b5692	-0.18294743
16	0x3e809042	0.2511006
17	0xbf087bfa	-0.53314173
18	0x3f0e785f	0.5565242
19	0x3d15c954	0.036568955
20	0x3ebe555b	0.37174496
21	0xbf9e2cd7	-1.2357434
22	0x3f81060f	1.0079974
23	0x3f72efbc	0.94897056
24	0x40acc160	5.3986053
25	0xbf383dd1	-0.71969324
26	0xbf2161e5	-0.6304
27	0xbfb44f64	-1.4086728
28	0xbe909a60	-0.2824278
29	0xc0099453	-2.149678
30	0xbf6cf8a9	-0.92566925
31	0x40a210f7	5.064571
32	0xbe907766	-0.28216094
33	0xbd87416c	-0.06604275
34	0x3f714355	0.94243366
35	0xbe44e826	-0.19229183
36	0x3e4f8270	0.20264602
37	0x40521d9b	3.283057
38	0xbec9d2e4	-0.3941871
39	0x3fa4a159	1.2861739
40	0x40746339	3.818556
41	0x40c067b1	6.0126576
42	0x3f390d75	0.7228616
43	0x40464c18	3.0983944
44	0x402fd996	2.7476554
45	0x40c3132e	6.0960913
46	0x3fac36fb	1.3454279
47	0x4083e8dd	4.1221757
48	0xbe298075	-0.16552909
49	0x40b243ad	5.570761
50	0x3e543849	0.20724596
51	0xbf379d97	-0.7172484
52	0x3eee7840	0.46576118
53	0xbfa6af32	-1.3022215
54	0x40a8a1a6	5.2697325
55	0x3fc084f6	1.5040576
56	0xc0872cc2	-4.2242136
57	0x40aef7e6	5.467761
58	0xbf4f18df	-0.80897325
59	0x3dd776cc	0.105207056
60	0x4071fbb1	3.780987
61	0xbf9a4dfb	-1.2055048
62	0x4028bfdf	2.636711
63	0x3ebadf3e	0.36498445

weight f4 [1, 64]
0	0x3d853ab0	0.065053344
1	0x3f4a1ba5	0.7894843
2	0x3eafd5ce	0.34342808
3	0xbd359bf2	-0.044338174
4	0xbd5e7681	-0.054312233
5	0x3b582168	0.0032978896
6	0xbd8d4008	-0.068969786
7	0x3e99f5c1	0.30070308
8	0x3ed73827	0.42035028
9	0xbd795167	-0.060868647
10	0xbe31ca1f	-0.1736226
11	0x3e4876aa	0.19576517
12	0x3f0342b5	0.5127366
13	0xbf320f16	-0.6955427
14	0x3cc1d38f	0.02366045
15	0xbd95797a	-0.072985604
16	0xbf156f1a	-0.5837265
17	0x3ebfa8b8	0.3743341
18	0x3e4576d1	0.19283606
19	0x3eaddfb2	0.33959728
20	0xbcd451af	-0.025917856
21	0xbe53bc67	-0.20677339
22	0x3ec9b7af	0.39397952
23	0xbe420983	-0.18948941
24	0x3f6dae05	0.9284366
25	0xbed8175d	-0.42205325
26	0xbe81dcfa	-0.25363904
27	0xbea1b134	-0.31580508
28	0xbdf2c55f	-0.11854052
29	0xbecd1ff2	-0.40063435
30	0xbe180047	-0.14843856
31	0x3ef9cb54	0.4878794
32	0x3cdc54ff	0.026895998
33	0x3e42d7e6	0.19027671
34	0x3e862814	0.26202452
35	0xbd6010e3	-0.054703604
36	0x3e172cd4	0.14763194
37	0x3e088d94	0.13335258
38	0xbcacc8db	-0.02109187
39	0xbdb4e0c1	-0.08831931
40	0x3e828268	0.25490117
41	0x3eddea9f	0.43343064
42	0xbe0c972b	-0.13729541
43	0x3e2c14ab	0.16804759
44	0x3f16b89d	0.5887545
45	0x3de344e3	0.110971235
46	0xbf122e8a	-0.5710226
47	0x3f214a7b	0.63004273
48	0xbb81b8f1	-0.0039588143
49	0x3effd569	0.49967507
50	0x3e3d6dd9	0.18498935
51	0xbd1e35cc	-0.038625523
52	0xbe695d41	-0.2278948
53	0x3e3c4bb9	0.18388261
54	0x3f0e5427	0.55597156
55	0x3f0945ba	0.5362202
56	0x3e2b5d49	0.16734804
57	0x3ea87b03	0.3290635
58	0xbe145f41	-0.14489461
59	0xbe6ebcc7	-0.233142
60	0xbe08704e	-0.13324091
61	0x3e952e1e	0.29136747
62	0xbef7579a	-0.48309022
63	0x3e840fcf	0.2579331
