models/simple_tag/DQN-not-shared/adversary_0/qnet_target_0.pt (torch, 15172 bytes, 6 tensors)

weight f4 [32, 12]
000000 86 2d d4 bd b8 7f 3d bc e5 39 19 be 63 db 72 be
       -0.103602454 -0.011566095 -0.14963491 -0.23716502
000010 f2 99 a3 3e 56 59 9f 3e cc 60 df 3e cd ac 31 3e
       0.31953388 0.31122845 0.43628538 0.17351075
000020 79 da 5d bf 17 48 2c bf d9 c3 3d be a7 17 a6 be
       -0.8666149 -0.672975 -0.18531741 -0.3243992
000030 ac 6c 97 3d 12 21 16 3e 04 b1 09 bf 8c ce 50 3d
       0.073937744 0.14661053 -0.5378573 0.05097823
000040 0a 03 81 bd 5c 06 0b be c6 ed 5b be c2 9f 2c 3e
       -0.06299408 -0.13576645 -0.21477422 0.16857818
000050 03 73 77 be e9 0b 4d be 39 2f a2 bc 15 6b 03 be
       -0.24164967 -0.20024075 -0.019797908 -0.12833817
000060 3e e1 84 bb 75 6a 31 3e fc ec 9c be 1e 2a 1b 3f
       -0.0040551713 0.17325766 -0.30649555 0.6061114
000070 b2 29 82 be e3 f8 09 3f 3b 5a 1d be 27 59 4c 3d
       -0.25422436 0.53895396 -0.15366451 0.04988971
000080 d5 b0 4a 3e 76 54 13 be eb 0f 90 3e 95 94 a1 3e
       0.19794019 -0.14387688 0.28137144 0.31558672
000090 a4 f5 79 3e ef 6d 18 bf 99 ce 31 bd e0 9c 3a bd
       0.2441011 -0.59542745 -0.043409918 -0.045559764
0000a0 5e 56 02 be d8 a2 c7 bd 0d ff 8d bd 97 2f f5 bb
       -0.12728259 -0.09747857 -0.06933413 -0.00748248
0000b0 34 7b 5d be d5 14 99 3f 65 b4 36 be e5 1b 16 3f
       -0.2162903 1.1959482 -0.17842253 0.58636314
0000c0 43 a5 ca bd d2 ff ca 3d 18 f5 13 be 10 8d e8 3d
       -0.098948024 0.09912075 -0.14448965 0.113550305
0000d0 c4 62 7e 3d 8e 18 64 bc b3 39 9b bf 65 79 23 3f
       0.06210591 -0.01392187 -1.2126983 0.6385711
0000e0 e9 70 7a 3f 3b 88 e0 be 32 a3 93 3e 28 f8 73 bd
       0.9782854 -0.43853936 0.28835446 -0.059562832
0000f0 7d 1e 72 3d a6 ef b7 be 69 89 e6 3e ae 8b 86 bd
       0.059111107 -0.35925025 0.4502671 -0.065696105
000100 a5 7d d3 be 94 19 29 3e 75 24 ee be 2c d3 59 3f
       -0.41306797 0.16513664 -0.4651219 0.8508785
000110 98 62 30 3f 02 c4 eb bd 55 83 9f 3d 1e 23 8a 3e
       0.6890044 -0.11511995 0.077887215 0.26979917
000120 e5 74 87 bd 34 47 49 bd d2 d4 ab be d1 16 c1 be
       -0.06614093 -0.04914017 -0.33560807 -0.3771272
000130 94 5d 25 bf 65 17 79 bf 91 db 58 3d 9c fe 4a be
       -0.64595914 -0.9730132 0.05294377 -0.19823688
000140 17 94 b8 3e c2 99 27 3f 8b 61 3c 3d dc a3 89 3e
       0.36050484 0.6546899 0.04599146 0.26882827
000150 17 65 f6 be 4f dd 3d bd 2c ed 44 3e ce 53 4c 3c
       -0.48124 -0.046353634 0.19231099 0.0124711525
000160 1b 7e f5 3d 08 ec 09 3d a0 37 26 3e c5 54 93 3d
       0.11986943 0.033672363 0.16232157 0.07193903
000170 2e db b5 3f bb d7 0f 3d bc 64 10 3f fb 3d ee 3c
       1.4207513 0.035117846 0.5640371 0.029082289
000180 29 ec df 3d 5d 9b b2 bd 40 d6 14 bc 78 f0 60 bd
       0.10933716 -0.087210394 -0.009084284 -0.05491683
000190 65 d0 a9 3f c7 b3 3f bf 00 1c 89 bd 76 cd ed 3c
       1.3266722 -0.74883693 -0.06694794 0.029028635
0001a0 b0 81 86 bf ff 0e 24 3f 6f d7 a7 be ee bc 4b 3e
       -1.0508327 0.6408538 -0.3278155 0.1989629
0001b0 05 ed 54 bc b6 49 11 3e 9e 52 ec 3d ec ab f0 3d
       -0.012995963 0.14188275 0.115391955 0.117515415
0001c0 6d 80 8a 3e e6 cf 1a be 40 86 4c bf 2b 63 c8 3e
       0.27051106 -0.1511837 -0.7989235 0.3913816
0001d0 69 dc 1a 3f 37 c8 fc bd 1f da c8 3e 32 39 f0 bd
       0.6049257 -0.123428755 0.39228913 -0.11729659
0001e0 9e 11 ac 3d 1a 06 5c 3d 71 75 74 bd 47 d1 15 3e
       0.08401798 0.053716756 -0.059682313 0.14630614
0001f0 3a 3f fa 3e 57 40 1f bf a3 ab 0c be b3 45 1a 3e
       0.48876363 -0.6220755 -0.13737349 0.1506565
000200 3c 31 79 be 9c d2 0b 3f f4 a9 57 be 36 38 06 3f
       -0.24335188 0.5461824 -0.21060926 0.5242952
000210 a3 b2 94 be 98 4d 56 bd 18 1e 3d bd e0 93 7c 3d
       -0.2904254 -0.052320093 -0.046171278 0.061664462
000220 cf 80 5f be b1 cc 42 bd 2f 7f fe bd 94 e2 06 bd
       -0.2182648 -0.04755849 -0.12426602 -0.032930925
000230 69 0a 47 3f 41 97 92 3e 1a 9d 26 3f b3 51 45 3e
       0.7775026 0.28631023 0.6508347 0.19269447
000240 42 95 a6 be 54 5c a3 be 93 f3 d4 3d 7c 21 80 3d
       -0.3253575 -0.31906378 0.103980206 0.06256387
000250 da 8d 37 be 74 20 11 bf 79 7e 8b bd 5f 9b d9 3d
       -0.17925206 -0.56690145 -0.06811232 0.10625338
000260 a1 77 1b 3f 6d de 53 3f c9 e8 b0 3e bb 27 20 3f
       0.60729414 0.8276127 0.345526 0.62560624
000270 cc 72 20 bf fe c1 40 be 30 bd 03 bd 12 af 22 bd
       -0.62675166 -0.18824002 -0.032162845 -0.03971774
000280 35 80 ab bd 58 be 82 3d b3 00 21 bc 58 e4 1b 3e
       -0.08374063 0.063839614 -0.009826827 0.15223825
000290 54 83 8e 3f a7 e0 0e 3e f7 7a 34 3f c8 ff 04 3e
       1.1133828 0.13952886 0.7050013 0.12988198
0002a0 39 64 69 3c 44 c3 49 3e 64 5a 33 3e 29 cb 17 3f
       0.014245086 0.19703394 0.1751495 0.5929437
0002b0 cc 08 ed 3c 56 20 a4 3e d6 0f 6a 3c 05 8b 7f 3f
       0.028934859 0.3205592 0.014286002 0.998215
0002c0 fc 4e e0 bc 48 d5 5f bf e6 d3 c2 3d 40 a4 ba be
       -0.027381413 -0.87434816 0.09513073 -0.36453438
0002d0 88 82 24 be ff 1c 34 be 0a 9d 12 be b0 3e 12 bb
       -0.16065419 -0.17589186 -0.14317718 -0.0022315197
0002e0 4a f1 8d 3e 81 28 1c be d6 1a 39 bd 2f 62 18 3e
       0.2772315 -0.15249826 -0.04519161 0.14881204
0002f0 fb 67 85 be 74 67 bf bc 98 7c 18 3d c7 f7 0b be
       -0.26055893 -0.02336476 0.037228197 -0.13668738
000300 9d 03 5c be 96 56 f7 3d 28 21 88 3e 59 19 92 be
       -0.21485753 0.12077062 0.26587796 -0.28534964
000310 69 7b ef 3d b3 e7 e4 3d f2 49 77 bd 54 55 74 be
       0.116934605 0.111770056 -0.060373254 -0.23860675
000320 38 23 cc 3e d1 6e a0 bd 7b 49 7e 3e f3 cf 0f be
       0.3987062 -0.078336366 0.24832718 -0.1404417
000330 76 71 43 3e 07 c4 13 bd 6c 4d b7 3e c2 3f c3 3d
       0.1908625 -0.036075618 0.35801256 0.09533645
000340 62 e8 9c 3e 7e b0 6a 3e af 6b 23 3f 7f 0a d7 bd
       0.30646044 0.22918889 0.6383619 -0.10500049
000350 80 aa 49 bf 12 30 91 3b 66 08 f9 be 07 78 ea 3c
       -0.7877579 0.0044307793 -0.4863922 0.028621687
000360 92 65 45 be 94 81 94 3d 53 6f c6 be 9e e4 74 3e
       -0.19277027 0.072512776 -0.3875681 0.23915336
000370 2d 16 5f 3f a9 fd 40 bd 34 08 28 bd 08 fe e3 3c
       0.8714321 -0.04711691 -0.041023448 0.027831092
000380 fc a3 48 bf fc 3f b6 3e bc 35 c7 be 3c ef de bd
       -0.7837522 0.3559569 -0.38908184 -0.10885474
000390 c8 42 e2 3e 94 86 78 bc 3d ba 2e 3e a4 d6 03 3e
       0.44191575 -0.015168805 0.17063232 0.12874848
0003a0 5e 8b 2f be 89 5e 8c 3d ee e1 d1 bd 4b c2 53 bd
       -0.17143008 0.06853969 -0.10248171 -0.051698964
0003b0 cf 63 ad 3e a3 ba 7a bf b6 bc c1 3d 20 7c dd be
       0.3386521 -0.97941035 0.09459822 -0.43258762
0003c0 41 f6 22 be 2c f7 52 bd d9 df 47 be 2b 63 a0 be
       -0.15914251 -0.051505253 -0.19518985 -0.3132566
0003d0 22 94 21 3f 6b c2 32 3f f8 56 4c be b7 aa 9c be
       0.6311666 0.6982791 -0.19955051 -0.30598995
0003e0 c4 9a a8 be ef c3 a7 be 55 42 da be ab b0 04 bf
       -0.32930577 -0.32766673 -0.42628732 -0.51832074
0003f0 90 fc 88 3d 14 69 bc be ff a1 b1 3b 1f 39 ac 3d
       0.066887975 -0.36798918 0.005420923 0.084093325

bias f4 [32]
000000 b8 b4 50 3f 26 38 76 3f 32 d1 53 be 6c 7b 9b bb
       0.81525755 0.96179426 -0.2068527 -0.0047449376
000010 49 4e a7 bc d3 1a dc 3e 70 68 3f be 3d 68 21 3f
       -0.020423071 0.42989215 -0.18692183 0.6304968
000020 15 3c a7 bc c2 20 11 3f 8b 22 3e 3f db 2f 65 3f
       -0.020414392 0.5669061 0.7427146 0.89526147
000030 86 71 85 bd ee 09 48 bd 78 a8 0b be 08 e3 72 3f
       -0.065157935 -0.048837595 -0.13638484 0.9487767
000040 b5 1b 7b 3f ee db c1 3d 2f 13 2c 3f 4a 4d 9a 3f
       0.9808915 0.094657764 0.6721677 1.2054837
000050 c6 78 96 bd 7d a0 07 3f e4 e1 6d 3f 5b 0a 7e 3f
       -0.073472545 0.5297926 0.92922807 0.9923455
000060 2f 4d 8b 3f e0 36 06 bd 18 fe 48 3f 2d fb 0b 3f
       1.088293 -0.032767177 0.78512716 0.5468014
000070 14 e0 97 3f e9 f3 30 3f aa bd 25 bd 85 c1 4f be
       1.1865258 0.6912218 -0.04046408 -0.20288666

weight f4 [64, 32]
000000 53 98 8d be 4e 94 1d 3d 26 6d 13 be ea a5 9e be
       -0.27655277 0.038471512 -0.14397106 -0.30985957
000010 21 0d 4e c0 76 ec f2 3e 91 8a 85 bf aa 50 18 3f
       -3.2195513 0.4744603 -1.0432912 0.59498084
000020 00 0b 9a bf 81 cc 13 3f bd 11 3c 3f c8 13 b4 3e
       -1.2034607 0.57733923 0.73464566 0.35171342
000030 f0 b6 58 be 1f c1 89 bd 4d c3 18 c0 b1 5f 64 3e
       -0.21163535 -0.06726288 -2.3869202 0.22302128
000040 cd 10 5b bd 13 72 20 c0 64 19 b3 3d e5 2d 2f 3e
       -0.05348282 -2.5069625 0.08745077 0.17107351
000050 ee 9d 44 bf 52 4d bf 3e 23 95 0d 3e 84 86 10 3f
       -0.7680348 0.37363678 0.13826422 0.56455255
000060 af bd 48 3e bd 40 0d bf 37 fa da 3e 9d f5 81 3e
       0.19603609 -0.5517691 0.42769024 0.253827
000070 50 e7 6a bd e7 f4 03 3f 93 bb 50 be 03 b4 92 3e
       -0.057349503 0.51545566 -0.20384054 0.28652963
000080 1d 21 30 3f da 65 ed 3e 2d 45 12 bf 42 ad d2 be
       0.68800527 0.4636677 -0.57136804 -0.4114781
000090 f2 8a 2b bf 2d 06 40 3e ed 41 4d bf 17 02 3f 3f
       -0.6700889 0.18752356 -0.8017872 0.74612564
0000a0 09 35 63 bf 3e 09 00 3f a8 c9 1e 3f b4 04 1b 3f
       -0.887528 0.500141 0.62026453 0.6055405
0000b0 2b 72 53 3d b0 59 ca be fb 33 1c bf a8 cb 10 3f
       0.05162255 -0.3952155 -0.61016816 0.56560755
0000c0 a8 aa f8 3e 32 66 f3 bd e3 3e c1 3e ff 77 73 bd
       0.485677 -0.118847266 0.3774329 -0.05944061
0000d0 f7 2d e0 3e 56 f0 5a 3f cc 6e 85 3e e1 30 e0 3e
       0.43785068 0.85522974 0.26061094 0.43787292
0000e0 0e b6 34 3e f6 25 11 bf ed 19 04 3f 1d f7 17 bf
       0.17647573 -0.5669855 0.5160206 -0.5936144
0000f0 fc e6 b4 3e 9f 7b 17 3f a7 24 91 be 31 89 13 bf
       0.35332477 0.59173006 -0.28348276 -0.5763121
000100 d6 13 9a 3e a3 7b 12 bd 7f bd bd be 00 96 89 3e
       0.3009326 -0.03576244 -0.37058637 0.26872253
000110 97 3a 6e 3e 9f 80 9f 3c 99 e0 a8 bf ce 23 d6 be
       0.23264538 0.019470511 -1.3193542 -0.41824192
000120 0d a5 a0 3f 83 eb 90 3e 5d 25 29 3e dd c6 da bd
       1.255037 0.2830468 0.16518159 -0.106824614
000130 1b 27 e1 3d 77 9b 87 3e db 98 19 3f e6 83 b6 3c
       0.10993787 0.26485798 0.59998864 0.022279691
000140 19 ca c5 3d 9b 58 0d 3f 7e f3 f0 3e 82 f3 04 bf
       0.09657688 0.55213326 0.4706077 -0.51934063
000150 7b ec c5 3e a6 1b 53 be ae 6a 0d 3d 3f 3c ef bd
       0.38656983 -0.20616016 0.034525566 -0.11681413
000160 62 fd 43 3d bc 68 98 bd 0d 7b 1c bf 6c 3a c7 3e
       0.047849067 -0.074418515 -0.6112526 0.3891176
000170 d6 63 62 3d f5 2b 2a 3e f3 65 d2 3e 28 63 20 bd
       0.055270992 0.16618331 0.41093406 -0.039157063
000180 24 7f 63 3e 2d c6 05 3f a9 7c a5 3e c7 d0 fc bd
       0.22216469 0.5225552 0.3232167 -0.123445086
000190 25 2f 79 3e 5b b9 22 3d b3 a5 d2 3f 70 f4 b3 be
       0.2433439 0.03972755 1.6456817 -0.3514743
0001a0 3f ce b6 bf 77 e2 7f bf 42 44 0a bf 4a 9e 4c 3e
       -1.4281691 -0.9995493 -0.54010403 0.19982257
0001b0 66 c2 ea be 45 a0 ba 3d d4 15 db be 5d 85 ff bd
       -0.4585144 0.091126 -0.4279009 -0.12476609
0001c0 d9 1b 3b 3d a9 5a 84 bf 3e 09 ff 3c fd f3 a4 3d
       0.045680854 -1.0340167 0.031132337 0.080543496
0001d0 b3 80 8a 3e cf b2 1f bf 2c 60 61 be de c4 0e bd
       0.27051315 -0.62382215 -0.22009343 -0.034855716
0001e0 db f9 6a be 17 fd b0 3e 7e 61 c9 3c 90 30 d8 bf
       -0.22946875 0.34568092 0.02458262 -1.688982
0001f0 7e c4 be 3e 74 b2 d1 3d a0 fb 70 be fa 5b 10 3f
       0.37259287 0.10239115 -0.23533487 0.56390345
000200 e2 63 ef 3e e8 eb 07 3f aa 55 42 be 19 63 17 bf
       0.46755892 0.5309434 -0.18977991 -0.59135586
000210 a0 43 91 be 7f ac dc 3e 8c 2e 2b bf b7 b3 5b be
       -0.28371906 0.43100354 -0.668679 -0.21455275
000220 7a 3d 1f bf 9f 48 0f 3e 14 f9 0d 3f 7e c8 52 3e
       -0.6220318 0.13992546 0.5545819 0.20584294
000230 3c 4f 98 bf e8 87 03 c0 0a 0e 06 bf 08 a4 e7 3e
       -1.189918 -2.05517 -0.5236517 0.45242333
000240 38 c8 da 3e 5c 82 2b 3d 22 89 d6 3e 1c d0 69 bd
       0.4273088 0.041872367 0.419015 -0.057083234
000250 be 4e 89 be 52 5d 29 3f 86 d6 89 3e 6f 63 fa 3e
       -0.26817888 0.6615802 0.2692148 0.48903987
000260 91 94 d4 3e 64 14 59 c0 e1 2d bd 3e c8 04 01 bf
       0.41519597 -3.3918695 0.36949065 -0.5039792
000270 24 a7 03 3f a2 1e 44 3f 9b 26 aa bf 85 e3 71 3e
       0.5142691 0.7660924 -1.3293031 0.23621948
000280 6f 59 0f 3f bf 34 1e 3f 7e ea 03 bf 28 2d 44 bf
       0.5599584 0.61799234 -0.5152968 -0.766314
000290 45 f8 57 bf 3d b3 f8 3e c6 1d 20 bf d2 3c 60 3f
       -0.84363204 0.48574248 -0.6254543 0.87592804
0002a0 3b 69 a5 bf bd 8c 0b 3f da bb 1e 3f f5 2b 06 3f
       -1.2922739 0.54511625 0.6200539 0.52410823
0002b0 70 2f b5 be 01 e0 ae be 5b 71 08 bf 0d 5a 2c 3f
       -0.35387754 -0.34155276 -0.53297967 0.67324907
0002c0 f9 57 e8 3e 63 b1 6c bf a8 1a 15 3f e7 f5 99 3e
       0.45379618 -0.9245817 0.582438 0.3007042
0002d0 cf f9 a9 be 98 0c 3e 3f bf 16 9c 3e 63 c6 2f 3f
       -0.331984 0.74237967 0.30486104 0.6866209
0002e0 9f 5d 4e 3f 4f 8c 3a bf d7 df 21 3f a9 e4 53 3d
       0.80611604 -0.72870344 0.6323218 0.05173174
0002f0 83 04 0d 3f 17 dc 36 3f 72 7f 26 bf 68 7e c3 3d
       0.5508501 0.7142958 -0.65038216 0.095455945
000300 57 f6 25 bb 96 5e 13 bf b6 ec d8 bf 8a 71 16 3e
       -0.0025323832 -0.575662 -1.6947238 0.14691749
000310 f3 57 aa 3e 19 26 a1 3d 04 67 19 3f 95 8c 10 3e
       0.33270225 0.07868595 0.59922814 0.14116128
000320 e2 0f 30 3f f6 be 65 3e f6 70 8d 3e aa 8a 39 be
       0.68774235 0.22436127 0.27625245 -0.18119302
000330 17 f9 d2 bd 60 8d 69 3d 95 9f 40 3f 2d 70 8c bc
       -0.10301416 0.05701959 0.752435 -0.017143333
000340 24 d0 3a 3d 0d 5d 00 3e 0b d1 46 3e 14 96 c5 be
       0.045608655 0.12535496 0.19415681 -0.38591063
000350 0e 88 57 3e 43 fe 5e be f9 30 58 be 77 97 bc be
       0.21047994 -0.2177668 -0.21112432 -0.36834309
000360 e7 0f d4 3e 4f 97 a2 3e 85 3b 16 bf f9 c4 72 3f
       0.41418383 0.31756064 -0.5868457 0.94831806
000370 32 a1 3e be 99 c2 06 bf 3c d8 f3 3e 3f 6d 3b 3f
       -0.18616179 -0.5264068 0.4762591 0.7321357
000380 54 ad b3 bd 5a e2 88 bc 84 80 cc 3e 25 be f3 3e
       -0.08773294 -0.016709495 0.399418 0.47606006
000390 6e 3e a9 3e cf 39 53 3d 14 84 b3 3e 5b bd 11 3e
       0.33055443 0.051568802 0.35061705 0.1423239
0003a0 6b f6 22 3e f9 70 43 3e d9 1c f6 be 44 0f a8 3e
       0.15914313 0.19086064 -0.48068884 0.32824147
0003b0 26 2c 8a bf cf 84 27 3e f3 22 09 3f 01 68 5e 3e
       -1.0794723 0.16359256 0.53568953 0.21719362
0003c0 05 5e d2 bd b8 c8 be be 61 59 77 3b d6 7b 67 3e
       -0.10271839 -0.3726251 0.0037742483 0.22605833
0003d0 05 8e 45 be 19 bc 23 be 76 9c de bd db 5f 1e 3d
       -0.19292457 -0.15989722 -0.10869686 0.038665634
0003e0 58 a5 44 bd be 01 86 3f 21 06 bb be 50 b6 22 be
       -0.048009247 1.0469282 -0.36528113 -0.15889859
0003f0 df 0b 75 be 49 59 b1 bd 70 50 8d be dc c6 a1 bc
       -0.2393031 -0.08659608 -0.2760043 -0.019748144

bias f4 [64]
000000 10 61 06 3f 47 85 1a 3f 73 1f be be 68 58 5b be
       0.52491856 0.60359615 -0.3713337 -0.21420443
000010 78 a8 5a 3f 77 38 5f 3f 6a ab e2 be 98 2d 89 be
       0.8541331 0.87195534 -0.44271404 -0.26792598
000020 b3 bb 98 3f 3d d0 d1 3e 04 5c 29 3f fa 83 96 bd
       1.1932281 0.40979186 0.6615603 -0.07349391
000030 cb fd 3d 3f d3 4d c6 bc 76 37 f9 bd be 1a a5 be
       0.7421538 -0.024207031 -0.121687815 -0.32246965
000040 a8 e3 a0 3f cf 36 0e bf 4c 55 d8 bd 77 8e 95 be
       1.2569475 -0.5555238 -0.10563144 -0.29210255
000050 20 ef 05 bf c3 02 b2 be 24 13 c1 3e 43 bb 91 be
       -0.52318 -0.34767732 0.37709916 -0.28463182
000060 b7 b2 96 3f 93 be 7c 3e 8c 3e 99 3f 9c 5c 63 3f
       1.177329 0.24682073 1.1972213 0.88813186
000070 51 31 21 3f 34 dd 06 3f 60 35 cd be bd 93 60 3f
       0.62965876 0.5268128 -0.40079784 0.8772543
000080 03 4e 7c 3f 58 0f 61 3f ed 63 53 3f 4f fa 3d 3f
       0.98556536 0.8791404 0.8257435 0.74210066
000090 a7 8d 5f 3f 35 e6 16 3f e1 2b c8 3a 14 16 9f 3f
       0.8732552 0.5894502 0.0015271866 1.2428613
0000a0 de 25 1c be e0 f2 9e 3f 86 ef fd 3e dc ad 7d be
       -0.1524882 1.241787 0.49596804 -0.24773353
0000b0 e2 a7 87 3f 08 69 8d 3f 87 19 82 3f fe 68 08 3f
       1.0598109 1.1047678 1.016404 0.53285205
0000c0 aa 92 96 3f d2 67 e2 3b 8e af a8 3d 75 ae 5d be
       1.1763508 0.006909349 0.082366094 -0.21648581
0000d0 38 53 26 be 7a b8 7a 3f 3f d1 72 be 10 be e1 bc
       -0.16242683 0.9793774 -0.23712634 -0.02755645
0000e0 57 49 cb 3e 48 03 cf be 04 01 7a 3f d5 8a 11 bf
       0.3970439 -0.4043219 0.976578 -0.56852466
0000f0 cc 83 9b 3f 5e 28 c3 bd d7 72 20 3f b5 d2 23 3f
       1.2149596 -0.09529184 0.6267523 0.6399339

weight f4 [5, 64]
000000 a9 fd de 3f 92 c9 59 3f 11 7e 13 bf 3b a5 87 bf
       1.7421161 0.85073197 -0.5761424 -1.0597299
000010 24 b2 b3 3f be 9a 8b 3f 17 db 7b bf 7c ec 6e bd
       1.4038739 1.0906599 -0.9838118 -0.058330998
000020 cd 8d 15 3f 48 34 8d 3f 2e fa 9e 3f 1b ea 66 bf
       0.58419496 1.103158 1.2420099 -0.90200967
000030 fa 08 a0 3f 65 c2 79 bf a0 2e 21 bf 40 87 5d bf
       1.250274 -0.9756225 -0.6296177 -0.865345
000040 a8 d0 34 3f a2 56 b0 bf 90 06 84 bb 28 82 cf be
       0.70630884 -1.3776438 -0.0040291026 -0.4052899
000050 0d 38 3a bf d7 e3 f4 be 80 64 8d 3f 02 a2 73 bf
       -0.72741777 -0.47830078 1.1046295 -0.9516908
000060 86 3f 27 3f 2c ff eb 3f bc bf 2f 3f fa 23 a7 3f
       0.65331304 1.8437247 0.6865194 1.3057854
000070 ff f5 73 3f 1b 27 ad 3f a2 64 54 bf f6 bd 49 3f
       0.95297235 1.3527559 -0.82966053 0.7880548
000080 ee 62 6c 3f 96 57 12 3f d8 e6 31 3f 55 15 57 3f
       0.92338455 0.57164896 0.69492865 0.84016925
000090 36 97 8d 3f bc df c7 3f ae 3d 4e be e1 5c 2b 3f
       1.1061771 1.5615153 -0.20140716 0.66938597
0000a0 ba 38 de 3d b1 a6 1c 3f 1a 56 64 3f 7a fe 55 3d
       0.108506635 0.6119185 0.8919388 0.05224464
0000b0 18 a2 fe 3e 00 64 19 3f 27 cb 5c 3f b4 24 d4 3f
       0.49733043 0.5991821 0.86247486 1.6573701
0000c0 7a fc 7a 3f b2 b0 1e be 4b cf d2 3f 43 d2 23 bf
       0.980415 -0.15497091 1.6469511 -0.6399271
0000d0 87 24 9e bf bd a4 8c 3f ca 45 59 bf 8f da 60 bf
       -1.2354897 1.0987774 -0.84872115 -0.87833494
0000e0 95 51 b3 3f 4f c3 28 bf b2 50 1b 3f 79 66 59 bf
       1.4009272 -0.6592302 0.60670006 -0.84921986
0000f0 d0 bd 24 3f 23 58 2a be 3e 21 59 3f 29 8b 9e 3f
       0.6435213 -0.16635184 0.8481635 1.2386218
000100 19 22 e8 3f fd b7 26 3f d0 95 6a bf 62 9b b3 bf
       1.8135406 0.65124494 -0.91634846 -1.4031794
000110 a9 c0 d9 3f 10 1a 95 3f e8 46 7b bf 0e eb e3 3e
       1.701192 1.1648579 -0.9815507 0.4451527
000120 eb 3e 20 3f 9d 5f 8c 3f f7 3b 9a 3f d4 23 c4 bf
       0.62596005 1.0966679 1.204955 -1.5323434
000130 d1 1e 90 3f 6a 4e 07 bf 1c 16 8c be 26 24 49 bf
       1.1259404 -0.52854025 -0.27360618 -0.78570783
000140 58 56 22 3f 69 6b d3 bf 2e b4 06 3f 0c e2 73 3f
       0.63413 -1.6517154 0.5261868 0.95266795
000150 16 d3 56 bf 69 c5 7e bf 14 09 86 3f e3 60 ad bf
       -0.8391584 -0.99519974 1.047152 -1.3545192
000160 4d 79 1e 3f 04 34 08 40 80 e6 2f 3f 39 f5 8c 3f
       0.6190384 2.1281748 0.6871109 1.1012336
000170 5a 39 86 3f bc 76 b2 3f ff 67 24 bf f5 80 1f 3f
       1.0486252 1.3942485 -0.64221185 0.6230615
000180 ea 46 50 3f 18 b7 eb 3e ac 62 46 3f f4 7f 59 3f
       0.81358206 0.46038127 0.7749431 0.84960866
000190 aa 51 87 3f ef 29 b4 3f 85 b9 13 3f 16 f8 43 3f
       1.0571797 1.4075297 0.57704955 0.76550424
0001a0 3b a4 7c bd 9d 20 17 3f 2b c7 53 3f a4 f0 8b 3d
       -0.06168006 0.5903414 0.8272578 0.06833008
0001b0 39 0b 07 3f eb 56 2c 3f bc 1e 6f 3f 9b 5f e8 3f
       0.527515 0.67320126 0.9340627 1.8154176
0001c0 b2 9e 81 3f f5 48 f2 be ff 60 94 3f d4 57 18 bf
       1.0126555 -0.47321287 1.1592101 -0.59509015
0001d0 98 ce a4 bf a1 43 84 3f 09 d9 76 bf e0 20 c0 bf
       -1.2875547 1.0333139 -0.9642492 -1.5010033
0001e0 0c fd ca 3f 9d 7c 23 bf cb 83 11 3f 74 81 49 bf
       1.5858474 -0.6386202 0.56841725 -0.78713155
0001f0 24 76 1d 3f 47 ec a7 be f3 7f a0 3f a7 fb c9 3f
       0.61508393 -0.32797453 1.2539047 1.5779923
000200 3a 21 d5 3f 93 b8 9a 3f e0 87 f8 be 27 a3 b1 bf
       1.6650765 1.2087578 -0.48541164 -1.3877915
000210 77 77 9d 3f 79 af 8d 3f 9e 64 ad bf 2d 13 55 bf
       1.2302083 1.1069175 -1.3546331 -0.83232385
000220 33 26 19 3f 59 fb 83 3f c7 4a ae 3f f2 ca 35 bf
       0.5982391 1.031108 1.361657 -0.71012795
000230 d1 dc a3 3f 0f 06 cf bf ff c3 42 bf 0d f2 94 bf
       1.2801763 -1.6173724 -0.76080316 -1.1636368
000240 47 e1 0f 3f b2 47 65 bf 3c 91 0b bf 4d 93 84 bf
       0.5620312 -0.89562523 -0.54518485 -1.0357453
000250 6c ac 1c bf 33 29 29 3e a2 e9 96 3f 6e 48 be be
       -0.61200595 0.16519623 1.1790049 -0.37164634
000260 5e 94 3e 3f a8 51 05 40 af fc 36 3f 67 6b ca 3f
       0.7444514 2.083109 0.71479315 1.5814027
000270 5c ae 77 3f 4d 94 b7 3f 17 72 ba be 70 7d 48 3f
       0.96750426 1.4342133 -0.3641517 0.783164
000280 c2 b0 5b 3f 59 c0 1f 3f fc d7 27 3f b7 d4 54 3f
       0.85816586 0.62402874 0.6556394 0.8313708
000290 97 d4 8e 3f f6 50 cd 3f 07 8d d4 bf 9e 44 36 3f
       1.1158627 1.6040332 -1.6605538 0.7119845
0002a0 97 88 b3 bd ef 70 23 3f a4 09 82 3f 91 42 4a bc
       -0.08766287 0.638442 1.0159192 -0.012344972
0002b0 97 f3 ee 3e cb 19 2a 3f 86 51 47 3f bf de ba 3f
       0.4667022 0.66445607 0.7785877 1.4599227
0002c0 4d e2 76 3f 29 7d 14 3f 2e 03 00 40 11 2d 5e bf
       0.9643906 0.5800348 2.000194 -0.86787516
0002d0 0c b8 95 bf d8 ba 7f 3f 01 ea 1b bf 5f fc 62 bf
       -1.1696792 0.99894476 -0.60903937 -0.8866634
0002e0 ba 20 a6 3f b0 66 69 bf 45 9b 23 3f 4c 83 42 bf
       1.2978737 -0.91172314 0.639088 -0.75981593
0002f0 e6 38 18 3f d9 08 ad 3e a8 1e bf 3e ee 78 74 3f
       0.5946182 0.33795813 0.37328076 0.95497024
000300 6a 86 f4 3f 6c 66 68 3f 74 d0 e3 be 2e 60 8a bf
       1.910352 0.90781283 -0.44494975 -1.0810602
000310 25 4a 96 3f 05 32 9c 3f d0 26 8c bf 75 d9 f8 be
       1.1741377 1.2202765 -1.0949345 -0.48603407
000320 74 9c 26 3f 1d a1 80 3f 40 cc 9b 3f 77 5b a3 bf
       0.6508248 1.0049168 1.2171707 -1.2762288
000330 9e ec c6 3f f2 2b 88 bf cf 68 62 bf 20 c5 ff be
       1.554096 -1.0638411 -0.88441175 -0.49955082
000340 ca 93 21 3f 31 fd d9 bf dd 20 3b 3f a0 60 56 3f
       0.63116133 -1.7030393 0.7309702 0.8374119
000350 8d 71 29 bf 98 9a ed be 2b a5 97 3f 0f a9 08 c0
       -0.6618889 -0.46407008 1.184728 -2.1353185
000360 68 14 03 3f 9b 84 e5 3f 66 57 29 3f be 0b bc 3f
       0.5120301 1.7931093 0.66148984 1.4691083
000370 ba fc 75 3f a6 77 e6 3f 87 81 74 bf 2d d4 34 3f
       0.96088755 1.8005264 -0.95510143 0.70636255
000380 8c b5 4e 3f bf 90 0c 3f d6 09 20 3f e2 7d 25 3f
       0.8074577 0.54908365 0.6251501 0.64645207
000390 7a 89 8a 3f 0c c9 c8 3f f6 5c 6f 3e 05 83 3b 3f
       1.0823205 1.5686355 0.23375306 0.73246795
0003a0 e7 60 24 be f2 0d 24 3f 06 de 3d 3f b6 4a 29 3d
       -0.1605259 0.6408378 0.74166906 0.041331016
0003b0 2b ba 16 3f 13 50 02 3f 68 de 4a 3f b8 20 e5 3f
       0.5887782 0.50903434 0.79245615 1.790061
0003c0 a5 3d 61 3f 48 7c 74 3f 8f 90 b7 3f 8a 5d 8a bf
       0.8798469 0.9550214 1.4340991 -1.0809796
0003d0 ff e0 85 bf 60 72 9c 3f ba d2 b3 bf 87 8b 8c be
       -1.0459288 1.2222404 -1.4048684 -0.274502
0003e0 f4 39 91 3f c8 d4 de be dc 1f 2c 3f 7d 09 f2 be
       1.1345811 -0.43521714 0.67236114 -0.47272864
0003f0 a9 94 17 3f b6 b9 8c be 65 71 6f 3f 0f 34 75 3f
       0.5921121 -0.27485436 0.935324 0.9578256

bias f4 [5]
000000 56 6a 30 3f 6a 25 2a 3f eb 83 23 3f 9a db 26 3f
       0.68912256 0.6646334 0.63873166 0.65178835
000010 ed 5f 04 3f
       0.5170887
