models/simple_tag/A2C-not-shared/agent_0/actor_0.pt (torch, 14536 bytes, 6 tensors)

weight f4 [32, 10]
0	0xbf8bbabb	-1.0916361
1	0x3d982dcb	0.07430609
2	0x3f82dcfe	1.0223691
3	0xbf01d18d	-0.50710374
4	0xbf32c098	-0.69825125
5	0xbf0819fc	-0.5316465
6	0x3da0aada	0.07845087
7	0xbedbefcc	-0.42956388
8	0xbf9b6066	-1.2138793
9	0x3e8a1fda	0.26977426
10	0xbfbb4132	-1.4629271
11	0xbee29fe7	-0.4426262
12	0xbf99ee55	-1.2025858
13	0xbf4edc75	-0.8080514
14	0xbe6bb31e	-0.23017547
15	0xbeee9412	-0.46597344
16	0x3f0a9b1e	0.5414294
17	0x3f856bf7	1.0423573
18	0x3d9eaff7	0.077484064
19	0x3ed0c692	0.40776497
20	0xbf7de98b	-0.99184483
21	0xbf58260f	-0.8443307
22	0x3daa96b9	0.08329529
23	0x3fe4cdda	1.7875321
24	0xbe85e04e	-0.26147693
25	0xbf0194c7	-0.5061764
26	0xbeeb9bf1	-0.4601741
27	0xbee4294e	-0.44562763
28	0x3e67aedc	0.22625297
29	0xbdbb9dc8	-0.09160954
30	0x3f5d37de	0.8641337
31	0x3f749e75	0.95554286
32	0xbe9dbe26	-0.30809134
33	0x3fe1f89c	1.7653995
34	0x3da35548	0.079752505
35	0xbe253632	-0.16133955
36	0x3e3e2720	0.18569613
37	0x3fb2f8c7	1.3982171
38	0x3f528ca8	0.82245874
39	0x3eb711dd	0.35755816
40	0xbed6ef85	-0.41979614
41	0x3f6240b1	0.8837996
42	0x3f5080ee	0.8144673
43	0x3f4c10b6	0.79713
44	0x3e9c7777	0.30559894
45	0x3e307106	0.17230615
46	0x3f228783	0.63488024
47	0x3f1b1df6	0.6059259
48	0x3f311ef8	0.6918788
49	0xbf379412	-0.7171031
50	0xbcd55382	-0.026040796
51	0x3d8be860	0.068314314
52	0x3de41c95	0.11138264
53	0x3cd1a1f4	0.02558992
54	0xbdc917ec	-0.09819016
55	0xbe25f7a0	-0.16207743
56	0x3e437914	0.19089156
57	0x3e626c58	0.22111642
58	0xbd7f596e	-0.062341146
59	0x3d1e4dd3	0.038648438
60	0x3fecd5dc	1.8502765
61	0xbfb4e2e6	-1.4131744
62	0xbefb0d47	-0.49033567
63	0xbe5b960e	-0.2144396
64	0xbdecf28a	-0.11569698
65	0xbe31decd	-0.17370148
66	0xc005c326	-2.090036
67	0x3e98aa22	0.298173
68	0xbea91f17	-0.33031532
69	0x3e006f2d	0.1254241
70	0x3fb58b65	1.4183165
71	0xbf379ae3	-0.71720713
72	0x4028078f	2.6254613
73	0x3f0c7ca8	0.5487771
74	0x3f24e204	0.6440737
75	0x3e3255a2	0.17415479
76	0x3fa6206b	1.2978643
77	0xbdea765b	-0.11448356
78	0x3d0b2ed1	0.033980194
79	0x3f26c18a	0.6513907
80	0xbe9db2e2	-0.3080054
81	0x3fb1057a	1.3829796
82	0xbf9cd639	-1.2252876
83	0x3fa4e250	1.2881565
84	0xbb0817fe	-0.0020766254
85	0xbf58f858	-0.8475394
86	0xbdfc1144	-0.12307981
87	0xbf502035	-0.81299144
88	0x3e9fe1ce	0.31226963
89	0xbf315709	-0.6927343
90	0xbfc180eb	-1.5117468
91	0xbf8156d2	-1.010462
92	0xbee5d81d	-0.44891444
93	0xbec4d39f	-0.38442704
94	0x3f53dd42	0.8275949
95	0xbeb14158	-0.34620166
96	0xbf62ab22	-0.8854238
97	0x3fa767cb	1.307855
98	0xbe410f4d	-0.18853493
99	0xbf6ba8c0	-0.9205437
100	0x3cb76dc3	0.022391206
101	0x3f2333e4	0.63751054
102	0xbf8a8a36	-1.0823429
103	0x3ee8b3db	0.4544972
104	0xbf1bb650	-0.6082506
105	0xbf0536a5	-0.52036506
106	0x3ece65f2	0.40312153
107	0x3f261a26	0.6488365
108	0x3f261600	0.6487732
109	0xbd763b1e	-0.060114972
110	0x3f8c6b5a	1.0970261
111	0xbdfb1711	-0.12260259
112	0x3ea4bb7f	0.32174298
113	0xbedcb7e6	-0.43109053
114	0x3e251ab1	0.16123463
115	0xbf8d60c1	-1.1045152
116	0x3f7c5283	0.985634
117	0x3eb0ef53	0.3455759
118	0x3eb9d39d	0.3629426
119	0x3dbd5cad	0.09246192
120	0xbf11fe91	-0.5702906
121	0x3e086e30	0.13323283
122	0xbef30f0b	-0.47472414
123	0x3f67783d	0.90417844
124	0x3d2dccc0	0.042431593
125	0xbe8a9325	-0.27065387
126	0x3f45b111	0.77223307
127	0xbe8c3933	-0.2738739
128	0x3eea049a	0.45706636
129	0x3efa7868	0.48919988
130	0xbed0b65e	-0.40764135
131	0x3f166df1	0.5876151
132	0xbf9bbea1	-1.216755
133	0xbd2691da	-0.04066644
134	0xbf0ed404	-0.5579226
135	0xbf32c2cb	-0.6982848
136	0xbdd822a5	-0.10553483
137	0x3e35122c	0.17682713
138	0x3f273f32	0.65330803
139	0x3ea71234	0.32631075
140	0xbfbb5014	-1.4633813
141	0x3f8ca5d5	1.0988108
142	0x3eb8d52c	0.36100137
143	0x3f8dc84b	1.107675
144	0xbea03595	-0.3129088
145	0x3de47d05	0.11156658
146	0x3e0fd441	0.14045812
147	0x3fd70c1e	1.6800573
148	0x3e661458	0.22468698
149	0xbe7088aa	-0.23489633
150	0x3e8d67d4	0.27618277
151	0xbedb6260	-0.42848492
152	0x3ffc4ee4	1.9711576
153	0x3f47b6d6	0.7801336
154	0xbea2a259	-0.31764486
155	0xbec429bf	-0.383131
156	0x3fad5ccb	1.3543943
157	0x3e287f85	0.16454895
158	0xbe1e1f9b	-0.15441744
159	0x3f6b76c3	0.9197809
160	0xbe5b65a7	-0.21425496
161	0xbedfb6f2	-0.43694264
162	0x3f40c561	0.75301176
163	0xbfd813e3	-1.6881069
164	0xbc22b487	-0.009930736
165	0xbf0bf2b8	-0.54667234
166	0x3f6e3ea6	0.93064344
167	0xbf483a8a	-0.78214324
168	0x3c0ebd7d	0.00871217
169	0xbc4768c4	-0.012170974
170	0x3fcc949b	1.5982851
171	0xbe248da6	-0.1606966
172	0x3e9692c9	0.29408863
173	0x3f00f77e	0.50377643
174	0xbef11a3b	-0.47090325
175	0x3e371de1	0.17882492
176	0xbf6ea3bc	-0.9321859
177	0x3f26d46e	0.6516789
178	0xbf384d65	-0.71993095
179	0x3e4d503e	0.20050141
180	0x3f370fdb	0.7150857
181	0xbeed4872	-0.46344334
182	0x3ef4ddfb	0.47825608
183	0xbdcd4796	-0.100234196
184	0xbee93266	-0.45546263
185	0xbe3043db	-0.17213385
186	0xbfb53713	-1.4157432
187	0x3f82bdac	1.0214133
188	0xbf4d3358	-0.8015647
189	0xbe75b2a1	-0.23993923
190	0x3f2d56b5	0.6771043
191	0xbe74d759	-0.23910274
192	0xbec37125	-0.3817226
193	0x3f1ed9fe	0.6205138
194	0xbea3cd92	-0.31992775
195	0xbf0a6dbe	-0.54073703
196	0xbf4f355e	-0.80940807
197	0x3fdc9359	1.7232467
198	0xbee576b3	-0.44817123
199	0xbe068ecd	-0.13140412
200	0x3eea3654	0.45744574
201	0xbea4fbfc	-0.322235
202	0xbee2b53f	-0.44278905
203	0xbe1ade7f	-0.15123938
204	0xbe8547dc	-0.26031387
205	0xbea97771	-0.3309894
206	0xbf5c74de	-0.86115825
207	0xbdcbe60b	-0.099559866
208	0x3f0f4f98	0.55980825
209	0x3ebfc7f6	0.37457246
210	0x3f7a3428	0.97735834
211	0x3de24a17	0.11049288
212	0x3e5c5bfa	0.21519461
213	0x3c3662e5	0.011131977
214	0xbe08df8c	-0.13366526
215	0x3d8234cd	0.06357727
216	0x3e2d52d5	0.16926129
217	0x3da6b568	0.08140069
218	0xbd296d90	-0.041364253
219	0xbdfafa3a	-0.12254758
220	0x3e96fd46	0.29490107
221	0xbf315bf6	-0.69280946
222	0x3e0464b9	0.12929048
223	0xbe113b14	-0.14182693
224	0xbdbba478	-0.09162229
225	0x3e456966	0.19278488
226	0x3f4c5e79	0.79831654
227	0x3e3ecf05	0.18633659
228	0xbde7254f	-0.11286413
229	0xbebb6082	-0.36597067
230	0xbec5b582	-0.38615042
231	0x3f9137c7	1.1345147
232	0xbe89db38	-0.26925063
233	0x3f6e819c	0.9316652
234	0xbf06a778	-0.5259929
235	0xbeb55a5b	-0.35420498
236	0x3f6441ae	0.8916272
237	0x3e0809cb	0.13284986
238	0xbebda9c5	-0.37043586
239	0x3f0ec620	0.55771065
240	0xbe2d0e54	-0.16899997
241	0xbebe8fc8	-0.3721907
242	0xbf1691ad	-0.58816034
243	0xbf01e785	-0.50743896
244	0xbd851f0b	-0.065000616
245	0x3db0e860	0.08638072
246	0xbf54c7f5	-0.8311761
247	0x3f17f672	0.5936042
248	0xbdd038e2	-0.101670995
249	0xbd86e2de	-0.0658624
250	0x3e72add1	0.23699118
251	0x3e64e329	0.2235228
252	0xbf389da9	-0.7211557
253	0x3eba0cb4	0.36337817
254	0xbf25179c	-0.6448915
255	0x3ea567f8	0.32305884

bias f4 [32]
0	0xbf14ebb1	-0.58172137
1	0xbfbecbb1	-1.4905912
2	0xbec45260	-0.38344097
3	0xbf89bb7f	-1.0760344
4	0x3e15cd6e	0.14629146
5	0xbf9ca87c	-1.2238917
6	0xbfa3177e	-1.2741544
7	0xbed28feb	-0.41125426
8	0xbfed21ca	-1.8525937
9	0xbfbb4f98	-1.4633665
10	0xbffb60a6	-1.963887
11	0xbfc5519e	-1.5415533
12	0xbf5a17a4	-0.8519232
13	0xbfff3e74	-1.9940934
14	0xbb6e654b	-0.0036376293
15	0x3fc23589	1.5172588
16	0x3fac9d3d	1.3485485
17	0xbf99881d	-1.1994663
18	0xbfebb8bf	-1.8415755
19	0xbfda3200	-1.7046509
20	0xbfdd8783	-1.730698
21	0xc00f3c6c	-2.2380629
22	0xbff61bef	-1.9227275
23	0xbfea84db	-1.8321794
24	0xbfb23377	-1.3921956
25	0x3fb9a26c	1.4502692
26	0xbfc3a107	-1.5283517
27	0xbfddea70	-1.733717
28	0xbfd4dc87	-1.66298
29	0xbfd434ea	-1.6578648
30	0xbfac0353	-1.3438514
31	0xbfca293d	-1.5793835

weight f4 [64, 32]
0	0xbd85b783	-0.06529143
1	0xbeff92de	-0.49916738
2	0xbf0902eb	-0.5352008
3	0xbf211833	-0.6292755
4	0xbc949d56	-0.01814143
5	0xbe915aed	-0.28389683
6	0x3e6a4c23	0.22880606
7	0xbdd01b48	-0.101614535
8	0xbe9e738b	-0.30947527
9	0xbead5def	-0.33860728
10	0x3e0e7981	0.13913538
11	0xbe244ace	-0.1604416
12	0xbf0d1bcf	-0.5512056
13	0xbec7abe8	-0.38998342
14	0xbd869bfa	-0.06572719
15	0xbe008ddf	-0.1255412
16	0xbf4b18f8	-0.79334974
17	0x3dbf4dc4	0.093410045
18	0xbe9117ee	-0.2833857
19	0xbd829eee	-0.0637797
20	0xbe8ac67e	-0.27104563
21	0xbe9a8dc9	-0.30186298
22	0x3e581e7d	0.2110538
23	0x3dd8b11b	0.10580655
24	0xbdf871ed	-0.121311046
25	0xbedc1368	-0.42983556
26	0x3ba28e75	0.00496083
27	0xbcdfb652	-0.027308617
28	0xbdb76d23	-0.08956363
29	0xbd7db2cc	-0.061938092
30	0xbeaa639a	-0.33279115
31	0xbf1f90ab	-0.6233012
32	0xbf592c81	-0.8483353
33	0xbeb87075	-0.36023298
34	0xbe7640c5	-0.24048145
35	0xbda9e3d9	-0.082954116
36	0xbdbd8f1b	-0.09255811
37	0xbe83d11c	-0.25745475
38	0xbd53ff23	-0.05175699
39	0x3d91d0ca	0.071199015
40	0xbe97cd33	-0.29648742
41	0xbf830a21	-1.0237466
42	0xbdac8aaa	-0.084248856
43	0xbeff26f9	-0.4983442
44	0xbd446fec	-0.0479583
45	0xbeed3b68	-0.46334386
46	0x3bb4547c	0.0055032354
47	0xbe779fe1	-0.24182083
48	0xbf568341	-0.8379403
49	0x3d9ae254	0.075627
50	0x3e7d7481	0.24751474
51	0x3d1239b7	0.035699572
52	0x3f07617d	0.5288313
53	0xbecc064b	-0.3984855
54	0xbe4a43fa	-0.19752494
55	0x3e95b168	0.29236913
56	0xbf1ff85a	-0.6248833
57	0xbe1dcaaa	-0.15409341
58	0xbe82d3da	-0.25552255
59	0xbf3f8024	-0.748049
60	0xbf343c48	-0.7040448
61	0xbf38fb06	-0.7225803
62	0xbe8b95ca	-0.27262717
63	0xbedbda2f	-0.42939898
64	0xbea55709	-0.32292965
65	0xbe5f2c24	-0.21794182
66	0x3d9d9163	0.07693746
67	0xbf1d20fe	-0.6137847
68	0xbe1f9b2c	-0.15586537
69	0xbee4dada	-0.4469822
70	0xbdbdd281	-0.09268666
71	0xbe9a99e7	-0.30195543
72	0xbe6d6680	-0.23183632
73	0x3e0678f9	0.13132085
74	0xbde31b31	-0.11089171
75	0xbe7f2baf	-0.24919008
76	0xbe98cb80	-0.29842758
77	0x3e362b92	0.17790058
78	0xbe6360bc	-0.2220487
79	0xbf225269	-0.63407
80	0xbeb73786	-0.3578455
81	0xbeb2c796	-0.34917897
82	0xbf000c6d	-0.5001896
83	0x3e1088f6	0.14114746
84	0x3e44651d	0.19179197
85	0xbec3f0ac	-0.38269556
86	0xbc17e70a	-0.009271393
87	0xbe809dd5	-0.25120416
88	0x3dc70c6a	0.09719165
89	0xbe92d3ad	-0.2867712
90	0xbd99b4ca	-0.07505186
91	0xbda92328	-0.08258659
92	0xbe8fbfbe	-0.28075975
93	0xbd17f113	-0.03709514
94	0xbdfd26d6	-0.12360923
95	0x3d6c1e9d	0.057646383
96	0xbf810709	-1.0080272
97	0xbf1dfd69	-0.617148
98	0x3f7cdb07	0.9877171
99	0x3f36baba	0.7137867
100	0x3ef00185	0.4687616
101	0xbe93e481	-0.28885272
102	0xbfe721e0	-1.8057213
103	0xbf4b22a1	-0.79349715
104	0x3ec781a4	0.38966095
105	0x3f8c51db	1.096248
106	0xbfa22447	-1.2667321
107	0xbee4b541	-0.44669536
108	0xbfba694f	-1.4563388
109	0xbf19f100	-0.6013336
110	0x3e705891	0.23471285
111	0xbfa11d4b	-1.2587065
112	0xbf5b56da	-0.856794
113	0xbfc17113	-1.5112633
114	0xbfbf1243	-1.4927448
115	0xbfa05844	-1.2526937
116	0x3ee444d5	0.44583765
117	0xbf3e4aae	-0.743327
118	0xbf869b29	-1.0516101
119	0x3f65a6a2	0.89707386
120	0x3f499099	0.78736264
121	0xbdcd5e83	-0.10027792
122	0xbf99dec3	-1.2021106
123	0x3f6dc947	0.9288525
124	0xbf04def9	-0.5190273
125	0xbf086f04	-0.53294396
126	0xbd5b3d4b	-0.05352525
127	0xbe9d5008	-0.30725121
128	0xbce869ab	-0.028370699
129	0xbec66d76	-0.38755387
130	0xbecf8d0b	-0.40537295
131	0x3e1469fd	0.14493556
132	0xbf567327	-0.8376946
133	0x3ef8972a	0.4855283
134	0xc010b665	-2.2611325
135	0xbd8e08b1	-0.069352515
136	0x3ee49993	0.44648418
137	0xbe87d85e	-0.26532263
138	0xbea03f06	-0.31298083
139	0xbfe36504	-1.7765203
140	0xbf238963	-0.6388151
141	0x3e53cdc3	0.2068396
142	0xbf3444a0	-0.70417213
143	0xbed4f517	-0.4159324
144	0xbf343d09	-0.7040563
145	0xbfd87f42	-1.6913836
146	0xbfae6f07	-1.3627633
147	0xbe35b824	-0.17746025
148	0x3ea71b7c	0.32638156
149	0xbf92e527	-1.1476182
150	0xbe783bc4	-0.24241549
151	0xbd8f9c02	-0.07012178
152	0xbf1fdcf4	-0.6244652
153	0x3dbf4a79	0.093403764
154	0xbc6bdfad	-0.01439659
155	0x3f005b6f	0.50139517
156	0xbfb7d555	-1.4361979
157	0xbe9418b3	-0.28925094
158	0x3cea8442	0.028627519
159	0xbd747647	-0.05968311
160	0xbeedcf71	-0.46447328
161	0x3f03ed22	0.5153371
162	0xbf15af74	-0.58470845
163	0xbfa7538f	-1.3072375
164	0xbfa95158	-1.3227949
165	0x3e96211f	0.29322144
166	0x3fa1497a	1.2600548
167	0xc0007e93	-2.0077255
168	0x3dd51770	0.10404861
169	0x3eee0d6f	0.46494624
170	0xbfc53f93	-1.5410026
171	0x3f909c5f	1.1297721
172	0xbe8f8906	-0.28034228
173	0x3f508984	0.8145983
174	0xbf2b6ff4	-0.669677
175	0xbf9dba69	-1.2322513
176	0xbe953140	-0.29139137
177	0x3f805a90	1.0027637
178	0x3e243d21	0.16038944
179	0x3eaf9fb7	0.3430154
180	0x3f145e53	0.5795643
181	0x3e85829a	0.26076204
182	0x3efe409c	0.49658668
183	0x3dec74b4	0.11545697
184	0x3fa7f3a0	1.3121223
185	0xbf0292b6	-0.51005113
186	0x3f20debf	0.62839884
187	0x3f0aafba	0.5417439
188	0x3fffc6c6	1.9982536
189	0x3ed40c7f	0.41415784
190	0x3e359165	0.17731245
191	0xbf5ee1bd	-0.870632
192	0xbec78d50	-0.38975
193	0xbf063fef	-0.52441305
194	0x3f204892	0.62610734
195	0xbf4476e5	-0.7674392
196	0xbf442823	-0.76623744
197	0x3e9f0098	0.3105514
198	0x3f312b13	0.6920635
199	0x3ef5a2d3	0.47975788
200	0xbdf72838	-0.12068218
201	0xbeceeeb6	-0.40416497
202	0xbe9d303c	-0.30700862
203	0x3eca682b	0.395326
204	0xbf64505d	-0.89185125
205	0xbf3c1e1a	-0.7348343
206	0xbea83bca	-0.32858115
207	0xbe914c5f	-0.2837858
208	0xbebc5fdc	-0.36791885
209	0xbe1a4961	-0.15067054
210	0xbf0599ef	-0.5218801
211	0xbbf94ded	-0.0076081664
212	0x3d28b8bf	0.041191813
213	0xbe5c1456	-0.21492133
214	0xbce9bde8	-0.028532937
215	0xbf2d83b1	-0.6777907
216	0xbdb6b4d7	-0.08921211
217	0xbeee06ff	-0.46489713
218	0xbdb634f9	-0.088968225
219	0xbf8ea9c0	-1.1145554
220	0x3f715997	0.9427733
221	0x3f0abe71	0.5419684
222	0x3f82441a	1.0177033
223	0xbfa1a524	-1.2628522
224	0xbe35c149	-0.17749514
225	0x3eaff041	0.34362987
226	0xbf4a4dcc	-0.7902496
227	0xbf1353e3	-0.57549876
228	0xbfd243db	-1.6426958
229	0xbefd92bd	-0.49526015
230	0xbe65f713	-0.22457533
231	0xbe525e79	-0.20543851
232	0xbe04c65a	-0.1296629
233	0xbf161a2d	-0.5863369
234	0xbefd1b1e	-0.4943475
235	0xbf8602bf	-1.0469588
236	0x3f0645f7	0.5245051
237	0x3f03160d	0.5120552
238	0x3dcab041	0.09896899
239	0xbffb5810	-1.963625
240	0xbeb46d96	-0.35239857
241	0xbfe18f9c	-1.7621951
242	0x3e0d28d9	0.13785113
243	0x3f5b45f3	0.8565361
244	0xbf6a8f55	-0.9162496
245	0xbd0b968d	-0.034079123
246	0x3f97ad18	1.1849699
247	0x3f1fe4d9	0.6245857
248	0xbeeb7666	-0.45988768
249	0xbf60af2e	-0.87767303
250	0x3ea9f1aa	0.33192188
251	0x3f47a3b1	0.7798415
252	0x3f59b195	0.85036594
253	0x3f2dcf56	0.67894495
254	0xbf36e60c	-0.71444774
255	0x3f5e4ca9	0.86835724

bias f4 [64]
0	0xbf0cd978	-0.5501933
1	0xbf0b9818	-0.5452895
2	0xbe9c5603	-0.30534372
3	0xbe2bab70	-0.16764617
4	0xbf7df50c	-0.99202037
5	0xbf5ed406	-0.8704227
6	0xbebdb6c8	-0.37053514
7	0xbfb3603f	-1.4013747
8	0xbe3e1c7f	-0.18565558
9	0x3e8a3c51	0.26999143
10	0xbfa1db3b	-1.2645029
11	0xbfd07c56	-1.6287944
12	0xbdd38ee5	-0.10329989
13	0xbeb58ed4	-0.35460532
14	0xbf436d2b	-0.7633845
15	0xbf134208	-0.5752263
16	0xbf537169	-0.82594925
17	0xbe8e5102	-0.2779618
18	0xbe2b1a65	-0.16709287
19	0xbf64702d	-0.89233667
20	0xbeef905a	-0.4678982
21	0xbe8d1145	-0.27552238
22	0xbe963093	-0.29333934
23	0xbf4a3296	-0.7898344
24	0xbe72ef8a	-0.2372419
25	0xbee4281f	-0.4456186
26	0xbf75b5f2	-0.9598075
27	0xbcd22a28	-0.025654867
28	0xbf036bd8	-0.5133643
29	0xbf1f6862	-0.6226865
30	0xbf375ce3	-0.7162611
31	0xbfa50bf5	-1.2894274
32	0xbe56063e	-0.20900819
33	0xbfa1385b	-1.2595323
34	0xbf53674a	-0.8257948
35	0xbf61b1df	-0.88162035
36	0xbf6a2283	-0.9145891
37	0xbf05a9c2	-0.52212155
38	0xbe60c8cc	-0.21951598
39	0xbf68eba0	-0.90984535
40	0xbf964f91	-1.1743032
41	0xbf1c6ed7	-0.6110663
42	0xbed54961	-0.41657546
43	0xbf8479b4	-1.0349641
44	0xbed00501	-0.40628818
45	0xbf400455	-0.7500661
46	0xbf9a3f52	-1.2050574
47	0xbf7c4b50	-0.9855242
48	0xbf0eadce	-0.55733955
49	0xbf5b5f16	-0.85691965
50	0xbf194a87	-0.59879345
51	0xbf14a454	-0.58063245
52	0xbe5ac42c	-0.21363896
53	0xbf177e40	-0.5917702
54	0xbec6a164	-0.38795006
55	0xbf291eab	-0.6606242
56	0x3d1243a6	0.035709046
57	0xbe526ecb	-0.20550077
58	0x3dedbf67	0.11608773
59	0xbe8a6b23	-0.27034864
60	0xbde18f85	-0.11013702
61	0xbf376a2a	-0.7164637
62	0xbf4c55c4	-0.7981837
63	0xbf679e83	-0.90476245

weight f4 [5, 64]
0	0x3e2d5f0a	0.16930786
1	0xbca4a5ff	-0.020098684
2	0xbe436f24	-0.19085366
3	0x3f56cc42	0.8390542
4	0x3e24e2f5	0.16102202
5	0x3f81c49e	1.0138128
6	0x3f5f122b	0.871371
7	0x3f1f3fe6	0.62206876
8	0x3ef13c65	0.4711639
9	0x3e5b7088	0.21429646
10	0x3d1df356	0.03856214
11	0x3ebdd94a	0.3707984
12	0x3e1eeb0d	0.15519352
13	0xbe13c225	-0.14429529
14	0x3ee3a75b	0.4446362
15	0x3e990dea	0.29893428
16	0xbd18385a	-0.037163116
17	0xbe33f55c	-0.17574066
18	0xbd8eaa35	-0.06966058
19	0x3e14fe80	0.14550209
20	0x3d0f51a4	0.034989968
21	0x3d8a000a	0.06738289
22	0xbec339fb	-0.38130173
23	0x3e80f7d8	0.2518909
24	0x3e37883f	0.17923068
25	0x3e3aec86	0.18254289
26	0x3f032f94	0.51244473
27	0x3f56a276	0.83841646
28	0xbe3f7765	-0.18697889
29	0x3eb8f163	0.36121663
30	0x3e7053d9	0.23469485
31	0x3f31abd0	0.6940279
32	0x3c5a3945	0.013319318
33	0xbe1a4008	-0.15063488
34	0x3ef02b32	0.46907955
35	0x3e94b46a	0.29043895
36	0x3df1fc0d	0.11815653
37	0x3d404164	0.04693736
38	0xbd9743cd	-0.07385979
39	0x3e5ab66e	0.21358654
40	0xbe072e3c	-0.13201231
41	0xbe28b8b6	-0.16476712
42	0x3e3bb796	0.18331751
43	0x3e4646bf	0.19362925
44	0x3dfbe905	0.12300304
45	0xbe867704	-0.26262677
46	0xbeb8ed2d	-0.3611845
47	0x3e570dfc	0.21001428
48	0x3e051d28	0.12999403
49	0x3e8dbf70	0.27685118
50	0x3f8ceddc	1.1010089
51	0x3f67a598	0.9048705
52	0x3ef471bf	0.4774303
53	0xbc6d4740	-0.014482319
54	0x3d25e857	0.04050478
55	0x3ec4dcf7	0.38449833
56	0x3f130873	0.5743477
57	0xbf0012d6	-0.5002874
58	0xbc903d24	-0.01760728
59	0xbdbdb805	-0.092636146
60	0x3cdfdcfc	0.027327053
61	0x3f5f10ef	0.87135214
62	0xbe79ae76	-0.24382958
63	0x3f019400	0.50616455
64	0x3ee25294	0.44203627
65	0x3dc82d0c	0.09774217
66	0xbd935685	-0.07194237
67	0xbde22029	-0.1104129
68	0xbf0a5bdb	-0.5404641
69	0x3f874dfc	1.0570674
70	0x3f6888f2	0.9083396
71	0x3e45dc51	0.19322325
72	0xbd4df5d9	-0.050283287
73	0xbeb07b46	-0.3446905
74	0x3eec7e7c	0.4619025
75	0xbe5e5fe0	-0.21716261
76	0xbf4293bf	-0.7600669
77	0xbe59f6cd	-0.21285553
78	0x3f70d3aa	0.94072974
79	0x3d8ebbb1	0.06969393
80	0x3f082b89	0.5319143
81	0xbda8117b	-0.08206459
82	0x3d1e05f0	0.03857988
83	0x3fdfd930	1.7488155
84	0xbdb93fae	-0.09045349
85	0xbe516d9f	-0.20451973
86	0x3e7e001d	0.2480473
87	0x3e6b2535	0.22963412
88	0x3d3c9d5c	0.046048507
89	0x3e9d5ea2	0.30736262
90	0x3e3953c4	0.1809836
91	0x3f8e300e	1.1108415
92	0x3efc92c6	0.4933073
93	0xbf169854	-0.58826184
94	0xbfe6082a	-1.7971241
95	0x3fc2cea3	1.521931
96	0xbf1d1605	-0.61361724
97	0xbe29c350	-0.16578412
98	0x3ce690af	0.028145162
99	0x3ee2e9e5	0.44319072
100	0x3f96168e	1.1725633
101	0x3f0668fb	0.5250394
102	0xbde0bc17	-0.10973375
103	0x3de94492	0.11390032
104	0x3f8ed455	1.1158549
105	0xbfba1fc6	-1.4540946
106	0xbe37d1d7	-0.17951141
107	0x3d9ffd11	0.078119405
108	0x3d1a856d	0.0377249
109	0x3ed95379	0.42446497
110	0xbe6de423	-0.23231559
111	0x3e7714d5	0.2412904
112	0x3eadfac7	0.3398039
113	0x3f04f450	0.5193529
114	0xbdf53b82	-0.11974241
115	0xbfca30d9	-1.5796157
116	0x3e551bd1	0.20811392
117	0xbefc702d	-0.49304333
118	0x3ddc6596	0.107615635
119	0x3edc7665	0.43059078
120	0x3ee45474	0.44595683
121	0xbeb8afa0	-0.3607149
122	0x3f5d1469	0.8635927
123	0x3c555a23	0.013021979
124	0xbca4f48c	-0.02013614
125	0xbe431a78	-0.19053066
126	0xbf4a84d3	-0.79108924
127	0xbfb159e3	-1.3855556
128	0x3ddcd870	0.1078347
129	0x3e2e23a6	0.17005786
130	0x3cea47bc	0.028598659
131	0x3f9b1184	1.211472
132	0x3f26f6a4	0.65220094
133	0xbc55b692	-0.013044016
134	0x3e835192	0.2564817
135	0x3fce2feb	1.6108373
136	0x3ee93f48	0.45556092
137	0x3f98678a	1.1906598
138	0xbf6ca0db	-0.92432946
139	0x3f238929	0.63881165
140	0x3dd632ff	0.104589455
141	0x3dc5300d	0.096283056
142	0xbe74b401	-0.23896791
143	0x3d3ad9c4	0.045617834
144	0xbeab1cec	-0.33420503
145	0x3dc580e1	0.09643722
146	0xbc42df60	-0.011894077
147	0xbed2f2cd	-0.41200867
148	0x3ed97d89	0.42478588
149	0xbd75023a	-0.059816577
150	0x3f00106b	0.5002505
151	0xbeb5f70d	-0.35540047
152	0x3e8b20d8	0.27173495
153	0xbf14a17a	-0.58058894
154	0x3ee046e5	0.43804088
155	0xbd89ee4e	-0.06734906
156	0xbe4be0b3	-0.19909935
157	0x3d8a67fe	0.06758116
158	0x3f4517a7	0.76989216
159	0xbebe1d10	-0.37131548
160	0x3ed7fcb7	0.42184994
161	0x3f4c0634	0.79696965
162	0x3e47e660	0.19521475
163	0xbd7697fc	-0.060203537
164	0xbf8be178	-1.0928183
165	0x3dd9a0e9	0.10626394
166	0xbb6f62b0	-0.0036527328
167	0x3da5f1d8	0.08102769
168	0xbe474c37	-0.19462667
169	0x3d65ae81	0.056074623
170	0xbc8e7045	-0.017387519
171	0xbe61725c	-0.22016281
172	0xbd16031a	-0.03662405
173	0xbf270c70	-0.65253353
174	0x3f79b02b	0.97534436
175	0x3f66e550	0.90193653
176	0xbeb1f9f5	-0.34761015
177	0xbdfee376	-0.124457285
178	0xbf3fe2c7	-0.7495541
179	0x3f7b30e6	0.9812149
180	0x3f3c2fc4	0.73510385
181	0x3ebdb5f4	0.37052882
182	0x3d919e5f	0.07110285
183	0x3ca7f0a1	0.020500483
184	0xbf26cc12	-0.65155137
185	0x3d637158	0.055528015
186	0xbf1bc05b	-0.60840386
187	0xbe58df3b	-0.21178906
188	0x3be253b4	0.006906951
189	0x3dcc4aa6	0.099751756
190	0x3f7abd65	0.97945243
191	0x3f8b289c	1.0871768
192	0x3ec0fe42	0.37693983
193	0x3ed10aa3	0.40828428
194	0xbe821f5c	-0.2541455
195	0x3f5ea07c	0.8696363
196	0x3f25edd3	0.64816016
197	0xbf62d5f6	-0.8860773
198	0xbe615203	-0.22003941
199	0xbdd43c88	-0.10363108
200	0x3d965027	0.073395066
201	0x3e91afbe	0.28454393
202	0x3ed627a6	0.41827124
203	0x3f1af35f	0.60527605
204	0x3f3d6036	0.7397493
205	0xbb73c8c8	-0.0037198532
206	0x3f70b961	0.94032866
207	0x3ea4e993	0.32209453
208	0xbf246b54	-0.6422627
209	0x3d5eb5fe	0.05437278
210	0x3e58da48	0.21177018
211	0xbf07fe43	-0.5312235
212	0x3e2620db	0.16223471
213	0xbe4ad6c9	-0.19808497
214	0x3da7d106	0.08194165
215	0x3ea384f9	0.31937388
216	0xbe18baad	-0.14914961
217	0x3e81d53c	0.25357997
218	0x3e9850df	0.297492
219	0x3e820bd5	0.25399652
220	0xbd9af62e	-0.07566486
221	0x3e37ad8f	0.17937301
222	0x3fc81f5a	1.5634568
223	0xbfd8c3a4	-1.6934705
224	0xbf1cb777	-0.61217445
225	0xbc9c1dda	-0.019057203
226	0xbd21edf4	-0.03953357
227	0x3ca5b9ef	0.020230262
228	0x3c95a917	0.018269105
229	0x3ecac404	0.39602673
230	0xbc303b15	-0.010756274
231	0xbf0ce128	-0.5503106
232	0x3f0deef4	0.5544274
233	0x3ed366a4	0.41289246
234	0x3e80b82a	0.25140506
235	0x3ed20134	0.41016543
236	0xbe72c4d1	-0.23707892
237	0xbe3b54ab	-0.18294017
238	0x3ec86c67	0.39145204
239	0x3f625a61	0.8841916
240	0xbe845230	-0.25843954
241	0xbf146d62	-0.57979405
242	0x3f699ac8	0.912518
243	0xbe9b32c1	-0.3031216
244	0xbc936a0f	-0.017994909
245	0xbf1bd567	-0.608725
246	0x3e461c5b	0.19346754
247	0xbe127dbb	-0.14305775
248	0xbf25d873	-0.647834
249	0x3f0ac5b4	0.5420792
250	0x3f6ad90c	0.9173744
251	0x3e57ec3b	0.21086209
252	0xbe2c1ed6	-0.16808638
253	0x3f842f52	1.0326941
254	0x3fb0073b	1.3752207
255	0x3ee1e411	0.44119313

bias f4 [5]
0	0x3e49e0d8	0.19714677
1	0x3f38e2ff	0.7222137
2	0x3eea8543	0.45804796
3	0xbe1f76d8	-0.15572679
4	0x3f91af35	1.1381594
