models/simple_tag/A2C-shared/agent_0/actor_0.pt (torch, 14536 bytes, 6 tensors)

weight f4 [32, 10]
00000000: 5bec cabf 428c 3a3f 7f31 80be b875 95bd
00000010: a13f dcbc 7a56 e53d adda a5be 1335 71be
00000020: 2ac3 48bf 33a7 b9bd cd79 58be 6457 25bf
00000030: 666c 39bf 2234 89be ae42 f93e 0743 e23d
00000040: 43b6 bf3e 8bb0 68be 2e4d fdbe dcf2 84bc
00000050: 5312 ac3b 3f0f 6d3f 45d1 87be 950b df3e
00000060: 6391 91be 64a3 9e3e a3e2 debe 7e23 003e
00000070: bbc4 1c3e 141c 093f 87c5 a1be 0aa1 2d3f
00000080: 129a b13f 80f7 9c3d 0a7f e23e db4a 03bf
00000090: edd3 5a3f 5a0c 7e3d 17c6 d53e 295b 42be
000000a0: 91c6 92bf 0b46 f43e 0c8d bfbe b9c4 e73e
000000b0: 4885 9cbe 250f 5bbe 95f5 373f 8aeb 7bbf
000000c0: 252f 77bf b93a 003f be29 2a3e 985a 873d
000000d0: 2bd4 89be 1873 ffbe 1bac 943d 8927 edbc
000000e0: d9e7 62bd 8f77 b5be 032e 81bd f685 9bbe
000000f0: 52db 673e 8cda 443f 2955 c7bf 04c0 003f
00000100: 3d9f 493e 39e0 de3e 63ef d13e 66b5 6ebe
00000110: 4cbe d53c efac 7e3b 2da9 62bc a5f0 213e
00000120: cc02 bb3f 2f9b 0fbf 93d9 263f 6e09 b7be
00000130: 95ea 843f d63d 013e 6ef9 f4be d736 ba3e
00000140: a61b 0f3f ab5d 73bf 0481 913f 3bc0 7ebf
00000150: 490e 603d da34 c5be ded4 88be 2a57 183f
00000160: 826e 573f 7945 e73e 0488 f53e 679c 51bf
00000170: 2d4e 553f 476b 08bf 849f 53be 93ac f0be
00000180: f471 ddbe 2df0 44bd 8786 b43d da1b 023d
00000190: 9889 0bbf 54f4 7d3f be54 533f d7c9 023f
000001a0: d24c b93e df18 d5be c89e 1f3f f95f 82be
000001b0: 0e45 bebe a920 4cbf a0da 2cbd dd66 74bc
000001c0: 4d60 c8bd c194 e43c e117 1bbe cc05 013e
000001d0: 1fee c7bc b149 c4bc 4326 f33c ae80 17bd
000001e0: 27f8 0fbf bd99 1cbc 85ec 8f3e 8853 1e3f
000001f0: f1df 263f e0c8 7fbd 53e9 973b 4f87 70be
00000200: 7d59 5b3f 6aa9 47bf c5f6 89bf 63a8 893f
00000210: e00c 37be 0e1b 213e 5407 38be e571 5cbf
00000220: 502e b03e 16fc a7be b08f 7bbf b43f 513f
00000230: 41e6 143e 9f28 ac3d 64b1 103f 2a02 333f
00000240: 53f8 c33e 7046 293f 40d8 523e c34f 14bb
00000250: f626 673e eeac 9ebc 77dc ee3e d53a 753f
00000260: e2fa 9d3e 56c8 4abf e328 9ebf 65f2 52bf
00000270: 519a 723e 0d4b 973e 4979 0dbf 9533 c0be
00000280: 8fc6 4f3f f7c4 5abb 62a3 a63f 3e93 6e3e
00000290: 07b2 06bf 2341 143c 4f3b f13d 875f e2bd
000002a0: 8f64 12bf 3521 d33d 88d7 aabd c1e8 a4bf
000002b0: 057e af3f c347 bdbe fa4a ddbd 4982 68be
000002c0: cac2 103f 53b2 32bf de44 703e f92c 2dbf
000002d0: ab42 05bf 2ce4 8fbf bd40 87bf 4055 8cbf
000002e0: 2822 1c3e d8d6 663e 291a 6d3e 9bf4 ff3d
000002f0: f6ad 0b3f 8973 d13e ea25 753e 6101 f0be
00000300: 4376 b8bd 6872 3b3e 151f b23d dfa2 e83d
00000310: 998b 58be 9b95 a23e c7b0 783e 7b24 e63c
00000320: 2dad 593e 3b66 653f 956f 843f 668e a9bf
00000330: e416 243e 7706 483d 4f1e 173e 90ee 30be
00000340: 9008 f4be 7519 cfbe 6780 19bf 106f e0be
00000350: f70b 6cbe 2fe0 85bf 43cf 853e 22a3 3cbf
00000360: 4ee5 603e ab06 c7be f9b6 11bf f573 04bd
00000370: 6144 8dbf 5454 aabf 152d 823e 7cbc 2bbf
00000380: 5267 003f 6332 083f 0e47 e8bd 7d10 7f3f
00000390: 5e06 b73e 0de8 ad3d ec61 113f f3b4 bcbe
000003a0: dcd8 b33f 19a7 433a 3702 b03e edce 6abd
000003b0: e884 003e 7911 14be c3cc 7fbe 5b35 bb3e
000003c0: 8e31 4fbf 463c 1dbf a0c7 6b3f b9e0 d6be
000003d0: c001 8cbd 8ebc 6cbf 8b39 aabe 8e1f 6dbe
000003e0: 1ff4 153f 792c d23d 090e d43d c9d3 6a3f
000003f0: 3b7c b53f f9fc 4b3f 011b aebf eab4 403f
-1.585338 0.72870266 -0.25037763 -0.07297844 -0.02688581 0.11198135 -0.323934 -0.23555402
-0.78422797 -0.09065094 -0.21140213 -0.6458647 -0.7243103 -0.26797587 0.48683685 0.11047941
0.37443742 -0.22723596 -0.49472946 -0.016229086 0.005251208 0.9260139 -0.26526847 0.43563524
-0.28431234 0.30984032 -0.43532285 0.12513539 0.15309422 0.5355847 -0.31596014 0.6782385
1.3875144 0.076643944 0.44237548 -0.51286095 0.85479623 0.062023498 0.41752693 -0.18980087
-1.1466848 0.4770969 -0.37412298 0.45267275 -0.30570436 -0.21392496 0.71859103 -0.9840628
-0.9655631 0.50089604 0.16617486 0.06609076 -0.26919684 -0.49892497 0.07259389 -0.028949516
-0.05539689 -0.35442778 -0.06307604 -0.30375642 0.22642258 0.76895976 -1.5572864 0.5029299
0.19689651 0.43530443 0.4100295 -0.23311386 0.026091717 0.00388604 -0.01383428 0.15814455
1.4610229 -0.56096166 0.6517574 -0.35749382 1.0384089 0.12621245 -0.4784655 0.36369964
0.55901563 -0.950648 1.1367497 -0.9951207 0.054701123 -0.38516885 -0.26724905 0.59508
0.84152997 0.4517019 0.47955334 -0.81879276 0.8332241 -0.5328869 -0.20666319 -0.47006664
-0.43251002 -0.048080612 0.088147216 0.031764843 -0.54506826 0.9920094 0.8255118 0.51089233
0.36191422 -0.41620538 0.62351656 -0.25463846 -0.3716206 -0.79737335 -0.042200685 -0.014917103
-0.09783993 0.027902963 -0.15145828 0.12599868 -0.024405537 -0.02396092 0.02968133 -0.036987953
-0.56238025 -0.009558138 0.28110138 0.6184621 0.6518546 -0.06244743 0.0046359687 -0.23489116
0.85683423 -0.7799288 -1.0778433 1.0754513 -0.17876005 0.15732977 -0.17971545 -0.8611129
0.34410334 -0.32809514 -0.98266125 0.8173783 0.1454096 0.08406185 0.56520677 0.6992518
0.38275394 0.66123104 0.20590305 -0.002263055 0.22573456 -0.019369569 0.46652576 0.95792896
0.3085547 -0.7921194 -1.2356228 -0.82401115 0.2369168 0.29549447 -0.5526319 -0.37539354
0.8116235 -0.003338156 1.301861 0.23298356 -0.526154 0.009048733 0.1177889 -0.11053377
-0.5718469 0.10309068 -0.083418906 -1.2883531 1.3710333 -0.36968812 -0.10805316 -0.2270595
0.56547225 -0.6980335 0.23463771 -0.6764675 -0.5205485 -1.1241508 -1.0566632 -1.0963516
0.15247405 0.22542894 0.2315451 0.12497827 0.5456232 0.4090846 0.23940244 -0.46876052
-0.09006932 0.18305361 0.08697335 0.1135919 -0.21147002 0.31754765 0.24286185 0.028093567
0.21257468 0.89609116 1.0346552 -1.3246582 0.16024357 0.04883429 0.14757656 -0.17278504
-0.47662783 -0.4044911 -0.5996155 -0.43834734 -0.23051439 -1.045904 0.2613469 -0.7368642
0.21962473 -0.38872275 -0.5691982 -0.032337148 -1.1036493 -1.3306985 0.2542502 -0.6708448
0.50157654 0.53201884 -0.113416776 0.99634534 0.35747045 0.08491526 0.5679004 -0.36856803
1.4050555 0.0007463559 0.3437669 -0.057326246 0.125507 -0.1445979 -0.24980454 0.36564144
-0.8093499 -0.61420095 0.9210148 -0.41968325 -0.06836271 -0.9247521 -0.33247027 -0.23156568
0.58575624 0.10262389 0.103542395 0.9172941 1.4178537 0.7968288 -1.3601991 0.7527605

bias f4 [32]
00000000: 7859 f2bf db60 a8bf 6331 13c0 cc70 c93f
00000010: 1004 c3bf 37f2 babf 4d8f b1bf 5d47 92bf
00000020: 4440 bbbf 26de 03c0 5277 f2bf c593 14bf
00000030: b360 f9bf 32d5 b3bf 8913 06c0 44e8 3b3f
00000040: 7cad febf c80f cdbf 3d2e ccbf 4e1c f1bf
00000050: 760f a1bf 5d76 ddbf e88f ffbf e86f eebf
00000060: 8c64 cebf 4d6d 55bf 1f7d 7cbf bb34 e0bb
00000070: 167e cc3e 8690 e9bf 7aea aebf ad7b acbf
-1.8933554 -1.3154558 -2.2998893 1.5737548 -1.5235615 -1.4605168 -1.3871857 -1.1428028
-1.4628987 -2.0604339 -1.8942664 -0.5803798 -1.9482635 -1.4049437 -2.0949423 0.73401284
-1.9896693 -1.6020441 -1.5951611 -1.8836763 -1.2582843 -1.7301747 -1.9965792 -1.8627901
-1.6124434 -0.83369905 -0.9862842 -0.0068422235 0.39939946 -1.824723 -1.3665307 -1.3475243

weight f4 [64, 32]
00000000: d212 52be 2d06 bfbd 3431 92be 6536 00be
00000010: 5343 1bbe a379 25be 22f3 3ebe 0594 80bd
00000020: 66bf 28be 5bad 593d 16b5 f63c e284 a7bd
00000030: ba0a 42bd a7d3 313e 2ed0 dcbe 3f2e fcbc
00000040: eb34 edbd d931 e9be bb32 babe 2ce4 1c3e
00000050: 10a4 e6bd 204c cbbd 3454 c7be f645 0b3e
00000060: 6f4b a4be 17f1 2d3d b52c 65bd f0b1 f83a
00000070: 0748 19be d39a e1bc 5fc7 f03d 25fe b43b
00000080: fd78 5e3f 0efd 7f3f c4bd 2e3d a3bc 9dbf
00000090: 5193 47bf a1b1 503f 86a1 463f 48cf 68bf
000000a0: 4751 bdbe dbad 553f 3ad9 9bbf 62b4 7f3e
000000b0: f927 2e3e 0667 12bf bb8b 11bf b234 5bbf
000000c0: ef76 573d a3e3 62be 68f8 09be 6a68 9abe
000000d0: e5c0 48be 17d1 ad3e 5d96 843f ff83 bf3f
000000e0: 3874 7f39 1d08 d6be 4402 153f 41fb d63e
000000f0: c8bd f6be 3f01 363f 6968 37bf 254f 67bd
00000100: d6a5 96be 8023 cb3e a639 723e b70b 8bbf
00000110: 7db3 d5bf 19da 4fbd 9d3a 5cbf 13f1 10c0
00000120: bcb1 afbf b6a4 babc 77fc 703c f4a4 253d
00000130: 95fc cfbd a7c4 f93d 1adf d3bb 8785 9cbf
00000140: 4298 f0be fb67 b9bd 9d6a b43e 2d18 79bd
00000150: c8e9 fdbd 13fd a23e d2d2 693f 31ae 13bf
00000160: dee7 823d ba88 8abf b96d 25bd c647 cfbf
00000170: d421 51bf fbe0 d5bc 4203 35bd 6760 9bbf
00000180: 3f3b 45bf b33f c2be 62ca 053f 6c6a 6fbe
00000190: 3380 8dbd 1cb8 663f 2fc7 3abf 1e93 18c0
000001a0: caac 4b3f 1fd4 35bf 52e9 303d f8bd 263d
000001b0: 39ab 633f 8967 8f3f c36e 2cbe 0ad3 8cbf
000001c0: f72c 94be 6b1c 9cbe 51e0 4a3e cef9 9c3e
000001d0: 8831 debc 6633 1ebf 00c0 29be 5542 2a3f
000001e0: 5f11 d63d ddc6 7dbf 38e0 893e 6889 57bf
000001f0: 5fd9 10bf 7815 d6be ff19 eebe 27d8 f33e
00000200: 93ef d5bc 280f 24bd 3062 3a3e 52d6 b93c
00000210: aaf3 08bf fb50 d4be 0769 c1bd dd37 a4be
00000220: f76c b2be 294e 963d ecda 653e 9ac5 823d
00000230: 062b 03be a57e 0fbf 1df8 26bd 8414 ddbe
00000240: 7e2a 9ebe 5b0a 3e3d 12ab d73e dc03 34bf
00000250: 22fd c4be 67c1 27be 99ce cb3e 91b1 8bbe
00000260: e464 ebbe 6265 44be 89ec 28be c5f3 e6be
00000270: d876 52bd c45c acbe 099d fdbe 8fd6 71be
00000280: 830a 4ebf 80ec 3ebe 7e9f 843f 8160 6dbf
00000290: f8a5 61bc 2cd5 413e 56fe 4bbf d00e 0dbc
000002a0: 2a3f 853f ebc9 5c3e 174b 863f 0453 b2bd
000002b0: bc50 43bf 8687 57bf fd7c 01be dc59 acbe
000002c0: 18ca 3e3f a986 663f 46a4 a8bf e0e4 99be
000002d0: 19c7 213f 0018 933e 0b62 22bf e5d0 b93f
000002e0: a84a 2bbf a33a 4cbd 597a c1be 342c 26be
000002f0: 10ce 0cbe 2c62 3dbe 6fd0 2fbd dbd2 96bf
00000300: 123c 85be 843f 6cbe 47c0 84be 7c8c 92be
00000310: a0a4 05be 1372 07bd 3ff9 343d c566 d7bb
00000320: a443 403d 6f55 82bd 969e 19bd 8c78 d9bd
00000330: 0e6f c0bb 18f0 b4bc a932 4a3d e096 41bd
00000340: 481c 5abe dda7 97be 9200 8fbc 8a4c 20be
00000350: 316b b5be 01b9 82bd c2e9 0fbe d4d9 fb3b
00000360: d36a b4bd 4157 49be 684a 9cbd 418b 11bd
00000370: 7ab1 51be e730 a0be b0b3 adbc 5648 47bc
00000380: 15e3 7dbe 30d9 9abe c66d 82be 1e37 03be
00000390: 8487 99bd 9762 80be 299e c4be 8d21 413d
000003a0: 3ed5 5cbe 22de f9bd 44b4 173d 622e e43d
000003b0: d7ca c9be 9a39 533d 57f5 353d 2234 fbbc
000003c0: 20af c9bd fea5 11bf f23f 9abe d05a 1fbe
000003d0: 85df 37be eb03 d4bd cb2c 16be 9da6 4c3d
000003e0: 86bc 53be aaed 98be ce64 123c 86bf c7be
000003f0: 9a76 b7be 813d bebe 37ed ccbb 9dbc 0cbc
-0.20514992 -0.0932735 -0.28553164 -0.1252075 -0.15162401 -0.16159682 -0.18647435 -0.062782325
-0.16479263 0.05314384 0.030115645 -0.08179642 -0.04737351 0.17365895 -0.43127578 -0.03078377
-0.11582359 -0.45545843 -0.3636683 0.15321416 -0.11261761 -0.09926629 -0.3893143 0.13600907
-0.320888 0.04246625 -0.05595084 0.0018973928 -0.14968883 -0.027539646 0.11756777 0.0055234605
0.86903363 0.99995506 0.042661443 -1.2323192 -0.7795916 0.8152104 0.77590215 -0.90941286
-0.36976072 0.8346841 -1.2175667 0.24971154 0.17007436 -0.5718845 -0.56853837 -0.8562728
0.05260366 -0.22157149 -0.13473666 -0.30157787 -0.19604833 0.33948585 1.0358387 1.4962157
0.0002436199 -0.41803065 0.5820658 0.41988567 -0.48191667 0.7109565 -0.7164369 -0.056471962
-0.29423398 0.39675522 0.23654804 -1.086295 -1.66954 -0.050745104 -0.86026937 -2.264714
-1.3726115 -0.022783618 0.01470863 0.040440515 -0.10155598 0.121957116 -0.0064658048 -1.2228249
-0.46991163 -0.09053036 0.3523759 -0.06081407 -0.12398106 0.31833705 0.9133731 -0.5768767
0.063918814 -1.0822976 -0.040387843 -1.6193779 -0.8169224 -0.026108256 -0.04419256 -1.2138795
-0.7704353 -0.37939224 0.52261937 -0.2338044 -0.06909218 0.9012468 -0.7296018 -2.3839793
0.7956053 -0.71026796 0.04319126 0.040708512 0.8893314 1.1203471 -0.16839127 -1.1001904
-0.28940555 -0.3049043 0.19812132 0.30659336 -0.027123228 -0.6179718 -0.16577148 0.66507465
0.10452532 -0.99131566 0.26928878 -0.8419404 -0.5658168 -0.41813254 -0.46504208 0.4762585
-0.026115214 -0.040053517 0.18201518 0.022685204 -0.534968 -0.41468033 -0.094438605 -0.3207387
-0.3484876 0.073391266 0.22446793 0.06385346 -0.12809381 -0.5605262 -0.040763963 -0.43179715
-0.30891794 0.046396594 0.42122704 -0.7031839 -0.38474375 -0.16382371 0.3980606 -0.2728391
-0.4597541 -0.191793 -0.16496481 -0.45107856 -0.05138287 -0.33664525 -0.4953387 -0.23617004
-0.8048479 -0.18644905 1.0361173 -0.9272538 -0.01377248 0.18928975 -0.7968496 -0.008609489
1.0409901 0.215614 1.0491666 -0.0870724 -0.76295066 -0.8419117 -0.12645335 -0.33662307
0.7452712 0.90049225 -1.3175132 -0.3005743 0.63194424 0.28729248 -0.6343085 1.4516875
-0.6691079 -0.049860608 -0.37788656 -0.162278 -0.13750482 -0.18494481 -0.042923387 -1.1783098
-0.26022393 -0.23071104 -0.25927946 -0.28622806 -0.1305108 -0.033067774 0.044183012 -0.0065735304
0.046939507 -0.063639514 -0.037504755 -0.106186956 -0.0058726138 -0.022087142 0.04936472 -0.047263026
-0.21299851 -0.29620257 -0.017456327 -0.15654197 -0.35433343 -0.06382943 -0.14054015 0.0076858792
-0.088094376 -0.19662191 -0.07631379 -0.035533193 -0.20477858 -0.3128731 -0.021203846 -0.012163242
-0.24793656 -0.30243826 -0.25474375 -0.12813994 -0.07496551 -0.25075218 -0.38401917 0.047151137
-0.2156572 -0.122005716 0.03703715 0.11141659 -0.39412567 0.051568605 0.044423427 -0.030664507
-0.098478556 -0.5689391 -0.3012691 -0.15561986 -0.1795636 -0.1035231 -0.14665525 0.049963582
-0.20677385 -0.29868823 0.0089351665 -0.39013308 -0.35832673 -0.371563 -0.006253864 -0.008589891

bias f4 [64]
00000000: f042 0ebf 3d4b 2ebf 815e 6ebf c459 cebf
00000010: d127 1ebe bdf0 0ec0 693c 21be fde8 93be
00000020: b49b 4abf 937e 443f 495f 383e d728 17bf
00000030: 5300 51bf a825 8cbe 6824 53bf e9f4 9fbf
00000040: 2efa 96be 9119 a4be d884 9bbf faac 78be
00000050: d82c 5fbe feca 76be bce5 f9be 150a e9be
00000060: 5107 cdbf f307 ecbe 6382 cdbe c871 82be
00000070: 9af4 96bf 64c9 61bf 611d 2dbf fb66 f2bd
00000080: 04d6 41bf e166 29bf d323 f4be 51f3 5ebf
00000090: 9d8c 23be eb2f d5bf 9763 8bbe 78fb eebe
000000a0: 0464 7cbf c308 dcbf 4097 93bf 9ab6 03bf
000000b0: 22d2 3bbf 6f44 ecbe 7382 53bd d655 57bf
000000c0: f002 fabe 55df d8bf e557 45bf 3113 0cbf
000000d0: d73f a4bf 3996 8ebe 5fd0 abbf 471c 2bbe
000000e0: ba29 63bf ba9c b9be 1ef0 7ebf 95ec b0be
000000f0: d7fe 8dbf 5576 81bf baf3 bb3e 2619 1bbe
-0.5557089 -0.68083555 -0.9311295 -1.6121144 -0.15444876 -2.2334435 -0.15745701 -0.28888693
-0.79143834 0.76755637 0.18005098 -0.5904669 -0.8164112 -0.2737248 -0.82477427 -1.2496616
-0.29487747 -0.32050756 -1.2149916 -0.24284735 -0.2179445 -0.24100873 -0.48808086 -0.45515504
-1.6017858 -0.46099815 -0.4013854 -0.25477433 -1.1793396 -0.8819792 -0.67622954 -0.11836048
-0.75717187 -0.66172606 -0.47683582 -0.8709002 -0.15971608 -1.6655248 -0.2722442 -0.4667623
-0.9859011 -1.7190174 -1.1530533 -0.514505 -0.7336751 -0.4614596 -0.051638078 -0.8411535
-0.48830366 -1.6943156 -0.7708724 -0.54716784 -1.2831982 -0.27848986 -1.3422965 -0.16710006
-0.88735545 -0.36252385 -0.9958514 -0.34555498 -1.1093396 -1.0114237 0.36709386 -0.15146312

weight f4 [5, 64]
00000000: cf37 6b3d 6482 14c0 4cfb e3be 3b6a 3c3e
00000010: 4cdd ea3c fe14 633e 9367 92bc e587 8d3d
00000020: 61c1 813e 7431 a13e 4d72 be3f 10b1 efbe
00000030: 3025 29bf 4ab6 52bf e9c3 b7bd 2b18 f73e
00000040: 32bc 26be f0a5 f43d 772d 01bf 0804 493f
00000050: 59c9 cc3e 9936 c43e 2662 9dbc a59c b43e
00000060: 7cd6 5ebe 8fc3 a23e 5549 283f e94d 233f
00000070: 6ea4 bfbe b14e d83e e53b 1a3c ed7b 433e
00000080: 02bb 323e 5f1c f63e 0ed5 6cbe 7601 283f
00000090: 6b95 043f b3c1 b73e 2a4b 893d a262 9f3d
000000a0: ee81 1abf b8e4 cf3e 4014 483e a149 fa3e
000000b0: 4ad0 cfbe 0e20 05be 7e09 d7be 435c 993e
000000c0: 4181 573e cf27 b1be 8942 143f c532 6a3e
000000d0: 110f 193f e5b2 cabd 6eb5 bebd 5f81 cdbc
000000e0: 10ba dcbc 44fc 203d 1051 953e 72fe 963f
000000f0: 63d5 21bf c886 e1be 4e63 1f3f 871c 643d
00000100: 8da9 893d 2407 123f e62e e33d 1a7c 43be
00000110: 6145 16bf 0d7f ce3f 3fca c3bc d9ad 433e
00000120: 90a6 bfbe 5026 043f d507 2c3f 6098 b73d
00000130: 17dd 7dbe 1bf9 c43e 8f5d dc3d cd72 0ebf
00000140: fa1b 993f a039 353e 81c1 e7be 8ded 80bf
00000150: c692 f53c 81b8 7e3f 44ff 2abe 881a 2a3e
00000160: 6b31 a2bf 9f1e 5abe 599f d7bd 0292 9b3f
00000170: 7a62 1b3f e1ea 613f c3b8 4e3f 0d95 ba3d
00000180: bd88 b9be 8e67 6d3c 20a3 d83e ba06 63bc
00000190: 7687 0dbf 3186 34bf 9386 a53d acf2 7b3d
000001a0: bb02 98bd e038 833e dad4 eb3e 97d1 a73f
000001b0: 02d0 9038 1e29 bb3e 7b1c d23e 99e3 1bbf
000001c0: 7646 8b3f d143 833e a398 0b3f 9033 033f
000001d0: 9283 613f 6d91 3f3d ebdb d43e 22a7 a43c
000001e0: 7147 363f 9764 1f3d aa21 bc3e 5403 6c3f
000001f0: 5a16 843e 6c3d 9b3d b544 1e3f 2086 01be
00000200: 0be5 7bbd f959 a13e 75b6 813c 13d7 c13f
00000210: 1e5d 65be 09e0 33bf b20e 01be 31ec 8dbd
00000220: 9c05 243e 29b2 23be 7a2c ed3e ed9d d0bc
00000230: a67d 8d3e aa33 043f 222f 4d3f 6c7f 203f
00000240: 6df1 4a3f 3f6f 76bd 6ffd 41be 972f 7b3f
00000250: 5d17 3e3d 869b 92be 786f 493e 0565 1c3f
00000260: 8bb2 9a3f 2d29 2abe 6238 49bf 4f08 00bf
00000270: 32d1 213e ebc3 34be a355 14bc 897e 8ebe
00000280: 0e2c 9f3e 2574 af3e 1a23 533e 3aed 67bf
00000290: 90af a83f 727d 85bd cd49 ab3d 3b92 c0bd
000002a0: 3e09 e6be b961 8d3e fc79 cc3e e536 e7bd
000002b0: bd4a 8d3e d961 d8bc 8f19 95be 6733 e83e
000002c0: 54b3 083d 57e5 603f a793 72be a5cf 213f
000002d0: aa19 15be 1b94 7bbd 62a5 6cbf 2b77 5fbe
000002e0: 97e1 823e d36a f13c 3b7d d2be 32b6 f1be
000002f0: 76b3 23be c118 fcbe f73a 54be d1c5 f4bb
00000300: b66c 3e3e 6403 eabe 89e3 b8bf 0e2d e23e
00000310: 4b16 18bd 05da aa3f 1947 20be 1b59 3ebd
00000320: 697f 9d3f 9366 e03f fb63 8a3f ace4 babc
00000330: 4d0a 03bd 6af4 a9bf e385 d9be 5140 ac3e
00000340: 71ab afbf 1180 0e3e 01c4 8a3f 579e 29bf
00000350: 1072 f5bc 3a6f bb3f b0e4 d53a b39b 273f
00000360: 1f36 c6bf a7e0 113f 384e 39bf 69a9 e33e
00000370: 900f f4be 97eb 02bf 906d b5be 92e8 383f
00000380: 8ff4 5e3f 50fd 26be ff34 bbbe b18e 61bf
00000390: 8e96 cf3e 21b3 013f 6477 7abc abd4 5e3d
000003a0: 5792 0fbd 3d2c e73e 3d14 42bf 4a5e 89bf
000003b0: 6c04 bb3d 2e32 2e3d 6c8f 8e3e 5571 9cbb
000003c0: 93ff 683f 158c 62be daed c5bf 705c 803e
000003d0: 4784 23bf 34ea f1bd 15e4 053f 658d c1bc
000003e0: dca0 c03e 2dd8 0a3e ae82 203e 2130 edbd
000003f0: 6bf2 603f 7f92 0dbf 591e ba3f e100 07bd
0.05742627 -2.3204584 -0.44527662 0.18399899 0.028669976 0.22175977 -0.017871654 0.069106854
0.2534285 0.31483042 1.4878632 -0.46814775 -0.6607237 -0.823094 -0.08972914 0.48260626
-0.16282728 0.119457126 -0.5046 0.78521776 0.39997366 0.38322905 -0.01921184 0.3527576
-0.21761507 0.31789824 0.65736896 0.63790756 -0.37430137 0.42247537 0.009413694 0.19090243
0.1745415 0.4806852 -0.23128149 0.6562723 0.51790494 0.35889968 0.067037895 0.077824846
-0.60354507 0.40604186 0.19538975 0.488843 -0.405886 -0.13000509 -0.4199943 0.29953203
0.210454 -0.34600684 0.57914025 0.2287093 0.59788615 -0.09897403 -0.09311949 -0.025086103
-0.02694419 0.03930308 0.29163408 1.17964 -0.6321623 -0.44048142 0.622609 0.05569127
0.06721792 0.57042146 0.110929295 -0.1909031 -0.58699614 1.6132523 -0.02390015 0.19109286
-0.37431765 0.5162096 0.6719945 0.0896461 -0.2479137 0.38471302 0.107600324 -0.5564392
1.1961663 0.17697763 -0.4526482 -1.0072495 0.029977214 0.9950028 -0.16698939 0.16611683
-1.2671331 -0.21300744 -0.1052844 1.2153933 0.6069714 0.8824902 0.80750674 0.091104604
-0.36237136 0.014490021 0.42311954 -0.013856584 -0.5528482 -0.7051726 0.080823086 0.061510727
-0.07422396 0.2562933 0.4606083 1.3110837 6.9051996e-05 0.36554807 0.41037354 -0.6089416
1.0880878 0.25637677 0.5452978 0.51250553 0.88091385 0.04676955 0.41574034 0.020099226
0.7120276 0.03891429 0.36744434 0.9219258 0.25798303 0.07580075 0.6182359 -0.12648821
-0.06149773 0.31513956 0.015834073 1.514376 -0.22398803 -0.70263726 -0.12603262 -0.069298156
0.16017765 -0.15985931 0.46322995 -0.02546593 0.27634925 0.51641333 0.80150044 0.6269443
0.79274637 -0.060164686 -0.18944333 0.9811949 0.046409 -0.2863428 0.19671428 0.61091644
1.2085737 -0.1661727 -0.7860166 -0.5001268 0.15802458 -0.17652862 -0.0090536205 -0.27830914
0.310883 0.342683 0.20618859 -0.90596354 1.3178577 -0.065180674 0.08363686 -0.09402891
-0.44928926 0.2761362 0.39936817 -0.11289767 0.27596083 -0.026413845 -0.29121062 0.45351717
0.033374146 0.87849945 -0.23689137 0.63207465 -0.14560571 -0.06142054 -0.92439854 -0.21822803
0.25562736 0.029469883 -0.41111168 -0.47209316 -0.15986428 -0.49237636 -0.20725618 -0.0074698706
0.18596157 -0.45705712 -1.4444438 0.44175 -0.037130635 1.3347784 -0.15652122 -0.046471696
1.2304507 1.7531303 1.0811762 -0.022814117 -0.031992245 -1.3277714 -0.4248496 0.3364282
-1.3724195 0.13916041 1.0841066 -0.6625723 -0.029961616 1.4643319 0.0016318765 0.65471953
-1.5485266 0.5698342 -0.7238498 0.44465187 -0.47668123 -0.5114073 -0.35435152 0.72229874
0.87091917 -0.16307569 -0.3656387 -0.88108355 0.40544552 0.50663954 -0.015287254 0.054402035
-0.03505167 0.4515094 -0.7581213 -1.07319 0.09131703 0.042528324 0.27843797 -0.0047742524
0.91014975 -0.2212375 -1.5463212 0.25070524 -0.63873714 -0.11812249 0.5230115 -0.023626992
0.37622726 0.13559027 0.1567485 -0.115814455 0.878699 -0.5530166 1.4540511 -0.032959823

bias f4 [5]
00000000: 8a6d e73e 1b8e 3abd 446e 843f d2d2 513e
00000010: 9eb5 bd3e
0.4520076 -0.04554568 1.034615 0.20490578 0.37052625
