models/simple_tag/A2C-shared/agent_0/critic_0.pt (torch, 13842 bytes, 5 tensors)

weight f4 [32, 10]
000000 41 39 ae 3e 8b 25 06 bf 4f 51 fa be 72 68 c3 be
       0.34028056 -0.52401036 -0.4889016 -0.38165623
000010 a2 92 b9 be 78 79 0b bf 00 99 bb bd 97 de 82 bf
       -0.36244684 -0.5448222 -0.09160042 -1.0224179
000020 98 30 cb be 4a 2d 48 3f ba d3 23 40 35 a5 3d 3e
       -0.39685512 0.78194106 2.5597978 0.18520053
000030 09 ba 3e 3f 6c 84 6d 3f 7d 24 04 3f a8 69 92 bf
       0.7450262 0.92780185 0.51618177 -1.1438494
000040 42 9a 62 bf 69 e6 ba bf e7 36 7a 3f 03 90 49 bf
       -0.8851663 -1.4601566 0.97740024 -0.7873537
000050 64 d3 0e be 3f 7e d0 3d 2f c7 48 3f 33 b0 f5 3e
       -0.13947827 0.101803295 0.7842893 0.47985992
000060 8b a2 07 3e 6f c2 14 3f d1 70 c5 3e f6 3b 3e 3e
       0.13245599 0.5810918 0.38562635 0.18577561
000070 34 f2 ca 3e 0c 15 13 3d 97 fe 0b 40 2a 7b ce be
       0.3963791 0.035908744 2.187414 -0.40328342
000080 da 0d 86 3c 17 fe a4 3d 3b 13 f5 3f 1a a0 0a bf
       0.016364027 0.08056276 1.9146494 -0.54150546
000090 1b 23 a6 3c 7a d2 c2 be 40 f4 27 3f 39 24 18 3f
       0.020280411 -0.38051206 0.6560707 0.5943027
0000a0 7c 37 df bf e2 2a 16 3f be e4 4d 40 63 dd fb 3f
       -1.7438807 0.58659184 3.2170863 1.9676937
0000b0 56 cf 61 3f d2 c9 ad 3e b9 11 7f 3d 90 93 1d 40
       0.88206995 0.3394304 0.06227276 2.4621315
0000c0 97 15 60 3d 6a 0c a9 3f dc a3 42 bf 84 8b 19 40
       0.05470809 1.3206913 -0.7603128 2.3991404
0000d0 f2 0a a0 3f 12 57 53 3f 48 64 84 bf d5 dd 12 40
       1.250334 0.82554734 -1.0343103 2.2947896
0000e0 e9 33 9c bc 12 c5 3c bf 19 df 0e 40 71 1a 85 bf
       -0.019067721 -0.73738205 2.2323668 -1.0398694
0000f0 6b 91 1d 40 0f 58 17 40 4b bf 93 3f a3 8a 91 3f
       2.4620006 2.3647497 1.1542753 1.1370434
000100 51 88 97 3c 60 a8 d9 bf 94 9a 39 bf 01 85 3f be
       0.018497618 -1.7004509 -0.7250149 -0.1870308
000110 a4 6a ef 3e 72 dd 00 3f 90 db 8c bf 2c 5a 89 3f
       0.46761048 0.503379 -1.1004505 1.0730643
000120 c4 d5 3f 3d 0d 93 fe be ff 60 e3 bf 64 72 d1 be
       0.046834722 -0.49721566 -1.7763976 -0.40907586
000130 23 a8 df be e9 b4 e6 be 34 13 42 bf 15 f3 a5 3f
       -0.43682966 -0.45059898 -0.7581055 1.2964808
000140 d5 fa 21 bf 1d aa da be 82 17 a2 bc 93 cb ad bf
       -0.63273364 -0.4270791 -0.0197866 -1.3577751
000150 dc 5a 9c 3f f4 a7 4a bf 8a 1c 72 c0 9a 77 5c 3f
       1.2215228 -0.79162526 -3.782992 0.8612
000160 19 df 0b 40 e4 8b fb 3e 34 8e d1 bd 7b 54 81 be
       2.1854918 0.49130166 -0.10232201 -0.25259766
000170 fe df 14 3e 1c 40 0e 40 fc 07 bd bf de 5d 9c 3f
       0.14538571 2.222663 -1.4768062 1.2216146
000180 2a 58 85 be a3 7f 50 c0 8d 3e bc be c4 dc d9 bf
       -0.26043826 -3.2577903 -0.36766472 -1.7020497
000190 50 81 1d 3f 05 90 2c 40 d7 87 78 be 65 b6 e5 be
       0.6152544 2.6962903 -0.24270569 -0.44865718
0001a0 6e 9c 22 3d 79 8d f8 be 0c dd 08 40 1f d7 2d bf
       0.039699964 -0.48545435 2.1384916 -0.67906374
0001b0 b9 6d 2b c0 f7 93 4a bf c8 92 e0 be 3b e1 06 40
       -2.678572 -0.79132026 -0.43861985 2.107497
0001c0 78 e3 5f be 42 a6 ba 3f 3b 8c 9e bd 3e 9e ac be
       -0.21864116 1.4581988 -0.077415906 -0.3371448
0001d0 e7 6a 0e bc bf 8a 48 bf ed 4b dd be a8 ac 3f bf
       -0.00869248 -0.7833671 -0.4322199 -0.7487283
0001e0 3f a9 00 bf cd f5 5f ba 0c d3 b8 bf b6 6c 58 bd
       -0.5025825 -0.0008543402 -1.4439406 -0.05283805
0001f0 80 87 54 c0 5d 6b 9c 3e 75 4c ff 3e 99 ea 3e 3f
       -3.3207703 0.30550662 0.4986302 0.7457672
000200 37 56 d3 3f 15 a8 fa be 5f 43 92 be e2 e7 4b bf
       1.6510686 -0.4895636 -0.28567025 -0.796507
000210 6e ac df 3f db 20 a1 3f 80 6f 0a be 91 78 62 3f
       1.7474496 1.2588152 -0.13519096 0.8846522
000220 28 05 f3 be cc 6a 7d bf f1 4d b1 3e 74 d8 e6 3e
       -0.4746487 -0.98991084 0.34629777 0.45087016
000230 42 b0 5d 3f 6c 77 70 bf 32 cd c9 bf e5 6b 9e 3e
       0.86597073 -0.93932223 -1.5765746 0.30941692
000240 52 f7 65 c0 cb 56 fc bd d0 18 20 3c e6 ee 03 c0
       -3.5932202 -0.12321242 0.009771541 -2.0614562
000250 4c 2e 12 40 48 c0 b9 3f d0 9f fa be 6c 52 9d be
       2.2840757 1.4511805 -0.48950052 -0.30726945
000260 f4 46 29 c0 d3 7c 18 3d cb 3e 74 3f e0 3f 3f 3d
       -2.6449556 0.037228417 0.95408314 0.046691775
000270 81 c7 88 be 48 21 9a be 1f 40 6a 3f e9 a4 1a bf
       -0.2671471 -0.30103517 0.9150409 -0.6040788
000280 d1 ff 49 3f 45 21 6f be 99 1d 1e 40 2c f8 e2 be
       0.7890597 -0.23352535 2.4705565 -0.44329965
000290 e6 31 a1 be d0 b5 fe be 25 6a 97 bf 1a 8d 96 be
       -0.31483382 -0.49748087 -1.1829268 -0.29404527
0002a0 1e 7d 72 bf e8 8d c0 3e 23 d7 c9 c0 86 c8 9d be
       -0.94722164 0.37608266 -6.307512 -0.3081705
0002b0 5f 41 82 40 13 f4 0d c0 e5 56 99 3e 40 94 d1 bf
       4.07048 -2.218022 0.29949108 -1.6373367
0002c0 dc 63 74 3f 5b c7 29 bf 92 99 85 3e b9 e7 0f bf
       0.95464873 -0.6631982 0.26093727 -0.56212956
0002d0 8a 5e 1e 40 26 2a 81 be c8 5c 8b 3e cf 0d 3c bf
       2.4745202 -0.2522747 0.27219224 -0.7345857
0002e0 fe c2 05 3f 93 a7 50 3f 2b fb 35 3f 97 7b 98 3f
       0.5225066 0.815057 0.71086377 1.1912717
0002f0 1f ea b4 be 54 1b dc bf 6e 51 2c bd 27 5a 43 3c
       -0.3533487 -1.719584 -0.042069845 0.011923349
000300 48 8d 93 be 85 d5 e7 3e c8 bc c6 3e b6 47 86 3e
       -0.28818727 0.4528009 0.38815904 0.26226586
000310 4f 1e a9 bc 40 f3 72 3d 00 45 2b bf 48 3f 22 3f
       -0.020644335 0.059314013 -0.6690216 0.6337781
000320 64 7e f0 3f 23 bb ae c0 b7 c2 5f c0 f3 64 9b 40
       1.8788571 -5.460344 -3.4962595 4.856073
000330 6e ac 57 3e 96 d3 b5 3f 0d f0 3a bf 31 b0 81 3f
       0.2106187 1.4205196 -0.7302254 1.0131894
000340 85 94 03 3f 65 ce c6 3e 02 35 b4 bf 0f 7b c2 bf
       0.513985 0.38829342 -1.4078677 -1.5193805
000350 18 38 96 be 1e 89 f6 bf 14 35 fa be 36 c2 48 3f
       -0.2933967 -1.9260595 -0.4886862 0.7842134
000360 7d b3 2f 3f 36 83 ae 3f 24 fc d6 3e e2 22 a6 3f
       0.6863325 1.3633792 0.41989243 1.2979395
000370 04 c4 45 3e ac 58 2f 40 90 14 23 c0 ab 28 79 bf
       0.19313055 2.739787 -2.54813 -0.9732768
000380 7b 28 83 3f 13 c1 96 3f c5 11 9c be c7 4f d0 3f
       1.0246729 1.1777672 -0.30482307 1.6274346
000390 c4 9b 5d c0 b3 14 d9 bf 16 2b 12 c0 d6 8e 93 3e
       -3.4626322 -1.6959442 -2.2838798 0.28819913
0003a0 a0 83 27 c0 6a d1 98 3f 0a ba 56 3f 4a 2d 0c bf
       -2.6174088 1.1938908 0.83877623 -0.54756606
0003b0 e2 ad 29 3f 63 1f 76 bf b2 14 62 be 5f 4f d7 be
       0.6628095 -0.9614164 -0.22078207 -0.42052743
0003c0 e7 c5 d3 bf a9 62 32 c0 fa 39 7a 40 c3 11 02 40
       -1.654477 -2.7872717 3.9097886 2.032334
0003d0 bc a3 02 40 fc 39 9e 3f b3 86 cf 3f 48 a8 07 40
       2.0412436 1.2361445 1.6212982 2.119646
0003e0 fb c7 98 3f b8 7f 76 3e 70 06 d6 bf 73 f3 bd 3f
       1.1936029 0.24072158 -1.6720715 1.483992
0003f0 bd ed fd 3f b1 28 70 40 71 c9 ac bf 69 46 93 3f
       1.9838177 3.7524836 -1.3498975 1.1505862

bias f4 [32]
000000 e3 ef 07 be 56 76 0f 40 5d ea 00 c0 1f 49 2e c0
       -0.13275103 2.2415977 -2.0143044 -2.723213
000010 e6 0e 8d bf 99 d2 cb bc ee 75 c1 bf 83 fd da bf
       -1.1020172 -0.024880694 -1.5114114 -1.7108616
000020 8d d7 34 c0 fe 0d 19 c0 78 73 94 bf 28 36 43 40
       -2.8256562 -2.391479 -1.1597738 3.0501804
000030 d2 e7 10 c0 f6 5e 27 c0 d0 61 aa bf bf 54 3c 3e
       -2.2641492 -2.615171 -1.33111 0.18391703
000040 82 e6 95 3f 2c 05 65 bf b5 ac 3d c0 fc 24 46 c0
       1.171097 -0.89461017 -2.9636662 -3.0960073
000050 9c 25 d1 3f e0 e2 49 40 c8 30 20 c0 79 87 a1 bf
       1.6339602 3.1544724 -2.5029774 -1.2619468
000060 8b 88 a7 bf 72 ef 39 be 6e 9f f5 bf 18 5e 7a bf
       -1.3088545 -0.18157747 -1.9189279 -0.97799826
000070 e5 bb 40 bf d3 9d 39 c0 88 64 25 bf e2 d5 9e bf
       -0.75286704 -2.9002578 -0.64606524 -1.2409022

weight f4 [64, 32]
000000 72 b6 df 3e 67 1f 8a bd 50 72 ce 3f da 45 87 3f
       0.43693882 -0.06744271 1.6128635 1.0568192
000010 d8 2f d8 3f 96 ec b2 bf 84 7b a6 be 80 7d 7a 3e
       1.6889601 -1.397845 -0.3251611 0.24461937
000020 5f 2f fc bf e4 a9 10 bf 42 c1 45 3f 52 d6 d0 3f
       -1.9701957 -0.5650923 0.77248013 1.6315405
000030 f7 63 24 c0 89 33 fd be 5a bc 3d c0 74 23 42 3f
       -2.5686014 -0.4945338 -2.964621 0.7583535
000040 49 06 88 3e c4 0b 99 bf d3 bd 0b bf ac 70 5d bf
       0.26567295 -1.1956716 -0.54586524 -0.8650005
000050 9c 32 a7 be e8 d2 93 be f7 04 7b bc a8 12 73 bf
       -0.326558 -0.28871846 -0.015321008 -0.9495034
000060 6f c0 ef bf 6d 6c 0b 3e 60 dc 86 be 50 31 21 c0
       -1.8730601 0.1361558 -0.26340008 -2.5186348
000070 63 48 3a 3f df 55 9c bf 6f 5a 9c bf 4b 91 88 c0
       0.72766703 -1.2213706 -1.2215098 -4.267736
000080 ba 86 6b be 1b 88 55 be 6f 75 8c bd 21 a4 83 be
       -0.23000613 -0.20852701 -0.06858336 -0.25711158
000090 d8 25 02 bf 02 61 ab be d3 0a 48 bf bd 7e 48 bf
       -0.50838995 -0.3347245 -0.78141516 -0.7831839
0000a0 97 80 b3 be e2 c4 cf be 21 ac 2d be 57 77 d3 bd
       -0.35059044 -0.40579897 -0.16960193 -0.10325497
0000b0 35 18 94 be 2f 32 89 be 6c 7c ff bd 4e 9b 54 bf
       -0.28924718 -0.267961 -0.124749035 -0.83049476
0000c0 22 83 ef bd f9 dd fe be 2b ad a8 be dd be d4 be
       -0.116949335 -0.49778727 -0.32944617 -0.41551867
0000d0 15 84 bf bf ce 3c 1e be 94 4b 04 3c 02 2b 19 bf
       -1.4962183 -0.15452883 0.00807466 -0.5983125
0000e0 f1 91 39 bf 67 c1 7f bf 5d d1 e2 3c 2b dd a0 be
       -0.72488314 -0.99904484 0.027687723 -0.31418738
0000f0 67 07 6b bf f8 72 a5 3d 76 a2 0a bf be f4 9b be
       -0.9180817 0.08078569 -0.54154146 -0.3046016
000100 1b 89 d7 3e 45 c6 99 bc c3 ce e1 be a9 93 06 3e
       0.4209679 -0.0187713 -0.4410306 0.13142265
000110 92 2c 94 bf b2 49 0c bf 67 7e 49 be 6d ae 37 bf
       -1.1576102 -0.5479995 -0.19677125 -0.7175053
000120 e1 d4 d4 bf d8 d0 84 bf ae 62 b5 bf 49 40 36 bf
       -1.6627465 -1.0376234 -1.417074 -0.7119184
000130 ea 0e b9 be d1 3a 45 3e c4 89 aa 3d a5 80 9e 3d
       -0.3614419 0.19260718 0.08327058 0.07739381
000140 96 01 5b bf 7f 35 0a bf 14 b3 32 bf 13 49 91 be
       -0.85549295 -0.5398788 -0.698045 -0.28376064
000150 8f b2 66 bf a1 13 4c bf 8e 1e aa bd 2b e8 a2 be
       -0.9011621 -0.7971745 -0.08306609 -0.31817755
000160 24 79 64 be 80 08 02 be aa c9 57 3e ac ed 87 be
       -0.22311836 -0.12698555 0.21073022 -0.26548517
000170 cf ca 14 c0 a4 32 03 bf cb de 09 3f 2b fb 65 3e
       -2.3248785 -0.51249146 0.5385558 0.22459094
000180 cd c9 0f c0 22 eb 41 bf 32 2c c7 bd 4d d7 11 c0
       -2.246692 -0.7574941 -0.097252265 -2.278766
000190 cf 67 d3 bf 86 d1 05 bf b3 1d 68 3e 1a 40 4d be
       -1.6516055 -0.5227283 0.2266758 -0.20043984
0001a0 a9 fd a9 be 58 63 0f bf ef b9 c7 bf 29 5f 4c 3e
       -0.3320134 -0.5601096 -1.5603617 0.19958176
0001b0 6e fc 86 3f af c3 8b bf 8e b2 ca be ee 92 b8 bf
       1.0545785 -1.0919093 -0.3958935 -1.4419839
0001c0 7c a8 47 bf 09 5a 96 be 34 35 e7 3e 0e a4 34 be
       -0.7799146 -0.29365566 0.45157778 -0.17640707
0001d0 1d 5c 61 bf ce 47 fb bf b3 90 e6 bf 42 0c 91 bf
       -0.8803118 -1.9631288 -1.8012909 -1.1331866
0001e0 bf f6 8a 3d 41 cb 0b bf ee 66 8e bf bf 68 5b 3d
       0.06785344 -0.54607016 -1.1125162 0.05356669
0001f0 e3 0f 01 3f dc a8 0d bf 2a dd 48 be ea 55 13 be
       0.50414866 -0.55335784 -0.19615617 -0.14388242
000200 20 b3 5c 3e b3 e4 00 c0 81 20 63 bf 6a 16 26 3e
       0.21552706 -2.0139587 -0.8872147 0.16219488
000210 43 70 2c 3f bf 11 99 3e 8d c8 5d bf 30 04 ac bf
       0.673588 0.29896352 -0.8663414 -1.3438778
000220 4c 2d 96 3e 48 96 97 3e 64 6c 10 c0 8a 11 3f bf
       0.29331434 0.29606843 -2.2566156 -0.7463614
000230 75 e1 0d bf 2f a9 44 bd b2 78 4a bf 20 be 3e bd
       -0.55422145 -0.04801291 -0.79090416 -0.046568036
000240 ed 59 f6 bf 82 72 2b 3f c0 a6 7c be fe b4 0b bf
       -1.9246193 0.669716 -0.24672985 -0.5457305
000250 9d 89 e7 bf f7 db e1 be 5f 71 85 bf 59 ee 39 3e
       -1.8088871 -0.44113132 -1.0425223 0.18157329
000260 ee 62 8f bf d2 c5 e4 bf 49 66 04 bc 77 87 24 bf
       -1.1202066 -1.787287 -0.008081027 -0.642692
000270 2a 63 59 c0 5b f7 55 bf ef 66 37 be 74 10 66 bf
       -3.3966775 -0.8358056 -0.1791036 -0.89868855
000280 91 24 81 bf 53 c4 c2 bf 90 94 17 bf 84 26 d7 be
       -1.0089284 -1.5216163 -0.59211063 -0.42021573
000290 9b 2e 89 bf c3 d9 13 c0 1f b2 81 bf 52 33 db bf
       -1.0717348 -2.3101661 -1.0132483 -1.7125037
0002a0 6c 41 32 c0 9a 94 59 bf 98 6b 4d bf d8 11 10 bf
       -2.785243 -0.84992373 -0.802423 -0.5627723
0002b0 41 dd b1 bf 59 00 5a bf 40 f1 d2 bf c9 a8 6c bf
       -1.3895646 -0.8515678 -1.6479874 -0.92445046
0002c0 23 5b e1 bd c2 a8 d5 bf 9b 75 e1 be 30 c8 43 c0
       -0.11003711 -1.6692126 -0.44035038 -3.0590935
0002d0 38 21 44 c0 89 e5 1e be 94 81 ad bf 90 41 52 c0
       -3.0645275 -0.15517248 -1.3555169 -3.2852516
0002e0 3e e0 8a c0 60 f1 dc bf 48 6c ec bf 4e f4 16 c0
       -4.3398733 -1.7261162 -1.8470545 -2.3586612
0002f0 8f 07 fd bf d2 01 87 bf 45 b0 1b c0 c8 5f f8 3b
       -1.9767932 -1.054743 -2.4326336 0.0075797774
000300 d2 dc 5f 3f c3 15 1e bf 29 3b e7 bd e9 5f 92 bf
       0.8744632 -0.61751956 -0.11290581 -1.143552
000310 85 43 1a c0 88 70 91 3f 54 f9 ed bc ad a6 1f c0
       -2.410371 1.1362467 -0.029049553 -2.494548
000320 f8 29 4f c0 40 38 15 3f 07 38 ef be 66 d6 9b 3f
       -3.2369366 0.58288956 -0.46722433 1.2174804
000330 01 e3 2f bf ca e8 9b 3f f5 c4 5c bf 1d 47 55 3f
       -0.68705755 1.2180417 -0.8623803 0.83311635
000340 4a b2 93 3f a3 38 c1 3e 3d dd 97 3f a9 16 94 bf
       1.1538785 0.37738523 1.1864392 -1.1569415
000350 07 a6 01 c0 c9 63 85 3f 6e c4 81 3d 61 6d 87 bf
       -2.0257585 1.0421077 0.06336294 -1.0580255
000360 5a 88 21 bf d6 ae ae 3e fa db b9 bf 30 1f eb bf
       -0.6309868 0.34117764 -1.4520257 -1.8368893
000370 77 b4 27 c0 cb 41 34 bf 17 dc 5a be 36 63 97 bf
       -2.6203897 -0.7041289 -0.2137302 -1.1827152
000380 b4 80 46 bf 39 5e 0b c0 a6 e2 ab be a7 41 7a bf
       -0.77540135 -2.177626 -0.33571357 -0.9775643
000390 f0 d4 8d be 97 f6 88 bf de ef e7 be b2 7f ea 3d
       -0.2770152 -1.0700253 -0.45300192 0.11450137
0003a0 e1 36 32 bf f7 c1 3a 3f 5a ab d4 3d 05 17 73 bd
       -0.6961499 0.72952217 0.10384245 -0.059348125
0003b0 a7 6e 82 bf ca 9f 07 bf a7 20 0e bf fe 44 7d bf
       -1.0190018 -0.52978194 -0.55518574 -0.989334
0003c0 e2 b0 01 bf 7c 52 5d 3e cb 04 dd be 57 22 fc 3e
       -0.50660527 0.21613497 -0.4316772 0.4924495
0003d0 dc 90 f4 bf e2 c0 b1 be e6 c8 c2 bf 52 ee 1b bf
       -1.9106708 -0.3471747 -1.5217559 -0.6091052
0003e0 36 42 7c bf ce 9c a7 bf 45 fb 8b bf 6f ea fa be
       -0.9853853 -1.3094728 -1.0936056 -0.49006984
0003f0 3a 3c 19 c0 a4 1b bf bf 2d 73 c8 be 92 5a 67 bf
       -2.394301 -1.493031 -0.39150372 -0.90372574

bias f4 [64]
000000 b4 da 53 40 18 66 af 3e a2 7a a2 bf 16 c7 91 bf
       3.3102236 0.3425758 -1.2693675 -1.1388881
000010 e9 46 75 bf a0 cb 14 40 72 2c 76 40 a2 44 96 3f
       -0.95811325 2.3249283 3.8464627 1.1739695
000020 11 78 db bf 69 2b ed 40 cc 02 e9 3f 61 ec 9a 40
       -1.7146016 7.411549 1.8203979 4.841355
000030 46 55 04 c0 2f ef b6 40 2e d7 dd 40 1f d6 5d 3f
       -2.0677047 5.716697 6.932517 0.8665485
000040 8f 07 e8 3f cf 19 55 bf d1 7f 94 be 37 e9 ad 3f
       1.8127307 -0.83242506 -0.29003766 1.3586797
000050 16 27 21 be 60 4b f4 be 83 c2 65 c0 aa 06 f5 be
       -0.15737566 -0.47713757 -3.589997 -0.47856647
000060 58 3e 1f be 0f af 7e 3f ab 6d 23 3e e8 3d 67 3f
       -0.15551126 0.9948587 0.15959804 0.90328836
000070 50 8a 3c 3e ac dd 09 bf d2 74 65 bf 35 0b b2 3f
       0.18412137 -0.5385387 -0.8963138 1.390967
000080 b1 d2 3f 40 af bb d0 bd 20 13 2a bf cd ea 0c bf
       2.9972346 -0.10192048 -0.6643543 -0.5504578
000090 ea ad 45 bd 2a 89 60 c0 4b f4 d9 3e eb 99 93 3e
       -0.04826156 -3.5083718 0.42569193 0.28828368
0000a0 58 17 3a bf e0 fd ce bf af 61 d5 bf 33 fd 4e be
       -0.7269187 -1.6171227 -1.6670436 -0.20213775
0000b0 c2 60 28 40 6c 25 b1 bf 2d 84 29 be 05 6a b5 bf
       2.6309056 -1.3839545 -0.16554327 -1.417298
0000c0 79 9d 43 40 85 68 88 40 c7 ad 6d 3e e2 f0 16 40
       3.0564864 4.2627587 0.23210822 2.3584523
0000d0 76 65 c7 be 99 cb 30 be b7 fa 1c 40 2b 78 91 c0
       -0.38944596 -0.17265166 2.4528024 -4.545919
0000e0 b3 92 c9 be 12 51 72 bf 10 2a cb bd 40 50 19 be
       -0.39369735 -0.94654953 -0.09920132 -0.14972019
0000f0 dd af a7 40 5c 71 19 bf 91 5a 71 40 2a b0 d9 bd
       5.2402177 -0.599386 3.7711527 -0.10629304

weight f4 [1, 64]
000000 72 bb 25 3e f8 1d 54 bc f7 b6 8a bd bf 24 c9 bc
       0.16184786 -0.012946598 -0.06773179 -0.024553655
000010 db b6 39 bf 4a b8 5f 3e d0 1e b6 3e 80 0b 3b be
       -0.7254464 0.21847644 0.35570383 -0.18266106
000020 62 13 58 3e 3f 0d e6 bf a2 e7 04 3d 07 30 87 be
       0.21101144 -1.7972792 0.032447465 -0.2640383
000030 27 86 c2 3e 6c 5f 65 bf 98 f8 92 bf eb 1e 1e be
       0.37992975 -0.8959873 -1.1482115 -0.15441482
000040 fc 1c b4 3c 78 93 37 bf d9 12 00 bd 2e ec f2 bc
       0.021986477 -0.71709394 -0.031267975 -0.029653635
000050 ed 6d be 39 d6 62 a9 be b2 77 52 3f 14 47 66 bd
       0.00036321525 -0.33083218 0.8221389 -0.05622013
000060 a9 15 6b 3b 0e ea 12 bf 7a 07 aa bf 4a c6 c4 3e
       0.0035871065 -0.5738839 -1.3283532 0.38432533
000070 40 17 02 bf 54 ae 44 bc f4 23 ac bb d0 c7 59 3e
       -0.50816727 -0.012004454 -0.0052533094 0.21267629
000080 06 38 4c bf e0 50 cc bd db 99 02 bf a5 31 10 bd
       -0.79772985 -0.09976363 -0.51016015 -0.035203595
000090 47 e0 60 bb 97 64 56 3e c1 d9 bf 3d bd 42 71 3c
       -0.0034313367 0.2093681 0.09367705 0.014725384
0000a0 52 48 5e be 48 cb 34 3e 33 c9 a9 3e 37 92 df 3e
       -0.21707276 0.1765567 0.33161315 0.4366624
0000b0 a3 e8 a3 3d d2 c6 17 3e 15 5f 83 bb 62 21 c6 3e
       0.08003356 0.14821938 -0.0040091374 0.38697344
0000c0 a3 5e 83 3f 2c 30 b2 be b6 ee 05 3d e0 4e cc 3e
       1.0263256 -0.34802377 0.032698356 0.39903927
0000d0 a8 06 f2 3e 93 0b 5f 3d 96 42 97 3e b4 52 f1 3c
       0.47270703 0.054454397 0.2954299 0.029458381
0000e0 ad 63 22 be 30 ee 07 bf 2d 72 82 be 49 42 f0 bc
       -0.15858336 -0.5309782 -0.25477734 -0.029328482
0000f0 1f 6d 6a be ed 36 de bd 95 f3 c5 be 22 f4 8f be
       -0.22893189 -0.1085032 -0.386624 -0.28115946
