models/simple_tag/DQN-shared/agent_0/qnet_target_0.pt (torch, 14916 bytes, 6 tensors)

weight f4 [32, 10]
1.0145327 0.10640948 0.7749628 -0.08933915 -0.36498234 0.26989216 -0.78796095 -0.4131533
-0.418228 0.15424438 0.1986908 -0.3500644 -0.06873203 0.14088817 0.23004167 -0.23307112
0.30269104 -0.39284736 -1.7717569 2.3751218 -0.15067236 -0.591827 -0.58140576 -0.67178077
0.1904599 0.13402778 -0.1791639 0.17353478 0.034118034 -0.40460974 -1.0044394 -0.417249
-0.53747225 -0.6815377 -0.08276714 -0.33106768 -0.29274482 -0.18953162 -0.16028309 0.004359195
0.4294565 0.18545721 -0.62185746 0.13493562 -0.9947651 0.11066396 -0.28552118 -0.1471245
-0.4510481 -0.061161604 0.65557235 -0.39653096 0.11246053 -0.27142587 -0.6315965 0.035188567
-0.4443147 0.075532615 -0.3134026 0.030259287 0.34133178 0.15715066 -0.059121627 -0.031150034
0.19503401 0.10478017 -1.9298886 -1.0001453 0.25046355 0.050913375 0.3085028 -0.32304856
0.37401474 -0.99795467 0.2733146 -0.009374121 0.12610804 0.5282458 -0.80403495 0.48216128
0.49332443 -0.53855085 0.34705058 -0.4132557 -0.19984004 0.28312865 -0.28372917 0.098584116
-0.2998002 0.05358104 -0.27545223 -0.10673459 0.80406564 -0.10562607 0.9232 0.16484436
0.6217568 0.088928446 0.66638714 -0.15973191 -0.050847657 -0.06479104 0.48285016 -0.5088342
-0.38275093 0.20776932 0.9811399 0.68364626 1.6925557 1.0880308 -0.07739459 0.4105519
0.24845709 0.7093638 -0.0728547 0.08380615 -0.16034986 -0.03565051 -0.12613182 -0.15081729
0.18319303 0.6003966 0.22236304 0.883282 -0.17653231 -0.30436105 0.16942585 0.039735474
0.19733925 -0.039297927 1.0481179 0.5491826 0.5793133 0.48075247 0.25916642 0.2117142
-0.13777629 0.04209467 0.22247767 0.17179556 0.24203299 -0.20113488 0.11480723 0.50467175
0.41125736 0.18420616 -0.1937342 0.5506375 -0.66348386 0.8090738 0.020989949 0.100195244
0.53720343 0.3462061 -0.90669966 -1.2364725 -0.18288255 -0.46107754 0.12140474 -0.43076244
-0.56124455 -0.26220483 -0.66252834 -0.7715182 0.65694684 1.074942 0.045569476 -0.26381543
0.22987443 0.06393846 0.35614586 0.290742 0.012745652 -0.08359439 -2.0147069 -1.9743252
0.29793617 0.11425165 0.34852636 0.22383715 0.22273049 -0.39153078 -0.11327231 0.13306548
-2.0205405 2.7474523 0.33768168 -0.30545703 0.34653428 -0.32512715 0.5750748 -0.124008104
1.2098727 -0.21530472 0.38286918 -0.19137126 0.34404004 -0.0411204 0.16709027 0.07619856
0.22763197 -0.18468149 0.37142035 -0.32561496 -0.30981606 -0.3557056 -0.38924098 0.04972816
-0.4852669 0.07254608 0.032766294 -0.45526505 -0.057044663 0.31519043 0.07000479 -0.06822803
-0.78398913 2.1771538 0.030080756 -0.06274983 -0.7337879 -0.41567978 -0.22683182 1.0517299
0.3666663 0.67414826 0.05653077 0.6496908 0.52339655 0.8169768 0.37608024 0.31662238
-0.01944144 -0.09759392 0.345726 0.13570468 0.27323404 0.20560993 -2.5573611 -2.3021421
0.34411365 -0.8256246 0.22740693 -1.1478333 0.42199537 0.0013943351 -0.110491954 0.12556976
-0.3178292 -0.13316281 -0.59333086 0.30109695 -0.8122928 0.7070623 0.37360743 -0.26481262
00000000: 35dc 813f 37ed d93d f663 463f 72f7 b6bd
00000010: f7de babe 4e2f 8a3e cfb7 49bf d488 d3be
00000020: fb21 d6be 3df2 1d3e 9a75 4b3e a43b b3be
00000030: 61c3 8cbd fd44 103e 0b90 6b3e 32aa 6ebe
00000040: 52fa 9a3e 4a23 c9be eec8 e2bf ff01 1840
00000050: db49 1abe f981 17bf 02d7 14bf d3f9 2bbf
00000060: ec07 433e 943e 093e be76 37be 1ab3 313e
00000070: 5abf 0b3d 0229 cfbe 7891 80bf a9a1 d5be
00000080: c897 09bf 4179 2ebf d181 a9bd b481 a9be
00000090: a6e2 95be 9414 42be 4021 24be 94d7 8e3b
000000a0: b9e1 db3e 7fe8 3d3e 0d32 1fbf 902c 0a3e
000000b0: eda8 7ebf c9a3 e23d d52f 92be cea7 16be
000000c0: c7ef e6be 9784 7abd 97d3 273f 1b06 cbbe
000000d0: b551 e63d 55f8 8abe 4fb0 21bf e321 103d
000000e0: 377d e3be d8b0 9a3d 4e76 a0be 53e2 f73c
000000f0: 0ac3 ae3e 1aec 203e 8529 72bd 5b2e ffbc
00000100: ffb6 473e fc96 d63d 9706 f7bf c304 80bf
00000110: c23c 803e 8b8a 503d 14f4 9d3e 9f66 a5be
00000120: dc7e bf3e f579 7fbf e4ef 8b3e ea95 19bc
00000130: 7722 013e 1e3b 073f 3cd5 4dbf d8dd f63e
00000140: 0595 fc3e 78de 09bf 9db0 b13e 4096 d3be
00000150: dea2 4cbe 3df6 903e f344 91be 78e6 c93d
00000160: 697f 99be cb77 5b3d 1308 8dbe aa97 dabd
00000170: 3fd7 4d3f 7b52 d8bd d656 6c3f f6cc 283e
00000180: 742b 1f3f 1e20 b63d 5998 2a3f c390 23be
00000190: a245 50bd 2ab1 84bd 2338 f73e f542 02bf
000001a0: eef7 c3be 7bc1 543e fc2b 7b3f 7103 2f3f
000001b0: aaa5 d83f 9844 8b3f 0e81 9ebd dc33 d23e
000001c0: 896b 7e3e de98 353f d834 95bd 8fa2 ab3d
000001d0: c132 24be 4506 12bd b328 01be d96f 1abe
000001e0: f496 3b3e 97b3 193f 23b3 633e c51e 623f
000001f0: e3c4 34be 36d5 9bbe f87d 2d3e aac1 223d
00000200: 4d13 4a3e ddf6 20bd ba28 863f 3b97 0c3f
00000210: e04d 143f 3025 f63e 76b1 843e 9bcb 583e
00000220: 3a15 0dbe 766b 2c3d 30d1 633e 2deb 2f3e
00000230: 7fd7 773e 4df6 4dbe 0e20 eb3d 2b32 013f
00000240: 5390 d23e 8aa0 3c3e 4262 46be 94f6 0c3f
00000250: 14da 29bf 761f 4f3f 1df3 ab3c 2a33 cd3d
00000260: 2a86 093f ed41 b13e 781d 68bf bb44 9ebf
00000270: 9045 3bbe 5b12 ecbe 0ca3 f83d e58c dcbe
00000280: b9ad 0fbf b63f 86be 759b 29bf 3782 45bf
00000290: ab2d 283f b397 893f 0fa7 3a3d d112 87be
000002a0: 3464 6b3e 2bf2 823d c058 b63e 23dc 943e
000002b0: 24d3 503c 8933 abbd f5f0 00c0 b0b6 fcbf
000002c0: 178b 983e c5fc e93d 0c72 b23e 9135 653e
000002d0: 7613 643e b976 c8be 50fb e7bd 5142 083e
000002e0: 8950 01c0 42d6 2f40 9de4 ac3e dd64 9cbe
000002f0: f16c b13e 1177 a6be 1a38 133f f6f7 fdbd
00000300: 1cdd 9a3f d778 5cbe 6e07 c43e d4f6 43be
00000310: 0426 b03e dd6d 28bd b619 2b3e fe0d 9c3d
00000320: 5b18 693e 251d 3dbe cf2a be3e 01b7 a6be
00000330: 36a0 9ebe 0b1f b6be 984a c7be c1af 4b3d
00000340: e774 f8be 0a93 943d f335 063d 8018 e9be
00000350: aaa7 69bd a460 a13e ac5e 8f3d 23bb 8bbd
00000360: 83b3 48bf 7d56 0b40 eb6b f63c fc82 80bd
00000370: 86d9 3bbf fbd3 d4be 9a46 68be 169f 863f
00000380: afbb bb3e fb94 2c3f cf8c 673d 2352 263f
00000390: 51fd 053f 6425 513f 978d c03e 541c a23e
000003a0: a843 9fbc 52df c7bd 0003 b13e 2bf6 0a3e
000003b0: 55e5 8b3e 698b 523e ceab 23c0 4c56 13c0
000003c0: aa2f b03e 225c 53bf 5ddd 683e 34ec 92bf
000003d0: c70f d83e 1fc2 b63a 9b49 e2bd 5c95 003e
000003e0: 82ba a2be d55b 08be 88e4 17bf 6129 9a3e
000003f0: 6cf2 4fbf 0902 353f 7949 bf3e 8595 87be

bias f4 [32]
-0.22127914 0.0970204 0.6051201 0.4311785 2.0520952 1.0248895 0.027737634 0.1463292
1.1452318 2.018398 0.33713594 1.4855762 0.78504866 0.37402314 2.0951087 -0.49878126
-0.27727023 0.012316574 0.07189394 -0.31920466 2.3576841 0.1478841 0.29807216 -0.0019470777
-0.14511557 0.47744468 1.1942034 -0.66979045 -0.18600774 1.5221188 -0.09002267 -0.9030807
00000000: 0097 62be a2b2 c63d 27e9 1a3f 6ec3 dc3e
00000010: 8755 0340 942f 833f 093a e33c 52d7 153e
00000020: f596 923f 6f2d 0140 159d ac3e 5c27 be3f
00000030: f3f8 483f f67f bf3e 4316 0640 4260 ffbe
00000040: 5df6 8dbe 75cb 493c 213d 933d cb6e a3be
00000050: 4ce4 1640 ee6e 173e ea9c 983e 1635 ffba
00000060: 2d99 14be a173 f43e a8db 983f 6377 2bbf
00000070: d078 3ebe cad4 c23f ce5d b8bd 4c30 67bf

weight f4 [64, 32]
-0.052600816 -2.5566618 0.017316733 0.07732953 0.7069705 0.28269115 -2.2898757 -0.58624876
0.27237797 0.49685538 -0.15327008 0.29086894 -0.62015826 -0.043971375 1.1064546 -1.6720691
0.44240323 -2.60551 -2.7905338 -0.58465004 0.77465266 -2.113049 0.23656048 -2.8269372
-0.53791517 -0.6733043 0.102107696 -0.3364612 0.032339264 1.064099 -0.5240105 -2.123966
0.28788745 0.87816286 0.13985908 0.53355443 0.61773694 0.30145213 1.1420033 -0.16251184
0.043984603 0.19630751 0.41012955 -0.3147109 -2.129908 -2.4171822 -0.432233 -1.0909283
-0.24101187 1.126903 0.86740637 0.00034733448 0.09818818 0.2688312 -0.39251778 0.54889673
0.5875426 0.7403485 0.26476806 0.37887272 2.0956342 -0.63870096 0.2735054 0.72504634
0.12771687 -1.5212961 0.4366898 0.13249058 1.4135072 0.854293 -1.1231219 0.565168
0.9125972 0.35658064 -0.09268869 0.87886995 0.5131738 0.2129436 1.2442517 0.49025515
0.31514442 -1.4541912 -1.1231943 -1.3232057 1.5229542 -0.9003133 -0.22938287 -0.9835372
-0.3042294 0.26628476 0.19087346 -0.09995544 -0.48287123 0.9593235 -0.33410728 -0.6794851
0.22793585 -0.9820946 0.3580435 0.15548678 0.8400428 0.7007566 -1.3965571 0.49603465
0.915621 0.4981958 -0.11492173 1.2885593 0.9035034 0.4767447 0.85110825 0.012796299
0.25619796 -0.8586375 -0.7313948 -0.6445166 1.3218203 -1.282791 -0.1699663 -0.85040456
-0.24960844 0.5795284 0.67760366 0.4052861 -0.33053726 0.6697071 -0.16717306 -0.64344555
0.7277209 0.9460989 -0.16688168 -0.5566522 -1.0965806 0.60882235 0.6378781 0.34672755
0.23184253 0.64711523 0.49783906 -0.228939 0.023905218 0.18769021 -0.10028186 -0.42077258
-1.096144 0.6691068 0.77774364 0.538951 -0.09727483 0.79320884 0.2797422 0.43533275
0.6869306 -0.53225315 -0.7025795 1.2497963 0.7932338 0.08533265 0.57450724 1.2559352
0.84025687 -0.6418112 0.41031203 0.27787632 -0.17292665 0.08432919 0.29059207 0.5149748
-0.12753464 -0.2340641 0.117327295 0.02962359 0.29673886 0.446273 -0.6374516 0.4409917
0.63842636 0.5588513 1.6353248 0.6377351 -0.7541215 0.3113689 -0.012794746 0.47591636
0.5903888 0.7065196 0.38064128 0.11130217 0.17119777 -0.031134158 -0.108453624 1.0568585
-0.017619612 -1.1758792 0.20319825 0.19592711 1.0481238 0.5882271 -1.9543337 0.2318531
0.9690859 0.7781975 -0.04847286 1.2959462 0.8990526 0.25331122 0.9788108 0.16158411
0.083406895 -1.2840776 -1.1150241 -0.64401215 1.477723 -1.3586884 -0.33063546 -0.7564558
-0.58906215 0.83979404 0.71786857 0.3265038 -0.73518187 0.698979 -0.38053748 -0.5695674
-0.93029153 -2.1496153 0.3446977 0.14629754 0.19623728 -0.3712694 -0.10869151 -0.4414413
-0.07249304 0.910969 -0.77651393 0.35668197 0.8424656 0.07316874 -0.29936308 -0.6665449
-0.13667427 0.3566445 -0.2371402 1.0924152 0.35292998 0.26999187 0.28156838 -0.12315246
0.12566397 -0.36402804 -0.19378 -2.2145596 0.42649433 -0.35795256 0.11125252 -0.8212524
00000000: f473 57bd 59a0 23c0 d2db 8d3c f25e 9e3d
00000010: 05fc 343f e5bc 903e 538d 12c0 6614 16bf
00000020: 2075 8b3e d463 fe3e d5f2 1cbe c6ec 943e
00000030: b1c2 1ebf 541b 34bd 4ea0 8d3f 5c06 d6bf
00000040: ad82 e23e adc0 26c0 1b98 32c0 a0ab 15bf
00000050: a34f 463f 323c 07c0 e93c 723e 8aec 34c0
00000060: cfb4 09bf ac5d 2cbf d71d d13d a444 acbe
00000070: 2d76 043d 6534 883f 8d25 06bf 0fef 07c0
00000080: fc65 933e 48cf 603f 3837 0f3e 0697 083f
00000090: 0224 1e3f ef57 9a3e 2a2d 923f 8169 26be
000000a0: 3329 343d d604 493e 80fc d13e c921 a1be
000000b0: 6a50 08c0 1db3 1ac0 a54d ddbe 8aa3 8bbf
000000c0: d1cb 76be 5c3e 903f 580e 5e3f 721a b639
000000d0: e216 c93d 3ea4 893e 17f8 c8be 7f84 0c3f
000000e0: 3169 163f 7b87 3d3f ae8f 873e 9bfb c13e
000000f0: df1e 0640 e881 23bf e608 8c3e a39c 393f
00000100: 36c8 023e d5b9 c2bf ce95 df3e 9cab 073e
00000110: ceed b43f f2b2 5a3f 75c2 8fbf daae 103f
00000120: f89f 693f bd91 b63e 91d3 bdbd 9ffd 603f
00000130: 5c5f 033f e30d 5a3e a443 9f3f b902 fb3e
00000140: 9c5a a13e f022 babf d5c4 8fbf ce5e a9bf
00000150: 2af0 c23f ef7a 66bf 58e3 6abe 18c9 7bbf
00000160: f5c3 9bbe 7a56 883e 5574 433e 70b5 ccbd
00000170: e63a f7be 3a96 753f 1c10 abbe bcf2 2dbf
00000180: 0468 693e 8d6a 7bbf 7a51 b73e ed37 1f3e
00000190: 0c0d 573f c964 333f 62c2 b2bf 41f8 fd3e
000001a0: 2366 6a3f 8513 ff3e 155c ebbd 83ef a43f
000001b0: 004c 673f e217 f43e 3be2 593f 91a7 513c
000001c0: 612c 833e abcf 5bbf b13c 3bbf 0aff 24bf
000001d0: 6831 a93f 7f32 a4bf a50b 2ebe 1db4 59bf
000001e0: 5b99 7fbe f95b 143f 6f77 2d3f a981 cf3e
000001f0: 2e3c a9be ed71 2b3f 6a2f 2bbe d9b8 24bf
00000200: eb4b 3a3f 8a33 723f 08e3 2abe c280 0ebf
00000210: c15c 8cbf c8db 1b3f fb4b 233f 4686 b13e
00000220: 2168 6d3e 58a9 253f c3e4 fe3e fc6e 6abe
00000230: e0d4 c33c dd31 403e 9360 cdbd 816f d7be
00000240: 724e 8cbf 954a 2b3f 351a 473f b1f8 093f
00000250: 0738 c7bd bc0f 4b3f 5f3a 8f3e efe3 de3e
00000260: afda 2f3f be41 08bf 40dc 33bf 53f9 9f3f
00000270: 5f11 4b3f e2c2 ae3d e812 133f 7cc2 a03f
00000280: 131b 573f bd4d 24bf 6b14 d23e ce45 8e3e
00000290: af13 31be c8b4 ac3d 7cc8 943e 63d5 033f
000002a0: 7198 02be 80ae 6fbe 4b49 f03d 2cad f23c
000002b0: 28ee 973e e57d e43e 0730 23bf aac9 e13e
000002c0: e96f 233f e110 0f3f 5352 d13f 9c42 233f
000002d0: 1b0e 41bf bf6b 9f3e 0ea1 51bc 4fab f33e
000002e0: b823 173f 78de 343f 6ae3 c23e 64f2 e33d
000002f0: 784e 2f3e 100d ffbc ef1c debd 2447 873f
00000300: 0157 90bc 3683 96bf 3413 503e 1ea1 483e
00000310: ec28 863f 0d96 163f 9b27 fabf e66a 6d3e
00000320: 0316 783f f437 473f 7a8b 46bd 91e1 a53f
00000330: 5028 663f 02b2 813e 5893 7a3f 4e76 253e
00000340: 3cd1 aa3d a85c a4bf 1cb9 8ebf fbdd 24bf
00000350: 0726 bd3f 80e9 adbf 0d49 a9be 16a7 41bf
00000360: c7cc 16bf befc 563f 3cc6 373f 822b a73e
00000370: e134 3cbf 4af0 323f cfd5 c2be 2bcf 11bf
00000380: 9627 6ebf 4c93 09c0 387c b03e 06cf 153e
00000390: 6df2 483e 0617 bebe a899 debd 9804 e2be
000003a0: 3b77 94bd 4435 693f 9ec9 46bf 059f b63e
000003b0: d3ab 573f 7ed9 953d 1e46 99be b0a2 2abf
000003c0: 57f4 0bbe 1c9a b63e e1d4 72be 43d4 8b3f
000003d0: 3db3 b43e 603c 8a3e bb29 903e 5b37 fcbd
000003e0: 0eae 003e e261 babe 446e 46be 58bb 0dc0
000003f0: 775d da3e 8f45 b7be 5cd8 e33d 993d 52bf

bias f4 [64]
0.6277789 0.4253267 1.3383482 1.1682298 -0.36241084 -0.8200703 1.4646401 0.8199952
-1.3643874 -0.88897574 1.2224411 -0.8132059 -0.3069936 -1.2127386 1.3807466 1.263877
-1.3238776 0.048519842 1.192602 1.2975188 1.3553782 -0.11828496 -0.78807425 0.05909589
-0.40058413 0.35487306 -0.037139557 -0.06421712 0.08155663 -0.19589897 -0.6178879 1.4002846
1.1196632 -0.54904264 1.2116632 -0.8804944 -0.21559432 -1.0010929 1.199931 1.4996325
-0.026714796 0.032997448 -0.34478876 -0.95584476 -0.35992983 -1.1404463 -1.8676895 -0.79942536
1.1256459 -0.25671402 1.3504732 0.043514386 1.0135993 -0.29439142 -0.6364693 -1.0372769
-0.9567354 -0.72984475 -0.6937914 -0.014585922 -0.024044689 -0.37911963 0.041415796 -1.1445639
00000000: 1eb6 203f 6cc4 d93e fe4e ab3f 8e88 953f
00000010: ea8d b9be 21f0 51bf 5479 bb3f 35eb 513f
00000020: 3fa4 aebf ea93 63bf f378 9c3f 432e 50bf
00000030: 442e 9dbe 053b 9bbf 4ebc b03f b9c6 a13f
00000040: d274 a9bf bebc 463d 2fa7 983f 1915 a63f
00000050: 087d ad3f 633f f2bd 3cbf 49bf 880e 723d
00000060: 5d19 cdbe ecb1 b53e a61f 18bd 4484 83bd
00000070: 2a07 a73d bd99 48be e72d 1ebf 873c b33f
00000080: 2051 8f3f 0f8e 0cbf c817 9b3f 1568 61bf
00000090: c2c4 5cbe d023 80bf 5797 993f f5f3 bf3f
000000a0: fdd8 dabc 5528 073d 2788 b0be 3eb2 74bf
000000b0: b948 b8be 25fa 91bf 7310 efbf 24a7 4cbf
000000c0: 2a15 903f 0570 83be 4edc ac3f 243c 323d
000000d0: 9fbd 813f 79ba 96be a7ef 22bf 7dc5 84bf
000000e0: 9cec 74bf 1bd7 3abf 509c 31bf caf9 6ebc
000000f0: 5ef9 c4bc f81b c2be 9ca3 293d 1281 92bf

weight f4 [5, 64]
-1.4727201 -0.44733602 -1.4982499 -1.0862519 1.3780302 -1.241107 -1.4513544 -0.27144474
-0.88859284 -1.3820158 -1.1771115 -0.945697 1.1474923 -1.42584 -1.8960633 -1.2419381
-0.81027436 -0.81120616 -1.9543637 -1.082411 -1.0732355 1.0742508 -1.1825569 1.7722073
-1.2219054 1.5918999 1.2784396 -0.819984 1.9013582 -1.0635396 1.9896753 -1.36049
-1.0804694 -0.9682236 -1.2015502 -1.0029935 -0.65767384 -1.3855567 -0.9839026 -1.5515074
1.2026081 -0.28665203 1.4965584 1.8838668 1.0360373 -1.6991675 -0.943906 -1.5325189
-1.3362603 1.5197717 -1.422098 0.42677444 -1.1696187 -0.8880597 -0.99463916 -0.43433645
-1.7307556 -1.0863326 1.5893152 1.183875 -0.86774874 1.1088184 0.35694978 -1.4468246
-0.81740457 -1.1165832 -1.8297546 -1.0968542 1.3719434 -1.3239219 -1.030326 0.4432779
-1.0309825 -0.69064707 -1.5387509 -0.48306608 1.4255812 -0.83071953 -1.301854 -1.3992507
0.06842037 -0.7188077 -2.1917608 -1.0314708 -1.04224 1.0857921 -1.5088772 2.2132213
-1.317103 2.1084337 0.99348587 0.615561 1.5370494 -1.171011 1.5671642 -1.5921925
-1.3507605 -0.6635933 -1.3114417 -2.4729002 -0.23237973 -2.6109667 -0.7650961 -1.5774959
1.4629328 -1.3380069 2.0587082 2.1688752 0.4334677 -1.1152325 -1.1653076 -2.6713471
-1.3000246 2.0528498 -1.5319601 0.10977806 -1.0109897 -0.7474831 -0.50728023 -0.5735343
-1.7603736 -1.7082672 1.6042827 1.9186945 -0.8424917 0.51954603 0.46248513 -0.7459434
-2.9747057 0.4721995 -1.0963285 -1.2193388 1.2655483 -1.4306602 -1.6272157 -0.5550899
-0.7834144 -1.9986216 -1.0267024 -1.131055 0.45245135 -1.6627731 -2.1648326 -1.1277127
-1.5327582 -0.980309 -1.7207357 -1.3708184 -1.192888 1.0588057 -0.97564197 1.2834215
-1.2511832 0.9838099 1.3249414 -1.4434558 2.8954263 -0.7265431 1.8356605 -1.0842477
-1.1278886 -1.2733012 -0.9853281 0.29579896 -0.61326367 -0.6454562 -1.0507962 -1.4742656
0.92624897 0.31000546 1.4356546 1.7488855 1.5697212 -1.7376393 -0.782425 -0.8723605
-1.2028233 1.517227 -1.3692816 1.1969616 -1.190174 -1.0007092 -1.6505241 -0.3305468
-1.9968404 -0.1875467 1.0242437 0.49870026 -0.9264831 1.3105255 0.01487508 -1.7774369
-0.41895816 -2.413977 -1.0953665 -1.0897995 1.3743173 -1.3094835 -1.4114085 -1.2002133
-0.8137175 -1.7158315 -0.8873373 -1.2103407 1.0707544 -0.7683354 -2.7076278 -0.9743221
0.9159946 -0.5343506 -2.7557762 -0.85142964 -1.0067217 1.2194388 -0.31423262 1.6441858
-1.44032 1.435553 1.3182578 -1.720731 1.6503686 -1.8851907 1.535851 -1.4032431
-1.0437511 -0.9865444 -1.1823508 -0.4502326 -0.20013526 -1.4902471 -0.9220238 -1.4957455
1.274928 -0.365994 1.910367 2.1704884 1.1690277 -2.2614849 -1.2779605 -0.9543293
-1.4108235 0.9825807 -1.5328115 -1.0748606 -1.1989571 -0.7967284 -0.49186003 -1.1695276
-0.8931456 -1.1170835 1.6169014 0.77303797 -1.5787239 1.3627946 1.3514111 -1.4800575
00000000: 1882 bcbf 3a09 e5be a7c6 bfbf 4d0a 8bbf
00000010: 4b63 b03f 98dc 9ebf fbc5 b9bf cefa 8abe
00000020: d27a 63bf e5e5 b0bf 97ab 96bf 3319 72bf
00000030: 07e1 923f ed81 b6bf 34b2 f2bf d4f7 9ebf
00000040: 246e 4fbf 35ab 4fbf 9728 fabf 728c 8abf
00000050: c85f 89bf 0d81 893f 065e 97bf b0d7 e23f
00000060: 6567 9cbf 60c3 cb3f e9a3 a33f 79ea 51bf
00000070: b55f f33f 1122 88bf aead fe3f 8924 aebf
00000080: d24c 8abf 80dd 77bf 66cc 99bf 1762 80bf
00000090: 505d 28bf ec59 b1bf 0ae1 7bbf cb97 c6bf
000000a0: 10ef 993f 0ec4 92be 3a8f bf3f 8c22 f13f
000000b0: df9c 843f 527e d9bf d3a3 71bf 9429 c4bf
000000c0: 940a abbf e187 c23f 4f07 b6bf 2e82 da3e
000000d0: 11b6 95bf e157 63bf aca0 7ebf 5961 debe
000000e0: 6689 ddbf f20c 8bbf ae6e cb3f 3789 973f
000000f0: c824 5ebf c3ed 8d3f 1fc2 b63e 8c31 b9bf
00000100: 6d41 51bf 33ec 8ebf 6635 eabf b865 8cbf
00000110: d79b af3f 4676 a9bf b9e1 83bf 52f5 e23e
00000120: 3cf7 83bf 3fce 30bf caf5 c4bf 7054 f7be
00000130: 7279 b63f 09aa 54bf 27a3 a6bf a61a b3bf
00000140: fb1f 8c3d c803 38bf cf45 0cc0 3c07 84bf
00000150: 1f68 85bf 3cfb 8a3f e322 c1bf 6ba5 0d40
00000160: d596 a8bf 94f0 0640 1755 7e3f 6895 1d3f
00000170: 09be c43f b0e3 95bf d698 c83f f7cc cbbf
00000180: b8e5 acbf 40e1 29bf 52dd a7bf ff43 1ec0
00000190: f4f4 6dbe 141a 27c0 57dd 43bf 63eb c9bf
000001a0: 6241 bb3f cf43 abbf e0c1 0340 dace 0a40
000001b0: 7aef dd3e f0bf 8ebf cd28 95bf 5af7 2ac0
000001c0: 3567 a6bf e461 0340 4517 c4bf 52d3 e03d
000001d0: 1c68 81bf 0d5b 3fbf 1edd 01bf 25d3 12bf
000001e0: ec53 e1bf 80a8 dabf 2359 cd3f c897 f53f
000001f0: 89ad 57bf f800 053f daca ec3e 26f6 3ebf
00000200: 9461 3ec0 22c4 f13e 7e54 8cbf 4b13 9cbf
00000210: 7dfd a13f e01f b7bf 9b48 d0bf 5f1a 0ebf
00000220: d98d 48bf d5d2 ffbf fc6a 83bf 69c6 90bf
00000230: b4a7 e73e c0d5 d4bf 9e8c 0ac0 e458 90bf
00000240: 6c31 c4bf 88f5 7abf 1141 dcbf fa76 afbf
00000250: 8eb0 98bf f286 873f acc3 79bf 2847 a43f
00000260: c526 a0bf f7da 7b3f ae97 a93f 29c3 b8bf
00000270: aa4e 3940 bbfe 39bf ecf6 ea3f a1c8 8abf
00000280: a75e 90bf 89fb a2bf 763e 7cbf f672 973e
00000290: d9fe 1cbf 9e3c 25bf 7d80 86bf bcb4 bcbf
000002a0: a71e 6d3f 09b9 9e3e 88c3 b73f 7bdb df3f
000002b0: a0ec c83f f76a debf 014d 48bf 0553 5fbf
000002c0: 1df6 99bf 7f34 c23f 9f44 afbf 0a36 993f
000002d0: 9f57 98bf 3d17 80bf 6044 d3bf 6e3d a9be
000002e0: 7798 ffbf 3e0c 40be 6b1a 833f a455 ff3e
000002f0: ff2d 6dbf 4dbf a73f 9cb6 733c 0d83 e3bf
00000300: af81 d6be 997e 1ac0 f834 8cbf 8d7e 8bbf
00000310: a1e9 af3f 289d a7bf 09a9 b4bf 97a0 99bf
00000320: ca4f 50bf 5ea0 dbbf 8a28 63bf 72ec 9abf
00000330: 7b0e 893f a1b1 44bf c649 2dc0 2c6d 79bf
00000340: 9f7e 6a3f 33cb 08bf a35e 30c0 4bf7 59bf
00000350: 42dc 80bf 9216 9c3f 19e3 a0be ae74 d23f
00000360: 685c b8bf 33c0 b73f acbc a83f ea40 dcbf
00000370: 473f d33f ee4d f1bf c496 c43f 789d b3bf
00000380: a399 85bf 2c8e 7cbf 4557 97bf e384 e6be
00000390: 42f0 4cbe 6bc0 bebf c009 6cbf 9774 bfbf
000003a0: d730 a33f 9163 bbbe e886 f43f 48e9 0a40
000003b0: b3a2 953f 2bbc 10c0 3694 a3bf ed4e 74bf
000003c0: dd95 b4bf 698a 7b3f 2b33 c4bf 0895 89bf
000003d0: 6d77 99bf 64f6 4bbf 14d5 fbbe 15b3 95bf
000003e0: 31a5 64bf 98fc 8ebf a0f6 ce3f d1e5 453f
000003f0: a013 cabf 0e70 ae3f 0afb ac3f 8672 bdbf

bias f4 [5]
-0.5248102 -0.264425 -0.93957406 -0.9237851 -0.43920302
00000000: f659 06bf b762 87be ed87 70bf 2e7d 6cbf
00000010: 38df e0be
