models/simple_tag/PPO-not-shared/adversary_2/actor_0.pt (torch, 14792 bytes, 6 tensors)

weight f4 [32, 12]
-0.26441476 -0.2372864 -1.6963649 0.725688 1.1729896 -0.69647634 0.6487291 -0.6792235
-0.3580115 0.4006857 -0.45455366 -0.33843234 0.28557172 -0.33716503 -1.0653739 0.2143314
2.1167808 -0.6850515 0.6826086 -0.18197773 1.3619523 -0.066700235 -1.1970136 -0.9983552
0.8728232 1.8502723 1.1746051 0.7954575 -1.2280598 0.1660231 -0.8798735 -0.18413675
-0.21787956 -1.1808721 1.412792 0.25368717 -1.5609219 0.12631494 1.1127608 0.09272812
-0.60193145 -0.18377368 0.0050805085 0.37157828 -0.19072485 -0.2105653 0.59108937 1.1861274
-0.20452063 -1.2824253 0.9310369 -0.76969844 0.68262404 -1.2754483 0.94012636 -0.09983541
1.5233728 -0.5310717 0.29542056 1.3196496 -0.55595165 0.49903262 1.257564 1.2914052
-1.6138226 -0.55458516 -0.30060092 0.116392836 -0.65457165 -0.9675936 0.54384965 0.3590807
0.1403208 -0.12788376 0.68571275 0.24049869 -0.28797323 -0.6246099 -0.7262107 0.6229773
0.3628103 1.4951867 0.9057534 0.30584309 0.20811681 -0.10099 0.57474846 -1.214457
0.54751056 0.045767177 -0.34677926 0.043785356 0.12052389 1.2163236 -1.4724889 -0.0874146
0.92027473 0.72531116 0.5466597 -0.13856977 -1.4019332 0.3060957 -1.6367139 0.51941687
-0.021144165 -0.36082885 0.2951235 -0.46192098 0.11491129 1.0661329 1.4221121 0.96102846
-0.97260386 -0.3976749 -0.9534573 -0.6985325 -0.7172792 -0.6387343 1.4800024 0.38537598
0.007912958 -0.191081 -1.8014215 0.12690732 0.32791156 0.24909663 1.0244298 -1.7811395
1.4238441 -0.6685807 -0.74594307 0.27745464 -0.23009229 0.823325 -1.1295434 0.74164176
0.156667 0.88251084 0.56801564 -0.23789349 1.5933133 -1.0980501 1.2122467 0.4552965
0.5070322 1.6388767 0.8490494 0.5566989 -1.3119079 -0.07002803 -0.5232864 0.24483252
-1.5059286 -0.5904481 0.46715227 -0.20072353 0.8411756 0.4919066 -0.3501964 -0.4971012
-0.96908975 1.1928345 -0.36532313 0.9850074 0.6313616 -0.6818823 0.7724816 -0.33446184
-0.04279335 -0.49620405 -0.77544093 -0.5993533 1.3039453 0.5910115 1.0871629 0.05336812
1.6561112 1.3071154 -0.24044868 -0.08708892 1.0977942 -0.6658129 0.46262208 -0.30870074
-0.054683197 0.95883405 0.43492594 0.229844 0.6172434 0.87392455 -0.34383193 -0.7057829
-0.6586239 0.25359505 1.3532143 -0.2791064 -0.4261882 -0.8718585 0.13559836 0.26915234
-0.59235466 -0.26761094 0.5478029 0.6505719 -0.9107421 -0.069498405 2.0765388 0.5997816
-0.18319055 -0.46872106 -0.27465823 -0.34237054 -0.758859 -0.36209813 1.5888102 1.0037036
0.41711926 -0.124526486 -0.5096739 -0.25275803 -0.3862647 0.91145825 -0.8147183 1.427125
0.43509388 0.022849137 -0.5714518 -0.3947237 -0.4765986 0.7079956 0.61538595 0.257568
-0.6465043 -0.73356396 0.32456422 -1.1852517 -0.5361634 -0.68627 -0.087608226 1.1056778
-0.73181474 -0.6997463 0.12438009 -0.91645175 -0.27385688 1.4320853 -0.6934822 1.4020962
0.37688524 0.51159334 0.021059219 -1.1197014 0.1554621 -0.64618695 0.16464679 -0.48564216
00000000: 5f61 87be 35fb 72be 7c22 d9bf b0c6 393f
00000010: 8624 963f 464c 32bf 1c13 263f 97e1 2dbf
00000020: 494d b7be ad26 cd3e 42bb e8be 0147 adbe
00000030: 7536 923e e5a0 acbe 2c5e 88bf b179 5b3e
00000040: 5679 0740 895f 2fbf 70bf 2e3f 5f58 3abe
00000050: 7454 ae3f 229a 88bd be37 99bf 3594 7fbf
00000060: 5771 5f3f b9d5 ec3f 7659 963f 1aa3 4b3f
00000070: 1031 9dbf f601 2a3e 643f 61bf 588e 3cbe
00000080: d21b 5fbe d126 97bf 5ed6 b43f 49e3 813e
00000090: 4acc c7bf b458 013e f26e 8e3f 3ee8 bd3d
000000a0: 2e18 1abf 2b2f 3cbe 657a a63b 823f be3e
000000b0: 604d 43be 6e9e 57be a251 173f 06d3 973f
000000c0: db6d 51be 8326 a4bf 6f58 6e3f f50a 45bf
000000d0: 73c0 2e3f e441 a3bf 1fac 703f 8276 ccbd
000000e0: e1fd c23f 51f4 07bf 5d41 973e 47ea a83f
000000f0: d952 0ebf 3481 ff3e dbf7 a03f c44c a53f
00000100: bd91 cebf 4bf9 0dbf 5de8 99be 5e5f ee3d
00000110: 0292 27bf 37b4 77bf bb39 0b3f 6dd9 b73e
00000120: 41b0 0f3e f6f3 02be df8a 2f3f 4a45 763e
00000130: 3a71 93be 6fe6 1fbf f2e8 39bf 717b 1f3f
00000140: 46c2 b93e 4762 bf3f 74df 673f 7797 9c3e
00000150: 931c 553e d8d3 cebd b722 133f 5473 9bbf
00000160: a729 0c3f 5d76 3b3d 0d8d b1be 4658 333d
00000170: 3bd5 f63d 7eb0 9b3f 847a bcbf 6d06 b3bd
00000180: 2097 6b3f fead 393f e4f1 0b3f 3ce5 0dbe
00000190: 8c72 b3bf 93b8 9c3e d77f d1bf 81f8 043f
000001a0: 8736 adbc 8fbe b8be 6d1a 973e e880 ecbe
000001b0: 9c56 eb3d 0b77 883f c507 b63f f605 763f
000001c0: 91fc 78bf 0b9c cbbe c715 74bf 07d3 32bf
000001d0: 9c9f 37bf 1784 23bf b870 bd3f 0050 c53e
000001e0: 5aa5 013c bdaa 43be fb94 e6bf fef3 013e
000001f0: 06e4 a73e 3013 7f3e 8420 833f 61fc e3bf
00000200: 8640 b63f 1b28 2bbf 20f6 3ebf 890e 8e3e
00000210: 509d 6bbe 6dc5 523f e194 90bf 3cdc 3d3f
00000220: 506d 203e 3bec 613f 7969 113f 5a9a 73be
00000230: b1f1 cb3f e88c 8cbf e62a 9b3f 9f1c e93e
00000240: ddcc 013f b6c6 d13f 4d5b 593f d283 0e3f
00000250: 99ec a7bf db6a 8fbd 19f6 05bf 60b5 7a3e
00000260: 45c2 c0bf 9b27 17bf 952e ef3e 788a 4dbe
00000270: 4957 573f 2fdb fb3e f14c b3be 0c84 febe
00000280: 4416 78bf cdae 983f a20b bbbe 7229 7c3f
00000290: eaa0 213f d78f 2ebf 5bc1 453f 953e abbe
000002a0: 1448 2fbd 750e febe 4c83 46bf 386f 19bf
000002b0: aee7 a63f 884c 173f 2728 8b3f 8898 5a3d
000002c0: 74fb d33f 8f4f a73f 2e38 76be ad5b b2bd
000002d0: 8584 8c3f b772 2abf cddc ec3e 060e 9ebe
000002e0: 7dfb 5fbd 2676 753f 9dae de3e 3a5c 6b3e
000002f0: aa03 1e3f 85b9 5f3f bd0a b0be 30ae 34bf
00000300: 939b 28bf 36d7 813e 2036 ad3f 09e7 8ebe
00000310: 5735 dabe 1e32 5fbf 4cda 0a3e 56ce 893e
00000320: 8ea4 17bf 4d04 89be d03c 0c3f e18b 263f
00000330: 6526 69bf 2e55 8ebd 03e6 0440 498b 193f
00000340: 4e96 3bbe 35fc efbe 01a0 8cbe 314b afbe
00000350: 9544 42bf ed64 b9be 225e cb3f 5c79 803f
00000360: a890 d53e be07 ffbd fd79 02bf 8069 81be
00000370: 7dc4 c5be 5455 693f 6191 50bf 08ac b63f
00000380: a0c4 de3e 1d2e bb3c aa4a 12bf 3a19 cabe
00000390: bb04 f4be 333f 353f ef89 1d3f f4df 833e
000003a0: 4e81 25bf d9ca 3bbf 482d a63e 54b6 97bf
000003b0: 0142 09bf 64af 2fbf f16b b3bd da86 8d3f
000003c0: 3658 3bbf 9322 33bf fdba fe3d 959c 6abf
000003d0: f836 8cbe 924e b73f 0d88 31bf e377 b33f
000003e0: 1af7 c03e c8f7 023f 6284 ac3c 6052 8fbf
000003f0: 7531 1f3e 826c 25bf 2b99 283e 17a6 f8be

bias f4 [32]
0.18157999 0.6313161 0.18540241 -0.55867714 0.37936723 0.22771464 -0.3895463 0.0051144427
0.23907292 0.08176514 0.26782477 -0.39126575 -0.7171679 -0.3187934 -0.23878227 -0.8787066
-0.44002753 0.012294208 -0.79154825 -0.30686098 1.0092076 -0.41253087 0.33422363 0.09778725
-0.8854365 -0.09330704 -0.50562114 0.68309885 -0.9581575 -0.7045371 0.83179015 -1.6061848
00000000: 1bf0 393e ef9d 213f 21da 3d3e 7705 0fbf
00000010: 6c3c c23e 072e 693e 9d72 c7be 0e97 a73b
00000020: 88cf 743e 7b74 a73d 5420 893e fc53 c8be
00000030: 5198 37bf e338 a3be 5783 74be eaf2 60bf
00000040: 4a4b e1be a56d 493c e8a2 4abf e21c 9dbe
00000050: b72d 813f 3f37 d3be 5c1f ab3e af44 c83d
00000060: f7ab 62bf c317 bfbd 6370 01bf 91df 2e3f
00000070: cf49 75bf 8b5c 34bf 33f0 543f 7797 cdbf

weight f4 [64, 32]
-0.26693633 0.063204594 -0.6337603 -1.2400365 -1.0657955 -0.9557984 -0.70561355 0.55088836
-0.21505089 -0.060830645 0.22500189 -1.3782952 -0.43327808 -0.98158836 0.4355659 0.5358084
0.08136881 -0.7342117 -0.4297569 -0.9734601 -0.13508418 -0.46509442 0.21949266 0.24009229
0.033466697 0.66381496 0.21875182 -0.6673505 -0.31782088 0.46770987 0.047714796 -0.72868884
-0.29229394 0.8571141 -0.24889427 0.5262581 1.6314377 0.00021503479 -0.70194453 0.02696635
-0.8413247 -0.07062658 0.93799675 -0.57084894 -0.18812352 -0.90495163 0.7501756 0.072245516
-0.42134166 0.3425035 -0.26327586 0.5162926 -0.636999 0.15923585 -0.30068251 -0.2357096
0.50955695 0.36094734 -0.112053506 1.4402548 -0.022716891 -0.0042957934 1.132213 -0.046931356
-0.21378359 -0.25100496 0.07520086 -0.30324847 -0.48410618 -0.4011865 0.10742323 -0.041777812
-0.0057570157 -0.19914153 0.32112595 -0.37726215 0.07930142 -0.059196223 -0.17606176 -0.18454403
-0.6417383 -0.23216864 -0.1768241 -0.75039065 -0.47083244 -0.23344529 -0.1097625 0.08484662
-0.14206284 0.00071475917 -0.57390887 -0.26984403 -0.080202565 -0.97450036 -0.25084937 -0.20543987
-0.21082065 0.12296203 -0.21099013 0.1049956 -0.034875065 -1.5078707 0.78711385 0.06554361
0.29037446 -0.94946265 -0.77629185 -1.3730165 -0.5647495 0.9749143 -0.41282165 0.41350815
-0.28467128 -0.36767447 1.2353556 0.24290359 1.2058803 0.41942158 0.98235065 -0.10049083
0.104183905 -0.093559615 0.50516945 -1.685498 0.24326205 0.557619 -0.4633338 0.66308445
-1.3177454 -0.6457015 1.3452874 0.54020834 -0.15151647 0.39204958 0.6441777 0.02292091
0.8565919 1.7050303 -0.4858717 -0.33240786 1.6782614 -0.32264775 -1.566576 0.1438781
0.0037646121 1.2968735 0.3445436 0.64220816 -0.6829755 -1.0414907 -0.75093454 1.1922739
-1.3793911 -0.4675248 0.20600018 -0.56618583 -0.4395612 -0.7472092 -0.80292034 -0.04333745
0.096618794 -0.10923348 -0.15201633 -0.35969192 -0.43158638 -0.044623293 -0.13338663 -0.17971714
-0.3848317 -0.4284907 -0.15652084 -0.16996641 0.022730086 -0.12349087 -0.15189064 0.044441376
0.16782562 -0.3158014 0.010255362 -0.1789844 -0.08608979 0.023068322 -0.014295251 0.038478907
-0.31380978 -0.13054219 -0.0663512 -0.09223211 -0.0516208 -0.2978616 -0.30753323 0.029449759
-0.32555148 -0.22948162 -0.3778711 0.04295892 -0.50313175 -0.16961056 0.038847763 0.09888485
-0.1582932 0.08157194 0.43916366 -0.4881945 0.47648442 0.34570298 -0.27291438 -0.2107306
-0.03873078 0.384306 -0.19449578 -0.5172554 -0.43357828 0.13350771 -0.14748418 -0.13590881
-0.5019401 0.1529618 -0.61873776 -0.036688685 0.35956752 -0.04701361 -0.05529872 -0.668666
-0.16535866 -0.09594031 -0.11164303 -0.17132786 -0.14999638 -0.20446944 -0.107879184 -0.087253176
0.026117275 -0.10026984 -0.05351678 -0.31681308 -0.08019342 0.038996946 -0.2661427 -0.14399014
-0.37579733 -0.17657079 -0.13885726 0.012735601 -0.40445036 -0.0741227 -0.06090241 0.13752086
0.0015116562 -0.09992066 -0.13834633 0.00018854706 0.035373576 -0.40276557 -0.17904691 -0.23154251
00000000: e1ab 88be 6971 813d 1d3e 22bf 84b9 9ebf
00000010: fd6b 88bf 34af 74bf 17a3 34bf 0507 0d3f
00000020: 4d36 5cbe 8e29 79bd e566 663e fa6b b0bf
00000030: a0d6 ddbe 6049 7bbf 7e02 df3e bd2a 093f
00000040: b1a4 a63d 4cf5 3bbf 1909 dcbe ae34 79bf
00000050: 8253 0abe db20 eebe afc2 603e c1da 753e
00000060: 6014 093d c7ef 293f 7a00 603e 7bd7 2abf
00000070: 6bb9 a2be ab77 ef3e 9770 433d 5a8b 3abf
00000080: 8da7 95be d46b 5b3f 24de 7ebe dab8 063f
00000090: f3d2 d03f f67a 6139 a3b2 33bf 89e8 dc3c
000000a0: 0e61 57bf aba4 90bd 8e20 703f 2823 12bf
000000b0: 74a3 40be e9aa 67bf 820b 403f 75f5 933d
000000c0: 18ba d7be 9e5c af3e 18cc 86be c02b 043f
000000d0: 5e12 23bf b90e 233e 0ff3 99be db5d 71be
000000e0: 5372 023f 17ce b83e 4f7c e5bd 455a b83f
000000f0: c618 babc bac3 8cbb 5bec 903f 183b 40bd
00000100: 16ea 5abe b983 80be e902 9a3d 6243 9bbe
00000110: c4dc f7be 5168 cdbe b600 dc3d 361f 2bbd
00000120: 59a5 bcbb c2eb 4bbe 9f6a a43e 8128 c1be
00000130: c868 a23d bd77 72bd 8949 34be 1cf9 3cbe
00000140: f648 24bf 9ebd 6dbe 6011 35be 9a19 40bf
00000150: f310 f1be 480c 6fbe 29cb e0bd 11c4 ad3d
00000160: ec78 11be ad5e 3b3a b1eb 12bf ff28 8abe
00000170: 3e41 a4bd db78 79bf 546f 80be d45e 52be
00000180: 5ee1 57be 84d3 fb3d cc0d 58be ef07 d73d
00000190: 28d9 0ebd e801 c1bf 4b80 493f ba3b 863d
000001a0: f6ab 943e fc0f 73bf 10bb 46bf 01bf afbf
000001b0: 6c93 10bf fc93 793f 5c5d d3be 57b7 d33e
000001c0: 6fc0 91be d43f bcbe 2220 9e3f b8bb 783e
000001d0: 495a 9a3f 6dbe d63e 557b 7b3f 23ce cdbd
000001e0: 5f5e d53d 2f9c bfbd c952 013f 66be d7bf
000001f0: b019 793e 1ec0 0e3f 163a edbe e7bf 293f
00000200: e2ab a8bf b24c 25bf 6132 ac3f 184b 0a3f
00000210: 2227 1bbe b9ba c83e d4e8 243f a2c4 bb3c
00000220: 9b49 5b3f 6f3e da3f 2dc4 f8be 5d31 aabe
00000230: 45d1 d63f 1632 a5be 9085 c8bf c854 133e
00000240: b6b7 763b f3ff a53f 0568 b03e c167 243f
00000250: 7bd7 2ebf 914f 85bf 3f3d 40bf 6e9c 983f
00000260: e38f b0bf 695f efbe b6f1 523e 8ef1 10bf
00000270: 2a0e e1be 1a49 3fbf 308c 4dbf 9c82 31bd
00000280: 13e0 c53d ceb5 dfbd 2baa 1bbe 8a29 b8be
00000290: e4f8 dcbe eac6 36bd 8196 08be c507 38be
000002a0: a908 c5be 2263 dbbe 0047 20be ad0b 2ebe
000002b0: 7234 ba3c c8e8 fcbd 3889 1bbe 2908 363d
000002c0: 7bda 2b3e b9b0 a1be 1b06 283c b047 37be
000002d0: d84f b0bd c7f9 bc3c a136 6abc 0f9c 1d3d
000002e0: adab a0be daac 05be 23e3 87bd 30e4 bcbd
000002f0: 5570 53bd 5181 98be ff74 9dbe 9f40 f13c
00000300: afae a6be 3bfd 6abe 5278 c1be b1f5 2f3d
00000310: 3ecd 00bf 64ae 2dbe d51e 1f3d 2484 ca3d
00000320: 9d17 22be 300f a73d 0fda e03e a1f4 f9be
00000330: c4f5 f33e fbff b03e 6fbb 8bbe c3c9 57be
00000340: 2ba4 1ebd c2c3 c43e e729 47be da6a 04bf
00000350: f9fd ddbe 3fb6 083e 1806 17be ae2b 0bbe
00000360: 257f 00bf 05a2 1c3e 9965 1ebf e046 16bd
00000370: 3c19 b83e 5891 40bd e980 62bd b22d 2bbf
00000380: c853 29be 5a7c c4bd 1aa5 e4bd 9270 2fbe
00000390: a798 19be 7060 51be c3ef dcbd cbb1 b2bd
000003a0: e5f3 d53c 465a cdbd 6934 5bbd 5335 a2be
000003b0: 733c a4bd 43bb 1f3d db43 88be 2772 13be
000003c0: 8268 c0be f9ce 34be 9930 0ebe fba8 503c
000003d0: 1e14 cfbe a4cd 97bd ce74 79bd 45d2 0c3e
000003e0: c422 c63a 34a3 ccbd a9aa 0dbe b7b4 4539
000003f0: e2e3 103d 4a37 cebe 1358 37be 7b19 6dbe

bias f4 [64]
-0.58260816 -0.14014447 -0.6441367 0.42519704 -0.2664364 -0.2444888 -0.62372 -0.120047376
-0.22917771 -0.43101138 0.35417 -0.20129348 -0.042385247 -0.2342179 0.41312024 0.40460238
-0.35355017 0.45385623 0.85107964 -0.92314893 0.3605747 -0.021611946 -0.31930315 -0.37328562
-0.33176976 0.39024395 0.6217693 -0.096531115 0.5956503 -0.1337862 0.118241325 0.23020251
-0.6925285 -0.9452421 -0.4038615 -0.23603001 -0.2806024 0.24909207 0.32846895 -0.10390345
0.21015537 -0.31710455 -0.45632556 -0.37955615 0.23788622 0.36934856 0.3243578 -0.67674625
0.07349456 0.1976145 0.306251 -0.3368137 -0.9909772 -0.5055208 -0.19532081 -0.12095086
0.92887473 0.03870998 -0.33328822 0.8363314 -0.033311974 -0.42398396 -0.9468727 -0.10651075
00000000: cf25 15bf 0882 0fbe 25e6 24bf 6db3 d93e
00000010: 5a6a 88be 465b 7abe 1dac 1fbf 66db f5bd
00000020: 90ad 6abe 86ad dcbe c555 b53e e11f 4ebe
00000030: 279c 2dbd d1d6 6fbe 7f84 d33e 0b28 cf3e
00000040: 8704 b5be d85f e83e 5be0 593f 7d53 6cbf
00000050: 3f9d b83e 890b b1bc b47b a3be 4b1f bfbe
00000060: badd a9be 0ece c73e 462c 1f3f 1bb2 c5bd
00000070: 8a7c 183f 40ff 08be 8228 f23d 35ba 6b3e
00000080: 8c49 31bf 63fb 71bf efc6 cebe dab1 71be
00000090: 1eab 8fbe fe11 7f3e 152d a83e 55cb d4bd
000000a0: f832 573e 875b a2be 81a3 e9be 2f55 c2be
000000b0: 7298 733e 411b bd3e 3a12 a63e 3e3f 2dbf
000000c0: 5184 963d 755b 4a3e eecc 9c3e d872 acbe
000000d0: afb0 7dbf d069 01bf 2e02 48be 16b5 f7bd
000000e0: bcca 6d3f 5b8e 1e3d c1a4 aabe d119 563f
000000f0: 2372 08bd 6d14 d9be 4066 72bf 4f22 dabd

weight f4 [5, 64]
0.8260047 -0.08546326 0.22943495 0.7417163 -0.8383025 0.060634445 0.22230618 0.19588919
-0.29984507 -0.18292749 0.25848967 -0.214562 -1.0843643 0.29505995 -0.4991106 0.35201317
-0.5023033 -0.31010348 0.40401077 0.68319243 0.58208764 0.6007696 0.14590174 0.08237765
0.23868355 -1.7575669 -0.22143513 0.092866145 -0.09054522 -0.10018121 0.039007325 -1.0566416
0.7914556 0.6435153 0.31647843 -0.18893647 0.08300801 -1.003783 0.2638099 -0.5128187
-1.2957336 -0.20481426 0.48225343 0.18757479 0.32854223 0.31483972 0.40213135 0.26544616
0.4765169 -1.505859 0.13638695 -0.25700793 0.027691234 0.30335262 0.013251009 0.062544696
-0.27722538 0.46799183 0.18435165 0.6474756 -0.5159678 0.09921366 0.79126954 0.26972947
0.20081787 0.44868743 0.27155364 0.056003474 0.41692904 0.18674017 0.39874756 0.2138816
0.3660684 -0.06320572 -0.6065375 0.08911341 -0.48252964 0.14103101 0.6414252 0.36935827
0.1938969 0.058129 1.6267617 -0.12658472 0.5731905 1.1189926 0.15870436 0.32724366
0.15553722 0.9520847 -0.3528834 -0.0034544503 -0.054205325 0.4901155 -0.12803058 -0.74426943
0.02404882 -0.055119425 0.25715858 -0.072032526 0.07563773 -0.11213694 -0.8231427 0.120542295
1.1513909 -0.18299618 0.14012769 0.12291911 0.2797842 -0.2849265 0.9084684 -0.38234222
1.2044595 1.3733562 0.8266693 0.3275925 -0.010655431 0.24353334 0.013161569 -0.008695972
0.9367817 0.8707567 0.32561162 0.98275644 0.57336235 -0.007928489 -0.06528717 0.22725575
0.6796419 1.155796 -0.3031915 0.05875429 0.17470184 -0.064280726 0.13827617 -0.090724714
0.07923525 0.19427659 -0.52545387 -0.5181304 -0.6533922 -0.37598708 -0.31509104 -1.0428373
0.25756416 1.8195475 -0.79537815 0.63357496 -0.065124504 -0.3228727 0.061279222 0.04123385
0.5364532 -0.26725775 2.1731553 -0.0535785 0.6016304 0.16459459 1.6858761 0.61391
0.13538027 -0.6242447 -0.05266675 0.8756827 -0.030175649 1.2876202 -0.08776825 0.85506153
0.22327664 -0.04839521 1.193233 -0.045172114 -0.99174774 0.87647957 -0.7814828 0.02256653
-0.5985641 0.07956518 0.9214238 -0.29404724 0.29016417 0.9501727 0.06088976 -0.11728597
-0.60121846 -0.23529828 -0.13718013 -1.0357043 0.48134583 -0.09877847 -0.49510866 -0.24098796
-0.08345409 0.22636265 -0.033980798 0.07909132 1.9096599 -0.059233718 0.53253424 0.04233036
-0.2193865 0.098174274 0.10324732 0.6849161 1.7503326 0.030950025 0.42229217 0.5798511
-0.07761517 -0.93555766 -0.35207525 0.41345897 0.9092261 -0.7930604 0.24372049 0.21204813
-0.28979972 1.677757 0.14567584 0.05884663 0.6680674 0.27998412 0.81165075 1.1641158
0.009321284 -0.118643865 0.40483454 0.38614225 -0.022387197 0.0805724 -0.75072896 0.17370197
0.39853582 -0.08432886 0.8076883 -0.064865805 0.29191393 -0.29584214 0.44409397 0.18803996
-0.35864565 1.6941782 0.07567692 -0.084402 -0.1915107 0.9319407 -0.024629837 0.06361726
1.5372639 -0.50898516 0.24141046 0.3407269 0.2090472 0.21585292 0.10967687 -0.0882383
00000000: 0b75 533f 5d07 afbd fff0 6a3e 1fe1 3d3f
00000010: fe9a 56bf d35b 783d 3ba4 633e 2d97 483e
00000020: 4b85 99be 5851 3bbe c258 843e 24b6 5bbe
00000030: 73cc 8abf 1912 973e 6d8b ffbe 123b b43e
00000040: f396 00bf e2c5 9ebe 80da ce3e b3e5 2e3f
00000050: b203 153f 09cc 193f 4467 153e 9db5 a83d
00000060: 7669 743e f4f7 e0bf e4bf 62be 9b30 be3d
00000070: c66f b9bd ce2b cdbd 25c6 1f3d 0840 87bf
00000080: d69c 4a3f 6bbd 243f 7609 a23e 9078 41be
00000090: 1b00 aa3d f67b 80bf 1712 873e 1648 03bf
000000a0: 99da a5bf d4ba 51be ece9 f63e 9b13 403e
000000b0: b036 a83e ac32 a13e 29e4 cd3e 8fe8 873e
000000c0: 06fa f33e fdbf c0bf 05a9 0b3e 8b96 83be
000000d0: bad8 e23c 0951 9b3e c31a 593c 6f17 803d
000000e0: 7cf0 8dbe a09c ef3e aec6 3c3e f6c0 253f
000000f0: 7716 04bf 8830 cb3d a490 4a3f fb19 8a3e
00000100: 33a3 4d3e 5cba e53e 1409 8b3e e663 653d
00000110: b977 d53e d138 3f3e a428 cc3e c703 5b3e
00000120: 516d bb3e 0072 81bd 0b46 1bbf 1781 b63d
00000130: 200e f7be 6f6a 103e 7134 243f 871c bd3e
00000140: e98c 463e ad18 6e3d ba39 d03f 6d9f 01be
00000150: 9dbc 123f 263b 8f3f 6583 223e 7b8c a73e
00000160: 2645 1f3e d3bb 733f 22ad b4be 0f64 62bb
00000170: 6706 5ebd 6bf0 fa3e 731a 03be 7188 3ebf
00000180: 0802 c53c e8c4 61bd 4aaa 833e ca85 93bd
00000190: f4e7 9a3d 0da8 e5bd 7bb9 52bf e1de f63d
000001a0: c760 933f 5a63 3bbe a27d 0f3e 04bd fb3d
000001b0: e03f 8f3e e3e1 91be 6391 683f 5cc2 c3be
000001c0: bb2b 9a3f 23ca af3f 99a0 533f 34ba a73e
000001d0: 1e94 2ebc ce60 793e 9fa3 573c 8d79 0ebc
000001e0: edd0 6f3f e9e9 5e3f 91b6 a63e ed95 7b3f
000001f0: e0c7 123f 7ee6 01bc 48b5 85bd bbb5 683e
00000200: 03fd 2d3f 20f1 933f eb3b 9bbe 57a8 703d
00000210: 0ae5 323e 9da5 83bd 4598 0d3e e1cd b9bd
00000220: 1746 a23d 71f0 463e 2584 06bf 32a4 04bf
00000230: b644 27bf 6181 c0be 9d53 a1be b17b 85bf
00000240: 73df 833e efe6 e83f e79d 4bbf f831 223f
00000250: ff5f 85bd 924f a5be ecff 7a3d d3e4 283d
00000260: ff54 093f 02d6 88be fa14 0b40 2175 5bbd
00000270: 7304 1a3f 7c8b 283e caca d73f 3529 1d3f
00000280: 20a1 0a3e 80ce 1fbf 17b9 57bd be2c 603f
00000290: ec32 f7bc bdd0 a43f d7bf b3bd 50e5 5a3f
000002a0: a2a2 643e 0e3a 46bd dcbb 983f 6506 39bd
000002b0: 2ee3 7dbf f760 603f 420f 48bf 72dd b83c
000002c0: 7f3b 19bf 12f3 a23d 6ee2 6b3f 5c8d 96be
000002d0: 6690 943e 853e 733f 8a67 793d a033 f0bd
000002e0: 74e9 19bf 08f2 70be f378 0cbe f591 84bf
000002f0: f672 f63e 5e4c cabd e27e fdbe 8cc5 76be
00000300: fae9 aabd 9ccb 673e 732f 0bbd a1fa a13d
00000310: bc6f f43f 0e9f 72bd 2a54 083f 9962 2d3d
00000320: dba6 60be 980f c93d 5573 d33d a956 2f3f
00000330: e60a e03f e88a fd3c ae36 d83e 1f71 143f
00000340: b4f4 9ebd b580 6fbf 3543 b4be e5b0 d33e
00000350: 0bc3 683f 0206 4bbf dd91 793e 2523 593e
00000360: a160 94be bec0 d63f 0c2c 153e 2a09 713d
00000370: 7706 2b3f 145a 8f3e 58c8 4f3f bf01 953f
00000380: 4cb8 183c 8efb f2bd 7946 cf3e 70b4 c53e
00000390: 5b65 b7bc 2403 a53d c62f 40bf eede 313e
000003a0: e30c cc3e 9cb4 acbd a9c4 4e3f 5dd8 84bd
000003b0: be75 953e 9f78 97be 4960 e33e 8c8d 403e
000003c0: 67a0 b7be d5da d83f 80fc 9a3d f5da acbd
000003d0: 621b 44be aa93 6e3f 83c4 c9bc c449 823d
000003e0: 10c5 c43f da4c 02bf 4e34 773e c273 ae3e
000003f0: 7810 563e 8c08 5d3e 449e e03d 48b6 b4bd

bias f4 [5]
0.19903633 0.32363513 0.25945342 0.33715335 0.77143216
00000000: 2ed0 4b3e 81b3 a53e 14d7 843e 5d9f ac3e
00000010: 947c 453f
