models/simple_tag/PPO-not-shared/adversary_2/critic_0.pt (torch, 14098 bytes, 5 tensors)

weight f4 [32, 12]
00000000: 048f 873e 2ab2 a93e cf70 d6be b1d4 ee3f
00000010: 41e9 12bf 9f74 1fbf cf42 02bf 1983 2ebf
00000020: c5eb a33e 8a23 6740 8570 2d3f 2fac b7bf
00000030: 424b 08c0 96aa 08bf fe19 e13f 14ab 0240
00000040: 424d c13f 9937 05bf 6989 83bf 48bb 9d3f
00000050: 92e3 813f ec46 c33f ae04 57be c0dd f0be
00000060: 438d 9ebe 8e2f 2fbf 8151 07bf 4567 5f3f
00000070: 4bc6 c0be 09f7 913e 1f4a 8d3f f1cf 3bbe
00000080: 4c86 89be d712 e03e 69d2 1d3e 9805 1f40
00000090: bd79 20bf b295 4ebf 0e92 aa3f 28bb d13e
000000a0: 8d4b 84bf 2bab 91bf 33db 973f 8f27 2bc0
000000b0: e067 b2bf 96fc 9b3f ae89 8bbe 4f5b 24bf
000000c0: 40d7 853f 13f0 423f eeaf 7c3f 8c0d 3cbf
000000d0: 41af f73f aef7 a63f db09 a23f b646 0cc0
000000e0: 6df9 e2bf 86d1 e33f d544 bd3e 6fcb 06be
000000f0: a01c fb3f d48c 0ebf 0877 cbbf 9e2e 423f
00000100: d626 33bf 2cac c0bf 0949 25bf 8751 1dbf
00000110: f0ca 1bc0 6b12 5040 5a07 3abf a55d 3540
00000120: 5b9a 8f3e a731 e93b ea39 5fc0 3cfe 1240
00000130: 3e96 59c0 7195 ce3f 383c c5be 4fd7 013e
00000140: 23fa f53f df19 6bbe 712f 4e40 fee9 41bf
00000150: 6d30 18bf 1f7f cc3d 4d08 2dbf aa41 cc3c
00000160: c5f7 f23f 8927 acbf 306a 19c0 6e67 0e3e
00000170: f08d e0bd 43a2 0abd 2af3 95be 0d3c acbe
00000180: 9a96 79c0 51f1 1740 116a 9d3e 2e4d 8c3f
00000190: 1fa7 d13d 3637 cf3f 70c0 c7be 3257 7d3f
000001a0: 64c4 48bf 5345 6e3f 715f 073f 1c7c 69bf
000001b0: fe7a aabf 7031 9ebe 60c7 263e 10b8 bfbf
000001c0: a108 6dbf 632d b1be 314b 5fbf e728 0cbf
000001d0: 0d0a 2040 8878 9c3d a479 a140 0a4f 1dbd
000001e0: e275 95be e2a3 00bf 7d80 a43f 4881 eb3f
000001f0: e16b ac3f c9bd 19c0 52b1 0f3f fda3 cf3e
00000200: 1865 463f e351 3d40 a713 813f 7509 3e40
00000210: 9ab1 6bbf 2069 ecbd 9c60 b7bd e7fc d63f
00000220: 3dbc 07bf d1ee a13f 9daa 9bbd b9e1 603f
00000230: b16c 9940 2285 dfbf a0fd ff3f c69b 91be
00000240: bb20 96bf 6746 12be 1693 c2bf 1c18 10c0
00000250: 75e8 493f 6e27 5a3f f11b a03e 25d7 ddbd
00000260: 32e4 2fc0 7690 7dc0 8081 48be b8eb 18c0
00000270: 471a 543e daea 04c0 39f3 28bf c604 b23f
00000280: b071 b1bc 6d83 48bf 1c65 54bf 772d 3cbf
00000290: 1dd5 973c 0ea0 ac3e 01e7 923f 7ba1 b43f
000002a0: 25bb 25bf d8fe e03f ff1c ab3e 3528 173f
000002b0: 521d 0cc0 8f2b 9b3e 3f54 6e3f c663 a33f
000002c0: c443 1940 c991 23c0 8c1a 80bf 9706 87bd
000002d0: 048f 82bf 2c92 84be 4d99 903f 3906 4c3e
000002e0: 36c3 593f 8f91 8ebf 9e0d bb3f 2522 9fbf
000002f0: 4323 4640 9777 863f 6801 7c3f d5b2 353f
00000300: 27ea 5fbd 654d 7cbf 4823 0040 74ed 2ebf
00000310: d2a7 0b3e bbf3 cf3f e5db b93e 718d 9c3f
00000320: ff82 27bf 2c88 56c0 9cb5 133f ed42 76bf
00000330: 5e54 d83f 2806 39bf 5cb5 58c0 788c 6240
00000340: 01b9 8d3f 5eac 693f fd40 23bf a362 5b3f
00000350: ceb5 45c0 82ce 84bd cb78 9f3e 67c0 2f3e
00000360: 3a2a a5bf 42e4 44bd c36c 623f 7133 22bf
00000370: 9981 debd e38b 89bf 685d 3f3f 010e 2d40
00000380: 2eaf 60be 8c23 cbbf 7f38 bc3f 1d49 823f
00000390: 0f89 c2bc 1f29 1dbf 668d 2ac0 c7b8 04bf
000003a0: 029c 3fbe 3f03 cabf 78a5 7fbf 2967 bebf
000003b0: 2bca c4bf ec72 7b40 0511 9a3e 320e 7740
000003c0: b481 a73e 41a2 813e 9230 bf3c cb34 7abe
000003d0: 5be1 353f 3b53 e43d d006 3dbf 0a73 0c40
000003e0: 02ec c6be 6b9f 4ebf 3718 7bbd 17e9 b840
000003f0: 751b 763f d197 053f 4659 bfbf bb2c 993f
0.264763 0.3314374 -0.4188294 1.8658658 -0.5738717 -0.62287325 -0.5088319 -0.6816879
0.32015815 3.6115441 0.67749816 -1.4349421 -2.1295934 -0.53385293 1.7586057 2.0416918
1.5101702 -0.5203796 -1.0276309 1.2322779 1.0147574 1.5256019 -0.20997879 -0.47044182
-0.3096715 -0.6843194 -0.5285874 0.8726695 -0.37651286 0.28508785 1.1038245 -0.18341042
-0.26860273 0.43764374 0.15412296 2.4847164 -0.6268576 -0.80697167 1.3325822 0.409631
-1.0335556 -1.1380361 1.1863769 -2.6742895 -1.393795 1.2186458 -0.2725348 -0.64201826
1.0456314 0.76147574 0.9870595 -0.7345817 1.9350358 1.3044336 1.2659258 -2.1918159
-1.7732369 1.7798316 0.36966577 -0.13163541 1.9618111 -0.55683637 -1.58957 0.7585238
-0.69981134 -1.5052543 -0.6456457 -0.61452526 -2.4342613 3.2511241 -0.7266747 2.8338406
0.2804745 0.0071165147 -3.4879098 2.2967672 -3.399795 1.6139356 -0.38522506 0.1267979
1.9216961 -0.22959088 3.2216456 -0.7574767 -0.5944889 0.09985184 -0.6759079 0.024933655
1.8981863 -1.3449565 -2.3971062 0.13906643 -0.109645724 -0.03384615 -0.29287082 -0.33639565
-3.899817 2.3741038 0.30744985 1.0961053 0.10236954 1.6188724 -0.39014006 0.98961174
-0.7842467 0.9307453 0.5288001 -0.91205 -1.3318784 -0.30897093 0.16286993 -1.4978046
-0.9259129 -0.3460494 -0.8722411 -0.5474991 2.5006135 0.07640177 5.0460987 -0.038405456
-0.291915 -0.50250065 1.2851712 1.8398829 1.3470422 -2.4022086 0.56129944 0.405548
0.77498007 2.958123 1.0084122 2.9693272 -0.92067873 -0.115434885 -0.08953974 1.679593
-0.53021604 1.2651006 -0.07600901 0.87844425 4.794518 -1.7462504 1.9999275 -0.28439158
-1.1728739 -0.14284669 -1.5201137 -2.2514715 0.78870326 0.85216415 0.31271318 -0.10832051
-2.748303 -3.9619422 -0.1958065 -2.3893871 0.20713149 -2.0768342 -0.6599613 1.3907707
-0.021660656 -0.7832554 -0.8296678 -0.73506874 0.018534238 0.33715862 1.1476747 1.411178
-0.64738685 1.7577772 0.3342056 0.59045726 -2.1892896 0.3030667 0.930973 1.2764823
2.394761 -2.555773 -1.0008101 -0.06593054 -1.0199895 -0.2589277 1.1296784 0.19924249
0.85063493 -1.1138171 1.4613531 -1.2432295 3.0959022 1.0505246 0.98439646 0.70976
-0.054666664 -0.98555595 2.0021534 -0.68331075 0.13638237 1.6246256 0.3630058 1.2230664
-0.6543426 -3.3520613 0.5769899 -0.9619587 1.6900747 -0.7227502 -3.3860693 3.5398235
1.1072084 0.91278636 -0.6377104 0.8569738 -3.0892215 -0.06484701 0.31146845 0.1716324
-1.2903512 -0.048069246 0.8844721 -0.63359743 -0.108645625 -1.0745815 0.747519 2.7039797
-0.21941826 -1.5870223 1.4704741 1.0178562 -0.023746995 -0.6139087 -2.6648803 -0.5184445
-0.18711856 -1.5782241 -0.9986186 -1.4875232 -1.5374197 3.9288893 0.3009111 3.8602414
0.32716143 0.25319102 0.02333859 -0.24434201 0.7104699 0.111486875 -0.7383852 2.1945214
-0.38851935 -0.80712 -0.06130239 5.7784534 0.96135646 0.5218478 -1.4949119 1.1966776

bias f4 [32]
00000000: 0cb8 e23d 477f 94bf ced6 0e40 305b a63f
00000010: bd16 b43e e9f3 b9bf d434 66bf 5b6e 95bf
00000020: 6df5 3fc0 472c e5bf 5e44 84bf 3060 843f
00000030: dc63 a3bc 98be c9bf fa11 72bf ac61 8fbf
00000040: b54c 78bf 4b1e f5bc 6da7 b3bf bf67 dcbe
00000050: 4ee5 9abf 7692 45bf 631a 16c0 766c b7bf
00000060: e4ec 08be 7f76 9ebe 4f7c 6640 0f91 c9bf
00000070: 10eb 50be 6feb ecbe 3f61 12bf 5d0f 9abd
0.110702604 -1.1601342 2.2318606 1.2996578 0.35173598 -1.452756 -0.8992436 -1.1674303
-2.9993546 -1.7904137 -1.0333364 1.0341854 -0.019945078 -1.576129 -0.9455868 -1.1201682
-0.96992046 -0.029921671 -1.4035469 -0.43047902 -1.2101228 -0.77176607 -2.3453605 -1.4329975
-0.13371617 -0.3094978 3.6013372 -1.5747393 -0.20402169 -0.46273372 -0.57179636 -0.075224616

weight f4 [64, 32]
00000000: 1510 ffbf 2b2c e4be 717f 143f 219c fd3e
00000010: bdeb 94bf a844 9cbf fe45 b4bf c0d7 40c0
00000020: 7603 aebf 90cd 18c0 0b47 c3bf 8264 543e
00000030: e900 d5be ddca d0be 3480 93be 9969 27bf
00000040: 651c 49be e0dd a6bf 26e8 8b3f aeb0 adbf
00000050: bfbc 0540 0b02 1e3f b617 c6bf f984 2cc0
00000060: 863b 1bc0 3094 71bf 675c 993f 87df 0ac0
00000070: d049 32c0 e4f9 0ec0 f071 50bf 2c12 29c0
00000080: f670 44be 4b2a 1cbf ab11 9bbe b3e4 32bf
00000090: d0fd afbe 84de b5bf 7fd1 c6bf 8b5e f3be
000000a0: ed8f 69bf 52d8 563e a630 efbe 75b3 e7bf
000000b0: de80 f9be 08ad 24bf 9e1a 8abf b767 35bf
000000c0: 7587 05bf 659b d5bf 7c19 f0bf acc6 06c0
000000d0: 0e0b d8bf ff50 fcbe e6e6 23bf b51c 3cc0
000000e0: d489 fbbf d774 20c0 503b abbe 8b53 4dbe
000000f0: 34ce 15c0 c58b cbbf 3399 b2bf 6938 d4bd
00000100: 15d0 f2bf 3326 843e c8ce b53e 8009 2abe
00000110: 26fb 03bf 1b45 0e3f 4f2a 7dc0 d457 cabf
00000120: e1d2 9e3e f95e 33c0 d570 21c0 a788 26bf
00000130: 1bdd 853f e869 55be 409f 15bf 91bf 32be
00000140: 2d82 1abe 0162 183d 1a7d 76bf b6b3 37c0
00000150: cbfa 97bf 35cb 0ebf 448b 60bc a6ce fa3f
00000160: b231 27be 56b7 9e39 7c25 e23e 7223 f4bf
00000170: 85e8 233e 083f a9be d031 cebf 2651 adbf
00000180: 7e0f 5cc0 8135 4cc0 1796 cb3f 4a86 f3bf
00000190: 4f82 8f3f db9a eebf 62b3 93bf a049 5e3e
000001a0: c87c 96bf ea91 713f e391 4ac0 c104 56bd
000001b0: 7807 b0bf b8f3 dd3f 6c46 1dbe 24b8 25be
000001c0: df3b 94bd be21 d33d 816e 03bf 0178 45c0
000001d0: d850 a43f b0d8 52bf f082 94be 3a6d 64be
000001e0: b6e6 823f 3dcf 5ebf 7174 8d3f 456a 5ebf
000001f0: 8581 54c0 00c8 14bf 7b95 bcbf e809 77bf
00000200: df7a f83e ab4c 953f 84d6 de3e 37c5 6abf
00000210: 708a 263f e8bd 7dbf d344 a8bd b50d 0f3f
00000220: c55d 88be 4b9f 6f3f f707 d4be 3b6f 03c0
00000230: f287 2b3d 9723 da3f 3570 e33f c08d ea3f
00000240: 9ab1 3040 8ec1 bebf 1fb7 aa3e 3f22 95be
00000250: 37b7 74bf c2f2 bd3e 1df5 033f 594f c53f
00000260: ebca 9a3f b2ca 89bf 066b e4bd 6bcb ebbd
00000270: 8f79 19c0 268c 533f f7f6 cabd 0ed8 983f
00000280: bd78 acbf 885c b2bf 6b0b d53e 8eea 08c0
00000290: b14c 2dc0 8d5b 8cbf 725a a73d 2ae2 8b3f
000002a0: 892e d1bf 12f4 913f f71d b63e 4713 b7be
000002b0: 6443 f83f c5f2 10bf 3582 243f de7e 2cc0
000002c0: 2239 16c0 0558 87bf 4f03 09c0 b58b 3ac0
000002d0: 5e7f e0be 7e95 d03f 3eb1 d6bd 9fee cdbf
000002e0: 3559 7cbe 0da0 d63e ca71 52be 01f0 e53f
000002f0: 99ce 17bf eca4 fdbf 0862 943f 0610 3340
00000300: 772b babe 6fbc 8b3e 4bd3 2dbe d785 183f
00000310: 849b 82bf f2b8 23be 6b0a 8cbf c79a 80bf
00000320: 5a70 d1be 256a 433d c377 53bf 29ff efbf
00000330: 7dff f4bf e31e a9bf db61 efbe e43c 98bf
00000340: 38f1 32be 3c4f 2ac0 860c 94bf 0fe3 46bf
00000350: b186 babf 8418 4fbf 4cb1 cdbf 4d12 95bf
00000360: 0a40 e0bf 2d47 55bf 1250 30bc a46d 73bf
00000370: 9013 c8bf 12fd 8ebf c62a 4bbf 4c06 23bf
00000380: 1f29 9cbf b5ad f9be 348d 273e 7911 7fbf
00000390: e355 9cbf cee9 c5bf 9465 2abf d84b 08c0
000003a0: fce4 7b3f 524d ae3f 0512 51bf a6e4 14c0
000003b0: 5af1 3cbf 4e86 0140 6ef3 803f 3379 bfbf
000003c0: 2067 ec3e deb5 aabf 2fac f5bf 4dd0 eebf
000003d0: 6811 bd3f f803 eabe 7482 0bc0 6b43 023e
000003e0: 230a abbe be73 13be 3d40 883f 3dd1 2f3f
000003f0: 95bd e1bf eae7 fdbe 3453 81bf fbb2 5a3e
-1.9926783 -0.44564947 0.5800696 0.4953318 -1.1634442 -1.2208452 -1.408386 -3.0131683
-1.3594806 -2.3875465 -1.5256056 0.20741466 -0.41602257 -0.40779772 -0.2880875 -0.65395504
-0.19639738 -1.3036461 1.0930221 -1.3569543 2.0896451 0.6172187 -1.5475986 -2.695616
-2.425508 -0.9436674 1.1981324 -2.169893 -2.7857552 -2.234002 -0.81423855 -2.6417341
-0.19183716 -0.61002034 -0.30286917 -0.6988022 -0.3437333 -1.4208531 -1.5532683 -0.47533068
-0.9123524 0.20980957 -0.46716803 -1.8101641 -0.4873113 -0.64326525 -1.0789373 -0.7086138
-0.52159816 -1.6688048 -1.8757777 -2.105876 -1.6878374 -0.49280545 -0.640242 -2.9392521
-1.9651437 -2.5071313 -0.3344369 -0.200514 -2.3407106 -1.5902029 -1.3953003 -0.10362322
-1.8969752 0.25810394 0.35509324 -0.16605186 -0.515551 0.55574197 -3.9557073 -1.5808053
0.31020263 -2.8026717 -2.5225117 -0.65052265 1.0458101 -0.20841181 -0.5844612 -0.1745589
-0.1508872 0.03720284 -0.9628464 -2.8703437 -1.1873411 -0.5577882 -0.0137050785 1.9594314
-0.16327551 0.00030272704 0.44169223 -1.9073317 0.16006668 -0.33055902 -1.6108952 -1.354039
-3.4384456 -3.1907656 1.5905179 -1.9025357 1.1211642 -1.8641008 -1.1539118 0.21707773
-1.175683 0.9436327 -3.1651542 -0.052250627 -1.3752279 1.7340002 -0.15358895 -0.16183525
-0.07237982 0.1030917 -0.5134049 -3.0854495 1.2837172 -0.8236189 -0.29006147 -0.22307292
1.0226657 -0.8703497 1.105116 -0.86880904 -3.3204052 -0.58117676 -1.4733118 -0.9649949
0.48531243 1.1664022 0.43523037 -0.91707176 0.6505499 -0.991179 -0.08216252 0.5588029
-0.2663404 0.93602437 -0.41412327 -2.053664 0.041877694 1.7042111 1.7768618 1.8324509
2.76084 -1.4902818 0.33342835 -0.2912769 -0.95592064 0.37099272 0.5154589 1.541484
1.2093176 -1.0764983 -0.111532256 -0.11513408 -2.3980443 0.82635725 -0.09910386 1.1940935
-1.3474346 -1.3934488 0.41610274 -2.139316 -2.7078059 -1.0965439 0.08171548 1.0928395
-1.6342326 1.1402609 0.35569736 -0.35756895 1.9395566 -0.56620437 0.6426118 -2.6952434
-2.347237 -1.0573736 -2.140827 -2.914777 -0.43847173 1.6295621 -0.10483025 -1.6088446
-0.24643405 0.41918984 -0.2055122 1.7963868 -0.5929962 -1.9815955 1.1592417 2.797853
-0.36361286 0.272922 -0.16975133 0.59579223 -1.020371 -0.1598852 -1.0940679 -1.0047234
-0.4090603 0.04770865 -0.82604617 -1.8749744 -1.9140469 -1.3212551 -0.46754345 -1.1893582
-0.1747483 -2.661086 -1.1566322 -0.77690214 -1.4572355 -0.8089678 -1.6069732 -1.164621
-1.7519543 -0.8331173 -0.010761278 -0.95089173 -1.563097 -1.1170981 -0.7936214 -0.63681483
-1.2200049 -0.4876534 0.16362458 -0.99636036 -1.221371 -1.5461977 -0.66561246 -2.1296291
0.9839628 1.3617346 -0.8166812 -2.3264556 -0.73805773 2.0238223 1.0074289 -1.4958862
0.46172428 -1.3336751 -1.9193171 -1.8657318 1.4770937 -0.45706153 -2.1798372 0.1272103
-0.3340617 -0.14399621 1.0644604 0.6867865 -1.7635981 -0.49591 -1.0103517 0.21357338

bias f4 [64]
00000000: 026b 8b40 8699 1b3f 4684 a33f 4ed2 ba3f
00000010: 98ce 49c0 17cc cdbf 0b82 4d3f f335 0c40
00000020: e603 afc0 d54b 4abd 5ac9 f5bf 573c 29bf
00000030: 94af 4e3f 51f2 593f 0ef0 ca3f 0e23 5e3e
00000040: 654a 7cbd 5f0d 6340 5fdc e3bf 3bd1 b33d
00000050: b928 c0bf 5c7f c23f 67d6 1f40 aee2 803f
00000060: 319f d340 e934 78bf 255a d43f 151e 5ec0
00000070: be97 2d3f 00b0 b53e 2046 96be 2f5a 62bf
00000080: 0ea6 773f 505b 1240 8e6d 8bbf e737 9abf
00000090: 7f8b e740 28a5 9ebd 9e44 b53e 3ff9 06be
000000a0: f733 a7be db26 8f3e cfa6 1ebe c367 0e3e
000000b0: ec08 653f 5662 ac3f 328c 7ac0 51db a4bf
000000c0: 63b4 833f 1ef4 be3f c443 e33f e6ff adbe
000000d0: 1cdf e23f bfde 8c3d c82f 7fbd 1f94 7c3f
000000e0: 4cb6 bd40 485f 3bbf 25a4 8f3f 96ed 0540
000000f0: 8d77 47bf 7040 54c0 28bf 4d3f baf5 4a3f
4.3568125 0.60781133 1.2774742 1.459543 -3.1532345 -1.6077908 0.80276555 2.1907928
-5.469226 -0.049388725 -1.9202073 -0.66107696 0.8073666 0.8513537 1.5854509 0.2169306
-0.061594386 3.547691 -1.7801627 0.08780142 -1.5012428 1.5195117 2.497461 1.0069177
6.6131825 -0.96955734 1.659001 -3.470586 0.67809665 0.3548584 -0.29350376 -0.8841886
0.96737754 2.2868233 -1.0892808 -1.204831 7.2357783 -0.07746345 0.35403913 -0.13181017
-0.32656834 0.27959332 -0.1549332 0.1390677 0.8946674 1.346751 -3.9148068 -1.287943
1.0289425 1.4918249 1.7755055 -0.33984298 1.7724338 0.06878423 -0.062301427 0.98663515
5.928503 -0.7319226 1.1221968 2.092626 -0.77916795 -3.316433 0.80369806 0.792812

weight f4 [1, 64]
00000000: 74f7 2e3f 85d8 7e3e b81f 2b3f 2b39 f03e
00000010: 2e72 adbe 0068 32be 047b 273e ba5a ef3d
00000020: ff41 9fbe eef1 6a3c 9a7c 603b a3ed 053f
00000030: e783 7a3c a163 9bbd 10f3 f53e e0cb 3439
00000040: a438 43be 7b6a 31bf db4e 68be 98a9 c63e
00000050: 2a12 943d e059 bd3e 3816 853e 864a dabe
00000060: c61e 213f c197 59bf ad1c 263f 2956 14be
00000070: 4a81 953e a7f2 223d d113 ddbe 6a77 0bbf
00000080: 4d64 f83e dead 0dbf e72f 45bf a6a5 64be
00000090: 450b a63f cbd3 c7bc e98f 0b3e bab0 f2bc
000000a0: a8d6 033e 5e56 c43d c45a f13c 161f b9bc
000000b0: 0914 85bc 9b52 b03e c926 1abf 9d81 213f
000000c0: 69e9 a33e df86 0d3f 10b3 c0be e563 a13e
000000d0: b680 ed3e e153 f73d 015d 18bf 2917 f33d
000000e0: 2ec2 493f 0ed2 9c3c cfcd c73e d572 103f
000000f0: c36f b0bd 859e 31be d867 efbc fe03 c13c
0.68346334 0.24887283 0.66845274 0.46918616 -0.33876175 -0.17422485 0.1635552 0.116872266
-0.3110504 0.014339907 0.0034253956 0.5231573 0.015290237 -0.07587362 0.48037004 0.00017242087
-0.19064575 -0.693031 -0.22686331 0.38801265 0.07230027 0.36982632 0.25993514 -0.42634982
0.6293758 -0.84997183 0.64887506 -0.14485992 0.29200202 0.039782193 -0.4317918 -0.54479086
0.48514023 -0.55343425 -0.7702622 -0.22328815 1.2972189 -0.024392983 0.13629116 -0.029625285
0.12874854 0.09586786 0.029462226 -0.02259783 -0.016244905 0.34438023 -0.6021543 0.630884
0.32014015 0.5528392 -0.37636614 0.31521526 0.4638726 0.120765455 -0.5951691 0.11869652
0.7881192 0.01914313 0.39024207 0.5642522 -0.08615067 -0.17345627 -0.029224321 0.023561474
