models/simple_tag/PPO-shared/agent_0/actor_0.pt (torch, 14536 bytes, 6 tensors)

weight f4 [32, 10]
000000 c8 f1 e6 3e 86 54 22 bf f7 c1 08 bf 35 44 1b 3f
       0.4510634 -0.6341022 -0.53420967 0.6065095
000010 a3 aa b1 3e 55 9a 85 3f a6 10 4d be ec 96 75 3f
       0.34700498 1.0437723 -0.20025882 0.95933414
000020 ba 50 ca bf eb a7 95 3f 61 71 0f 3d cb ae 80 bf
       -1.5805886 1.169187 0.035020236 -1.0053343
000030 e3 e7 28 bf f3 b2 06 bf f0 e8 9b 3d 46 d4 82 bd
       -0.6597883 -0.52616805 0.07612789 -0.06388144
000040 3f 04 64 3f 2d ad 15 bf ef 45 2d 3f be 83 4d 3e
       0.8906898 -0.5846737 0.67684835 0.20069787
000050 fd 73 61 3f 31 72 01 3f f8 9f c2 3d b0 35 51 bf
       0.8806761 0.5056487 0.09503168 -0.81722546
000060 04 a6 db bd 81 bd bc 3f fe c5 4f bf a6 51 5f 3f
       -0.10725024 1.4745332 -0.8116149 0.8723396
000070 3f fc b1 bf 1b 4c f8 3d 33 3a 82 3d 76 6d 1b c0
       -1.3905104 0.12123891 0.06358757 -2.428556
000080 4b 10 5c 3e 37 17 03 bf 95 05 09 3f 4b 8c 0c 3e
       0.2149059 -0.512073 0.5352414 0.13725393
000090 b6 86 d7 3e 7c e6 78 3f e1 f1 b4 bf a0 61 a4 3f
       0.42094964 0.9722669 -1.4136316 1.2842293
0000a0 fc e4 27 3f f8 e0 c8 be 61 4f 59 3f e1 6b 61 3f
       0.6558378 -0.39234138 0.8488675 0.88055235
0000b0 4d 9d 00 3f e4 8d ef 3e 08 f2 5c 3e 7b 21 78 3f
       0.5024002 0.4678794 0.21576703 0.9692609
0000c0 c0 f1 23 be 34 67 b7 3f 4b 94 fa bf 4c 63 4b 3d
       -0.16010189 1.432837 -1.9576505 0.049655244
0000d0 e5 04 cf bf d8 7a a1 3e 24 a6 e6 3e e8 ee 95 3e
       -1.6173369 0.31539035 0.4504863 0.29283834
0000e0 6a 83 6a 3f 0e b5 3c be 07 78 81 3f 53 6c c7 be
       0.9160677 -0.18428442 1.0114754 -0.38949832
0000f0 28 cd 92 be 36 7b 37 3e 40 48 57 3f e3 d1 61 bf
       -0.28672147 0.17918095 0.8409462 -0.88210887
000100 20 d2 13 be dd db 0b 3f 80 aa c4 bf ad 7e 7c 3f
       -0.14435625 0.5463236 -1.5364532 0.9863079
000110 b0 7a 56 3e 02 df f9 3e f7 bb 49 bf 64 e4 ac bd
       0.20945239 0.48802954 -0.78802437 -0.084419996
000120 07 0b 0f 3f 51 7f 0a c0 6b e2 4f 3f 5e 1f 30 3d
       0.558762 -2.1640208 0.8120486 0.042998664
000130 b1 2f 40 3f d0 85 bd bf 52 82 24 3f e2 b3 ca be
       0.7507277 -1.4806461 0.64261353 -0.39590365
000140 ad a7 85 be d0 ca ab bf f0 3b 6c bf ab bb 6c be
       -0.2610449 -1.3421268 -0.9227896 -0.23118465
000150 30 f6 f0 3e 1e a7 d6 3e fc a2 6a 3c b2 ab 4b bf
       0.47062826 0.41924375 0.014321085 -0.7955886
000160 1e 74 10 bf 3a 43 14 bf db 6d bd bf 6c ac 04 bf
       -0.5642718 -0.5791508 -1.479915 -0.51825595
000170 42 2d 24 3f f0 5a 30 bf 4c b7 35 3f b7 7f 01 3f
       0.6413156 -0.6888876 0.70982814 0.505855
000180 ed c7 51 bf 64 97 15 3f 7c b1 95 3e 9c 71 4b be
       -0.8194569 0.5843413 0.29236972 -0.19867557
000190 2d 3b 0c be f4 2c 77 be cf 26 31 3f f2 a5 ef bf
       -0.13694449 -0.24138242 0.6919984 -1.8722517
0001a0 2c 11 5a bf b8 80 ec 3c a6 5b db bd 23 36 ad be
       -0.8518245 0.028869972 -0.1071084 -0.33830366
0001b0 b3 f9 74 3f 78 af 0b bf 7e ec 37 3f 8e 1c 14 be
       0.9569351 -0.5456462 0.71845233 -0.14464018
0001c0 df 75 bb 3e a8 91 a7 bf 52 e7 a3 bf d6 4d 97 3e
       0.36613366 -1.3091326 -1.2804968 0.29551572
0001d0 79 11 4c be 03 ed 57 be 50 81 99 be ca ea df be
       -0.1992854 -0.21086507 -0.2998147 -0.43733817
0001e0 c7 cb 72 3e 9e 14 dd bd e9 f2 be 3f 3f e6 7f 3f
       0.23710547 -0.10794948 1.491788 0.999607
0001f0 b9 8f 92 3f b7 75 19 3e be cf 5e bf 5b b3 66 3e
       1.1450111 0.14986311 -0.8703574 0.22529356
000200 bb 8b 2d bf 8f ed 57 3f 08 76 ff 3d a4 06 f5 3d
       -0.67791337 0.8434686 0.124736845 0.11964157
000210 b1 ac 90 bd 54 fc 14 3d 24 10 94 3d 41 07 47 bd
       -0.07064188 0.03637345 0.07229641 -0.048590902
000220 0d ea d8 3c b4 05 1a 3d f6 37 b3 bd bc 21 d6 3c
       0.026478792 0.037603095 -0.08750908 0.026139133
000230 e5 4a 08 bf 2e 90 09 be ff 1f 13 3f eb d4 a2 bf
       -0.5323928 -0.13433906 0.574707 -1.2721227
000240 67 41 ce 3e 2e 1e 52 bd aa 47 fa 3e c8 9b e5 bd
       0.40284273 -0.051298313 0.488828 -0.112113535
000250 51 ef 66 3f 6a a3 75 3e 43 07 bf 3f 75 3c 98 bf
       0.9020892 0.23988119 1.4924091 -1.189345
000260 c5 14 be bf ff ff 7a 3f 21 53 4a bf f0 7d 3e be
       -1.4850088 0.9804687 -0.79033095 -0.18602729
000270 7b 62 fd bd bb 4d e4 3e 12 53 be 3e 37 d7 bf 3e
       -0.12372299 0.44590554 0.37172753 0.37468883
000280 25 ac 51 3d 53 85 8b 3e ef bb 16 3f 76 fc 08 c0
       0.05118956 0.27250156 0.58880514 -2.140409
000290 6f 49 80 bd 1f af 57 3f ac 6c 72 3e 3c df df 3e
       -0.06264006 0.8425159 0.23674268 0.43725002
0002a0 ba 5f 8f 3f 61 08 8a bc 9c c5 13 bf 0b ab 94 3f
       1.1201088 -0.016849698 -0.577234 1.1614698
0002b0 e7 fa f7 be 31 f8 9c 3f d3 88 a2 bc fa 70 a1 be
       -0.4843361 1.2263242 -0.019840633 -0.31531507
0002c0 36 7f bb be 6b 54 4e bf 87 56 06 bf 2a 13 38 bf
       -0.36620492 -0.8059756 -0.5247578 -0.7190424
0002d0 2d 41 6c 3f c8 50 39 3f bf d9 82 be 94 28 87 bf
       0.9228695 0.7238889 -0.25556752 -1.0559258
0002e0 80 c7 43 3f 15 f4 3b 3e aa 5a 5b 3f 4e 59 41 3c
       0.7647629 0.18354829 0.8568522 0.011801077
0002f0 79 03 98 be 66 39 98 be ee bf ea bf d4 02 5a bf
       -0.2969015 -0.29731292 -1.8339822 -0.85160565
000300 8f bf 53 bf f3 41 37 bd db a3 86 bf 1a 8f 05 bf
       -0.8271417 -0.04474063 -1.0518755 -0.5217148
000310 d6 ef 8b be fe 20 f8 3d d0 d1 63 bf 1d 08 50 3f
       -0.27331418 0.12115668 -0.88992023 0.8126238
000320 db 1a f6 bf 28 66 8d bf b7 eb e4 be 77 61 d8 be
       -1.9226946 -1.1046801 -0.44711086 -0.4226186
000330 38 51 e0 3d fa de 05 3d a3 3d 1c 3f 33 58 b8 3e
       0.10952991 0.03268335 0.6103155 0.3600479
000340 cc 58 17 bd f2 e3 36 3f c5 95 cc bd 67 a1 e4 be
       -0.036949918 0.71441567 -0.09989504 -0.4465439
000350 2a c7 54 3f 03 58 93 bf 5f 6c 93 3f dd 6f 54 be
       0.831164 -1.1511234 1.1517447 -0.20745797
000360 e1 2e 0e 3f a1 ec 6b bd 40 72 e5 3f ae d5 ab 3e
       0.5554028 -0.057598714 1.7925491 0.33561462
000370 b2 b9 88 3f 14 0f 62 bf 46 36 0d bf 92 5a 6a 3d
       1.068167 -0.8830426 -0.5516094 0.05721528
000380 12 99 57 3d d4 1f 80 3f 56 36 b5 be c8 e6 6c 3f
       0.052636214 1.0009713 -0.35393018 0.92539644
000390 86 e3 88 bf cf f5 ac 3f 39 0a e9 bf dc db f6 3e
       -1.0694435 1.3512515 -1.8206245 0.48214614
0003a0 12 16 32 3e 42 32 31 bf 6b e7 6c 3e d6 7b cd 3e
       0.17391232 -0.6921731 0.23135154 0.40133542
0003b0 84 7e 01 3f ce 80 82 3f 22 da 1e bf 0f 92 53 3e
       0.5058367 1.0195558 -0.62051594 0.20661186
0003c0 a0 af 36 3f bb a1 9b bf 01 60 8d 3f 4a 5a 96 3f
       0.7136173 -1.2158731 1.1044923 1.1746304
0003d0 ee d0 78 3f 25 08 41 3f df de 44 3e 37 4d 36 3f
       0.971938 0.7540305 0.19225644 0.7121157
0003e0 3d 09 75 bd 1d 06 80 be cf f1 9e bf 7a 45 a3 bf
       -0.059823263 -0.25004664 -1.2417544 -1.2755578
0003f0 2c 52 d7 3e 83 b7 88 bf de 3d b8 bf 09 29 90 3d
       0.4205488 -1.0681003 -1.439388 0.07039077

bias f4 [32]
000000 20 3b 13 3d 7c 71 b8 3f a9 33 aa 3d 9d 8b 8a be
       0.035945058 1.4409633 0.08310635 -0.2705964
000010 37 54 a0 be 25 60 d0 be 07 35 28 bf 65 9d dd bd
       -0.3131425 -0.40698352 -0.65705913 -0.10821036
000020 4a dc aa bf e4 79 40 bf a3 67 be be 8b 0b 56 bf
       -1.3348477 -0.7518599 -0.37188444 -0.83611363
000030 39 95 dc be d0 ea f4 be 31 52 57 bf 85 95 3e 3f
       -0.43082598 -0.47835398 -0.8410979 0.744469
000040 77 96 1f be 60 84 70 bf 0d 19 7d 3f d9 b1 87 3e
       -0.15584742 -0.9395199 0.9886635 0.26502874
000050 01 ab 38 bf b3 77 c6 be de 89 39 bf e6 e7 0d bf
       -0.7213593 -0.38763198 -0.72475994 -0.55431974
000060 88 fd 2d bf 03 9c 77 bf 76 d7 10 bf a2 35 05 bf
       -0.67964983 -0.9672243 -0.5657877 -0.5203496
000070 96 04 07 bf fa fb 38 bd bd 5a 41 bf 4c a5 02 bf
       -0.5274137 -0.04516218 -0.7552908 -0.51033473

weight f4 [64, 32]
000000 09 1a 0e 3f bb 7c 5f bf b6 12 b9 be e2 0a 33 3d
       0.55508476 -0.872997 -0.36147088 0.04371155
000010 26 ed 97 be b5 52 9a 3e 3d 6b d0 be f8 0b db be
       -0.29673117 0.30141225 -0.40706816 -0.4278257
000020 72 db 0f bf 26 bf 85 3e e2 66 16 bf 3a 5a 35 be
       -0.5619422 0.26122397 -0.58750737 -0.177102
000030 50 c9 04 bf c2 d4 0a be b9 1f 1b bf 46 58 cf be
       -0.5186968 -0.13557723 -0.6059528 -0.40497035
000040 30 26 bd 3e 53 40 6c bd 8f 8b 61 bf d3 ee 9d be
       0.36943197 -0.05767853 -0.88103575 -0.3084627
000050 ba cc 21 3e c2 08 81 bf ea a8 84 be 7b 0d a0 be
       0.15800753 -1.0080798 -0.2591012 -0.31260285
000060 68 be 11 be 89 6e 08 be a6 fa f4 be 33 d3 8f bd
       -0.1423279 -0.13323416 -0.4784748 -0.07022705
000070 9c 17 1d bf 24 cb 88 3d 65 1a 59 bf 98 6f cf be
       -0.6136415 0.06679371 -0.848059 -0.40514827
000080 41 e6 21 bf c0 1d a2 be 67 55 ab bd 83 49 17 bf
       -0.63241965 -0.31663322 -0.083658986 -0.59096545
000090 32 8d 01 3f f3 33 35 be 4a 42 a7 bd 81 16 e0 3e
       0.5060607 -0.17695598 -0.081669405 0.4376717
0000a0 1d 23 12 3e cd 7c be bd 9d 4f cf bd 39 55 99 3e
       0.14271207 -0.093011476 -0.10122607 0.29947832
0000b0 a2 28 6f bf 41 a0 2f be d2 11 6e be ec 7a d1 3e
       -0.93421376 -0.17150976 -0.23248985 0.40914094
0000c0 0a bc 7d bc 92 d7 1c bf df 5f 4a bf 1b e1 a7 be
       -0.015486727 -0.61266434 -0.7905254 -0.3278893
0000d0 c2 70 9f be 2d 84 55 3d a7 79 4f be e6 5e b9 bf
       -0.31140715 0.052128006 -0.2026125 -1.4482086
0000e0 50 e4 0b bf d7 54 e4 bd a2 07 69 bf 43 d3 66 be
       -0.5464525 -0.111489944 -0.9102727 -0.22541527
0000f0 17 f1 1e bb 77 bb 2c bf 41 33 cf bc a0 e8 0b 3e
       -0.0024252587 -0.6747355 -0.025292994 0.13662958
000100 06 75 2e bf e1 7a e9 3e 83 f9 dd be 8f f8 1d bf
       -0.68147314 0.45601562 -0.43354425 -0.61707395
000110 f7 3f 3d 3f 56 d0 ce 3f 7f ca 0e bf bf 8e df 3b
       0.7392573 1.6157329 -0.55777735 0.0068224366
000120 f2 a7 6a bf bc a8 88 3f 96 0f bc 3e 11 d8 b7 be
       -0.91662514 1.0676494 0.3673064 -0.35907033
000130 13 18 7d bf b7 ec 47 3c fb 33 08 3d 9d e6 38 3f
       -0.9886486 0.012202433 0.033252697 0.7222689
000140 38 fe c5 3e 51 d9 49 3f e9 28 91 3e a7 13 56 3f
       0.38670516 0.78847224 0.28351524 0.8362374
000150 8e bc e6 3e 56 67 58 bf 7c 98 9a bf 53 06 33 be
       0.4506573 -0.8453268 -1.2077785 -0.17482881
000160 97 ff 16 bf 07 1f 00 3e 22 12 1b bf e0 72 83 bf
       -0.5898375 0.12511836 -0.60574543 -1.0269432
000170 2a 69 4c bf dc 48 83 bf ed d5 61 bf 21 7e 6c bf
       -0.7984797 -1.025661 -0.8821705 -0.9237996
000180 c3 13 a4 3f 82 8a e9 be 53 a8 88 3f 43 7e 9b 3e
       1.2818531 -0.45613486 1.0676368 0.30369768
000190 94 e6 26 3f 12 99 66 bf f6 f3 db 3e 50 66 38 bf
       0.65195584 -0.90077317 0.42959565 -0.72031116
0001a0 d6 8d 88 3e 4e 10 d1 3e 10 97 a8 bd 0b ae 4c 3f
       0.26670712 0.40832752 -0.08231938 0.7995307
0001b0 44 12 92 be 76 76 ad 3d 22 c2 90 3e ee 3c fb be
       -0.2852956 0.0846986 0.28273112 -0.49069923
0001c0 65 0d 54 be a2 fe 81 bf 5b 48 e7 bd 41 d9 7c 3f
       -0.20708235 -1.0155833 -0.112930976 0.98769003
0001d0 5c 29 04 bd 82 df 0c 3c 3a ed f1 3f 48 a2 66 be
       -0.032266006 0.00859821 1.8900521 -0.22522843
0001e0 cd cb 0a be 45 05 a4 3f 3f 3f 74 bd 8f aa 5f bf
       -0.13554306 1.2814108 -0.05963063 -0.87369627
0001f0 86 e9 fd 3e 8f 88 27 be c6 7a b5 be 37 d7 80 bd
       0.49592227 -0.16360687 -0.3544523 -0.06291049
000200 96 34 b1 3d 9c 8f f5 be dc 68 71 be f6 8e 12 be
       0.08652608 -0.47961128 -0.23575157 -0.14312348
000210 e3 96 37 3c 48 fa 0b bf 5d 20 76 bf 98 f7 a7 be
       0.011205408 -0.54678774 -0.9614313 -0.32806087
000220 1d 13 62 be 8d a9 59 be aa c6 b8 be c9 4a 2c 3c
       -0.22077604 -0.21256085 -0.3608907 0.010515877
000230 d4 50 fd be da c2 eb 3d 7c 35 09 be 83 59 03 bf
       -0.4947573 0.11511774 -0.13399309 -0.5130846
000240 46 5d 09 bf 67 a1 94 be 1a c4 af be 67 a5 7c be
       -0.5365795 -0.2902939 -0.343293 -0.24672471
000250 4e 6d 04 3f 94 71 12 3e d0 b1 70 be 03 7c 12 3e
       0.51729286 0.14301139 -0.2350533 0.14305119
000260 a6 2f a4 be 5a 34 be be 3c ae b3 3e 4f a9 06 bf
       -0.32067603 -0.37149316 0.35093868 -0.52602094
000270 dd 92 0f bf 9c df 8a 3e f6 25 4f be 5e 85 16 bc
       -0.5608347 0.27123725 -0.20229325 -0.009187071
000280 8c b6 96 3f d6 ab 92 bf c5 2e 0d bf cc f4 50 3f
       1.1774459 -1.145869 -0.5514949 0.8162353
000290 16 25 9a 3f 39 6b 7f bf 22 5d 19 3c 63 c4 c8 bf
       1.2042568 -0.99772984 0.0093605835 -1.5684932
0002a0 9b 5d 85 3f 8c 6b cc bc 16 e5 43 be bc a1 d4 bc
       1.0419191 -0.024953626 -0.19130358 -0.025956027
0002b0 94 77 ca 3f 15 75 15 3c df 02 f5 3d 60 04 4d be
       1.5817742 0.009122153 0.11963438 -0.200212
0002c0 c8 08 2a bf 07 f6 72 3f d5 a0 3e bd 76 84 f2 3d
       -0.6641965 0.9490666 -0.0465401 0.11841671
0002d0 54 68 8d 3e 59 03 27 bf e7 b3 e5 3f ed 0c 87 bf
       0.2761866 -0.65239483 1.7945527 -1.055082
0002e0 c7 8f 50 3f 6c 09 4c 3f d6 95 a4 3d ab 7e 93 3f
       0.81469387 0.79701877 0.080363914 1.1523031
0002f0 75 d0 b3 3f 91 f4 02 bf 9e 25 8b 3f 23 36 dd 3e
       1.4047991 -0.5115443 1.0870855 0.43205366
000300 88 a5 fa be 56 4a 80 bf 0e 99 65 be f7 a0 0b c0
       -0.48954415 -1.0022686 -0.22421667 -2.1816995
000310 88 d3 36 3e 86 2b cb 3d b6 e7 53 3e d5 7b 97 bf
       0.1785413 0.09920411 0.2069386 -1.1834666
000320 de c7 a6 bf 04 4c e7 3f 9e 2f db be 48 c2 39 bf
       -1.3029745 1.8070073 -0.42809767 -0.72562075
000330 ad 00 94 3f 78 f4 81 3e bc e4 d9 be e6 29 7f be
       1.1562706 0.25381827 -0.42557323 -0.24918327
000340 aa 1e 78 bd 9f 3a 47 3f 97 15 c2 bf 5a 4a 43 bf
       -0.06057612 0.77823824 -1.5162839 -0.76285326
000350 b1 e9 ab bf 5a 4a 3d bf cc e6 9c 3e 14 c1 58 3f
       -1.3430692 -0.73941576 0.30644834 0.84669614
000360 37 96 41 3f 3e 31 46 bf 96 88 a4 be b2 97 34 3f
       0.75619835 -0.7741889 -0.32135457 0.7054397
000370 6d cf 3b bd e8 03 e6 be 01 ef 49 bf 9b a5 2c 3f
       -0.045852114 -0.44924855 -0.78880316 0.67440194
000380 3a f1 85 bc 9f 55 08 3f aa 09 5d bf d2 f6 d3 bf
       -0.016350377 0.5325565 -0.8634287 -1.6559699
000390 24 e3 0b 3f 61 f1 06 3e 3a a9 3a bf 56 0d a3 3e
       0.54643464 0.13178016 -0.7291447 0.31846112
0003a0 ec c5 42 bf cb ad 11 bf 87 15 f1 3e 4e b6 64 3d
       -0.76083255 -0.5690581 0.47086737 0.05583792
0003b0 e0 a7 38 bf 4a e7 dd 3d 26 72 62 3e 35 cf 83 3f
       -0.72131157 0.108351305 0.22113857 1.029761
0003c0 c9 1f d4 3e 74 01 57 bf 5b 03 5f 3f 3c 9a b1 3e
       0.414305 -0.8398659 0.87114495 0.34687984
0003d0 67 fe 31 3f e9 c2 2e bd 4b 0a 34 3f e2 c1 07 bf
       0.6952881 -0.04266635 0.70328206 -0.53030217
0003e0 2e 14 ca be 65 54 7e 3f 50 e6 99 3e 68 fd 04 bf
       -0.3946852 0.99347526 0.30058527 -0.5194917
0003f0 57 62 8f bf 1d 15 e6 bf dd 16 62 bf a7 b1 2e bf
       -1.1201886 -1.7975193 -0.88316137 -0.68239826

bias f4 [64]
000000 a6 38 cb be bd e1 d3 be 6d fa 7f 3f 2d 0d d1 be
       -0.39691657 -0.41383162 0.99991494 -0.40830365
000010 46 76 35 bf f2 0f 3f bf 5a f7 45 be 72 c6 3f 3e
       -0.70883596 -0.74633706 -0.19332638 0.18728045
000020 08 a8 40 be d8 b5 05 bf eb b4 4b be f2 ec 32 be
       -0.18814099 -0.52230597 -0.19893233 -0.174732
000030 c7 88 89 bf cb 55 1d bd 11 48 d4 be a6 b7 ac be
       -1.0744866 -0.038411897 -0.41461232 -0.33733863
000040 dd 13 da bd c3 75 4c be 67 ab 4b be b7 d3 31 be
       -0.1064832 -0.19966798 -0.19889604 -0.17365919
000050 9d 4e 7e 3d 6c 1d 39 bf 0c 4e 51 be 74 77 fc be
       0.06208669 -0.7231052 -0.20439929 -0.49309886
000060 3f 93 2a bd 41 da 86 bd 52 de 0f bf ed bd 10 bc
       -0.04164433 -0.065845974 -0.5619861 -0.008834344
000070 d2 6d 30 bf 3f 1e d3 3e c1 60 d3 3d 9d a1 bf be
       -0.6891757 0.41234013 0.10321189 -0.3742799
000080 56 ec d7 3e cb 5e 31 bf 12 36 e0 be 5d a5 b7 be
       0.42172498 -0.6928527 -0.43791252 -0.3586835
000090 26 53 4e 3f 5d 74 27 bf 5e f8 a6 be d1 97 78 bf
       0.80595624 -0.6541193 -0.32611364 -0.97106653
0000a0 06 75 1f 3d 35 f5 d1 be 4d ca f4 be b0 11 11 bf
       0.03892996 -0.4100739 -0.47810593 -0.56667614
0000b0 c5 7c 25 3e 46 e3 d6 be a8 b4 d2 be 32 71 54 be
       0.16160877 -0.4197027 -0.41153455 -0.20746306
0000c0 4c 81 85 be 8b cc cd be 38 6a 83 3f 66 4f 82 bd
       -0.26075208 -0.40195116 1.026679 -0.063628
0000d0 99 81 14 be f2 62 12 3f 49 72 d5 bd f2 8d c4 be
       -0.14502563 0.5718223 -0.10422189 -0.38389546
0000e0 09 4f 0d bf de 4a 69 3e 61 6a 16 bf 8e 63 5b bf
       -0.55198723 0.22782466 -0.5875607 -0.85698783
0000f0 3c 01 28 bf 93 19 e1 be 9b e2 b4 be 12 2b af bd
       -0.65626884 -0.43964824 -0.35329136 -0.08553137

weight f4 [5, 64]
000000 20 7c 80 be 14 c0 05 3f ac fb b4 be 5a 08 60 3e
       -0.250947 0.5224621 -0.3534826 0.21878186
000010 d2 09 65 3e df 85 cd 3f fe 3b 8c 3f ea 2a c0 bf
       0.22367027 1.6056479 1.0955808 -1.5013096
000020 30 62 49 be 68 58 2d 3f c4 29 5d bd 8f 80 fb bc
       -0.19666362 0.6771302 -0.05399491 -0.03070095
000030 7e c8 32 3f 0b 81 12 3e f2 9e 34 3f 2a b9 88 3d
       0.69837177 0.14307038 0.7055503 0.06675942
000040 82 13 07 be c3 9a 0b 3f a8 5a e8 3d 15 33 05 bd
       -0.13191035 0.5453302 0.11345416 -0.03251942
000050 b7 cf 34 3f ab d8 a1 3e 63 9c 13 bc 06 a1 8b 3f
       0.7062945 0.31610617 -0.0090094535 1.0908515
000060 aa 69 5a bd 2c fa 5b 3f 6b 85 8a 3e 51 2a f8 3f
       -0.053323425 0.85928607 0.27054915 1.9387914
000070 62 97 06 bf f7 d3 3b 3f d3 2b 75 be 74 92 77 3f
       -0.5257474 0.7337031 -0.23942499 0.96707845
000080 cf 1d 6b 3f 51 6a b1 3e 19 85 c3 be 12 fe 8f be
       0.9184236 0.34651425 -0.38187483 -0.28123528
000090 b3 7a d3 3e d8 38 e6 3e 3d 04 18 3e 56 b9 be 3f
       0.4130455 0.44965243 0.14845367 1.490031
0000a0 b8 76 9d 3f 89 87 f2 be c6 b8 68 3f ae fc ad 3f
       1.2301855 -0.4736903 0.9090694 1.3592737
0000b0 ff 4e c2 be 57 06 d7 3e e1 c8 4d 3f e5 9d 35 be
       -0.37950894 0.41997024 0.8038464 -0.17736013
0000c0 bd 74 aa 3f fc 54 40 3f 0f 3d 8d 3f 7d 62 54 3f
       1.3316876 0.75129676 1.1034259 0.8296278
0000d0 ba 8f c9 3e 95 f4 71 bf 16 b5 c8 3f e7 60 2d 3e
       0.39367467 -0.9451383 1.5680263 0.16931497
0000e0 11 1c 7f bf d8 cb 4b 3f e7 4d 3a 3f ba 0f 87 3e
       -0.996522 0.79607916 0.7277512 0.26379186
0000f0 cf 46 f8 be dd b9 85 bd 48 c3 bf be 17 d2 81 bd
       -0.48491523 -0.06529591 -0.37453675 -0.063388996
000100 ee 2b 81 be 02 6c 2e be f4 ef e8 be ca f2 87 3f
       -0.25228828 -0.17033389 -0.4549557 1.0620968
000110 d3 6c 3c 3e d7 7a d8 3f a4 0f 06 3e 9d a4 92 3f
       0.18400888 1.6912488 0.13091904 1.1456486
000120 14 91 40 3e 23 4b 5c 3f d5 fb c7 3c 99 1b c5 3b
       0.18805343 0.8605215 0.024412075 0.006015253
000130 0a 2d aa 3f 9d ff ed 3e 05 2b 18 3f 1d 8a 0e 3e
       1.3294995 0.4648408 0.5944064 0.13919874
000140 eb 45 82 3d db 9b 4a be c6 39 7d 3c 23 15 67 3d
       0.06360992 -0.19786017 0.015455669 0.056416642
000150 eb 08 1f 3d cc 65 ed 3e ba 69 44 3e 06 fe b4 3e
       0.038826864 0.46366727 0.19180956 0.35350055
000160 54 05 02 bc 78 79 08 3f d4 70 aa 3d b8 0b 5c 3f
       -0.007935841 0.53310347 0.083223015 0.8595538
000170 c9 be 0e bf b9 e6 9c be cc b3 ee 3f dd 97 7e 3e
       -0.55759865 -0.30644777 1.864862 0.24862619
000180 d8 8a 90 3f fd 19 d7 3e 6d df 55 be 3d 8e 8e be
       1.1292372 0.42012015 -0.20886011 -0.27842894
000190 2f 69 41 3f 88 2c 27 3f c8 40 9e 3e a0 57 d4 3f
       0.7555112 0.65302324 0.309088 1.6589241
0001a0 e5 e0 df 3e 1c 34 b6 3e f2 6d b7 3f c6 4f 71 3f
       0.43726268 0.3558663 1.4330428 0.9426235
0001b0 c6 13 36 3f 73 60 be bd 71 bd 9b 3f a3 a4 21 3f
       0.7112392 -0.0929574 1.2167188 0.6314184
0001c0 5b 7e 9c 3d f2 db 1a 3f 22 f9 c8 3e 72 d3 d6 3e
       0.07641288 0.6049186 0.39252573 0.41958195
0001d0 db 50 96 3f eb b6 10 3f 38 9b af 3f 7c 7d b5 bd
       1.1743425 0.5652911 1.3719244 -0.08861825
0001e0 f9 23 5f 3f f4 12 96 3f 1e 74 ac 3f ea 6b d9 3d
       0.87164265 1.1724534 1.3472936 0.10616286
0001f0 c7 dd 3f 3f 5c 88 c9 3c 3d 1f 9d 3d 1c e9 99 3f
       0.7494778 0.024601154 0.07671974 1.2024264
000200 fe 15 04 be 7d 4c 50 3d 4f d1 77 3f f4 7c d3 3e
       -0.12899014 0.050854195 0.96803755 0.4130627
000210 ea 38 36 3f 27 a0 93 bd 8e 21 77 be d2 f3 11 3e
       0.71180594 -0.07208281 -0.24133894 0.14253166
000220 6d 10 40 bd 9f b3 df be 8b 3a b5 3d be 0d 7a 3c
       -0.046890665 -0.43691728 0.08849057 0.015262065
000230 b7 aa 80 bd 20 15 aa be 83 b1 20 3e e6 ff 55 3d
       -0.06282561 -0.33219242 0.15692715 0.052245997
000240 3f 9b db 3d 63 7b ac be b3 2c 95 3d 04 cb e9 3d
       0.1072297 -0.33687887 0.07283916 0.11415675
000250 35 a1 50 3f d9 a4 9a 3d 32 a9 36 3d e3 44 13 bf
       0.8149598 0.075509734 0.04459495 -0.5752699
000260 e7 8f 8b bd d2 df 41 3e 45 d0 1b 3e 55 6e 23 3f
       -0.068145566 0.18933037 0.15216167 0.6384023
000270 67 e3 a8 3e 6b 0d 19 3f 45 06 6a 3f f6 4f bd 3d
       0.32985994 0.597861 0.91415817 0.09243767
000280 c9 97 0d 3f 62 f9 0b 3e d6 00 08 3e 8a 5b ad 3e
       0.5530973 0.1366935 0.13281569 0.338589
000290 88 ee a2 3f de c8 43 bf ad a6 a6 be 3d e5 8a be
       1.2729044 -0.76478374 -0.3254904 -0.2712802
0002a0 2d 1f 9f 3e 53 90 1b be 2d 06 96 3e d5 0b 0c 3f
       0.31078473 -0.15191774 0.29301587 0.54705554
0002b0 01 0b d8 3f a1 a4 86 be d2 42 37 3f e1 9b 86 3e
       1.6878358 -0.26297477 0.71586335 0.262908
0002c0 7b 96 91 3e 85 f7 9e 3f 77 58 ae 3f b7 6f ff bd
       0.2843512 1.2419287 1.3620747 -0.1247248
0002d0 24 4f ba 3f fc 22 e8 3e 63 98 1c 3f e1 83 52 3f
       1.4555402 0.4533919 0.61170024 0.8223248
0002e0 59 51 f2 be 4a a5 89 be 7d e4 04 bf b5 8e be 3c
       -0.47327688 -0.26883918 -0.51911145 0.023261407
0002f0 2a 51 80 bd 2f 5e a9 3e a9 e9 2a 3e 3c 9d 15 3e
       -0.06265481 0.3307967 0.16690697 0.14610761
000300 a6 bd 08 3f 6b 2b 22 3f 6f d5 e0 3e 76 b4 e9 3e
       0.5341438 0.633475 0.43912837 0.45645493
000310 c2 aa 98 3d 33 ae 6e 3f f0 c5 c0 3e 5c 79 c0 3d
       0.074544445 0.93234557 0.37651014 0.093981475
000320 ae fd c2 3d c2 a9 84 bf 9e 00 4f 3e f9 13 99 bd
       0.09521042 -1.0364306 0.20215079 -0.074745126
000330 d9 d7 72 3e b1 37 93 3f 5e c4 ed 3f 4d 87 95 be
       0.23715152 1.1501371 1.8575552 -0.2920479
000340 6c 9a db bc 30 d3 ea 3e 5f 63 85 3d a5 b3 0d 3d
       -0.026807033 0.45864248 0.06513094 0.03459515
000350 31 86 f7 3e 04 37 85 3e a9 cd f3 3c 09 3b ea 3f
       0.48344567 0.26018536 0.029761152 1.8299266
000360 02 ef 30 3e c0 c4 ae 3d 5d 04 c2 3e 6e 89 d8 bf
       0.17278674 0.08533621 0.37893954 -1.691694
000370 4a 1c da 3e 46 31 ee be af af c6 3f ea 54 af 3e
       0.42599708 -0.46521968 1.5522364 0.34244472
000380 e3 21 e2 bd 4b 45 b9 be 6f 89 b1 be 26 5f 99 3e
       -0.1104162 -0.3618568 -0.34675166 0.29955405
000390 1e f7 1b 3f 51 fe a4 bd b8 31 a3 3e 57 2e 8b 3f
       0.60923946 -0.080563195 0.3187387 1.0873517
0003a0 2e 64 d6 3d 32 29 9f 3e 5b 67 41 3f 9f 01 69 bf
       0.104683265 0.31086117 0.7554833 -0.910181
0003b0 53 b4 98 be 7f a8 46 be ad 9f 8d bf a8 56 64 bf
       -0.29825076 -0.19400214 -1.1064354 -0.89194727
0003c0 30 a9 30 3f 40 44 07 3e 11 9b 88 bd 06 1e ed 3e
       0.6900816 0.13209629 -0.066702016 0.4631197
0003d0 47 81 af be f4 60 55 3f a5 8b 01 be fc c6 73 3f
       -0.34278318 0.83351064 -0.12650926 0.952255
0003e0 0a a0 19 bf f6 0a 22 3f cc ff 12 3f 9a 29 21 3f
       -0.60009825 0.63297975 0.57421565 0.62954104
0003f0 de 69 01 3d 08 12 1e 3e b9 0d e6 3e e0 fa 4a 3f
       0.031595103 0.15436566 0.44932345 0.79289055

bias f4 [5]
000000 2e ca d7 3e 34 b8 98 3f 32 7e 84 3f 2d b8 5b 3f
       0.42146438 1.1931214 1.0351012 0.85827905
000010 2b a2 6d 3f
       0.92825574
