models/simple_tag/DQN-centralized/adversaries/qnet_target_0.pt (torch, 394052 bytes, 6 tensors)

weight f4 [160, 36]
00000000: fb6b aa3d 4f28 1abd 5e67 e1bd fd83 30bd
00000010: fcb6 17be 1398 a03e 0ad5 603e 558d 0dbd
00000020: 6b3c 9c3c dd04 f1bd 992e 39be a28f d8bd
00000030: 99fc ad3c e400 933e 4660 473d 7887 173d
00000040: 8c45 88be 6a26 813e 5f47 d23d 9b16 57bd
00000050: 3c1f 68be 698b 68be 9803 a93b 67ec 053c
00000060: ed32 f7bd 18d3 e53c cdd2 23be 6940 febd
00000070: 9c45 b9bd c7a2 803e 73b0 133e 41c5 54be
00000080: 5253 f0bd a14b 863c 1880 26bd c13c 82be
00000090: 61d5 a3bd e83f c13c 3b40 363e 3dc2 e2be
000000a0: 92ae 083e 87c5 6abe 7200 86bd b881 05be
000000b0: 2f08 21be 4a03 5dbd 8a19 cebd f9be ae3c
000000c0: 7e95 fc3d e720 e43c f072 6e3d 6d88 0cbf
000000d0: 2f64 6bbd 7578 a8be c3b9 a93d 2550 01be
000000e0: 4a85 103d 00fd b13d 8810 59bd 53fd 6d3d
000000f0: fbe3 0bbd 58cc 023e 6767 87bd d696 07bf
00000100: a895 b83d 4ee7 87be 2c61 4f3d 2277 2f3d
00000110: 7338 8d3c 6175 6bbc d9c6 963d c22d 233e
00000120: 4f6a 5f3c decc c53d a8e9 bf3e 84de 0f3f
00000130: adbe b33e 4717 eb3e 4043 2abd ad73 b83c
00000140: 8c97 8fbe 6fd6 44be e506 01be cb29 33be
00000150: f012 1b3d f051 b63d b9a8 b43e 0f03 173f
00000160: bcb0 a83e db73 f93e 0f69 bbbd 3213 1b3e
00000170: 3595 ccbb c83f 9dbd 5de1 2cbe e3aa 2dbe
00000180: a527 933c 498d 6e3d a727 b73d 4adc dc3e
00000190: 5956 a83e 6c71 a53e ce30 2ebe 4a8c 343d
000001a0: 438c 993c d215 f03a 6253 233d b787 c93d
000001b0: 9280 b9bd d9f7 cc3d f83e 22be d9e6 91bd
000001c0: e5f1 e6bc 0288 313c b94a 12be 56cc 513d
000001d0: 7064 c2be 7f33 293f 0cda 2d3e 982c 5dbe
000001e0: 3b03 32be f39c c83d 4b13 443d b4a4 b2bd
000001f0: 16ba 8abc 9bfd 2a3c cc3b 0e3d 6abe 5c3d
00000200: 22ed f7be f485 533f 907e 0f3e 4f61 cbbc
00000210: d381 6cbe ed50 2c3e 4ad8 f0bd c6d8 8f3d
00000220: f726 b6bc e80e 9bbd 8842 303d 37bd 1ebe
00000230: e7a9 e1be 4662 1a3f 226b 4e3c bd6a 2ebe
00000240: b9b6 2ebe 33a4 b13e f22c 84be f45b a83b
00000250: 47ab e73d 8d5d 9cbd eb3b 5a3d fee6 aa3d
00000260: 362c 65bf 8ca3 433f 111a 8bbd 1e41 40bc
00000270: 2747 65be 84a0 303e 3c64 37be 08e8 513d
00000280: 4022 d73c 96f4 2a3d a1f6 48bd de6e 7b3b
00000290: f8bb 20bf 10f0 803f 36e2 4d3e 4ad2 7abd
000002a0: 182d 25be f23d 2e3e 3c90 89bd 8731 2e3e
000002b0: 6d4f e1bd 9602 faba 7e8f 70bd 0975 c3bd
000002c0: 20d0 34bf 5086 503f f6ca a33d 0b15 20be
000002d0: 5a74 8b3d 755c ba3d f32e 18bd 8553 5e3e
000002e0: 9fab 323c 1770 51be 3d11 0dbe 8a6e 8c3e
000002f0: 5518 04be 9d70 003e 72e9 223e e52c 6e3d
00000300: 9458 eabd 3972 3f3d 77a7 ecbd 0e15 8b3c
00000310: b76a f2bb 2bb3 a6bd b277 043e 4f2e a33e
00000320: fc5c c03d 334c 0c3d dd9b a83c 833f 293c
00000330: d6f2 a9bd 0bf3 de3d dcf1 adbd 2a94 e33d
00000340: 54d5 84bd 747b 90be 708c ff3d d4a7 433e
00000350: 37cd 133e 3c7d 943d d91e 5c3e 6fab 363e
00000360: f27e 583c 2262 a7bd 8aab 31bd 3edf 073d
00000370: 3025 053e 1dfa 91bd 41c6 a2be ed0c 0a3e
00000380: 289c 043d 7c25 c23c 0c68 6fbd a658 e33d
00000390: 977a cbbd 420f da3d 5dc7 a2bd 6d0e 8d3c
000003a0: 4b1e 913e fe1f de3d f50d 9fbe 5794 3ebc
000003b0: 9c62 1abd 5f75 6b3d 0938 5a3e bd4b fabd
000003c0: a047 743d de04 783d 0380 70bd a324 30be
000003d0: 7485 bd3e 0a57 1abe 24b6 87be a4c2 1fbe
000003e0: d2ac 7f3d 503c 1c3d ecfe 283e 8597 003e
000003f0: 8db7 903c 74ad 31bd 55b9 c2bd 55a1 d2be
0.08321377 -0.037636098 -0.11006044 -0.043094624 -0.14815897 0.31366023 0.21956268 -0.034558613
0.019071778 -0.11768506 -0.18084182 -0.10574271 0.021238612 0.28711617 0.048675798 0.036994427
-0.2661556 0.2522462 0.10267519 -0.052511793 -0.22668165 -0.22709431 0.005157899 0.0081740385
-0.1207026 0.028054759 -0.15998383 -0.12414629 -0.0904648 0.2512419 0.14422779 -0.20778371
-0.11734642 0.016393485 -0.040649503 -0.25436977 -0.07999683 0.023590043 0.1779794 -0.44288817
0.13347843 -0.22926913 -0.06543054 -0.13037765 -0.15725778 -0.053958215 -0.10063465 0.021331297
0.12333201 0.02784772 0.05821508 -0.5489567 -0.05746859 -0.329044 0.08287384 -0.12628229
0.035283364 0.08690834 -0.05299428 0.058102917 -0.034152966 0.12773263 -0.06611519 -0.5296453
0.0901292 -0.2654366 0.05062978 0.042838223 0.017238831 -0.014371247 0.07362146 0.15935424
0.013636186 0.09658216 0.37482953 0.56198907 0.35106412 0.45916197 -0.04156804 0.022516096
-0.2804531 -0.19222425 -0.12600286 -0.17496412 0.037859857 0.08902347 0.35284975 0.5898904
0.32947338 0.48721203 -0.09150898 0.15144041 -0.006243373 -0.07678181 -0.16882844 -0.1695972
0.01796324 0.05824021 0.0894311 0.43136817 0.32878378 0.32313097 -0.17010805 0.044079103
0.01874364 0.001831705 0.039874442 0.09840339 -0.09057726 0.10008211 -0.15844333 -0.07124109
-0.028191516 0.010835649 -0.14286317 0.05122026 -0.37967253 0.660942 0.1697771 -0.21599042
-0.17384045 0.09795561 0.04786996 -0.08722821 -0.016934436 0.010436441 0.034724995 0.05389253
-0.48423105 0.8262627 0.14013124 -0.024826674 -0.23096399 0.16827746 -0.11760004 0.07023768
-0.022235377 -0.075712025 0.0430322 -0.15501867 -0.44074938 0.60306203 0.012598785 -0.17032905
-0.1706189 0.34695587 -0.2581554 0.005137915 0.113119654 -0.07635031 0.0532798 0.083448395
-0.89520586 0.7642143 -0.06792081 -0.011734275 -0.22390424 0.17248732 -0.1790933 0.051246673
0.026261449 0.04173716 -0.04906333 0.0038365643 -0.6278682 1.0073261 0.20105824 -0.061235704
-0.16130483 0.17015818 -0.06716964 0.1701108 -0.110014774 -0.0019074257 -0.058730595 -0.09543807
-0.70630074 0.81454945 0.07997696 -0.15633027 0.06809302 0.09099666 -0.03715415 0.21711548
0.0109051755 -0.20452915 -0.13776107 0.27428085 -0.12899907 0.12542959 0.15909365 0.058148284
-0.11442676 0.04673979 -0.11555379 0.016977813 -0.0073979753 -0.08139642 0.12936285 0.31871268
0.09392735 0.034252357 0.020582134 0.010330084 -0.082982704 0.108862005 -0.08493397 0.111122444
-0.064860016 -0.28219187 0.12477958 0.1910699 0.14433752 0.07250449 0.21496142 0.17838834
0.01321386 -0.08173014 -0.043376483 0.033171885 0.13002467 -0.071277834 -0.3179188 0.13481493
0.032375485 0.023699515 -0.058448836 0.11100893 -0.099354915 0.106474414 -0.07948182 0.017218793
0.28343424 0.10845946 -0.31065336 -0.011632047 -0.037691697 0.05748498 0.21310438 -0.12221477
0.05963862 0.060551517 -0.05871583 -0.17201476 0.3701588 -0.15072265 -0.2650615 -0.15601593
0.062420674 0.038143456 0.16503495 0.125578 0.017665649 -0.04337831 -0.095080055 -0.41138712

bias f4 [160]
00000000: 34fe 333f 4552 0a3f 39e6 86be 201d c23e
00000010: 5583 e23d 40f8 4a3f ef9a 753f 45cd f8be
00000020: 384e 613f 95c3 533d ba3d f23e 44f8 1fbe
00000030: d82a 0e3f f58c eabe 75be fdbe afd7 21bf
00000040: 81ae 743f cec1 963f 9ee9 8b3f e443 bb3d
00000050: ad81 83bd 63d8 9bbd fd92 e83e 565a 393f
00000060: 6a35 1f3e 2ae4 f43e c44f b1be 948d ac3e
00000070: 24a5 123f 8c61 3ebf c3e5 e7bd cd12 f33e
00000080: 239f 763f f9ce 023f aa8a 0abe 58d8 003f
00000090: 11e2 babc 5811 0cbf f454 20be b2cf 45be
000000a0: a4c0 e33d 3968 933f a43a 2bbf 6ef4 04bf
000000b0: 2802 50bf 3722 a73d 0799 283d f366 8a3f
000000c0: eb16 f63d 5e58 d43e f7aa ec3e d00d d03e
000000d0: af86 42bf 93bd c9be ae3d 853f 08ef 233e
000000e0: 974d bcbe 2ee9 ff3e 4cdf 8a3e 888d 8d3f
000000f0: aa44 babe ce2a ed3e 90f0 fc3e a6c8 dfbc
00000100: 45dd b1be 8b6c a73e 497e 4b3f 3ddc 8abe
00000110: 7450 2d3f 3825 f63e f589 d4bd c8b4 08bf
00000120: 6f02 26bf 3f4d 30bd 47b2 80bd 5467 15bf
00000130: 702b 7e3f 8d8b 0fbe 69f6 2a3f eab8 c73e
00000140: 088c d63c b225 2bbe e289 413e 8b72 603f
00000150: a0ee 6d3f 79c0 273f 050a 103b 7c70 94bd
00000160: 6bd9 2fbf 2fcf b1be e10e 5a3f 3f8d 4a3f
00000170: b19e a6be 35cd 783d 88d7 49bd 290f 0e3f
00000180: 7f69 c8bd 8c23 88bd 6253 613f 156e 97be
00000190: 182c 883f 748a 2fbd 3e50 433e 8c40 da3d
000001a0: aad1 e3be 2320 f73e 3d23 45bf 5bf6 583f
000001b0: 80c5 a4be 5a9b 10be 1ba2 0abf 18a2 b53d
000001c0: a9be 033f 5a7e 5dbf 1e3a 21be 526b 04bf
000001d0: 05d1 403d 2ddf ed3e 06af 853f 35b1 b5be
000001e0: 160e 983f 4b2a a03e 07d7 7e3f 44cf de3e
000001f0: b660 91bd 4163 113f 467c 653f 9cc2 9dbe
00000200: f607 2abf f374 263c 81ed e83e a48e 3d3f
00000210: 5bd3 85be 5bc0 00bf 7088 2a3f 5c2e 89be
00000220: bf89 733f c4e3 553f 4010 36be 83b7 e03e
00000230: ebcc 1f3f af42 653f b093 4abf 52be 2b3f
00000240: 7a27 303f 68d6 883f 61d1 3fbf 5743 8a3f
00000250: 0bc7 933f b817 373d 6df7 eabe a6a2 513f
00000260: fa2d 7b3f 7ac2 813f 4c2e 8abd 840c dabe
00000270: 87cd 963e f2d3 edbd 0d6e 1c3f e3e1 a9be
0.7030976 0.54031783 -0.2634752 0.37912846 0.11060206 0.7928505 0.95939535 -0.48594108
0.8800998 0.051700193 0.4731272 -0.1562205 0.55534124 -0.45810667 -0.4955937 -0.6321973
0.9557877 1.1777894 1.0930669 0.091438085 -0.06421218 -0.07609632 0.45424643 0.72403467
0.1554772 0.47830325 -0.3463117 0.33701766 0.57283235 -0.74367595 -0.113231204 0.4747528
0.96336573 0.51097065 -0.13529459 0.50330114 -0.022812875 -0.54713964 -0.15657407 -0.1931751
0.11120728 1.1516181 -0.66886353 -0.5193547 -0.8125329 0.08160823 0.041161563 1.0812668
0.1201609 0.4147367 0.46224186 0.40635538 -0.7598676 -0.39402446 1.0409448 0.16009152
-0.36777946 0.4998259 0.27123487 1.1058817 -0.36380512 0.4632172 0.49402285 -0.027317356
-0.34739128 0.327 0.7948957 -0.27121153 0.67700887 0.4807527 -0.10377876 -0.5340085
-0.64847463 -0.043042418 -0.06284004 -0.5836079 0.9928503 -0.14018078 0.6678224 0.39008266
0.026189819 -0.16713598 0.18900254 0.8767478 0.9294224 0.65528065 0.0021978628 -0.07248017
-0.6869113 -0.3472838 0.85178953 0.79121774 -0.32542947 0.060742576 -0.049277812 0.5549188
-0.09785747 -0.06647405 0.8801786 -0.29576173 1.0638456 -0.04285665 0.19073579 0.106568426
-0.44495898 0.48266706 -0.77006894 0.8475091 -0.3218193 -0.14121762 -0.54153603 0.088688076
0.514628 -0.8652092 -0.15744826 -0.5172626 0.047074337 0.46459332 1.0444038 -0.3548676
1.1879299 0.31282267 0.99546856 0.43517506 -0.07098524 0.56792074 0.8964275 -0.30812538
-0.664184 0.010159719 0.454937 0.7404578 -0.26137814 -0.5029351 0.6661444 -0.26793182
0.9513206 0.8355067 -0.17779636 0.43890008 0.62422055 0.89554876 -0.79131603 0.6708728
0.68810236 1.0690432 -0.7492886 1.08018 1.1545118 0.044700354 -0.45891896 0.81888807
0.9811703 1.0137475 -0.06747112 -0.42587674 0.2945368 -0.11612691 0.61105424 -0.3318015

weight f4 [320, 160]
00000000: e658 eebe 8e5c 113e cceb 86be b93b ecbd
00000010: 2efc efbd fe54 623e 9bf1 853e d174 96bd
00000020: c7a4 bd3d 3ce4 a1be 1432 bebe c834 65bd
00000030: d3b7 63be 46c3 bd3d ce93 973d 3b6b 5e3e
00000040: 7bdd f0be 8c5b a5be b911 3fbe 4f7d 19bf
00000050: c16e f1be 34f8 0fbf 76eb 0bbf 85a2 26be
00000060: b914 e7bd d37f 06be 1e48 443e 604f 2bbf
00000070: 8c35 483d 4b2b 85be 9a34 3dbe 09e3 6dbe
00000080: 7ea1 db3d b704 1ebf 34f4 853e eb5c 40bd
00000090: d763 cbbe 1704 5abd ecd9 133e 4b81 21bf
000000a0: db73 5b3d 638e 38bd e5ee b6be defd 8bbd
000000b0: f7c4 113e 0d3f 16be c624 a7bc f723 e3bd
000000c0: bbf6 c9be d9be 96be b63c cbbe b476 babe
000000d0: a5e3 cebd e9de 7abe 3263 b63c 046c 92be
000000e0: fb54 af3e 72c2 61be a4e6 513e 65ac 313e
000000f0: 9b51 603e cacc aa3c ae7a c6be da81 85bd
00000100: 1247 c33d c93e 58be add1 59bd c767 3ebe
00000110: 3ac9 923e 9fda 1bbe 6bbc bebe 55b4 ed3d
00000120: bf19 aebd 8c97 16bf 5fc9 ce3c f17b 30be
00000130: 95fe 163d bc78 0b3e 72b8 ee3d 49b5 8ebe
00000140: faf1 78be 5ddd 9ebe e558 4dbe 9198 c3be
00000150: c6da e6bd 7e8c 973d bd68 3bbf a3ac 62be
00000160: 73b9 94be 3832 e13d 321a 9dbe 02b4 143e
00000170: 13f7 36be 1d13 933d 9214 103c b9ac 043e
00000180: 2510 c8be 9a10 83be f672 11be 5570 b6be
00000190: 17a9 b2bd 6b48 d3bb ae02 b23d 3a12 cdbd
000001a0: 9ab9 0dbf 09ae 3e3d 7ac0 5b3e 03d6 99be
000001b0: 96fd a3bd c247 9cbe bd4e 123e d1d5 223d
000001c0: 3e0c e8be fc06 d1bd c5af cdbe 3451 bbbd
000001d0: add5 33be 80b6 eabe e2fe 113e 7f42 af3e
000001e0: f947 babe 0e60 3f3d c300 f1bc c9ac fe3d
000001f0: 9c2a 97be b253 373e f305 dabe ed94 7ebd
00000200: 1b55 863e a794 a7bc 555d e2be 3c0b 01be
00000210: bf52 20be 5be1 b5be eda9 453e 6fb9 74be
00000220: 32bc bfbe 393d 44be 5cee 85bd 0870 19be
00000230: 0729 acbe 3661 df3d 48fc f83d 51a7 ecbd
00000240: d3e2 ff3d a2e2 023e 86d3 0cbe fba2 f1bc
00000250: 2cf9 0e3e cfbf 89bc 3012 91bd 8968 433d
00000260: 64f8 97be 5471 693e 0f27 0d3e df60 763e
00000270: 2817 dcbb f046 00bf cede e4bd ad47 01bf
00000280: 3e3a 16bd 46e0 a1bd 02f2 6b3d bce3 803d
00000290: 6e77 97bd 77b6 2fbc c919 40be cc13 8c3d
000002a0: b25b d7bd 9e7a 113d 4628 2f3d d861 473c
000002b0: ef2c 323d 80af 423a b9f6 4fbc 8670 243d
000002c0: 5e9d 9fbb 9135 c8bd 7eeb 1fbb d28f 53bd
000002d0: b87d c6bd af38 2f3d 3e4f 1fbd da1a 57ba
000002e0: fe8e a43b de72 a43b 656e 0fbd 7488 f4bc
000002f0: daab dcbd f21d 5abd 15e5 153d 2b5f 68bd
00000300: 93b5 edbd 7cfe 873d 430e 793d cb71 f4bd
00000310: 93cc 7e3d d961 47bd d10c d4bc 9e36 94bd
00000320: cb27 f83b 7f3d a3bd b08a 32bc 6df8 8ebd
00000330: 83d8 69bd 487d 3ebd df88 b13d 98e7 38be
00000340: bd15 81bc 05eb 01bd 454f 83bd ceab 2d3d
00000350: 6b4d 6cbd d167 49be dedd a73d 7cb7 febd
00000360: d49b 833d cad3 53bd c5b4 09be a991 513c
00000370: 97a3 a2bd 9450 023d dcbc 073c 1f37 afbd
00000380: 95c3 8cbc 9cb1 f3bd c18b 49be 1577 06be
00000390: efbe 3b3c 6516 0dbd 97c3 bebd 4984 da3c
000003a0: a7c1 b0ba cf70 bbbd 1ce6 fdbc f7a8 abbc
000003b0: 15f9 01be 8287 d1bd f136 5a3d 5c33 873d
000003c0: bd35 9d3d 39cc 54bc c3a9 f63c 21bb cbbd
000003d0: 50c8 3bbe 8b06 f03c 39a1 573c e962 debd
000003e0: 24c4 883d b9e7 debd f3ee e5bd d4d3 82bd
000003f0: 72a1 dbbd 07f9 b93d 9d28 8ebc dd59 0bbe
-0.465522 0.14195463 -0.26351774 -0.11534829 -0.11718021 0.22102734 0.26160893 -0.073465
0.092599444 -0.31619442 -0.37147582 -0.05595854 -0.22238092 0.09265761 0.074012384 0.21720593
-0.47043976 -0.32296407 -0.18659104 -0.5995683 -0.4715481 -0.562381 -0.5465616 -0.16272934
-0.112832494 -0.13134699 0.19168136 -0.6691799 0.04887919 -0.26009592 -0.18477097 -0.23231138
0.107241616 -0.61725944 0.26162875 -0.046963613 -0.3972461 -0.053226557 0.144386 -0.6308791
0.053577285 -0.045057666 -0.35729137 -0.06835531 0.14235292 -0.1467249 -0.020403277 -0.11090844
-0.39446053 -0.2944248 -0.39694756 -0.36418688 -0.101020135 -0.24499096 0.022264097 -0.28598034
0.34244522 -0.22046831 0.20498139 0.1735092 0.2190613 0.020849604 -0.38765472 -0.06518908
0.0953504 -0.211177 -0.053178478 -0.18594275 0.2866915 -0.15220116 -0.37253127 0.11606661
-0.085010044 -0.5882499 0.025242506 -0.1723478 0.036863882 0.13620275 0.11656274 -0.27872685
-0.24311057 -0.31028262 -0.20053442 -0.38202336 -0.112721965 0.07399844 -0.7320669 -0.22136168
-0.29047737 0.109959066 -0.30684048 0.14521793 -0.17867689 0.0718138 0.008793967 0.12956513
-0.39074817 -0.25598603 -0.1420401 -0.35632578 -0.087236576 -0.006447842 0.08691917 -0.10013242
-0.5536133 0.04655269 0.21460143 -0.3004609 -0.08007352 -0.30523497 0.14287849 0.039754692
-0.4532184 -0.1020641 -0.40173164 -0.09146348 -0.1756198 -0.4584236 0.14257386 0.3423042
-0.36383036 0.046722464 -0.029419309 0.124353 -0.29524696 0.17903021 -0.42582664 -0.062153745
0.26236805 -0.020456625 -0.44211832 -0.12601942 -0.15656565 -0.35523495 0.19303103 -0.23898862
-0.3744827 -0.1916398 -0.06539604 -0.14984143 -0.3362505 0.109072134 0.12157494 -0.115553506
0.12494435 0.12781766 -0.13752565 -0.02949666 0.13962239 -0.016815094 -0.07083547 0.047707114
-0.29681695 0.22797137 0.13784431 0.24060391 -0.0067166276 -0.5010824 -0.11175309 -0.50499994
-0.036676638 -0.07904105 0.057603844 0.06293437 -0.07395826 -0.010724655 -0.18759836 0.068397135
-0.10515536 0.035517327 0.042763017 0.012169324 0.043499883 0.0007426664 -0.012693101 0.040146373
-0.0048710546 -0.09775842 -0.002440184 -0.05165083 -0.09691948 0.042778667 -0.03889393 -0.00082056003
0.005021929 0.005018576 -0.03501739 -0.029850222 -0.107749656 -0.053251214 0.036595423 -0.056731384
-0.11606898 0.06640336 0.060804617 -0.11935767 0.062206816 -0.0486773 -0.025885018 -0.0723698
0.007573103 -0.07970714 -0.0108973235 -0.06980977 -0.057091247 -0.046506196 0.08668684 -0.18057096
-0.015757436 -0.031718273 -0.06411604 0.042400174 -0.05769102 -0.19668509 0.08196615 -0.124373406
0.06426206 -0.05171565 -0.13447864 0.012791076 -0.079413585 0.031815127 0.008284774 -0.085554354
-0.017183105 -0.11899111 -0.19682218 -0.13131364 0.011459096 -0.034445185 -0.093146496 0.026674407
-0.0013485447 -0.09152376 -0.030993514 -0.020954592 -0.12692674 -0.10230924 0.053275052 0.06601593
0.076762654 -0.012988144 0.030110246 -0.099478014 -0.18338132 0.029299995 0.013160997 -0.10858709
0.06678036 -0.10884041 -0.112272166 -0.06388059 -0.107241526 0.09080701 -0.01735335 -0.13608499

bias f4 [320]
00000000: 768d aebd 795a cfba 8196 c2bc c0db a03e
00000010: 7cde d73e 9d05 983c ed1c 093f 4aff 6b3d
00000020: e3f6 973f dfe1 373e b2de d6bd 9fc8 363c
00000030: f299 d6bd 260b 12be 2569 da3e cbc4 fb3c
00000040: f333 973f 9dc7 00bb 4149 083f 1001 3ebd
00000050: 0a9c ee3d 02dd b43e 97cb acbd 8b88 863f
00000060: c5e2 973f ee68 f93e 6506 183d 476e 4e3e
00000070: 359b 8e3f f2bb c23e 6d8b 03bd 75ef 00be
00000080: c5c2 123f 20af b4bd e2db d1bd 0065 e53e
00000090: cbde 66bd 0603 f13e c33e d43e 85ff 823f
000000a0: 2b62 603f 6b7f 503f 735b 583f 5609 91bd
000000b0: 5adc 6f3c 0aef 5cbc 8b7b 69bd dea5 893f
000000c0: 50c7 ac3e 576c 26bc 277f 80bc 274e a4ba
000000d0: e956 fc3e 6bb0 e8bd 983e 903d f94b 163f
000000e0: 9998 873f a06a 4e3c 7969 1f3f 6a1a e03e
000000f0: aa82 603d 4a65 683f 507b 983e dabf 613e
00000100: 0548 183d d10c 173f e9b6 203f eada 2d3f
00000110: 5e5b 91bd b52e 6cbe 0760 8b3e a4bf 293c
00000120: 373f 943f e6a0 693f 4a26 f33e 0b81 e6bb
00000130: ca80 153f cee3 13be 4c91 0e3c e1bc 9c3f
00000140: 02c7 55bd 715e 49bc a4a8 7ebd 5e71 9e3c
00000150: 1e2a 043e 7ecc a03d acde 8b3c 6efb 203f
00000160: ce57 903f f5f3 433f 47cb b13d 683f 093f
00000170: 8ca4 b13e aa43 073f 26d5 063f 9479 df3e
00000180: 6594 53bc 8de9 113d 7cd0 983e 6a0e d1bc
00000190: 5b98 ff3e 602b b2bd 6340 6dbd e54d a33f
000001a0: 697d 253f 0261 9a3f e5c9 06be 660d a33f
000001b0: 2f2e 243f 4bd8 fe3c 123b 9a3e edd2 8ebd
000001c0: d87d 3abd f1ba c4bd a1b8 f13e e73c 2abe
000001d0: 6542 0ebd 789a 3cbd 2679 d63e 02c9 44b9
000001e0: 0296 933f 40d2 37bd 5d23 063f 95ff 1e3f
000001f0: 8324 ef3e 47c4 ac3e 041c 153f c347 c53e
00000200: b676 323f 70b8 9a3e 33c3 dd3e 5381 e4bd
00000210: 581f b7bc a136 943f 1eaa 843f 602b b2bd
00000220: 24b2 72bd 773f aebd d5bd 213f c5f5 c43e
00000230: 054e 173e 7a87 edbd 7e36 833f c9da d63e
00000240: 7208 0b3e c34c 8e3f 46db a63d 46ae 0b3f
00000250: 73f7 833f eefd f63e 96ed 9ebb ca9b 5b3f
00000260: 46d8 f33e 67be a3bd fb9f 213f ba0f 983e
00000270: 6500 993c c6b9 223f ea48 0c3f d6b4 9d3f
00000280: e5b7 09bd a8e4 3fbd 79d4 d83e d641 92bc
00000290: 2ff8 26bd 84fe d93e 9db3 963f d7a8 313f
000002a0: 7ee9 063f 98f1 c73d a9c2 303e 5b18 7f3d
000002b0: 60bb b3bd cc93 7fbd 89b2 cbbd d6a2 b13e
000002c0: 08f1 4bbd b110 d73c 5cf5 9f3f 0a05 cb3e
000002d0: 1226 893e fdc3 203f 6880 bebc f423 f2bc
000002e0: 7790 c93e efcd acbd 3c37 323f 87db dc3e
000002f0: 3f70 a6bc 6e9b 91bd 56ef 9a3d cbab 62bb
00000300: 2ce6 cf3d d2b2 d53e fcd3 113f 736a e0bd
00000310: 823f f53d 29b5 0b3f a749 abbd 5768 033f
00000320: 3534 e23d 8ad4 933f dee4 91bd 2d4d 04bc
00000330: b6af e43e 5eae d63e 2e64 ae3d bb90 883f
00000340: 22f5 023f 21d0 603f 83d0 543e e2b7 57bc
00000350: 7885 4c3d 0975 883f 663a 4b3f f809 b9bd
00000360: 2d8e 873f 0f85 023f bd6b 883f 1f4e 743f
00000370: cbd7 e3bd 69e7 4abc d557 ff3d 1104 cabd
00000380: af5f 353a 40d0 d43e 3950 af3e fec0 1a3f
00000390: 104c 3ebd cb54 d43e e647 243e b070 a73e
000003a0: 8fcd 963f fbac 143f 1a54 dbbb f3ce 283f
000003b0: 3212 353e add6 f73e 370c 7b3e df27 003f
000003c0: 9bf4 ecbc b991 9e3e e8f3 bc3e cdf0 473d
000003d0: c411 073e dcda 803f ef36 2e3f b548 08be
000003e0: d8e1 3abd 3e2e e53e 8afe e83c 660b b93e
000003f0: b30f ec3e a937 e13e 7cf9 303f 538a 323f
-0.08523075 -0.001581981 -0.023753406 0.31417656 0.4216193 0.018557364 0.5355976 0.05761651
1.1872219 0.17957257 -0.104916945 0.01115623 -0.104785815 -0.14262065 0.42658344 0.030733487
1.1812729 -0.0019650229 0.53236777 -0.046387732 0.11650856 0.35324866 -0.08437269 1.051042
1.186608 0.48712867 0.037115473 0.20159255 1.1141115 0.38034016 -0.03211539 -0.12591346
0.57328445 -0.08822465 -0.102470174 0.4480362 -0.056364816 0.4707262 0.41454133 1.0234228
0.8764979 0.81444424 0.8451454 -0.07081859 0.014639938 -0.013484726 -0.057002585 1.0753744
0.33745813 -0.010157666 -0.015685631 -0.0012535498 0.49285057 -0.11361774 0.07043189 0.58709675
1.0593444 0.012598664 0.62270314 0.43770152 0.05481211 0.90779555 0.2978158 0.22045842
0.03717806 0.5900393 0.627791 0.6791216 -0.07097505 -0.23064692 0.272217 0.010360632
1.1581792 0.91261137 0.4749015 -0.007034426 0.5839964 -0.1444237 0.008701634 1.2245141
-0.05219174 -0.012290583 -0.062172547 0.019341167 0.12906691 0.07851504 0.017073952 0.6288365
1.1276796 0.76544124 0.0868135 0.53612375 0.34695852 0.5283762 0.5266899 0.43647444
-0.012913798 0.035623122 0.2984656 -0.025519568 0.49920925 -0.086996794 -0.057922732 1.2758147
0.64644486 1.2060854 -0.13162954 1.2738464 0.6413297 0.031108996 0.30123192 -0.06973825
-0.04553017 -0.09605969 0.47211173 -0.16624795 -0.034731288 -0.04604575 0.41889304 -0.00018766898
1.1530154 -0.044878244 0.5239771 0.6210874 0.46707544 0.33743498 0.58245873 0.38531312
0.6971239 0.3021884 0.43312988 -0.11157479 -0.022353813 1.1579171 1.0364416 -0.086996794
-0.05925192 -0.08508199 0.63180286 0.38468757 0.14775856 -0.11598106 1.0251005 0.41963795
0.1357744 1.1117176 0.08147292 0.54562795 1.030989 0.48240608 -0.0048501 0.8578459
0.4762594 -0.07995301 0.63134736 0.29699498 0.018676946 0.6356472 0.5479876 1.2320812
-0.03362264 -0.046848923 0.42349604 -0.017853659 -0.04076403 0.42576993 1.1773564 0.69398254
0.5270003 0.09762877 0.17261757 0.062279087 -0.08775973 -0.06239681 -0.09946162 0.34694546
-0.049790412 0.026253076 1.2496753 0.39652282 0.26786858 0.62799054 -0.023254588 -0.02955816
0.3936803 -0.08437716 0.6961553 0.43136236 -0.020317195 -0.07109724 0.07565181 -0.003458726
0.10151324 0.41737992 0.5696409 -0.109578036 0.11975004 0.54573303 -0.083636574 0.51331085
0.11045114 1.1549237 -0.07123731 -0.008075041 0.44665307 0.41929907 0.085152015 1.0669168
0.51155293 0.8781758 0.20782666 -0.0131664 0.049931973 1.0660716 0.79385984 -0.090351045
1.0590264 0.5098428 1.0657879 0.95431703 -0.111251436 -0.012384274 0.124679245 -0.09864057
0.000691886 0.41565132 0.34240893 0.6045073 -0.046459258 0.41470942 0.16043052 0.3270316
1.1781482 0.5807645 -0.0066933753 0.6594078 0.17682722 0.48405972 0.24516378 0.5006084
-0.02892523 0.30970553 0.36904836 0.04881363 0.13190371 1.006679 0.6805257 -0.13308986
-0.045625538 0.44761842 0.028441686 0.3614151 0.46105728 0.43987778 0.6913068 0.69742316

weight f4 [125, 320]
00000000: 1d0e 083e 21f1 5bbd 71b5 47bd 7ed9 a83e
00000010: 4a71 4e3e b8b8 f43c 15dc 603e 56bd 5c3d
00000020: d32c 823e fba6 eebd fe88 a5bb a487 773d
00000030: da64 ecbb 2194 c5bd aae2 2c3e e5d8 103e
00000040: 7af6 883e 7089 c63d 384f 813e 8e4d abbd
00000050: 1813 b83c 4bf0 c03e 16b8 4e3d ff61 833e
00000060: a762 733e ea36 023e 8e9e 113c 3998 d7bc
00000070: d59e 883e 1c43 d53e 3d48 03be bd83 10be
00000080: db65 8e3e be28 9bbc c8f6 493d 1738 623e
00000090: 006a 3dbd 87cc 8b3e bdcf c33e fd2f a13e
000000a0: 1f96 403e 260f 673e 0111 8b3e dfa1 b13a
000000b0: c175 55bd bd2a 8abd 3407 fcbc 29b0 5f3e
000000c0: c05d 833e 6157 4cbe 273c 27be 7e1c 1c3e
000000d0: 6df9 c13e ac2f 72bc e153 81bc 9783 833e
000000e0: 07fd 4c3e 9f85 bd3d cfcb 893e 3602 e93e
000000f0: 512c 553e 7b9f 643e 2716 963d 9544 043e
00000100: 877e aa3d 6afc ca3d 7d86 783e 20e3 843e
00000110: d2d9 683d 05fc 133d 84f5 d7bc 6623 a83c
00000120: f026 863e 48b9 723e 70b5 873e 4d78 0e3d
00000130: a367 6f3e d8e2 be3c 50d0 17bb 2ba1 893e
00000140: f1a1 5d3d ae84 1abd 9525 853d 518b c1bc
00000150: 9179 e9bd 85e6 083e 7b6c e53d a100 8a3e
00000160: a698 523e 906e 783e 6d30 8ebd a4ab 3b3e
00000170: 9503 b03e 45cb d13d eb94 19bd 1752 e83e
00000180: 71f1 493e 3aa0 53be d496 7a3e a8b1 5abc
00000190: 00a1 2d3e aaca 543c 4370 713d 28f9 853e
000001a0: acbf 563e c075 6f3e 87ef acbd af3e 683e
000001b0: 6301 823e 6e16 233d c696 5a3e 107a 58bb
000001c0: d203 413d fc3c 88bb 60f3 b23e 6dc0 0fbe
000001d0: 67c5 bfbc 7918 41bd 86ea d83e e61a 1fbb
000001e0: 8ee8 913e 9875 403c c50a 103e fc62 523e
000001f0: 2df2 a53e bc62 833e 79c7 783e b6e6 d23d
00000200: 5e5c 0c3e b16c c53e c623 9e3e e942 c2bd
00000210: 2d8b 023e 1e2b 763e bb9d 7b3e d4ef c83c
00000220: 71b6 cb3d f07d b1bc dd51 933e 051a c73e
00000230: f528 86bd 0d37 1c3e 5a4a 753e f640 a73e
00000240: b595 2e3e c2c8 7d3e 4dc5 163e 448b aa3e
00000250: 27fb 7b3e de50 633e 1c9c 01bd 530c 743e
00000260: ed73 673e c0c1 c9bb bdff 4b3e 3923 cd3e
00000270: bb32 f83c da0c 293e 3340 3d3e 1ca6 853e
00000280: 0e9b 9cbd 8801 c3bc 43fd 253e 5efe 13bd
00000290: 6944 483e 779e 843e eddc 8e3e 2e91 823e
000002a0: 841e 833e d13e 54bc 1685 2d3e ab95 61bd
000002b0: 4d7c 85bd e016 fb3c 7a9f d03b f292 cd3d
000002c0: cf8f 3a3d 1656 183e fda5 8f3e 8c6f df3e
000002d0: 3be1 5c3e 764e 9d3e 244e 8bbd b060 393c
000002e0: f4dc 963e c359 e2bd ddeb 543e 60c2 473d
000002f0: 76d0 9a3d d6e6 9c3c 9cdc 623e 0e7e a5bc
00000300: 3a99 503e 0227 4c3e 103a 463e fb4a 75bb
00000310: 364b 3f3e 4bf8 8c3e 8886 b1bd 8ce3 8d3e
00000320: 1467 78bb ec3f 8e3e 8ab9 e73d 71e3 d03c
00000330: 8b83 5a3e ddb7 743e ed8c 09be 3ac8 593e
00000340: 2154 b53e 17ac 7d3e 4fce a13e 5c9d 863c
00000350: 8590 8e3c 8308 873e c092 453e 57ba e0bc
00000360: 1c05 5a3e 9495 773e 19a1 853e 447e 3e3e
00000370: 45f7 19bd f95b d53c eb79 3c3d dbb6 ef3d
00000380: e854 81bb b978 383e b2e2 223e 8d9b 803e
00000390: 3405 743c 054b a33e 6948 ae3e 13f8 183e
000003a0: 4a70 9c3e 93ec 763e e691 20bd dee9 7d3e
000003b0: b53a 043e 79aa 873e 3338 893e 40cc 953e
000003c0: 68a9 ccbd 9495 8e3e 5001 1c3d bd05 ab3d
000003d0: b731 a93d 5d93 813e 48d7 3e3e 99e4 c5bd
000003e0: b389 793c d834 a03e 0291 5e3d 0ccb 1a3e
000003f0: 147b 423e c736 4e3e 81b1 783e eb32 833e
0.13286634 -0.053696755 -0.04875702 0.32978433 0.20160404 0.029873237 0.21958955 0.053891502
0.25424823 -0.11652943 -0.005051731 0.06043209 -0.007214171 -0.09647394 0.1688334 0.14145239
0.26750547 0.09694183 0.25255752 -0.08364402 0.022470042 0.3768333 0.050468527 0.25660703
0.23768102 0.1271626 0.0088879 -0.026317703 0.2668368 0.41652763 -0.12820525 -0.14112754
0.27812085 -0.018940326 0.049307615 0.22091709 -0.046243668 0.2730448 0.3824443 0.31481925
0.18807267 0.22564372 0.2716141 0.001355227 -0.052114252 -0.06746433 -0.030765153 0.21844544
0.25657463 -0.19955207 -0.1633154 0.15245244 0.3788561 -0.014781874 -0.015787067 0.25686333
0.20018397 0.09254002 0.26913306 0.455095 0.20817687 0.22326462 0.07328444 0.12916787
0.083249144 0.099114254 0.24270053 0.25954533 0.056848355 0.036129016 -0.026362188 0.020524692
0.26201582 0.23703492 0.26505613 0.034782697 0.23379378 0.023301527 -0.0023164935 0.26880774
0.054109517 -0.03772419 0.06501309 -0.023626002 -0.1140014 0.13369186 0.11202332 0.26953605
0.20566043 0.24260926 -0.0694283 0.18327194 0.34377733 0.10243849 -0.037495535 0.4537513
0.19721009 -0.2066659 0.24471599 -0.013348021 0.16955948 0.012987772 0.05894495 0.26166654
0.20971555 0.23384762 -0.08444124 0.22680162 0.25391683 0.039816312 0.21346578 -0.003303174
0.047122784 -0.0041576605 0.34951305 -0.14038248 -0.023409558 -0.04714248 0.42366427 -0.0024277507
0.28497738 0.011746787 0.14066608 0.20545572 0.32411328 0.25661266 0.24294843 0.10297911
0.1370711 0.38559487 0.30886668 -0.09485418 0.12748404 0.24039885 0.24571888 0.024528421
0.09946907 -0.021666497 0.28773394 0.3888704 -0.06550781 0.15255375 0.23954144 0.3266675
0.17049296 0.24783614 0.14723702 0.33309376 0.24607526 0.22198817 -0.031643018 0.23832826
0.22602816 -0.00615713 0.19921775 0.40065935 0.030297628 0.16508809 0.18481521 0.26103294
-0.07646762 -0.023804441 0.16209893 -0.036131255 0.19557346 0.2590215 0.27902928 0.25501388
0.2560922 -0.01295443 0.169453 -0.055074375 -0.06517849 0.030650556 0.0063666673 0.10037793
0.045547303 0.14876589 0.28056327 0.4363979 0.21570294 0.30723923 -0.068020135 0.011314556
0.2946545 -0.11052277 0.207931 0.048769355 0.07559292 0.01915304 0.22154468 -0.02020171
0.20370951 0.19936755 0.19358087 -0.0037428725 0.18681034 0.27533183 -0.08668238 0.27712667
-0.0037903236 0.27783144 0.11314686 0.025499078 0.21339242 0.23898263 -0.13432665 0.21267787
0.35415748 0.24772678 0.31602713 0.016432457 0.017402897 0.2637368 0.19294262 -0.027432604
0.21291012 0.24178153 0.2609947 0.18602854 -0.03758933 0.026044833 0.046014708 0.11704799
-0.003946889 0.18014802 0.1590679 0.25118676 0.014893819 0.31893173 0.3403962 0.14938383
0.3055442 0.24113683 -0.03920164 0.24796245 0.1291302 0.26497248 0.2680069 0.29257393
-0.09993249 0.27848494 0.03808719 0.08350704 0.082614355 0.25307742 0.18636811 -0.09662742
0.015230584 0.31290317 0.05433751 0.15116519 0.18992263 0.20138083 0.24286462 0.25624785

bias f4 [125]
00000000: dcaf a03e d291 b93e 1e75 a33e 3268 a23e
00000010: 4e1d af3e 807f 703e 36ad ab3e 2a6c 933e
00000020: 24bb d03e 6360 9e3e c99f a63e 5913 953e
00000030: 10a1 af3e 88d7 b53e b131 c83e 32f2 b13e
00000040: 4ece c73e 2aa1 883e bd5a ab3e 6580 b23e
00000050: b5dd a13e 7cff 9c3e 6d93 bf3e 9734 be3e
00000060: 73a1 cf3e 0d4c 9d3e c378 aa3e c01b ca3e
00000070: 6145 be3e 60e7 c63e 4a42 b93e 901d 9d3e
00000080: 688a b43e cf83 913e 66f2 b63e 750e 9e3e
00000090: 8a3f ac3e 708a c73e f1c8 933e c67c 8d3e
000000a0: 6b04 933e 45c3 c73e 18df 993e 83b7 993e
000000b0: 8aa0 c63e df19 cf3e 3171 c03e d0a3 cf3e
000000c0: 9ca1 d83e 1146 bf3e a7fb 8b3e 5aed 953e
000000d0: 9dc1 953e 123c c93e 911c ab3e 96e5 9b3e
000000e0: 3c35 973e 1d40 a23e cad4 993e ae56 cb3e
000000f0: e0d3 793e c971 a63e 5712 a03e 3a5c b53e
00000100: 12e5 913e 407a b73e f4b5 bd3e 0dc0 cb3e
00000110: 29e4 9c3e de84 c03e f7ee a23e fcc8 b33e
00000120: aa52 903e 8bfe 9e3e 9e2b b83e 34f3 ad3e
00000130: f434 af3e e2f0 ba3e e96a b03e ca9b 9d3e
00000140: c0d4 613e b0ac 963e f28c 8f3e bbe8 9d3e
00000150: 5c1b b53e 5b84 893e 46b1 b73e 2c83 8e3e
00000160: 507a bd3e c3df 8c3e 5c76 a93e b4fe c73e
00000170: 2e6e ae3e 3d16 a63e 3cd0 bb3e b29c 613e
00000180: f12b a23e a71e 893e ba40 cb3e 3372 9a3e
00000190: 4d87 8e3e 8f4a 953e ea1d a53e 7d4f a13e
000001a0: c877 cb3e ee16 c33e 948c d43e f943 c83e
000001b0: d9f1 c53e 6e7f a83e 8f71 a73e bb11 9b3e
000001c0: d977 9a3e 25b8 9d3e 59a1 bb3e 3dba 873e
000001d0: dbca 8a3e 30d4 d63e c7af c53e 8c30 a83e
000001e0: e907 bf3e 8495 cb3e 804c de3e e860 ae3e
000001f0: e7e0 d43e
0.3138417 0.36244065 0.3192529 0.3172012 0.34202045 0.23486137 0.33530587 0.2879346
0.40767777 0.30932912 0.3254378 0.29116324 0.34302568 0.35516 0.39100412 0.34755093
0.39024585 0.26685458 0.33467665 0.34863582 0.31614462 0.3066367 0.37417164 0.37149498
0.40552863 0.30722085 0.3329526 0.39474297 0.37162307 0.388484 0.36183387 0.30686617
0.35261846 0.28420874 0.3573181 0.30870405 0.33642226 0.38972807 0.28864244 0.27634257
0.28714308 0.39016166 0.3005302 0.3002282 0.38794357 0.40449426 0.37586358 0.40554667
0.42310798 0.37358144 0.27340433 0.29282647 0.29249278 0.39303643 0.33420232 0.30448598
0.29532802 0.3168954 0.30045158 0.3971457 0.2439723 0.32508686 0.31263992 0.35421926
0.2849508 0.35835457 0.37052882 0.3979496 0.30642822 0.3760137 0.3182294 0.35114276
0.28188068 0.31053576 0.35970777 0.33974612 0.34220088 0.36511904 0.34456566 0.3078292
0.22053814 0.29428625 0.2803722 0.30841622 0.35372436 0.26858792 0.35877436 0.2783445
0.3700738 0.27514467 0.33098114 0.3906151 0.34068435 0.3243884 0.36682308 0.22032431
0.3167415 0.26781198 0.3969782 0.30165252 0.278376 0.29158446 0.32249385 0.31505957
0.39739823 0.3810343 0.41513503 0.3911436 0.38661078 0.3290972 0.32703826 0.30286965
0.30169562 0.30804554 0.36646536 0.26509276 0.2710789 0.4195876 0.3861067 0.32849538
0.37310722 0.3976251 0.4341774 0.3405831 0.41577837
