models/simple_tag/PPO-centralized/adversaries/actor_0.pt (torch, 393608 bytes, 6 tensors)

weight f4 [160, 36]
0	0x3f1a2e67	0.60227054
1	0x39094e1d	0.00013094438
2	0x3f1547b9	0.58312565
3	0xbe44f626	-0.19234523
4	0xbebe8700	-0.37212372
5	0x3e6cf888	0.23141682
6	0xbeaa09e1	-0.33210662
7	0xbf0be0f0	-0.546401
8	0xbe89f2bc	-0.26943004
9	0xbf078615	-0.5293897
10	0x3ec51aff	0.3849716
11	0x3fabed68	1.3431826
12	0x3f0b7cdf	0.54487413
13	0x3dd8321f	0.10556435
14	0x3f3d1c9b	0.73871773
15	0xbd9f4fc9	-0.0777889
16	0xbe75e367	-0.24012528
17	0x3e235a18	0.15952337
18	0xbeffc421	-0.49954322
19	0xbf04c0fe	-0.5185698
20	0xbefd5eae	-0.49486297
21	0xbf1d0d9d	-0.613489
22	0x3e76ae04	0.24089819
23	0x3fad5284	1.3540807
24	0x3f00f55c	0.5037439
25	0xbe47fab5	-0.19529231
26	0x3f1e8215	0.6191724
27	0x3d8df535	0.06931535
28	0xbe8ebc4b	-0.2787803
29	0x3ea31796	0.31853932
30	0xbeba6443	-0.3640462
31	0xbf2ae11c	-0.6674974
32	0xbefbb244	-0.49159443
33	0xbf3062bb	-0.6890065
34	0x3ecfa31b	0.40554127
35	0x3fac0b62	1.3440974
36	0x3f4ae840	0.79260635
37	0x3d93c01b	0.072143756
38	0xbcc0d5b8	-0.023539409
39	0x3f0dd3ce	0.55401313
40	0x3e79cd6d	0.2439477
41	0xbdf0b7c1	-0.11753798
42	0xbea150b9	-0.315069
43	0xbf779c7a	-0.9672314
44	0x3d9f8e3f	0.07790803
45	0x3d9c1aeb	0.07622322
46	0xbda200bf	-0.079102986
47	0x3f1895c1	0.59603506
48	0x3f4b396a	0.7938448
49	0x3d5caa9a	0.053873636
50	0x3e342b7f	0.17594717
51	0x3ef956ff	0.48699185
52	0x3e856263	0.26051626
53	0xbd17ae99	-0.037031744
54	0xbf21559c	-0.63021255
55	0xbf8e778c	-1.1130233
56	0x3d9b2cb3	0.07576885
57	0x3e523078	0.20526302
58	0xbe45be16	-0.19310793
59	0x3f575524	0.8411429
60	0x3f4d4a70	0.8019171
61	0xbd2a79e4	-0.04162015
62	0x3d909577	0.07059758
63	0x3f12a2aa	0.57279456
64	0x3e972efe	0.2952804
65	0xbe4f4782	-0.20242122
66	0xbf02039a	-0.50786746
67	0xbf833bb2	-1.0252593
68	0xbe5c4646	-0.21511182
69	0x3e8e7445	0.27823082
70	0xbe4be130	-0.19910121
71	0x3f3e9c02	0.744568
72	0x3f50d3a9	0.8157297
73	0x3e4c4bdc	0.19950813
74	0x3ea13944	0.31489003
75	0x3f623b54	0.8837178
76	0xbe854335	-0.26027837
77	0x3e95ae44	0.29234517
78	0xbe74d1aa	-0.23908105
79	0xbf0ed958	-0.5580039
80	0xbf46820a	-0.77542174
81	0xbfa32026	-1.2744186
82	0x3eb9a761	0.36260512
83	0x3e738541	0.23781301
84	0x3f0d4d25	0.5519584
85	0x3e58b9fb	0.21164696
86	0x3ed27084	0.41101468
87	0x3f654554	0.8955891
88	0xbe0dbc39	-0.13841332
89	0x3ed74b53	0.42049655
90	0xbe6baec9	-0.23015894
91	0xbf3f6004	-0.74755883
92	0xbf46008e	-0.77344596
93	0xbfb790b4	-1.4341035
94	0x3e8f0eb4	0.27940905
95	0x3d4e72e0	0.050402522
96	0x3f3089d3	0.68960303
97	0x3e9102d9	0.28322485
98	0x3ed4c128	0.41553617
99	0x3f5049bc	0.8136251
100	0xbe46d523	-0.19417243
101	0x3ea23a02	0.3168488
102	0xbea89851	-0.32928708
103	0xbf599c86	-0.8500446
104	0xbf3d1a6a	-0.7386843
105	0xbfaef6eb	-1.3669103
106	0x3ef59d11	0.47971395
107	0x3e20cb52	0.1570256
108	0x3f60f42f	0.87872595
109	0xbd77ce1a	-0.06049929
110	0xbea23b57	-0.31685898
111	0xbed7473e	-0.4204654
112	0x3f205a6c	0.6263797
113	0x3f1349c5	0.5753444
114	0x3f131961	0.574606
115	0xbcdeddb4	-0.027205326
116	0x3f1758d7	0.59119934
117	0x3f729aff	0.94767755
118	0x3d8d787e	0.06907748
119	0x3e69632c	0.22791737
120	0x3f599f5d	0.85008794
121	0xbdc43e6d	-0.09582219
122	0xbe54d238	-0.20783317
123	0xbed8d022	-0.42346293
124	0x3f062814	0.52404904
125	0x3ec26dc4	0.3797437
126	0x3f199287	0.5998921
127	0x3e8bb8f6	0.27289551
128	0x3f01c567	0.5069184
129	0x3f9ace82	1.2094271
130	0x3e1c0074	0.15234548
131	0x3eb3c3fc	0.35110462
132	0x3f401863	0.7503721
133	0xbe674b1f	-0.2258725
134	0xbef840f5	-0.48487058
135	0xbf2e1e6a	-0.6801516
136	0x3f17d54c	0.5930984
137	0x3ecc4d42	0.39902693
138	0x3f2b82fb	0.66996735
139	0x3ca3bee8	0.019988492
140	0x3f1efe55	0.6210683
141	0x3f723651	0.9461413
142	0x3cdb339e	0.026758011
143	0x3ecfc6a5	0.4058124
144	0x3f9260ab	1.1435751
145	0x3ea35f2d	0.3190855
146	0x3f56240f	0.8364877
147	0x3f595039	0.84888035
148	0xbe5aa8ad	-0.21353407
149	0x3e58c518	0.21168935
150	0xbf1fde04	-0.62448144
151	0xbf555c43	-0.83343905
152	0xbe86bb02	-0.2631455
153	0xbfa0c77f	-1.2560881
154	0xbe42daf7	-0.19028841
155	0xbe7a875d	-0.244657
156	0x3fa9a373	1.3253006
157	0x3e03ada4	0.12859207
158	0x3f7de559	0.9917808
159	0x3f3e76ef	0.7440023
160	0xbd737044	-0.059433237
161	0x3e95e728	0.2927792
162	0xbeebd90b	-0.46064028
163	0xbf2618fb	-0.6488187
164	0xbe86dc58	-0.26339984
165	0xbf9a4c0e	-1.205446
166	0xbd7ae2cc	-0.061251447
167	0xbe5172f2	-0.20454004
168	0x3fad226d	1.3526131
169	0x3e27752c	0.16353291
170	0x3f7748ff	0.9659576
171	0x3f3d2d2f	0.7389707
172	0xbe3c413f	-0.18384264
173	0x3e15aaa4	0.14615875
174	0xbec0c2f5	-0.3764874
175	0xbf5458a5	-0.8294776
176	0x3c2b79aa	0.010466019
177	0xbf9b7f43	-1.2148212
178	0xbcaf176a	-0.02137347
179	0xbdb60f99	-0.08889694
180	0xbe4dc0c4	-0.20093066
181	0xbf135d4f	-0.5756425
182	0x3ec2b393	0.3802763
183	0xbdfdebc3	-0.123984836
184	0x3dace158	0.084414184
185	0xbf2f6370	-0.68511105
186	0xbe487d6b	-0.19579093
187	0x3e8ded95	0.27720323
188	0xbee2309e	-0.44177717
189	0x3d77e65d	0.060522426
190	0x3d3b3823	0.045707833
191	0x3eabc3e5	0.33547893
192	0xbed79514	-0.42105925
193	0xbf0873a2	-0.5330144
194	0x3e9e5dd8	0.30930972
195	0x3e2b98e5	0.16757543
196	0x3bd947dd	0.006630881
197	0xbf4245ba	-0.75887644
198	0xbe1afa9c	-0.15134662
199	0x3ecf88ac	0.4053396
200	0xbf263e19	-0.64938504
201	0x3e4eef91	0.20208575
202	0x3d90d8cf	0.07072603
203	0x3df45f21	0.11932207
204	0xbe2c8fb2	-0.1685169
205	0xbf2d09cf	-0.6759309
206	0x3e71616e	0.23572323
207	0xbd43bfd0	-0.04779035
208	0x3dc24c97	0.094872646
209	0xbf35a47a	-0.70954096
210	0xbdcb1f3e	-0.09918068
211	0x3e7e763f	0.24849795
212	0xbf114413	-0.567445
213	0x3e2b2da5	0.16716631
214	0x3df5056c	0.11963925
215	0x3ec41dcf	0.38303992
216	0xbe609ee1	-0.21935607
217	0x3f3b7133	0.73219603
218	0x3ed924e6	0.42410964
219	0xbe0050fa	-0.1253089
220	0xbf0836f6	-0.53208864
221	0xbf17473d	-0.59093076
222	0xbeba29c7	-0.3636
223	0x3d38d29d	0.04512273
224	0xbe91c576	-0.28470963
225	0x3e2983e9	0.16554226
226	0xbdef35f0	-0.1168021
227	0xbf45d2a5	-0.77274543
228	0x3d4fc9e2	0.05072964
229	0x3f7060ef	0.9389791
230	0x3f10c87b	0.5655591
231	0xbe31b824	-0.173554
232	0xbea699d1	-0.32539228
233	0xbebceea8	-0.3690083
234	0xbf0606cb	-0.52354115
235	0xbe57a610	-0.21059442
236	0xbe42f386	-0.1903821
237	0x3e93512b	0.28772864
238	0xbd5fa655	-0.054601986
239	0xbf4ab437	-0.79181236
240	0x3da26f50	0.079313874
241	0x3f3660b1	0.7124129
242	0x3edb9ffc	0.42895496
243	0xbe021aa6	-0.12705478
244	0xbeb68e25	-0.35655323
245	0xbef98b56	-0.48739117
246	0xbf01b272	-0.5066291
247	0xbe28eee2	-0.16497377
248	0xbedd7caa	-0.43259174
249	0x3ec2e7e6	0.3806755
250	0xbe4bb09c	-0.1989159
251	0xbf5b8923	-0.8575613
252	0x3f8bda58	1.0926008
253	0xbe84777a	-0.25872403
254	0x3f23d63c	0.6399877
255	0x3f402893	0.7506191

bias f4 [160]
0	0x3f01f0c4	0.50758004
1	0x3da8a965	0.082354344
2	0x3ddbff58	0.10742062
3	0x3e4ec847	0.20193587
4	0x3f112421	0.56695753
5	0xbf1b076e	-0.6055821
6	0xbecd01ea	-0.40040523
7	0x3e81f2f9	0.25380686
8	0xbdd50739	-0.10401768
9	0xbe9e9565	-0.30973354
10	0xbf8249c0	-1.0178757
11	0xbccf9f2d	-0.025344456
12	0xbf4156a3	-0.7552282
13	0x3e01d570	0.12679076
14	0xbf84aec2	-1.0365832
15	0x3d85d8e2	0.06535508
16	0xbe32cd29	-0.17461075
17	0xbf528a8f	-0.82242674
18	0x3c02c30c	0.007981073
19	0xbda3f3f2	-0.08005513
20	0x3ce11acb	0.027478596
21	0xbe1f7205	-0.15570839
22	0xbf9bf657	-1.2184552
23	0xbe9ab0cc	-0.3021301
24	0x3cbfb152	0.023399983
25	0xbf493da7	-0.786097
26	0xbeb306fd	-0.3496627
27	0xbe5f6713	-0.21816663
28	0xbef5e050	-0.480227
29	0xbf2c488d	-0.67298204
30	0x3d265578	0.040608853
31	0xbf635ab4	-0.88810277
32	0xbebff2d7	-0.3748996
33	0x3e781c82	0.24229625
34	0xbf6c4a69	-0.9230104
35	0xbec4e89e	-0.38458723
36	0x3e9c6d37	0.30552074
37	0x3f033bf0	0.5126333
38	0xbf597fd0	-0.8496065
39	0xbf1ae114	-0.6049969
40	0xbf40bc49	-0.752873
41	0xbd22b24a	-0.03972081
42	0xbfbd0cef	-1.4769572
43	0x3e94c423	0.2905589
44	0xbf0592bc	-0.52177024
45	0xbe770013	-0.24121122
46	0xbf87e0df	-1.06155
47	0xbf9635b2	-1.1735137
48	0xbe9e17da	-0.30877572
49	0x3e1819e7	0.14853631
50	0xbf24633b	-0.64213914
51	0x3ee01ee6	0.43773574
52	0xbf24b151	-0.64333063
53	0xbf4e5cbf	-0.8061027
54	0xbf195270	-0.59891415
55	0x3dcf5cbe	0.10125111
56	0x3eaf8a8b	0.34285387
57	0xbf349626	-0.7054161
58	0x3f1cd603	0.61264056
59	0x3ef37415	0.475495
60	0xbedf0ab9	-0.43562868
61	0xbf24a218	-0.64309835
62	0xbf64e21c	-0.89407516
63	0xbf70e288	-0.9409566
64	0xbf5896e3	-0.84605235
65	0xbf7682d4	-0.9629338
66	0xbf82e825	-1.0227095
67	0xbf03a0d5	-0.51417285
68	0xbf562d14	-0.83662534
69	0x3e80c684	0.25151455
70	0xbf2e6efc	-0.681381
71	0xbf7c621b	-0.985872
72	0xbea8e88f	-0.32989928
73	0x3ee07c5e	0.43844885
74	0x3ed0d455	0.40786996
75	0xbf349850	-0.7054491
76	0x3c8cae30	0.017172903
77	0xbf55e964	-0.8355925
78	0xbe33695e	-0.17520663
79	0xbc7c7d33	-0.015410709
80	0xbdecb466	-0.11557846
81	0xbe984132	-0.2973724
82	0xbe88260e	-0.26591533
83	0xbb169ee6	-0.0022982894
84	0xbf0860ea	-0.5327288
85	0xbf7f4cbc	-0.9972646
86	0xbe7b5c96	-0.24547037
87	0xbe8e6c33	-0.27816924
88	0x3ea1d496	0.31607503
89	0xbf610712	-0.87901413
90	0x3dc0b6dc	0.09409878
91	0xbec5a1b6	-0.38599938
92	0x3e7be7a4	0.24600083
93	0xbf0cae5b	-0.54953545
94	0xbfa2de92	-1.2724173
95	0xbf82758c	-1.0192122
96	0xbf1025ea	-0.5630785
97	0x3e576e38	0.21038139
98	0x3f0e4b49	0.55583626
99	0xbc97b774	-0.018520094
100	0xbe8ff028	-0.28112912
101	0x3ea1ba77	0.31587574
102	0xbea2b5bf	-0.31779286
103	0xbf3cbb17	-0.73722976
104	0xbf460ece	-0.7736634
105	0xbf201fc5	-0.62548476
106	0xbf3ceb7a	-0.7379681
107	0xbd1bc67a	-0.03803108
108	0xbeeeec76	-0.4666478
109	0xbed917db	-0.42401013
110	0xbf038b64	-0.5138457
111	0x3e016ac2	0.12638381
112	0xbe559863	-0.20858912
113	0xbf247578	-0.64241743
114	0xbf4804b2	-0.78132164
115	0x3df82a76	0.12117474
116	0xbe8baa73	-0.2727848
117	0xbebfbfd8	-0.37451053
118	0xbd01e292	-0.031710215
119	0xbd88de24	-0.06682995
120	0xbef31fde	-0.4748525
121	0xbebc968a	-0.36833602
122	0xbf3269c9	-0.69692665
123	0xbfb98aa3	-1.4495434
124	0x3e28aece	0.16472933
125	0xbd7019c5	-0.058618326
126	0x3f280c05	0.6564334
127	0xbe1ce75f	-0.15322636
128	0xbf5bba2d	-0.85830957
129	0x3e54a990	0.20767808
130	0xbf540f21	-0.82835585
131	0xbee6d641	-0.45085338
132	0xbf47a9c4	-0.77993417
133	0xbf2234f9	-0.6336208
134	0x3c00e061	0.007865996
135	0xbf1a7f1a	-0.6035019
136	0xbe198f3e	-0.14996049
137	0xbf6bda20	-0.9212971
138	0xbf981482	-1.1881258
139	0xbf896fe7	-1.0737275
140	0xbf5bd50c	-0.8587196
141	0xbe612f85	-0.21990784
142	0x3d8618a7	0.06547671
143	0xbec3a320	-0.38210392
144	0xbe7e11ec	-0.24811524
145	0xbfa64eb1	-1.2992765
146	0xbf3cb28f	-0.7370996
147	0xbeeefe41	-0.46678355
148	0xbee0e7b0	-0.43926764
149	0xbf862900	-1.0481262
150	0xbdc9f0bf	-0.09860372
151	0x3ce6c8b4	0.028171875
152	0xbe36ca3b	-0.17850582
153	0xbfb0268d	-1.3761765
154	0xbf81cf80	-1.0141449
155	0xbf2fd1a6	-0.68679273
156	0xbf37cc36	-0.71795976
157	0xbecf2b60	-0.4046278
158	0xbdd94509	-0.106088705
159	0xbe451860	-0.1924758

weight f4 [320, 160]
0	0xbf4be718	-0.79649496
1	0x3d6233eb	0.055225294
2	0xbee4a63e	-0.44658083
3	0x3f2f7245	0.68533736
4	0x3cd8399d	0.02639466
5	0xbf538768	-0.8262849
6	0xbe820857	-0.25396988
7	0xbe6abfcc	-0.22924727
8	0xbec9516d	-0.39319935
9	0xbef85ac6	-0.48506755
10	0x3ed99ad2	0.4250093
11	0xbfc61f58	-1.5478315
12	0x3d80d433	0.06290474
13	0xbfdaaaef	-1.7083415
14	0x3e3eaf53	0.18621568
15	0xbc600124	-0.013672147
16	0x3d990efb	0.074735604
17	0x3e4b825e	0.1987395
18	0xbf46aacb	-0.7760436
19	0xbdf19156	-0.11795299
20	0xbf6a5e4f	-0.91550153
21	0x3db321ba	0.08746667
22	0xbe49144a	-0.19636646
23	0xbee39951	-0.4445291
24	0x3cbb29d1	0.022847088
25	0x3f21ee50	0.6325426
26	0x3ca33849	0.0199243
27	0xbf74424d	-0.95413667
28	0x3e3ca487	0.18422137
29	0xbf78d86c	-0.97205234
30	0x3e8f464a	0.27983314
31	0x3e03f69a	0.1288704
32	0x3f56450a	0.83699095
33	0xbeb085b3	-0.34477004
34	0xbf1347d1	-0.5753146
35	0xbdbf9a97	-0.093556575
36	0xbf49edd8	-0.78878546
37	0xbf0431d8	-0.51638556
38	0xbdd9a7b1	-0.10627688
39	0xbe875d34	-0.26438296
40	0xbfc5cce6	-1.5453155
41	0x3eae99f1	0.34101823
42	0xbcd2cc17	-0.025732083
43	0xbfc2c332	-1.5215819
44	0xbf665632	-0.89975274
45	0xbf21dc1c	-0.63226485
46	0x3f29b650	0.6629381
47	0xbdcab61b	-0.09898015
48	0xbe858d9a	-0.26084596
49	0xbed92ec3	-0.4241849
50	0x3f140916	0.57826364
51	0xbeb99d7c	-0.36252964
52	0x3f441ad8	0.7660346
53	0x3ea7a8bc	0.32745922
54	0xbdfd94d5	-0.12381903
55	0xbf29e064	-0.6635802
56	0xbe0b7d48	-0.1362201
57	0x3f19d878	0.6009593
58	0xbe370467	-0.17872773
59	0xbf4b2ae6	-0.7936233
60	0x3e00c3ca	0.12574688
61	0xbe6a2f88	-0.22869694
62	0xbe4f7f59	-0.20263423
63	0xbeaa021f	-0.33204743
64	0xbed69d84	-0.4191705
65	0x3f0de4d0	0.55427265
66	0x3e4fc9db	0.20291846
67	0xbee8161c	-0.45329368
68	0xbe0ea1d2	-0.13928917
69	0xbf31d86c	-0.6947086
70	0xbdef84b1	-0.11695231
71	0xbec44455	-0.38333383
72	0xbea9025d	-0.33009616
73	0xbf2299f8	-0.6351619
74	0xbf0b57e0	-0.5443096
75	0x3f0111a7	0.5041756
76	0xbeee19fb	-0.46504197
77	0xbe4b4366	-0.19849929
78	0x3ee07a46	0.43843287
79	0xbefa30d5	-0.4886538
80	0xbec8409f	-0.39111802
81	0x3f17958f	0.59212583
82	0x3edea409	0.43484524
83	0xbf069167	-0.52565616
84	0xbf9c2b25	-1.2200667
85	0xbdaaa129	-0.0833152
86	0xbf97022a	-1.1797535
87	0xbfac3110	-1.3452473
88	0x3bad89f2	0.0052959854
89	0x3da0a27f	0.07843494
90	0xbeb18772	-0.3467365
91	0xbf13cddd	-0.57736
92	0xbf76b65d	-0.96372014
93	0xbf32f7f0	-0.6990957
94	0x3ebc57e5	0.36785808
95	0x3f61493b	0.88002366
96	0xbf2eea34	-0.68326116
97	0xbf4938c2	-0.7860223
98	0xbf1fe594	-0.62459683
99	0x3e6af03c	0.22943205
100	0x3f198edf	0.5998363
101	0xbe5dd744	-0.21664149
102	0xbeaa984f	-0.33319327
103	0xbe24f6c3	-0.16109757
104	0x3f7c011c	0.9843919
105	0xbec7b662	-0.39006335
106	0xbf235550	-0.6380205
107	0xbfb8a797	-1.4426144
108	0x3d69d2f1	0.057085935
109	0xbedc4116	-0.43018407
110	0x3e94eead	0.29088345
111	0xbe2a33eb	-0.16621368
112	0x3d261b97	0.040553655
113	0xbe8a4d62	-0.27012163
114	0x3ef2a88b	0.47394213
115	0x3d452587	0.048131492
116	0x3f240d6c	0.6408298
117	0xbe9e84e2	-0.30960757
118	0xbbeed534	-0.0072885994
119	0xbf1fd19a	-0.624292
120	0x3ea53510	0.32267046
121	0x3d8281e4	0.06372431
122	0x3e71b34b	0.23603551
123	0xbd014cb9	-0.03156731
124	0xbe7d7e57	-0.24755226
125	0x3eb39e02	0.35081488
126	0xbf5ed3ba	-0.8704182
127	0xbec3f705	-0.38274398
128	0x3f813602	1.0094607
129	0xbf91bbe9	-1.1385471
130	0xbf0f45fc	-0.5596616
131	0xbf4ea105	-0.80714446
132	0x3d056008	0.032562286
133	0x3f0ab9b7	0.5418963
134	0xbe1f3478	-0.15547359
135	0x3dfd236f	0.12360274
136	0x3eb09227	0.34486505
137	0xbd7230fe	-0.059128754
138	0x3e41148d	0.18855496
139	0x3e8f80ee	0.28028053
140	0x3e7c55de	0.2464213
141	0xbf4f9e0e	-0.8110055
142	0xbf694228	-0.9111657
143	0xbe136500	-0.14393997
144	0x3dbc6f90	0.09200966
145	0xbec0ea2f	-0.37678668
146	0x3e84f6eb	0.25969633
147	0xbe79a38e	-0.24378797
148	0x3d95e045	0.07318167
149	0xbf18e27a	-0.59720576
150	0x3f0f0ac8	0.55875826
151	0x3f07151d	0.5276659
152	0xbdbbd803	-0.0917206
153	0xbf9cc5c5	-1.2247854
154	0x3dc82a02	0.09773637
155	0xbd0f2a52	-0.03495247
156	0xbede9e03	-0.43479928
157	0xbf59dc7f	-0.85102075
158	0xbe61f398	-0.2206558
159	0x3e863121	0.26209357
160	0xbe5be126	-0.21472606
161	0x3cce81b5	0.025208334
162	0xbe36ffd5	-0.1787103
163	0xbe6034df	-0.21895169
164	0xbea77335	-0.32705083
165	0xbd2a1348	-0.041522294
166	0x3d8f877a	0.07008262
167	0xbec73b59	-0.38912466
168	0xbd08f153	-0.03343327
169	0xbe3dbd6c	-0.1852929
170	0xbd14d795	-0.036338408
171	0xbe1bf814	-0.15231353
172	0xbe11a9da	-0.1422495
173	0xbeaa4037	-0.33252117
174	0xbd82e172	-0.063906565
175	0xbe367f06	-0.17821893
176	0x3d8f8784	0.070082694
177	0xbd9e72dc	-0.077367514
178	0xbe1dcca4	-0.15410095
179	0xbda2149a	-0.07914086
180	0xbdba2baa	-0.090903595
181	0x3d859a7c	0.06523606
182	0xbe926e46	-0.28599757
183	0x3d2f390b	0.04277901
184	0xbd3f2ec3	-0.046675455
185	0x3e043c3b	0.12913601
186	0xbe099561	-0.1343589
187	0x3dcd6a24	0.1003001
188	0x3d4650b9	0.048416827
189	0xbd4e448f	-0.05035835
190	0x3e184e67	0.14873658
191	0x3e43c287	0.19117175
192	0x3e272d42	0.16325858
193	0xbeb88ed7	-0.36046478
194	0xbdb082d9	-0.08618707
195	0x3d0d8e40	0.03455949
196	0xbd65fc39	-0.05614874
197	0xbdae8294	-0.085209996
198	0x3de019ed	0.10942445
199	0x3c528cbe	0.012850938
200	0xbdf60309	-0.12012298
201	0xbd97de16	-0.074154064
202	0xbdd588b6	-0.10426466
203	0xbe37df3c	-0.17956251
204	0x3d02daa5	0.031946797
205	0x3d8dd294	0.0692493
206	0x3e2f2397	0.1710342
207	0xbe5863bc	-0.21131796
208	0xbe4e00f1	-0.20117547
209	0xbe1a0dbe	-0.15044305
210	0xbd98d278	-0.07462019
211	0x3e869870	0.26288176
212	0x3d351411	0.04420859
213	0xbd0d5d5d	-0.034512866
214	0xbd5edae6	-0.054407977
215	0xbe04a5f8	-0.12953937
216	0xbe1fa1d2	-0.15589073
217	0xbdab4c01	-0.08364106
218	0xbd645f9f	-0.055755254
219	0xbe0425d2	-0.12905052
220	0xbdc20cda	-0.094751075
221	0xbd8be805	-0.068313636
222	0xbdc7e6a0	-0.09760785
223	0x3a058d61	0.00050946145
224	0x3c7a2dd1	0.015269713
225	0xbbb7db06	-0.0056108264
226	0xbe575eca	-0.21032253
227	0xbe961345	-0.29311576
228	0xbdf2a15c	-0.11847183
229	0xbe1c0a52	-0.15238312
230	0xbdb3fd7b	-0.08788582
231	0x3e4f702e	0.20257637
232	0xbd9a3322	-0.07529284
233	0xbdbaccc7	-0.091210894
234	0xbd92b030	-0.07162511
235	0xbe6558e6	-0.22397193
236	0xbe763f86	-0.2404767
237	0x3d3719ac	0.044702217
238	0x3d5d81cf	0.054078873
239	0xbe84015a	-0.2578228
240	0xbdf91e96	-0.12164037
241	0x39523b98	0.00020049361
242	0x3d0d7a2b	0.034540337
243	0x3d33b5e3	0.043874633
244	0xbe426bc3	-0.1898642
245	0x3c543f46	0.012954539
246	0xbe04e9e0	-0.12979841
247	0xbd1862c9	-0.037203584
248	0xbdc1356d	-0.09434018
249	0x3cc56c4e	0.024099495
250	0xbd46bc33	-0.048519325
251	0xbe3ff093	-0.18744116
252	0x3d24d8b3	0.040245723
253	0x3d203854	0.03911622
254	0xbd6a186e	-0.057152204
255	0xbe81526d	-0.25258198

bias f4 [320]
0	0xbd7a931e	-0.061175458
1	0xbe148539	-0.14503945
2	0xbe7fafe4	-0.2496944
3	0xbeca8460	-0.3955412
4	0xbeb95ba8	-0.3620274
5	0xbf7008b0	-0.93763256
6	0xbcbbc804	-0.022922523
7	0x3c31e703	0.0108583
8	0xbe334b84	-0.17509276
9	0xbe447408	-0.19184887
10	0xbe8c17a2	-0.2736178
11	0xbe7ac52d	-0.24489279
12	0xbde30012	-0.11083998
13	0x3d8bce6c	0.06826481
14	0xbe22dce7	-0.1590458
15	0xbcc85142	-0.02445281
16	0xbdd554e7	-0.104165845
17	0xbdf012fc	-0.11722371
18	0xbd898bc2	-0.0671611
19	0xbdbfd49f	-0.09366726
20	0xbe5cb188	-0.21552098
21	0x3c642c6c	0.013926607
22	0xbe4feda9	-0.20305504
23	0xbe7ffe05	-0.24999245
24	0xbe815fe3	-0.25268468
25	0xbedcc73f	-0.43120763
26	0xbf20e861	-0.6285458
27	0xbe0ec11d	-0.13940854
28	0xbe29e09b	-0.16589586
29	0xbe1c5c7e	-0.15269658
30	0xbf301caf	-0.6879377
31	0xbdf1a799	-0.11799545
32	0xbd01e5f9	-0.03171346
33	0x3f1639d8	0.5868201
34	0xbd487921	-0.048943643
35	0x3ecd91f5	0.4015042
36	0x3c47ae0b	0.012187491
37	0x3e871030	0.26379538
38	0xbdb8ec68	-0.09029466
39	0xbd8b9b2e	-0.068167076
40	0xbd51c540	-0.051213503
41	0xbe189bff	-0.14903258
42	0xbe345844	-0.17611796
43	0xbd49251b	-0.049107652
44	0xbe168e57	-0.14702736
45	0xbd92db19	-0.07170696
46	0xbd1b8800	-0.037971497
47	0xbe8cdf00	-0.27513885
48	0x3bb92ee8	0.0056513436
49	0xbf26b4b7	-0.651195
50	0xbe398518	-0.18117177
51	0x3ed23270	0.41054106
52	0xbcff2d21	-0.031149449
53	0xbe89368e	-0.26799434
54	0x3e9c4d02	0.30527502
55	0xbd3be1b0	-0.04586953
56	0x3dac5428	0.08414489
57	0x3f5ee713	0.8707134
58	0x3c974222	0.018464152
59	0xbe415e0c	-0.18883532
60	0xbea409a2	-0.320386
61	0xbee6e1a4	-0.45094025
62	0xbd908a52	-0.070576325
63	0x3ecbc7a4	0.3980075
64	0xba5ac05a	-0.00083447027
65	0xbdf87da4	-0.12133339
66	0xbd270ac3	-0.040781748
67	0xbdd3da0b	-0.10344323
68	0xbd7ae617	-0.061254587
69	0xbd85ebe4	-0.06539133
70	0x3dee36cc	0.116315454
71	0xbe38d9d6	-0.18051848
72	0xbd7edad7	-0.06222042
73	0xbd9d80dd	-0.07690594
74	0xbe0a76f3	-0.13521938
75	0xbeab39ac	-0.33442438
76	0xbd514674	-0.05109258
77	0x3d084c0d	0.033275653
78	0xbea3911e	-0.31946653
79	0xbdc75ae1	-0.09734131
80	0x3e91aa64	0.2845031
81	0xbeb118c7	-0.34589216
82	0xbd82b837	-0.063827924
83	0xbe27b31a	-0.16376916
84	0xbd101e51	-0.035185162
85	0xbe698fe3	-0.22808795
86	0x3e554cf0	0.2083013
87	0xbe4ca0e9	-0.19983257
88	0xbea3d9b5	-0.32002035
89	0xbd95067b	-0.07276627
90	0xbdd9f867	-0.10643082
91	0xbcff2583	-0.031145817
92	0xbd799f22	-0.060942777
93	0x3b969ac4	0.004596086
94	0xbd006390	-0.03134495
95	0xbdcb1a5f	-0.09917139
96	0xbeaf0fe2	-0.34191805
97	0xbd503b2b	-0.050837677
98	0xbf04da64	-0.5189574
99	0xbdbb2a1d	-0.09138892
100	0xbecbb407	-0.39785787
101	0x3dd82ffb	0.105560265
102	0xbebad5c0	-0.36491203
103	0xbe0894e5	-0.13338049
104	0xb8b2eb7e	-8.531565e-05
105	0xbd2de096	-0.04245051
106	0xbd26b2e8	-0.040697962
107	0xbde5449a	-0.11194725
108	0xbedaa4c8	-0.42703843
109	0xbe43127c	-0.1905002
110	0xbe3dd69e	-0.18538901
111	0xbe7dd1e1	-0.24787094
112	0xbe96edfc	-0.29478443
113	0xbe585c1f	-0.21128891
114	0xbec21816	-0.37909
115	0xbdbf9aa5	-0.09355668
116	0xbc546004	-0.012962345
117	0xbcbaeff4	-0.022819497
118	0xbe0c039d	-0.13673253
119	0xbd23135c	-0.039813384
120	0x3e8d2b2a	0.27571994
121	0xbeb597e3	-0.35467443
122	0xbec3192b	-0.3810514
123	0x3eecd7a3	0.46258268
124	0xbdb08a77	-0.0862016
125	0xbebaea8e	-0.36507076
126	0xbec4e396	-0.38454884
127	0xbdd8c027	-0.10583525
128	0xbe2c45c1	-0.16823484
129	0xbea064a3	-0.3132678
130	0xbe142801	-0.14468385
131	0xbd2d737b	-0.04234646
132	0xbcfd234e	-0.030900624
133	0xbed91012	-0.42395073
134	0xbd18bf22	-0.037291653
135	0xbe07acde	-0.13249537
136	0xbda92556	-0.082590744
137	0xbe10160b	-0.14070909
138	0xbd1bcc3f	-0.03803658
139	0xbe1a2bc6	-0.1505576
140	0xbdde6c22	-0.108604684
141	0x3e906735	0.2820374
142	0xbdb77e95	-0.089596905
143	0xbc0e3a95	-0.008680959
144	0xbdcda84e	-0.10041867
145	0xbd9629ca	-0.073321894
146	0xbdadd8d4	-0.08488622
147	0x3e687179	0.22699536
148	0xbdfc3b3f	-0.12315988
149	0xbdfa5c03	-0.12224581
150	0xbd75efb5	-0.060043056
151	0x3f1e79d5	0.6190465
152	0xbea913b3	-0.33022842
153	0xbeb5066a	-0.35356456
154	0xbe88ed39	-0.26743487
155	0x3e382297	0.17981945
156	0xbda1e01e	-0.07904075
157	0xbf060c2e	-0.52362335
158	0xbe82dfee	-0.2556147
159	0xbe2d5bdd	-0.16929574
160	0xbdf354ac	-0.11881384
161	0xbda97d55	-0.08275858
162	0x3cc37790	0.023860723
163	0xbd5cd931	-0.053918067
164	0xbe6596fa	-0.22420874
165	0xbd291f71	-0.04128975
166	0xbe4b49e7	-0.1985241
167	0xbcadfc9a	-0.021238614
168	0x3ed3d1a7	0.4137089
169	0xbe2aa810	-0.16665673
170	0xbdd38333	-0.10327759
171	0xbe8ab8f2	-0.27094227
172	0x3c1af651	0.0094581405
173	0xbe400d8d	-0.18755169
174	0xbd3cdfd6	-0.046111904
175	0xbe222bb9	-0.15836991
176	0xbdaa38ef	-0.083116405
177	0xbe664ce7	-0.22490273
178	0xbd8a6f1e	-0.06759475
179	0xbd6692cd	-0.056292344
180	0xbe463673	-0.19356708
181	0xbd249a62	-0.040186293
182	0xbdb06f16	-0.08614938
183	0x3d04ce61	0.03242338
184	0xbe315d90	-0.17320848
185	0xbec60f64	-0.38683617
186	0xbe992234	-0.29908907
187	0xbe2f41bf	-0.17114924
188	0xbd56266c	-0.052282736
189	0xbeb3e5c3	-0.35136232
190	0xbe2f9542	-0.17146781
191	0xbe82bc1c	-0.2553414
192	0xbdfcf2f4	-0.12351027
193	0xbe343ed8	-0.17602098
194	0xbea4af27	-0.3216488
195	0xbe48b45f	-0.19600056
196	0x3cc6558a	0.02421071
197	0xbde26995	-0.110552944
198	0xbc162203	-0.009163382
199	0xbd71257b	-0.058873635
200	0xbd04edb4	-0.032453254
201	0xbe7cf899	-0.24704207
202	0xbf0b1b85	-0.54338866
203	0xbe68f181	-0.22748376
204	0xbe745b44	-0.2386294
205	0xbe041879	-0.1289996
206	0xbe875fed	-0.26440373
207	0x3e9b2134	0.3029877
208	0x3eb1b34e	0.3470711
209	0xbd0f065b	-0.03491817
210	0xbee5ab0a	-0.44857055
211	0xbcad8bd7	-0.021184845
212	0xbda1dd15	-0.07903496
213	0xbe930d03	-0.28720865
214	0xbe3e8753	-0.1860631
215	0xbe8fdb80	-0.28097153
216	0xbe02fc31	-0.12791516
217	0xbe469cc0	-0.19395733
218	0xbf076630	-0.528903
219	0x3f07a5c0	0.5298729
220	0xbe19ffc9	-0.1503898
221	0xbd3a9377	-0.04555079
222	0x3dc66da1	0.09688879
223	0x3f325fc8	0.696774
224	0xbdbb3f87	-0.09142976
225	0xbe0ae48c	-0.13563746
226	0xbddc3330	-0.10751951
227	0xbd431988	-0.04763177
228	0xbf05ed03	-0.52314776
229	0x3d976b44	0.07393506
230	0xbdfe03f5	-0.124030985
231	0xbd3be35b	-0.04587112
232	0xbe029ad1	-0.1275437
233	0xbe886d91	-0.26646093
234	0xbdab85a9	-0.08375103
235	0xbd1780f6	-0.03698822
236	0xbebb15be	-0.36540025
237	0xbdfc0191	-0.12304986
238	0xbe70132d	-0.23444815
239	0xbd85db21	-0.06535936
240	0xbd9dccd7	-0.07705086
241	0x3f52f425	0.82403785
242	0xbd37607e	-0.044769756
243	0xbd257964	-0.04039897
244	0x3b4e4f68	0.0031480435
245	0xbdfa2e60	-0.122158766
246	0xbe42c0a0	-0.19018793
247	0xbde87e52	-0.11352219
248	0xbea5d501	-0.32389072
249	0xbd09701a	-0.033554174
250	0xbe92262c	-0.28544748
251	0xbdbaa02d	-0.09112582
252	0xbdae0a80	-0.084980965
253	0x3db6c2fc	0.08923909
254	0xbd86b965	-0.0657833
255	0xbdbc7d86	-0.09203629

weight f4 [125, 320]
0	0x3ecedef3	0.40404472
1	0xbcb4e692	-0.0220826
2	0xbe87818f	-0.26466033
3	0x3ed1b894	0.40961134
4	0x3ef43918	0.4769981
5	0xbc730dd0	-0.014834836
6	0x3cc690aa	0.024238903
7	0xbcddc3a4	-0.027070828
8	0xbc13998f	-0.009008779
9	0x3e9d6fac	0.3074926
10	0x3e14d309	0.14533629
11	0xbcc2efab	-0.023795923
12	0x3d1fb512	0.03899104
13	0x3e1b5f97	0.15173183
14	0xbcc1c1bf	-0.023651956
15	0xbcc08dcf	-0.02350512
16	0xbcb7c1c2	-0.022431258
17	0xbd198988	-0.037484676
18	0xbe54c8d1	-0.2077973
19	0x3d1698c4	0.036766782
20	0x3d0237c0	0.03179145
21	0xbe65f82e	-0.22457954
22	0xbdfc9966	-0.12333946
23	0xbd7d9228	-0.061906964
24	0x3d0924ba	0.03348229
25	0x3e098e9d	0.13433309
26	0x3ed39d45	0.41330925
27	0xbd49bc6c	-0.04925196
28	0xbd284777	-0.04108378
29	0x3e1077e8	0.1410824
30	0xbe9737bf	-0.29534718
31	0xbe09a562	-0.13441995
32	0xbd8afe71	-0.06786812
33	0x3babbb39	0.0052408245
34	0xbc777ce5	-0.015105461
35	0x3ec22be8	0.37924123
36	0x3d12c38f	0.03583103
37	0xbe31d6b9	-0.17367066
38	0xbe4665ea	-0.19374815
39	0x3ca8a4ce	0.020586397
40	0x3df7a3fa	0.12091823
41	0x3df1d991	0.118090756
42	0xbe07b4e4	-0.13252598
43	0x3d725ffb	0.059173565
44	0x3c8c0dc1	0.017096402
45	0xbdae74ba	-0.085183576
46	0xbd99902e	-0.07498203
47	0x3f0aab73	0.5416786
48	0xbcda7edd	-0.026671821
49	0x3f14fd7a	0.58199275
50	0x3dc7ee38	0.097622335
51	0x3e7c0b27	0.2461363
52	0x3e2289f6	0.1587294
53	0x3d8f8eea	0.070096806
54	0xbe0c29e3	-0.13687854
55	0x3e2152ce	0.15754244
56	0x3e366bb8	0.17814529
57	0x3ec466a6	0.38359565
58	0x3ca922df	0.02064651
59	0x3e2b40df	0.16723965
60	0xbc90d638	-0.017680272
61	0x3d9bfcae	0.07616554
62	0x3e447f52	0.19189194
63	0x3e731504	0.23738486
64	0x3e3cc2a8	0.1843363
65	0xbd50020c	-0.050783202
66	0xbd81ccb3	-0.063378714
67	0x3cb3cb2d	0.021947468
68	0x3d5c276d	0.053748537
69	0xbd7dcfbf	-0.0619657
70	0x3ecfaf5c	0.40563476
71	0x3ce1f6d1	0.027583512
72	0xbc6b2ba6	-0.014353668
73	0x3d8419b4	0.06450215
74	0xbc909cc3	-0.017652875
75	0x3c7577a4	0.014982138
76	0xbd7fc1de	-0.062440746
77	0xbd2d33a3	-0.042285573
78	0x3e8ceed3	0.27525958
79	0x3dbba834	0.091629416
80	0x3e9305cf	0.2871537
81	0x3e96c30c	0.29445684
82	0x3e667c29	0.22508301
83	0x3d1f393f	0.038872954
84	0x3c7cd6ed	0.015432102
85	0x3e409c0c	0.18809527
86	0xbe4adc77	-0.19810663
87	0x3e6d82d5	0.2319444
88	0x3e780a39	0.2422265
89	0xbd13a598	-0.036046594
90	0x3da190f9	0.078889795
91	0xbd29d435	-0.041462142
92	0x3d17b4d8	0.0370377
93	0x3ce0790d	0.027401472
94	0xbd241706	-0.04006102
95	0xbca380b9	-0.01995884
96	0x3e92bd26	0.28659934
97	0x3e088187	0.13330661
98	0xbe2d2853	-0.16909914
99	0xbb959227	-0.004564542
100	0x3e7f78b2	0.24948385
101	0xbb95c09a	-0.004570079
102	0xbe8ac045	-0.27099815
103	0xbd5f1ea9	-0.0544726
104	0xbd8ffda6	-0.070308015
105	0x3b94ac4f	0.0045371423
106	0xbc7080c6	-0.0146791395
107	0x3d0b6761	0.034034137
108	0x3e7d7b1c	0.24753994
109	0x3e3400d8	0.17578447
110	0xbce0d63c	-0.027445905
111	0x3e5e33e8	0.21699488
112	0x3e2d84d9	0.16945209
113	0x3db98bfb	0.09059902
114	0x3d812cdd	0.06307385
115	0xbd592827	-0.053016808
116	0x3d7b6cd2	0.061383076
117	0x3c9f69ac	0.019459568
118	0x3d642e24	0.055708066
119	0xbc18b492	-0.009320395
120	0xbe00d213	-0.12580137
121	0x3ede57a6	0.43426245
122	0x3e8bf688	0.27336526
123	0x3e0d165b	0.13778059
124	0x3e7a09c0	0.24417782
125	0xbd731a5f	-0.05935132
126	0xbd7f8676	-0.06238409
127	0xbd6e3563	-0.058156382
128	0x3d461c43	0.048366796
129	0xbdf022af	-0.11725365
130	0xbc92b3d8	-0.017908022
131	0x3e3f42c5	0.18677814
132	0x3cf56195	0.029953757
133	0x3dc3f516	0.09568231
134	0x3de4b0bf	0.11166524
135	0x3ca6a6af	0.020343153
136	0xbd6dd8df	-0.058068153
137	0xbe4080f7	-0.18799196
138	0x3d9c46eb	0.07630714
139	0x3eb0a340	0.3449955
140	0xbd88fe0e	-0.06689082
141	0xbd2648da	-0.04059682
142	0x3d1fd4d7	0.03902134
143	0xbc7639da	-0.015028441
144	0xbde4cbb4	-0.11171666
145	0x3d2e6a22	0.042581685
146	0x3e02d2a5	0.12775667
147	0x3e488d59	0.1958517
148	0x3d4b3eb8	0.04962036
149	0x3d0a8959	0.03382239
150	0x3dc8324d	0.09775219
151	0xbe397ed8	-0.18114793
152	0x3de9f2e5	0.114232816
153	0x3c1dd6fd	0.009633777
154	0xbeaab5cc	-0.33341825
155	0x3e41464c	0.18874472
156	0x3c596349	0.0132683
157	0x3e1b0eec	0.15142411
158	0x3e25abce	0.1617882
159	0xbca3b62e	-0.019984331
160	0xbd969df4	-0.07354346
161	0xbd6ffba7	-0.058589604
162	0xbd8a80d3	-0.067628525
163	0x3da5b27a	0.08090682
164	0xbe25d8d7	-0.16195999
165	0xbd97f4a7	-0.074197106
166	0xbdb16f38	-0.086637914
167	0xbcb3e2cc	-0.021958731
168	0x3ed54b28	0.41658902
169	0xbea85911	-0.32880452
170	0x3e889fc9	0.26684406
171	0x3de99b11	0.1140653
172	0xbdb152ce	-0.08658372
173	0xbdd5d195	-0.10440365
174	0x3e4e5d2f	0.20152734
175	0x3e67f395	0.22651513
176	0x3ca79d45	0.020460734
177	0x3ea7200a	0.3264163
178	0xbc9cff37	-0.019164665
179	0xbd04c374	-0.03241296
180	0x3dfd6607	0.12372976
181	0x3c8986ff	0.016788004
182	0x3ea06765	0.31328884
183	0x3e68b0fd	0.22723766
184	0xbe9cabff	-0.30599973
185	0x3e48e74f	0.19619487
186	0xbd8a91ed	-0.067661144
187	0xbe368430	-0.17823863
188	0xbd1097a8	-0.03530088
189	0x3e955bac	0.29171503
190	0x3edd91ce	0.43275303
191	0x3d0b383a	0.03398917
192	0x3d8a68be	0.06758259
193	0xbe1f85d0	-0.15578389
194	0x3e38de66	0.18053588
195	0x3d346f5d	0.044051517
196	0xbd68d748	-0.056845933
197	0x3cd2ebe7	0.025747253
198	0x3e5bd09e	0.214663
199	0x3e13af1f	0.14422272
200	0xbc5e8ca9	-0.013583341
201	0x3e3eeae0	0.18644285
202	0xbd8542b1	-0.06506861
203	0x3e5e9d6a	0.21739736
204	0x3df2067b	0.11817642
205	0x3cf66437	0.030077083
206	0x3e055b73	0.13023166
207	0xbe838453	-0.25686893
208	0xbcd00abd	-0.025395745
209	0xbd53f15f	-0.05174386
210	0xbe0d7054	-0.13812381
211	0xbd5ff0cb	-0.054672997
212	0xbd1b334d	-0.03789072
213	0xbc900aeb	-0.017583331
214	0xbe208a56	-0.15677771
215	0xbe0597ad	-0.13046141
216	0x3e4bdf95	0.19909509
217	0xbc8487f9	-0.016178118
218	0xbe670e17	-0.22563969
219	0xbd15f256	-0.036608063
220	0xbe0b0b52	-0.13578537
221	0x3db72177	0.0894193
222	0xbe0150ec	-0.12628525
223	0x3d9479c1	0.07249785
224	0x3c9e6c22	0.019338671
225	0xbdcbbc1e	-0.0994799
226	0xbbf7f266	-0.007566738
227	0x3cfd5aae	0.030927029
228	0x3ee3f7ea	0.4452508
229	0x3e386348	0.18006623
230	0x3d3f73c3	0.04674126
231	0x3e6dc9ba	0.23221484
232	0xbd95a66e	-0.073071346
233	0x3d1cf70f	0.03832155
234	0xbd96b35c	-0.07358429
235	0x3cfbef66	0.030753803
236	0x3e87c635	0.26518407
237	0x3f3ea332	0.74467766
238	0xbd936486	-0.07196908
239	0xbdefc9af	-0.1170839
240	0x3d7613cf	0.060077485
241	0xbe86977e	-0.26287454
242	0xbc56baf2	-0.013106095
243	0x3d416d5f	0.047223445
244	0x3d88c325	0.06677846
245	0x3e05fc4b	0.13084523
246	0x3e0536e1	0.13009216
247	0x3d5959c9	0.05306414
248	0x3ce266df	0.027636943
249	0x3d5099fa	0.050928093
250	0x3e859d65	0.26096645
251	0xbce40d2c	-0.027838312
252	0x3cc9f29c	0.024651818
253	0xbde9996a	-0.114062145
254	0x3d22e58c	0.039769694
255	0xbe12ba0d	-0.14328785

bias f4 [125]
0	0xbd43a23d	-0.047762144
1	0x3d75b1b0	0.05998391
2	0xbd85ffd0	-0.06542933
3	0x3e28b349	0.16474642
4	0xbdd8581c	-0.105636805
5	0x3e1bc73b	0.15212719
6	0xbe0a1be8	-0.13487208
7	0x3e12c5e1	0.14333297
8	0x3e684736	0.22683415
9	0x3f01e3e8	0.5073838
10	0x3ed8cdb6	0.42344445
11	0x3e0aea6c	0.13565987
12	0x3e9ca438	0.3059404
13	0x3f405e5d	0.75143987
14	0x3e8f6676	0.2800786
15	0xbcdc3771	-0.026881905
16	0xbd942135	-0.07232896
17	0x3f04c942	0.51869595
18	0x3d647aac	0.05578105
19	0x3eed0528	0.46292996
20	0x3f086662	0.53281224
21	0x3d511b4f	0.051051434
22	0x3eed3f8e	0.4633755
23	0x3fa18d93	1.262133
24	0x3eb488fc	0.3526076
25	0x3e1f9e65	0.15587766
26	0xbe1c9b99	-0.15293731
27	0x3dee3cc5	0.116326846
28	0x3e8fd4ac	0.28091943
29	0x3f26a818	0.6510024
30	0x3f417f61	0.7558499
31	0x3f0195f9	0.50619465
32	0x3f2f56f8	0.6849208
33	0x3ecc7125	0.39930072
34	0x3f798152	0.9746295
35	0x3e95dba0	0.29269123
36	0x3e22cbf1	0.1589811
37	0x3eabbe08	0.3354342
38	0x3f310c3c	0.69159293
39	0x3f74449f	0.9541721
40	0x3f09e0e9	0.5385881
41	0x3f1461ff	0.5796203
42	0x3f0c3ee9	0.54783493
43	0x3f0e45b9	0.5557514
44	0x3f11fb8d	0.5702446
45	0x3e542628	0.2071768
46	0x3e843a23	0.25825605
47	0x3f23c3e8	0.63970804
48	0x3e5b4623	0.21413474
49	0x3f2aae0e	0.66671836
50	0x3e0dc982	0.138464
51	0x3e538ff5	0.20660384
52	0x3ea2521f	0.31703278
53	0xbd21cdb5	-0.03950282
54	0x3e94fe27	0.29100153
55	0x3f4d225c	0.80130553
56	0x3ed6e57e	0.41971964
57	0x3e93c7ae	0.2886328
58	0xbb229919	-0.0024810492
59	0x3e28f1e2	0.16498521
60	0x391b8534	0.00014831574
61	0xbdae128b	-0.084996305
62	0x3ef7b5a1	0.4838076
63	0x3e45d49d	0.19319387
64	0x3f78a502	0.9712678
65	0x3ed7745c	0.42080963
66	0x3dc6d702	0.09708978
67	0x3f267209	0.65017754
68	0x3f4a07cc	0.7891815
69	0x3d854ed6	0.065091774
70	0x3ef29b0e	0.47383922
71	0x3ea58494	0.32327712
72	0x3f7cf500	0.9881134
73	0x3f2e3108	0.68043566
74	0xba0042ca	-0.0004892765
75	0x3cfc3598	0.030787274
76	0x3e1ac287	0.15113269
77	0x3eb625e2	0.35575777
78	0x3e8a382d	0.26995984
79	0x3ea08e76	0.3135869
80	0xbd86c7d5	-0.06581084
81	0x3df3f8a5	0.119126596
82	0x3eb4bab3	0.3529869
83	0x3edcfc8c	0.43161428
84	0xbd2a6095	-0.041596014
85	0x3b31cd97	0.0027130598
86	0x3ed0d7bb	0.4078959
87	0xbc5e7d94	-0.013579745
88	0x3ec0ad81	0.37632373
89	0xbd8f0162	-0.069826856
90	0x3e92440e	0.28567547
91	0x3e0bb57a	0.13643447
92	0x3dc9744a	0.098366335
93	0x3edc3ecc	0.4301666
94	0xbd9ba123	-0.07599094
95	0xbe3ad831	-0.18246533
96	0x3e6089e7	0.21927606
97	0x3f3a5d88	0.7279897
98	0x3e187dd0	0.14891744
99	0x3f302ada	0.68815386
100	0x3ed3d77a	0.41375333
101	0x3e38b49c	0.18037647
102	0x3dd575e3	0.10422876
103	0x3ea52d9d	0.32261363
104	0x3e350d65	0.17680891
105	0x3e9063d4	0.28201163
106	0x3e963e86	0.29344577
107	0x3d296e5d	0.041365016
108	0x3eb73af7	0.35787174
109	0xbdab4609	-0.083629675
110	0x3ebb34a2	0.36563593
111	0x3ec2bf7b	0.38036713
112	0x3e2706c8	0.1631118
113	0x3e731007	0.23736583
114	0x3e83b873	0.2572666
115	0x3eb2e50c	0.34940374
116	0x3ef495bc	0.47770488
117	0x3d96f5ab	0.07371076
118	0x3eae0d00	0.33994293
119	0x3e6dd716	0.2322658
120	0x3e57ec14	0.2108615
121	0x3ee4f2da	0.4471653
122	0x3ea79c10	0.32736254
123	0x3e9fcc17	0.31210396
124	0xbe27b2b9	-0.16376771
