models/simple_tag/PPO-centralized/adversaries/critic_0.pt (torch, 234770 bytes, 5 tensors)

weight f4 [160, 36]
-1.0110582 1.912727 1.4169894 0.18046963 -0.8078073 -0.062100444 0.5098215 -0.44469786
0.29101974 0.5767975 -0.64001215 0.7881902 -1.0723225 2.0195334 1.1855325 0.16627032
-0.9578351 -0.06912864 0.27881047 -0.459799 0.35902506 0.7176597 -0.44586378 0.76674026
-1.0587038 1.7575202 1.4502028 0.24062936 -0.83055544 -0.15705426 0.33475178 -0.55599916
0.42912197 0.8108874 -0.5582116 0.73268086 2.0536628 -0.72540957 0.24097064 1.9695923
0.7229747 0.22246799 0.19593947 0.49386406 -0.53115356 -2.9923854 0.95666623 -0.22269943
2.0968316 -0.8811745 0.23119879 2.231421 0.91775066 0.22511004 0.33574307 0.59297144
-0.496698 -2.8850698 0.9984487 -0.36165017 2.1062288 -0.7572182 0.20615743 2.243191
0.74555653 0.23905462 0.2949046 0.32117447 -0.47309673 -2.9076393 0.8838558 -0.37997484
-1.7244577 -0.2944265 -0.17293258 0.3604265 0.09452496 0.4353245 -0.5254591 0.4872703
8.323098 1.2168745 1.3872608 -0.5079233 -1.5057304 -0.26379156 -0.19354908 0.4621976
-0.04288749 0.74751276 -0.5314974 0.50617003 8.391606 1.0006253 1.5392026 -0.40568003
-1.7731335 -0.3924713 -0.18790707 0.3304255 -0.07555594 0.59410435 -0.6796028 0.5748505
8.188056 1.1530601 1.3216289 -0.56805307 -0.78063905 -0.40675154 -0.2615611 -0.042783715
0.13453491 -0.4509024 -0.113544606 -0.22201388 -1.8225547 -0.4136363 1.6644638 0.38937917
-1.0363063 -0.49484646 -0.42262343 -0.0050274055 -0.060731176 -0.69733363 -0.2042566 -0.41756028
-1.7314903 -0.45185485 1.7679996 0.37438032 -1.0422722 -0.39815602 -0.3063063 0.06950577
-0.048455227 -0.61806744 -0.21058667 -0.40837175 -1.6211871 -0.505818 1.5949349 0.3101158
-2.3703313 -0.13329373 -2.3571548 -0.093082316 0.18614651 -0.3846028 1.7661355 0.052274697
0.8390479 -3.840279 0.73636585 -2.0631084 -2.4501104 -0.15025666 -2.4681044 -0.12124679
0.24020606 -0.4504297 1.8492024 0.19973189 0.83435977 -3.8506224 0.65037304 -2.0442045
-2.6672585 -0.074503824 -2.3557634 0.0054601827 0.3074557 -0.14525425 1.853312 0.1936323
0.9913974 -3.8201163 0.5311434 -1.7713335 0.21067846 1.7693081 0.49647307 0.63186795
0.31316453 0.101718314 0.48394692 -0.34817535 -1.2996514 0.29956338 0.8530692 0.8533859
0.24965279 1.7479377 0.2645553 0.67268354 0.30296686 -0.0073283464 0.32501388 -0.1986115
-1.3105593 0.18764547 0.8511101 0.7508118 0.2166281 1.5530634 0.44030866 0.68438107
0.22112148 -0.12851197 0.27375233 -0.12224905 -1.0639577 0.1613144 0.7158612 0.8845618
-0.7322564 -0.14484802 1.6408814 0.6484206 0.23628104 -2.328456 0.8638172 -0.88948464
-0.4257215 1.8670603 0.119752854 0.7683699 -0.7849294 0.10932952 1.8662127 0.5500913
0.1651708 -2.47394 0.9660363 -0.8348216 -0.57107 1.886233 -0.027460855 0.8644248
-0.74875736 -0.034937635 1.8518745 0.7959919 0.14773963 -2.2925363 0.9265692 -0.9769486
-0.33206087 1.8673078 0.12062128 0.8730819 -1.4582793 0.059575252 -1.8281473 -0.46621957
00000000: 5b6a 81bf 3dd4 f43f e95f b53f 08cd 383e
00000010: 76cc 4ebf 095d 7ebd a983 023f 70af e3be
00000020: 8a00 953e 00a9 133f d6d7 23bf d5c6 493f
00000030: dd41 89bf 0940 0140 87bf 973f c442 2a3e
00000040: ae34 75bf 5193 8dbd 3fc0 8e3e c66a ebbe
00000050: 22d2 b73e 8cb8 373f 4248 e4be 1749 443f
00000060: 9b83 87bf 6cf6 e03f 3fa0 b93f 8b67 763e
00000070: 489f 54bf d5d2 20be 9664 ab3e f655 0ebf
00000080: e0b5 db3e 5196 4f3f f5e6 0ebf f990 3b3f
00000090: 366f 0340 71b4 39bf 02c1 763e 9a1b fc3f
000000a0: df14 393f a6ce 633e 5ba4 483e c0db fc3e
000000b0: aef9 07bf 3e83 3fc0 14e8 743f 520b 64be
000000c0: 7d32 0640 a794 61bf 60bf 6c3e 9acf 0e40
000000d0: b5f1 6a3f 3f83 663e 84e6 ab3e facc 173f
000000e0: 334f febe fca4 38c0 569a 7f3f 362a b9be
000000f0: 74cc 0640 0dd9 41bf ef1a 533e 7190 0f40
00000100: cbdc 3e3f bcca 743e bcfd 963e fb70 a43e
00000110: bc39 f2be c316 3ac0 6044 623f 108c c2be
00000120: 08bb dcbf 12bf 96be 3d15 31be d289 b83e
00000130: 4d96 c13d dae2 de3e 7d84 06bf 7e7b f93e
00000140: 692b 0541 8bc2 9b3f c391 b13f 4307 02bf
00000150: c6bb c0bf b00f 87be bb31 46be 2aa5 ec3e
00000160: cbaa 2fbd ff5c 3f3f 3710 08bf 5c94 013f
00000170: 0544 0641 7d14 803f 9704 c53f 4bb5 cfbe
00000180: 0af6 e2bf 00f2 c8be b66a 40be 882d a93e
00000190: 13bd 9abd 3917 183f 73fa 2dbf 6729 133f
000001a0: 4702 0341 7997 933f 232b a93f ed6b 11bf
000001b0: f6d7 47bf bd41 d0be 56eb 85be fa3d 2fbd
000001c0: 85c3 093e aedc e6be 138a e8bd 9b57 63be
000001d0: 7949 e9bf 23c8 d3be 260d d53f b55c c73e
000001e0: afa5 84bf 845c fdbe 1962 d8be efbc a4bb
000001f0: 41c1 78bd 7584 32bf a428 51be 76ca d5be
00000200: 79a1 ddbf 8559 e7be d04d e23f c7ae bf3e
00000210: 2d69 85bf 1bdb cbbe 2ed4 9cbe 0b59 8e3d
00000220: fd78 46bd ab39 1ebf 08a4 57be 1a16 d1be
00000230: 0f83 cfbf 4a7d 01bf d426 cc3f 80c7 9e3e
00000240: 82b3 17c0 277e 08be a0db 16c0 f1a1 bebd
00000250: 319d 3e3e a8ea c4be ba10 e23f fe1d 563d
00000260: d8cb 563f 22c7 75c0 7982 3c3f f809 04c0
00000270: 9cce 1cc0 e2dc 19be 6cf5 1dc0 3d50 f8bd
00000280: 94f8 753e b99e e6be aab2 ec3f 8486 4c3e
00000290: 9a98 553f 9970 76c0 d97e 263f 3fd4 02c0
000002a0: 5db4 2ac0 7695 98bd d4c4 16c0 55eb b23b
000002b0: d56a 9d3e 88bd 14be 5439 ed3f 8c47 463e
000002c0: 38cc 7d3f c97c 74c0 04f9 073f 0ebb e2bf
000002d0: 18bc 573e b078 e23f b831 fe3e 19c2 213f
000002e0: 1a57 a03e b151 d03d e4c7 f73e 0a44 b2be
000002f0: fa5a a6bf 5f60 993e be62 5a3f 8077 5a3f
00000300: fba4 7f3e 6cbc df3f cb73 873e fd34 2c3f
00000310: 791e 9b3e a022 f0bb 3868 a63e d060 4bbe
00000320: 68c0 a7bf 2226 403e 5ae2 593f 3435 403f
00000330: c2d3 5d3e c8ca c63f 2370 e13e 9933 2f3f
00000340: ab6d 623e a498 03be 4429 8c3e b65d fabd
00000350: c42f 88bf 9a2f 253e ae42 373f a472 623f
00000360: 2875 3bbf 0a53 14be 6708 d23f e4fe 253f
00000370: a8f3 713e 6c05 15c0 2023 5d3f 44b5 63bf
00000380: 2bf8 d9be d5fb ee3f fc40 f53d e4b3 443f
00000390: 22f1 48bf 28e8 df3d 0fe0 ee3f c9d2 0c3f
000003a0: 8922 293e 0855 1ec0 284e 773f deb6 55bf
000003b0: a531 12bf 1570 f13f 96f5 e0bc f24a 5d3f
000003c0: 90ae 3fbf c41a 0fbd 390a ed3f 20c6 4b3f
000003d0: 0f49 173e eab8 12c0 a433 6d3f 4e19 7abf
000003e0: e203 aabe f103 ef3f 4a08 f73d 4c82 5f3f
000003f0: e5a8 babf 2e05 743d bb00 eabf 55b4 eebe

bias f4 [160]
1.0977588 -0.4082287 -0.9067892 1.4938563 -1.5145655 -0.60270846 -1.1291584 -3.2193227
-1.3117801 -0.70480496 -3.1575253 -1.3681228 0.72013175 -1.8872854 -2.7056184 -2.571424
-4.0688224 -0.01566361 -2.6819155 -3.4700992 -0.23552793 -3.3976357 -4.419712 -3.7372205
0.6435077 -1.671392 -3.1947873 -2.4242861 -3.168333 -4.367654 -2.1838298 -5.5980167
-2.2173116 -3.7057936 2.660317 -3.3836248 -2.7071218 5.0483365 -1.0808278 -0.92004067
1.3927504 -1.8227565 -4.069838 -0.30339986 -3.681383 -1.7265062 1.832972 0.36948568
-3.0817316 -0.58659405 -1.9804212 -2.7214787 -2.0238543 -3.0501974 -0.4946079 -4.218198
3.1940536 -4.1676235 1.3139077 -2.667935 -3.545668 -3.0384305 0.47099537 -6.9121046
-4.094991 -1.3671764 0.43784842 -4.5535507 -1.3524946 -3.057013 -4.3947277 -3.058738
-0.54836684 -3.4842317 -3.002751 -3.7205412 0.27665055 -4.4557357 -0.4321388 -2.799629
-2.3026106 -5.057811 -4.3630905 -2.670496 -1.7491424 -3.3983138 -1.989692 -2.9472644
3.669501 -4.0939407 -1.7198436 -3.6160262 2.768139 -2.3728526 -2.0325615 -0.74852073
-2.1657367 -3.5948792 0.0014566826 -2.7243607 -3.894642 -3.7532015 -3.9240134 -1.4490414
5.271628 -0.46904635 -3.2828245 -3.0493064 -3.4164958 -2.3928883 -3.1001358 2.990883
-4.0328684 -1.945501 -2.7765088 2.9199522 0.82784015 -1.8915422 0.47422218 -3.7601664
-3.1242838 2.0034974 -1.6947944 -2.7761023 -1.245336 -0.43605703 3.4019494 -3.1267898
-1.3728282 -4.378425 -4.503137 -2.6631408 -2.8746538 -4.276673 -4.7930417 -0.880944
-2.023797 -0.81223214 -3.1499815 1.387982 -3.2858222 -2.074458 -4.305214 0.8542704
-3.6012385 1.2133797 -7.1888022 -3.4871144 -2.3738902 0.3133885 -2.5585232 -5.729043
-3.8489554 -2.1083171 -0.87121016 -1.8973957 -3.1200514 -5.124773 -2.1825402 -2.6559098
00000000: 5c83 8c3f 5a03 d1be 5623 68bf af36 bf3f
00000010: 48dd c1bf 1a4b 1abf 4388 90bf 6209 4ec0
00000020: 69e8 a7bf 196e 34bf e514 4ac0 a61e afbf
00000030: 8e5a 383f 9192 f1bf da28 2dc0 3692 24c0
00000040: cb33 82c0 f950 80bc 81a4 2bc0 1b16 5ec0
00000050: 3c2e 71be dd72 59c0 486e 8dc0 9f2e 6fc0
00000060: ecbc 243f 2cf0 d5bf 6577 4cc0 8127 1bc0
00000070: f8c5 4ac0 d2c3 8bc0 dec3 0bc0 f422 b3c0
00000080: 6fe8 0dc0 b92b 6dc0 a242 2a40 4f8d 58c0
00000090: 7c41 2dc0 f98b a140 9158 8abf c987 6bbf
000000a0: a545 b23f 1650 e9bf 1d3c 82c0 3a57 9bbe
000000b0: c79b 6bc0 28fe dcbf d49e ea3f 3a2d bd3e
000000c0: 173b 45c0 072b 16bf 717e fdbf b52c 2ec0
000000d0: d486 01c0 6f36 43c0 3f3d fdbe 7afb 86c0
000000e0: 606b 4c40 2c5d 85c0 212e a83f 72bf 2ac0
000000f0: 39ec 62c0 a575 42c0 4e26 f13e f62f ddc0
00000100: 2b0a 83c0 a3ff aebf ab2d e03e b0b6 91c0
00000110: 8b1e adbf 1aa6 43c0 9ca1 8cc0 5dc2 43c0
00000120: c561 0cbf a7fd 5ec0 132d 40c0 591d 6ec0
00000130: 24a5 8d3e 6395 8ec0 4c41 ddbe 1f2d 33c0
00000140: f95d 13c0 96d9 a1c0 709e 8bc0 68e9 2ac0
00000150: e6e3 dfbf f97d 59c0 3aae febf fb9f 3cc0
00000160: 1bd9 6a40 9001 83c0 d623 dcbf f96c 67c0
00000170: 3029 3140 d1dc 17c0 7d15 02c0 0e9f 3fbf
00000180: 6e9b 0ac0 8012 66c0 28ee be3a ed5b 2ec0
00000190: d141 79c0 7434 70c0 0923 7bc0 307a b9bf
000001a0: 2db1 a840 d826 f0be cc19 52c0 d627 43c0
000001b0: dea7 5ac0 1525 19c0 a068 46c0 a16a 3f40
000001c0: 420d 81c0 2d06 f9bf 52b2 31c0 7fe0 3a40
000001d0: 55ed 533f 0e1e f2bf 40cd f23e 91a6 70c0
000001e0: 44f4 47c0 4d39 0040 06ef d8bf a9ab 31c0
000001f0: 2c67 9fbf de42 dfbe 8ab9 5940 531d 48c0
00000200: d6b8 afbf 0f1c 8cc0 b319 90c0 e670 2ac0
00000210: 54fa 37c0 81da 88c0 9960 99c0 8c85 61bf
00000220: e485 01c0 72ee 4fbf 4c99 49c0 65a9 b13f
00000230: e94a 52c0 ebc3 04c0 50c4 89c0 77b1 5a3f
00000240: b17a 66c0 0750 9b3f ab0a e6c0 e22c 5fc0
00000250: d1ed 17c0 7574 a03e d8be 23c0 5254 b7c0
00000260: 4955 76c0 abee 06c0 a107 5fbf dddd f2bf
00000270: ecae 47c0 24fe a3c0 bdae 0bc0 6dfa 29c0

weight f4 [320, 160]
-2.150482 -0.2172111 -0.1001366 -1.0966889 0.19259194 -0.23975456 -0.44539207 -1.1272455
-0.29350397 -0.3291985 -0.35041237 -0.526124 -0.2307825 -0.11861779 -0.29325643 -0.9880318
-0.46766543 -0.94975936 0.2628509 -0.17696814 -0.38833845 -0.58313584 -0.48416686 -0.4103254
-0.0023789322 0.0021867438 -0.16066957 -0.6668589 -0.8989449 -0.32048285 -1.1327509 0.16585657
0.26744685 0.24259523 -0.76591253 -0.045622006 -0.18666838 0.41323784 -0.6168937 -0.42126295
-0.74322623 -0.9132945 -0.5349984 -0.5771077 -0.22662438 0.10817975 -0.29543328 -0.82420415
-1.1241952 -1.0781304 -0.27213466 -0.39644563 -0.004578679 -0.6778034 0.15619765 -0.12474638
-0.17035699 -1.7028183 0.4301622 0.14629732 0.3582656 -0.3058288 0.08676238 0.010894561
-0.48358673 -0.8007754 -0.6376544 0.7529788 -0.08496507 0.612513 -1.1657321 0.6698107
-0.3871953 -0.60680294 -1.5581805 -0.8445165 -0.93984634 0.17248605 -0.76845145 -0.946927
-0.81188333 -0.88227534 -0.35861033 0.6055627 -0.28620067 0.32297692 -0.76216185 0.15282004
-0.32097507 -0.37857544 -0.09531177 0.32963514 0.077836625 0.151635 -0.133282 -0.053928312
0.10799308 -1.2921005 -0.5142641 -0.46853805 -0.41412324 0.8062797 -0.469859 -0.7662326
0.2984369 -0.4398242 -0.4958736 -0.16529925 0.24634378 -1.241041 0.14142744 -0.7132655
0.072541 -0.6843986 -0.16974106 -1.1195891 0.24791834 -0.50818866 -0.19786814 -0.21219824
-0.3518042 -0.5482658 -1.2842451 -0.7805675 0.124966845 -0.6269399 -0.67555594 -0.29237574
-0.31362623 0.08894099 -0.92593503 -0.2197245 -0.13523172 -1.0626487 -0.20558068 -1.2960988
-0.92230105 0.26060688 0.28425068 0.32319286 0.15972017 -0.2100889 -0.17852034 -0.5199759
-1.1791625 -0.7069743 -0.44981414 0.37021685 -0.17191952 0.639638 -0.36043754 -0.22325917
-1.5192204 0.22160429 -1.6749402 -0.36909822 0.21198991 0.46992838 0.27781767 -0.73730904
-0.49872667 -0.0457951 -0.24156873 -0.29036197 -0.2358705 0.12549016 -0.202929 -0.38958988
-0.11298173 -0.33035567 -0.07074203 -0.25617525 0.07122339 0.0637679 -0.4620204 -0.17794544
-0.16856328 -0.095572576 -0.104925506 -0.26573485 -0.40672335 0.02702484 -0.08128532 -0.07171893
-0.16057083 0.14267464 0.121055536 -0.086095475 0.07923399 -0.601217 -0.061190132 -0.2813587
0.050557543 -0.013086984 -0.37340292 -0.14866117 -0.20721294 -0.28744787 -0.2768095 -0.2784444
0.055953022 -0.005639666 -0.25343254 -0.04080962 -0.025277806 -0.029637396 -0.006092813 -0.18139796
-0.22884439 -0.42967638 -0.38702714 0.02972946 0.14602032 0.16040839 -0.21432732 -0.16482134
-0.3977758 -0.22431324 -0.39446723 0.08741785 -0.07088944 -0.4469181 -0.05802701 0.08110794
-0.28674102 -0.03961597 -0.41070062 -0.31748575 -0.00926442 -0.34426698 -0.049285933 -0.019063113
-0.37090662 -0.22303261 -0.488977 -0.082867354 -0.2598776 0.031877633 -0.30712497 0.038773194
-0.32814494 0.024620779 -0.12404427 0.0454046 -0.30448908 0.08252276 -0.028202796 -0.054651104
0.06816088 -0.15476537 0.20752445 -0.2174597 -0.00868497 -0.25661322 -0.16877809 -0.45870817
00000000: 7fa1 09c0 966c 5ebe 6b14 cdbd 4d60 8cbf
00000010: d236 453e 3882 75be 6e0a e4be 9549 90bf
00000020: 2746 96be b58c a8be 4069 b3be 10b0 06bf
00000030: 3f52 6cbe e2ed f2bd b525 96be a7ef 7cbf
00000040: d871 efbe 6e23 73bf 6594 863e 2337 35be
00000050: 4cd4 c6be 6448 15bf b8e4 f7be 2c16 d2be
00000060: dce7 1bbb 794f 0f3b 9086 24be 44b7 2abf
00000070: 4121 66bf 5416 a4be fbfd 90bf 4ed6 293e
00000080: cbee 883e e26a 783e d812 44bf 24de 3abd
00000090: ff25 3fbe e993 d33e bfec 1dbf c7af d7be
000000a0: 1344 3ebf abcd 69bf a8f5 08bf 55bd 13bf
000000b0: 3910 68be 588d dd3d 0843 97be 0bff 52bf
000000c0: a1e5 8fbf 2d00 8abf 3c55 8bbe ecfa cabe
000000d0: be08 96bb 8684 2dbf 47f2 1f3e 087b ffbd
000000e0: 1072 2ebe f3f5 d9bf 383e dc3e f7ce 153e
000000f0: 976e b73e 9895 9cbe 7ab0 b13d 1a7f 323c
00000100: ae98 f7be 9eff 4cbf 523d 23bf 38c3 403f
00000110: 2b02 aebd a7cd 1c3f b636 95bf b778 2b3f
00000120: 763e c6be 7057 1bbf 7572 c7bf 3c32 58bf
00000130: c599 70bf 2fa0 303e 3cb9 44bf cf69 72bf
00000140: 96d7 4fbf ccdc 61bf c69b b7be 2806 1b3f
00000150: e588 92be 3b5d a53e 0a1d 43bf db7c 1c3e
00000160: d856 a4be a4d4 c1be d132 c3bd f0c5 a83e
00000170: cf68 9f3d 3546 1b3e 147b 08be efe3 5cbd
00000180: 7a2b dd3d 8d63 a5bf d0a6 03bf 38e4 efbe
00000190: f607 d4be 5968 4e3f 5c91 f0be d227 44bf
000001a0: b9cc 983e a330 e1be 25e3 fdbe 3544 29be
000001b0: 8b41 7c3e 6eda 9ebf 5bd2 103e 9198 36bf
000001c0: 6090 943d bf34 2fbf 9ad0 2dbe b24e 8fbf
000001d0: 4ede 7d3e a718 02bf f29d 4abe 7f4a 59be
000001e0: ae1f b4be 265b 0cbf 2562 a4bf 46d3 47bf
000001f0: 9eee ff3d 227f 20bf 3cf1 2cbf 46b2 95be
00000200: 9e93 a0be b226 b63d 140a 6dbf 76ff 60be
00000210: 2f7a 0abe df04 88bf be83 52be 91e6 a5bf
00000220: ec1b 6cbf 446e 853e 4e89 913e 8979 a53e
00000230: af8d 233e 8b21 57be 09ce 36be 241d 05bf
00000240: ccee 96bf 45fc 34bf 0a4e e6be 108d bd3e
00000250: ac0b 30be 51bf 233f 458b b8be 0d9e 64be
00000260: d075 c2bf 3cec 623e 7164 d6bf 71fa bcbe
00000270: e213 593e 749a f03e 1e3e 8e3e 49c0 3cbf
00000280: 1a59 ffbe a593 3bbd cb5d 77be 53aa 94be
00000290: 0988 71be 7e80 003e 9fcc 4fbe 5378 c7be
000002a0: f762 e7bd 6124 a9be 33e1 90bd 6729 83be
000002b0: 92dd 913d bf98 823d f08d ecbe 5437 36be
000002c0: da9b 2cbe 8ebb c3bd 2fe3 d6bd 660e 88be
000002d0: 0b3e d0be 3263 dd3c eb78 a6bd 60e1 92bd
000002e0: ae6c 24be 4d19 123e f7eb f73d d352 b0bd
000002f0: 6e45 a23d 5be9 19bf 81a2 7abd 3f0e 90be
00000300: 6d15 4f3d ca6a 56bc ab2e bfbe a23a 18be
00000310: a12f 54be 5e2c 93be fab9 8dbe 4490 8ebe
00000320: ff2e 653d f3cc b8bb e9c1 81be fd27 27bd
00000330: 6713 cfbc 20ca f2bc 38a6 c7bb 63c0 39be
00000340: 2f56 6abe 8bfe dbbe 6c28 c6be 328b f33c
00000350: 5a86 153e 1942 243e 9f78 5bbe edc6 28be
00000360: 45a9 cbbe 5fb2 65be 9cf7 c9be 2108 b33d
00000370: 7c2e 91bd 73d2 e4be bbad 6dbd eb1b a63d
00000380: b8cf 92be 5b44 22bd 5a47 d2be 7e8d a2be
00000390: cbc9 17bc c343 b0be 0ce0 49bd 3f2a 9cbc
000003a0: 79e7 bdbe a962 64be 315b fabe 5cb6 a9bd
000003b0: ad0e 85be 1f92 023d 7c3f 9dbe a4d0 1e3d
000003c0: 9d02 a8be 84b1 c93c ec0a febd 2dfa 393d
000003d0: fee5 9bbe b101 a93d 8d09 e7bc d6d9 5fbd
000003e0: ee97 8b3d d07a 1ebe 4a81 543e c1ad 5ebe
000003f0: 684b 0ebc cf62 83be 2ad4 2cbe ccdb eabe

bias f4 [320]
0.7004129 0.17958175 0.65032864 0.38869858 0.094325215 -0.09185892 1.026662 2.0355828
0.18271719 -0.16096877 -0.10454787 0.49903032 -0.53744024 0.27946457 0.015154003 -0.088883534
0.03732826 0.36294067 0.7414458 -0.021187887 0.1372503 0.0856309 0.0047903378 0.30954146
1.0798575 -0.22746937 -0.43422318 0.12310534 -0.15423639 -0.65690696 0.49581885 -0.6961627
-0.22361247 0.13619417 0.1406608 0.081741065 -0.39119136 0.15373679 0.017380575 -1.1267323
0.14988115 -0.05115012 0.09477151 0.1526465 0.033517703 0.03191503 -0.6383646 0.16855612
-0.07798047 -0.074641414 -0.0047296886 -0.2820347 1.3861626 0.11988979 1.6990514 1.4470087
-0.07592699 1.1912827 -0.11162198 0.2812291 -0.13456349 0.37307116 0.042814814 1.3238736
0.0022885997 0.08619746 -0.02108634 1.168401 -0.067620166 -0.33093396 0.12879285 0.40025818
-0.11727594 0.15319356 0.03817311 -0.0388232 -0.014106283 -0.66762733 -0.3369117 -0.29498047
0.07994508 0.3171317 -0.6635284 0.103538685 -0.042460244 0.2281751 0.112282254 -0.7610194
0.8622102 -0.12370473 1.9692429 0.23179536 -0.1968597 0.048250377 -0.029409403 1.2667785
0.5083446 -0.056152828 0.24393506 0.39484033 -0.15199806 -0.37554523 0.13775091 -0.16998284
0.26310334 -0.3499689 0.0714927 -0.0855156 -0.030888401 -0.40473968 -0.09334104 0.10638856
-0.091545746 0.24673867 -0.09616851 -0.0067661926 0.54220927 0.07941927 0.017871637 0.012518856
-0.18856838 -0.38805935 0.0633569 -0.20569389 -0.35324097 0.1145057 -0.13775486 -0.11849748
0.16856214 0.15786529 0.25180075 -0.039680295 0.5589741 -0.07129443 0.084638484 -0.17249526
0.40327147 0.10456726 0.19334199 -0.22460647 0.20439477 0.20632653 1.1778746 -0.27101314
-0.34918153 -0.026433669 1.3033382 -0.20051089 1.0990497 -0.10875684 -0.06798777 -0.18837729
0.27970722 -0.09731315 0.36587632 -0.07350294 0.010836865 0.25817338 0.81360275 0.14456822
0.045649648 -0.34460905 -0.010647865 0.28139707 0.9462464 -0.8962751 -0.0045649735 0.6244366
0.11191188 -0.01877224 -0.0036521333 0.005670228 0.44840607 0.07197022 -0.25032568 0.1321205
1.2356553 -0.0025346263 0.035473164 1.1704977 0.017249044 -0.1285769 -0.08669589 -0.3042134
0.5786305 0.6931971 0.14422828 -0.024483446 0.124786325 -0.30076963 -0.14931947 1.020141
-0.06417453 -0.67246455 1.3244206 0.18014692 -0.7713226 -0.21211883 0.25921488 -0.7125518
0.05460654 0.55387133 0.011628692 -0.18471931 0.49028212 0.109444976 -0.7836215 -0.15455797
0.12123465 0.29348314 0.17755882 -0.11205337 0.49873224 -0.18375605 0.56631297 -0.04542382
-0.0895287 -0.02823983 -0.20840913 0.15792939 0.05280271 -0.13050327 0.40538716 -0.14028011
0.017591594 -0.025744045 0.24417278 0.10136525 0.011490511 10.568999 0.1336648 0.819694
0.034668617 -0.14395799 0.1968448 0.11626604 1.0884253 0.017528003 -0.18306829 0.10771036
0.41052485 -0.0023484887 7.4609566 0.9614525 0.38554558 -0.108020246 0.27043256 0.51508176
0.12784022 1.779428 0.14943781 0.42276856 -0.2741111 -0.13473569 -0.10514784 -0.1917858
00000000: 434e 333f 47e4 373e f07b 263f 8003 c73e
00000010: 942d c13d 8820 bcbd a969 833f fd46 0240
00000020: 371a 3b3e ffd4 24be 321d d6bd e780 ff3e
00000030: af95 09bf fb15 8f3e 7f48 783c 9208 b6bd
00000040: 84e5 183d 5cd3 b93e 64cf 3d3f 3892 adbc
00000050: 588b 0c3e 415f af3d 44f8 9c3b 387c 9e3e
00000060: c538 8a3f bbed 68be 8052 debe a71e fc3d
00000070: 25f0 1dbe 0e2b 28bf f8db fd3e b837 32bf
00000080: abfa 64be 7c76 0b3e 6209 103e dc67 a73d
00000090: 3c4a c8be 2d6d 1d3e b561 8e3c c438 90bf
000000a0: 727a 193e ca82 51bd 9117 c23d 5d4f 1c3e
000000b0: dc49 093d 56b9 023d dd6b 23bf fa99 2c3e
000000c0: 3ab4 9fbd 99dd 98bd 81fb 9abb da66 90be
000000d0: c76d b13f c788 f53d 847a d93f 9537 b93f
000000e0: 9c7f 9bbd f47b 983f 119a e4bd 43fd 8f3e
000000f0: 03cb 09be 2f03 bf3e 965e 2f3d b174 a93f
00000100: 55fc 153b 4b88 b03d 43bd acbc 2a8e 953f
00000110: 717c 8abd 2d70 a9be 46e2 033e a4ee cc3e
00000120: 5e2e f0bd c6de 1c3e 685b 1c3d 1305 1fbd
00000130: 0a1e 67bc a0e9 2abf b17f acbe ae07 97be
00000140: 3fba a33d 165f a23e ffdc 29bf 170c d43d
00000150: cbea 2dbd bca6 693e 3df4 e53d 2bd2 42bf
00000160: cfb9 5c3f e858 fdbd 2710 fc3f c35b 6d3e
00000170: 9795 49be 30a2 453d fdeb f0bc cc25 a23f
00000180: df22 023f 8200 66bd 1dca 793e 8328 ca3e
00000190: 61a5 1bbe 7747 c0be 930e 0d3e fb0f 2ebe
000001a0: 7bb5 863e 202f b3be c46a 923d ce22 afbd
000001b0: ac09 fdbc 0a3a cfbe 9629 bfbd 3fe2 d93d
000001c0: 567c bbbd 10a9 7c3e fff3 c4bd f0b6 ddbb
000001d0: 3ace 0a3f 92a6 a23d 8a67 923c e31b 4d3c
000001e0: 1218 41be b7af c6be 43c1 813d 6ba1 52be
000001f0: 00dc b4be f781 ea3d 9c0f 0dbe cfae f2bd
00000200: 8e9b 2c3e 70a7 213e 07ec 803e ce87 22bd
00000210: ed18 0f3f d002 92bd f156 ad3d 99a2 30be
00000220: 9979 ce3e 5c27 d63d 71fb 453e 3dff 65be
00000230: dd4c 513e 4347 533e 98c4 963f 3cc2 8abe
00000240: ecc7 b2be 6c8b d8bc c9d3 a63f ba52 4dbe
00000250: a9ad 8c3f e8bb debd 2c3d 8bbd fae5 40be
00000260: c935 8f3e 1e4c c7bd 2454 bb3e b688 96bd
00000270: 1b8d 313c 4d2f 843e 4548 503f b109 143e
00000280: 20fb 3a3d 9970 b0be 6274 2ebc 4713 903e
00000290: 343d 723f 4972 65bf c695 95bb 14db 1f3f
000002a0: 0e32 e53d 3ec8 99bc a158 6fbb 52cd b93b
000002b0: 7b95 e53e 1f65 933d b02a 80be 994a 073e
000002c0: f429 9e3f f91b 26bb 4f4c 113d ded2 953f
000002d0: de4d 8d3c aaa9 03be 9d8d b1bd dcc1 9bbe
000002e0: 2121 143f 5d75 313f 94b0 133e 8291 c8bc
000002f0: f98f ff3d 7afe 99be 34e7 18be fb93 823f
00000300: f06d 83bd a326 2cbf 9d86 a93f 6f78 383e
00000310: 6675 45bf ae35 59be d0b7 843e cb69 36bf
00000320: 1bab 5f3d 83ca 0d3f 4586 3e3c 0f27 3dbe
00000330: 4206 fb3e b024 e03d 6b9b 48bf 7244 1ebe
00000340: df49 f83d 6c43 963e fbd1 353e 3d7c e5bd
00000350: d559 ff3e 8c2a 3cbe e3f9 103f 540e 3abd
00000360: d35a b7bd 3757 e7bc 3469 55be 3eb8 213e
00000370: a847 583d a6a2 05be e88e cf3e 97a5 0fbe
00000380: 3f1c 903c 2de5 d2bc 6e08 7a3e 9698 cf3d
00000390: b242 3c3c 9f1a 2941 6ddf 083e 77d7 513f
000003a0: ae00 0e3d b969 13be af91 493e e41c ee3d
000003b0: 8551 8b3f e396 8f3c 4176 3bbe 4097 dc3d
000003c0: 5030 d23e 1ae9 19bb 28c0 ee40 c021 763f
000003d0: 3b66 c53e b839 ddbd 2376 8a3e 66dc 033f
000003e0: 8ce8 023e 4cc4 e33f 3a06 193e 1f75 d83e
000003f0: 4a58 8cbe 27f8 09be c057 d7bd 7f63 44be

weight f4 [1, 320]
0.85134715 0.12393734 0.35736 0.117450215 3.986064e-05 0.012678536 0.44996512 0.41614544
0.018493772 -0.038702548 0.037391394 0.18104878 0.05513068 -0.06369395 0.008658981 0.0404342
0.14036025 0.10427045 0.10339444 0.10295041 0.028222859 0.067915 0.06411678 0.2049445
0.2470481 0.007853326 -0.018504389 0.093477145 0.07947032 0.15655366 0.36411476 -0.105216175
0.021047533 -0.045791075 0.092373855 0.070156254 -0.021579023 0.2113706 0.017036062 0.15592684
0.15870766 0.020076124 0.0104316315 0.49158788 0.033199277 -0.022623725 0.20767102 0.052615687
0.0109991105 -0.0041081337 0.013989638 -0.02467636 -0.07701346 0.36087584 0.0031555353 0.14983138
0.02484227 0.24342497 0.07242801 0.13323048 -0.017681623 0.076435655 0.025344575 0.25339422
-0.04003831 0.12150159 0.18956745 0.07633678 -0.0011184933 0.007176476 0.05231279 0.14085427
0.027772276 0.0814834 0.003214049 0.05714972 0.084906176 -0.027736207 0.03837086 0.0072737304
0.026368914 0.12793246 0.0149922585 0.013754941 -0.024756763 0.1087193 0.036715195 0.30526128
0.009666342 -0.015230947 0.5796868 0.02648396 0.16681732 0.09299047 0.043769028 -0.0946198
0.25770423 -0.02095623 0.14817038 0.050846793 0.04511695 -0.04263892 0.1726096 0.012657428
0.048983414 -0.0141275795 0.17887904 0.018747197 0.0540069 0.028121745 0.008410984 0.0029256283
-0.005493263 0.21963505 0.030841308 -0.0135375215 0.19931744 0.036830347 0.0842732 0.03935376
-0.015300101 0.023882193 0.072888315 -0.005343317 0.16441914 0.093840785 0.021148782 0.04558146
0.054851912 0.22324459 0.23820446 -0.032908414 0.20572607 0.037006903 0.027496576 -0.13988392
0.08010036 0.07479898 0.1525726 0.038026787 0.06568094 0.12265181 0.18899925 0.052592896
0.029955558 0.06667146 0.3079365 0.06375853 0.12807405 0.099551335 -0.060192 -0.015342964
0.021377033 -0.006371238 0.105980314 -0.024054056 0.002929512 -0.48736012 0.17622696 0.13573538
-0.009381404 0.062142815 0.050295334 0.36009085 0.42702296 0.022487635 -0.018210128 -0.0069747292
0.069913514 0.15710683 0.22142336 0.04210303 0.46075037 1.0992483 0.011386542 0.07517949
0.17439282 -0.026807576 0.017940039 0.32965723 0.21066587 -0.012459499 0.38145867 -0.048568074
0.0024307799 0.0838479 0.106408924 -0.030618547 0.016364262 -0.006909354 0.020661367 0.17134261
0.0073742345 0.061062716 0.39366323 0.118330106 0.34379998 -0.039163955 0.08856971 0.01438599
0.13218059 0.08207439 0.00929816 -0.04969577 0.047968533 0.07499098 0.22117954 -0.024583738
0.03353391 0.16591609 0.014597951 0.021910636 0.111710295 0.016827544 0.286515 -0.036472585
-0.01499242 -0.003924201 0.015049126 0.26914948 0.036066294 -0.0123158675 0.03132224 0.030464929
-0.04099926 -0.028185116 0.07600149 0.0886466 0.0027753792 0.14012808 0.17957695 0.35344216
0.081418864 -0.001929919 -0.0063159973 0.0983356 0.14654598 0.028635137 0.053260393 0.15214546
0.28749937 0.07455295 -0.03838134 0.07446823 0.22384454 0.0064521525 0.107235424 0.09648524
0.052072335 -4.5504206e-05 0.0003192652 0.061770316 0.022313712 -0.015702602 -0.02663602 0.028179307
00000000: e3f1 593f dcd2 fd3d e4f7 b63e bd89 f03d
00000010: 0930 2738 a2b9 4f3c d461 e63e 0411 d53e
00000020: 4080 973c 9086 1ebd b827 193d da64 393e
00000030: b5d0 613d f971 82bd 66de 0d3c 559e 253d
00000040: 99ba 0f3e bf8b d53d 77c0 d33d aad7 d23d
00000050: a033 e73c 0517 8b3d a94f 833d f9dc 513e
00000060: 2dfa 7c3e 3dab 003c 8496 97bc f270 bf3d
00000070: 56c1 a23d 9a4f 203e 406d ba3e 947b d7bd
00000080: e06b ac3c 6c8f 3bbd 812e bd3d 15ae 8f3d
00000090: 7ec6 b0bc 8971 583e 368f 8b3c 49ab 1f3e
000000a0: 4384 223e af76 a43c 6fe9 2a3c 68b1 fb3e
000000b0: f7fb 073d 6455 b9bc b6a7 543e 8c83 573d
000000c0: 9d35 343c 869d 86bb cb34 653c 1426 cabc
000000d0: 3cb9 9dbd b8c4 b83e 19cd 4e3b 666d 193e
000000e0: 0482 cb3c 6544 793e 2355 943d 926d 083e
000000f0: 0dd9 90bc 4c8a 9c3d 6d9f cf3c e3bc 813e
00000100: 36ff 23bd d3d5 f83d f81d 423e 7556 9c3d
00000110: 689a 92ba a528 eb3b f045 563d 1a3c 103e
00000120: af82 e33c c5e0 a63d cba2 523b d315 6a3d
00000130: 4ae3 ad3d 0b37 e3bc c32a 1d3d 7958 ee3b
00000140: 9f03 d83c ba00 033e 17a2 753c 675c 613c
00000150: b2ce cabc 39a8 de3d ac62 163d 354b 9c3e
00000160: 945f 1e3c 398b 79bc 5b66 143f e4f4 d83c
00000170: 29d2 2a3e ca71 be3d 2747 333d 07c8 c1bd
00000180: cff1 833e 66ac abbc fab9 173e ba44 503d
00000190: 8dcc 383d 26a6 2ebd 92c0 303e 1a61 4f3c
000001a0: d5a2 483d 5d77 67bc 112c 373e b993 993c
000001b0: 5736 5d3d 935f e63c 39ce 093c e6bb 3f3b
000001c0: d400 b4bb 03e8 603e e9a6 fc3c 7bcc 5dbc
000001d0: df19 4c3e 6bdb 163d 6d97 ac3d 6931 213d
000001e0: 46ad 7abc 97a4 c33c 7846 953d fe16 afbb
000001f0: 7e5d 283e 992f c03d 3640 ad3c a0b3 3a3d
00000200: 66ac 603d 3b9a 643e dfeb 733e f9ca 06bd
00000210: dba9 523e 8d94 173d 8040 e13c bb3d 0fbe
00000220: a80b a43d 3530 993d fe3b 1c3e fac1 1b3d
00000230: bb83 863d df30 fb3d 0589 413e a66b 573d
00000240: 5c65 f53c 0c8b 883d daa9 9d3e d593 823d
00000250: d825 033e 92e1 cb3d e38b 76bd 0e61 7bbc
00000260: e31e af3c d1c5 d0bb 350c d93d 030d c5bc
00000270: 0efd 3f3b 4487 f9be d774 343e 37fe 0a3e
00000280: 76b4 19bc 7789 7e3d 7b02 4e3d d45d b83e
00000290: c1a2 da3e fd37 b83c 682d 95bc 458c e4bb
000002a0: d12e 8f3d 9de0 203e cebc 623e 3a74 2c3d
000002b0: 79e7 eb3e 2bb4 8c3f 9e8e 3a3c b4f7 993d
000002c0: 0894 323e 909b dbbc fdf6 923c d5c8 a83e
000002d0: cbb8 573e ed22 4cbc 8d4e c33e 51ef 46bd
000002e0: b84d 1f3b 73b8 ab3d ecec d93d bfd3 fabc
000002f0: 580e 863c dd67 e2bb 0742 a93c 7074 2f3e
00000300: 90a3 f13b e61c 7a3d 3a8e c93e 0e57 f23d
00000310: 8d06 b03e 626a 20bd 0964 b53d 37b3 6b3c
00000320: 595a 073e 9e16 a83d 4f57 183c cb8d 4bbd
00000330: a77a 443d df94 993d e47c 623e d663 c9bc
00000340: da5a 093d e8e5 293e 3f2c 6f3c ef7d b33c
00000350: 5ec8 e43d ebd9 893c 18b2 923e 4764 15bd
00000360: c4a2 75bc 9596 80bb 9c90 763c f6cd 893e
00000370: 40ba 133d 7ec8 49bc c04b 003d 9691 f93c
00000380: d7ee 27bd 79e4 e6bc aba6 9b3d 598c b53d
00000390: 23e3 353b bc7d 0f3e 05e3 373e 5ff6 b43e
000003a0: efbe a63d 56f5 fcba 6df6 cebb 2d64 c93d
000003b0: 2610 163e 3c94 ea3c 9227 5a3d 05cc 1b3e
000003c0: 1e33 933e 38af 983d c135 1dbd cd82 983d
000003d0: 8137 653e 946c d33b 3f9e db3d 0e9a c53d
000003e0: cd49 553d c5db 3eb8 0d63 a739 df02 7d3d
000003f0: 3fcb b63c bea2 80bc c833 dabc 4ad8 e63c
