models/simple_tag/PPO-centralized/adversaries/critic_0.pt (torch, 234770 bytes, 5 tensors)

weight f4 [160, 36]
1.4837877 1.4439123 0.001592912 0.5367288 -1.1159447 0.2096963 -0.044551965 1.7234215
-2.235784 -1.6135995 -0.3574344 0.92957115 1.3785051 1.4562001 -0.11051028 0.5938934
-0.8427686 0.17372777 0.21420687 1.647178 -2.4560251 -1.6125877 -0.45607412 0.70432234
1.3531646 1.3943253 0.035897534 0.39561185 -0.9617613 0.26567036 0.16924506 1.750091
-2.2363443 -1.7540088 -0.44461372 0.86761403 0.73902524 0.54401255 2.4982471 0.09659715
-1.8587939 -0.6644248 0.009330107 1.1423742 -0.101077534 0.93619007 -1.0353278 0.119315565
0.9186978 0.48073846 2.4383974 0.3082205 -1.7731045 -0.5916098 0.24884652 1.05026
-0.2312004 0.8198239 -1.0054463 0.0051331576 0.71396637 0.5225296 2.456665 0.24182178
-1.9166359 -0.47425225 -0.06946088 1.2771069 -0.13351421 0.9446183 -0.90060985 -0.029598396
0.19163091 0.94338155 0.58219117 0.014811687 0.67971087 0.58409613 -1.2757267 -0.07072131
0.96305645 1.5339837 0.25241804 2.4540143 0.32666385 0.89164436 0.5701943 0.056713086
0.48805183 0.5201646 -1.3054918 -0.05843323 0.9140835 1.6082702 0.47631043 2.5382016
0.1562212 0.85046124 0.61741954 0.18435279 0.6600735 0.3685268 -1.4607598 -0.20687285
1.0363832 1.3964734 0.40498248 2.5132394 -0.6279116 1.7058123 -0.0071641863 0.5787923
1.044568 0.2058622 -0.9881284 -0.95253426 -0.48490438 -0.5612529 0.09719538 -0.62102795
-0.5833049 1.8539308 0.0115399575 0.7955987 1.1977645 0.38896984 -1.1776099 -0.83868
-0.51874316 -0.64178735 -0.018368546 -0.39084536 -0.8543272 1.8531955 0.15236083 0.7379686
1.2398142 0.13569179 -0.9542001 -0.72978866 -0.4710756 -0.6148162 -0.044445343 -0.45748022
-2.2303224 -0.37682503 0.36482784 1.6933118 0.05137615 -0.88539195 1.01969 0.48640916
-1.307836 0.9185912 -0.22891614 1.0899892 -2.2960696 -0.16320087 0.3504121 1.7530688
-0.0638353 -0.786342 0.8317499 0.5587096 -1.5097649 0.9195276 -0.48003665 1.1340498
-2.1796904 -0.2803926 0.36413506 1.4668909 -0.025631158 -0.8604299 1.015763 0.3699446
-1.6064899 0.875132 -0.54418576 1.1348624 0.83444715 -1.2668056 0.36476415 -1.3788321
0.3420508 0.10467313 -0.46984643 0.64886075 0.065385446 0.30772877 -1.1934261 0.36797652
0.89453197 -1.264827 0.6317384 -1.6530223 0.3906986 -0.22414213 -0.7388148 0.74070364
0.04786934 0.41021967 -1.166817 0.14145146 0.6635486 -1.4130073 0.5250517 -1.4491391
0.29014063 -0.056391876 -0.68446106 0.66711974 -0.06349507 0.281601 -1.0109737 0.38189736
0.9958654 -2.7740426 -0.46996427 -0.062068008 -1.0747269 -1.1468667 0.12533568 -0.16789469
-0.90651023 0.54454875 -0.3293322 0.45169738 0.9225573 -2.7387662 -0.6639232 -0.066004574
-0.96528256 -1.1442897 0.06003071 -0.11374108 -0.98829246 0.6328172 -0.5266528 0.47603494
0.87594867 -2.6785827 -0.43634248 -0.01906092 -1.2336851 -0.89079803 0.1785345 -0.072965235
-1.1950068 0.63089347 -0.2400872 0.35382566 0.22230503 3.8319328 -0.6981826 -0.6101037
00000000: c1ec bd3f 1ed2 b83f 42c9 d03a 0f67 093f
00000010: 47d7 8ebf a0ba 563e 1f7c 36bd 1399 dc3f
00000020: 1617 0fc0 6e8a cebf a401 b7be 60f8 6d3f
00000030: db72 b03f c464 ba3f 3753 e2bd 6609 183f
00000040: afbf 57bf b1e5 313e 0c59 5b3e bbd6 d23f
00000050: 842f 1dc0 4669 cebf 8c82 e9be 784e 343f
00000060: 7f34 ad3f 4079 b23f 4b09 133d a38d ca3e
00000070: fd35 76bf f205 883e 944e 2d3e fb02 e03f
00000080: 4420 0fc0 5c83 e0bf 69a4 e3be f41b 5e3f
00000090: c230 3d3f 6844 0b3f 48e3 1f40 bad4 c53d
000000a0: f5ec edbf be17 2abf 4edd 183c 5139 923f
000000b0: bd01 cfbd 27aa 6f3f 9f85 84bf b85b f43d
000000c0: c72f 6b3f 5a23 f63e b40e 1c40 14cf 9d3e
000000d0: 17f5 e2bf bd73 17bf 9fd1 7e3e eb6e 863f
000000e0: ccbf 6cbe fbdf 513f 77b2 80bf 0c34 a83b
000000f0: 80c6 363f 80c4 053f 003a 1d40 21a0 773e
00000100: 5354 f5bf 31d1 f2be 8141 8ebd 3d78 a33f
00000110: f3b7 08be 81d2 713f 5e8e 66bf 5678 f2bc
00000120: e53a 443e 7481 713f 7b0a 153f b8ac 723c
00000130: 8801 2e3f 5387 153f 034b a3bf 56d6 90bd
00000140: de8a 763f 9459 c43f f03c 813e 920e 1d40
00000150: 7c40 a73e ce42 643f 41f8 113f fb4b 683d
00000160: eee1 f93e 8229 053f 5b1a a7bf af57 6fbd
00000170: 6001 6a3f ccdb cd3f f6de f33e e571 2240
00000180: 73f8 1f3e d4b7 593f 350f 1e3f fac6 3c3e
00000190: 94fa 283f 8baf bc3e 2dfa babf 7ad6 53be
000001a0: 34a8 843f a4bf b23f dd59 cf3e ead8 2040
000001b0: d1be 20bf 0f58 da3f 8dc1 eabb bb2b 143f
000001c0: 67b4 853f 8acd 523e fcf5 7cbf 49d9 73bf
000001d0: 6345 f8be 45ae 0fbf 5f0e c73d b0fb 1ebf
000001e0: 7853 15bf 9b4d ed3f 1712 3d3c 5bac 4b3f
000001f0: 5950 993f 0e27 c73e ecbb 96bf bcb3 56bf
00000200: 5acc 04bf 2d4c 24bf a279 96bc e21c c8be
00000210: 30b5 5abf 8335 ed3f 7a04 1c3e 83eb 3c3f
00000220: 3bb2 9e3f caf2 0a3e 7546 74bf 6ed3 3abf
00000230: d230 f1be 9864 1dbf 520c 36bd d93a eabe
00000240: 9abd 0ec0 36ef c0be b7ca ba3e 71be d83f
00000250: cc6f 523d 0ca9 62bf 3485 823f 9f0a f93e
00000260: 2c67 a7bf cb28 6b3f fe68 6abe c484 8b3f
00000270: cef2 12c0 211e 27be 3769 b33e 8f64 e03f
00000280: 15bc 82bd b64d 49bf 90ed 543f 9807 0f3f
00000290: fa3f c1bf 2966 6b3f 5dc7 f5be 8b28 913f
000002a0: 0c80 0bc0 9e8f 8fbe e96f ba3e 15c3 bb3f
000002b0: 6ff8 d1bc 2245 5cbf 8604 823f 6169 bd3e
000002c0: 76a1 cdbf a708 603f c24f 0bbf 2c43 913f
000002d0: 549e 553f b026 a2bf 5ec2 ba3e 927d b0bf
000002e0: 4821 af3e de5e d63d b68f f0be bd1b 263f
000002f0: cee8 853d a08e 9d3e 30c2 98bf 6b67 bc3e
00000300: 0c00 653f dae5 a1bf 9cb9 213f 3c96 d3bf
00000310: a609 c83e 8485 65be f722 3dbf c19e 3d3f
00000320: a412 443d 5008 d23e 425a 95bf a7d8 103e
00000330: 52de 293f 6cdd b4bf ca69 063f 647d b9bf
00000340: 508d 943e 2bfb 66bd d738 2fbf 5cc8 2a3f
00000350: b409 82bd 022e 903e 9667 81bf 0d88 c33e
00000360: 09f1 7e3f ea89 31c0 289f f0be 063b 7ebd
00000370: a790 89bf 87cc 92bf ff57 003e 96ec 2bbe
00000380: 0e11 68bf 8c67 0b3f 3b9e a8be e144 e73e
00000390: b72c 6c3f f247 2fc0 dff6 29bf 682d 87bd
000003a0: c21c 77bf 1678 92bf c3e2 753d 15f1 e8bd
000003b0: bc00 7dbf 4f00 223f b8d2 06bf daba f33e
000003c0: 2c3e 603f e66d 2bc0 4868 dfbe a625 9cbc
000003d0: 65e9 9dbf 570b 64bf bfd1 363e cc6e 95bd
000003e0: fcf5 98bf 3c82 213f 6bd9 75be a328 b53e
000003f0: eea3 633e 633e 7540 18bc 32bf c22f 1cbf

bias f4 [160]
-0.7631935 -3.1556787 -5.4216504 3.6524286 -2.537729 -2.2958086 -3.4417353 -2.2471194
1.191964 -1.2211354 -6.221945 -4.720677 -2.920629 -0.3903627 -5.574482 -2.0917766
0.43289047 -0.5065999 0.6912161 -3.1054707 -3.081497 -4.263663 -5.9704027 -2.3267176
-1.8200774 -9.124121 -3.8809564 -2.7051349 1.8701615 -5.0669317 -1.5565871 -3.19728
-1.3378706 -3.970698 -2.9910324 -2.6223788 -3.245171 -3.2412605 -2.9902422 -2.9073927
-5.4944167 -0.37866008 -2.7349722 1.4229593 -2.6399848 -5.935027 -2.5409837 2.5652885
-4.108533 -3.4669752 -2.2207787 1.0465385 -3.6601672 -0.62357104 -1.9238287 -0.20724097
-2.745982 -2.3451176 2.2531562 -4.106158 2.3775609 -2.9105172 -1.5967295 -1.931778
-2.7311556 -3.5605726 -2.9173276 -2.972117 -1.327204 -2.8169827 -3.8550122 -1.5743159
-2.9639544 0.9790743 -4.5030665 -2.389891 -1.3532214 -0.5172834 -1.9610432 -1.9770308
-2.5022042 -1.2682185 -0.7304347 -3.99798 -5.9599533 -1.9853591 -3.643882 -3.0965407
-0.8530281 -0.49918067 -3.0793567 2.621985 0.20543131 -2.5295734 1.2939396 -0.14202987
-3.1784482 -0.11487212 1.4057564 -0.81461775 -5.7298555 -2.7357678 -1.7015921 -1.2958258
-3.4371932 -2.9577696 -0.4591223 0.10745416 -2.012769 -3.8532846 -3.8069603 0.2592495
-3.2700639 -5.337522 -3.7751472 -1.4221823 -3.0536165 -3.778587 -4.6047316 -3.2670937
-2.0530677 0.40098238 -2.3918803 -6.197468 3.8668888 -4.054219 -6.008069 -2.1649473
-3.1263022 -0.71866596 2.5523124 -3.159866 -5.8243504 2.2150586 -4.796828 -0.869824
-2.3411734 -2.3850825 -2.9508421 -0.5904854 -1.8697822 -4.075855 -5.660652 -4.564827
-1.0768347 -0.81688213 -2.9653494 -0.16756831 -3.6487513 -2.5667796 -3.2880821 -2.5250406
-1.4593555 -3.574291 -1.7371594 -0.50260574 -2.9278886 -4.1502132 1.2818109 -3.0480442
00000000: a660 43bf a4f6 49c0 297e adc0 64c1 6940
00000010: 276a 22c0 87ee 12c0 6445 5cc0 ced0 0fc0
00000020: 4792 983f 2a4e 9cbf 2c1a c7c0 c90f 97c0
00000030: 96eb 3ac0 9fdd c7be 2862 b2c0 abdf 05c0
00000040: d2a3 dd3e 88b0 01bf 8af3 303f 08c0 46c0
00000050: 3f37 45c0 ed6f 88c0 8a0d bfc0 f1e8 14c0
00000060: 4cf8 e8bf 66fc 11c1 9761 78c0 ee20 2dc0
00000070: 7461 ef3f 4e24 a2c0 3f3e c7bf 3ca0 4cc0
00000080: 583f abbf eb1f 7ec0 136d 3fc0 0ed5 27c0
00000090: e2b0 4fc0 d070 4fc0 2160 3fc0 b912 3ac0
000000a0: 43d2 afc0 bcdf c1be c909 2fc0 8823 b63f
000000b0: 83f5 28c0 beeb bdc0 7a9f 22c0 b02d 2440
000000c0: 1a79 83c0 ece2 5dc0 3d21 0ec0 f9f4 853f
000000d0: 2e40 6ac0 5aa2 1fbf 0540 f6bf fa36 54be
000000e0: 2bbe 2fc0 6816 16c0 b633 1040 a565 83c0
000000f0: f529 1840 ea45 3ac0 a261 ccbf 8044 f7bf
00000100: 41cb 2ec0 6ce0 63c0 7fb5 3ac0 2a37 3ec0
00000110: d2e1 a9bf 7249 34c0 85b8 76c0 2f83 c9bf
00000120: 6eb1 3dc0 9da4 7a3f 1f19 90c0 f9f3 18c0
00000130: 5c36 adbf af6c 04bf 7703 fbbf 580f fdbf
00000140: 1d24 20c0 fc54 a2bf c5fd 3abf e8de 7fc0
00000150: f0b7 bec0 3f20 febf 5d35 69c0 b92d 46c0
00000160: 0d60 5abf 9c94 ffbe 2e14 45c0 9ace 2740
00000170: 965c 523e 88e4 21c0 d09f a53f 4770 11be
00000180: b26b 4bc0 1342 ebbd d3ef b33f ca8a 50bf
00000190: fa5a b7c0 d216 2fc0 c5cd d9bf 9fdd a5bf
000001a0: f9fa 5bc0 194c 3dc0 1412 ebbe ed10 dc3d
000001b0: 35d1 00c0 379c 76c0 3da5 73c0 5abc 843e
000001c0: ba48 51c0 fbcc aac0 039c 71c0 120a b6bf
000001d0: 746e 43c0 5fd4 71c0 f659 93c0 1018 51c0
000001e0: 7665 03c0 904d cd3e 9114 19c0 a851 c6c0
000001f0: 1b7b 7740 29bc 81c0 1a42 c0c0 7f8e 0ac0
00000200: 5615 48c0 7efa 37bf 1659 2340 3f3b 4ac0
00000210: 1461 bac0 85c3 0d40 9d7f 99c0 c9ac 5ebf
00000220: c9d5 15c0 31a5 18c0 99da 3cc0 0d2a 17bf
00000230: 0655 efbf 676d 82c0 1024 b5c0 1013 92c0
00000240: b8d5 89bf 301f 51bf 49c8 3dc0 0797 2bbe
00000250: 2485 69c0 1e46 24c0 f06f 52c0 449a 21c0
00000260: 29cc babf 2fc1 64c0 3d5b debf c5aa 00bf
00000270: 8762 3bc0 8cce 84c0 6112 a43f 2813 43c0

weight f4 [320, 160]
-0.12879768 -0.16878125 0.07060145 0.0067153987 0.22094071 -0.037671544 0.105863914 -0.112693995
-0.0629756 -0.18839268 -0.20953006 -0.32240385 -0.072117016 0.14048347 -0.4257209 -0.05699397
0.18501477 -0.5309273 -0.057581943 0.22508219 -0.2863962 0.12626947 -0.083815105 0.016837215
-0.24582945 0.06583432 -0.31138918 -0.15855886 -0.22830978 -0.052480172 0.23382586 -0.006757127
-0.6715488 -0.27453685 -0.33675924 -0.030336568 -0.21525751 0.25055125 -0.058466822 0.021239614
0.07519694 -0.36925593 -0.15465653 -0.2817188 -0.33479998 0.007033942 -0.29787794 0.13100241
-0.13016753 -0.48883656 -0.06756211 -0.24266027 -0.27669927 -0.11338417 -0.16466059 -0.347408
-0.045106307 -0.27184832 -0.3547351 -0.15577897 -0.27219465 0.16233034 0.070480525 -0.20585048
-0.22489116 -0.07250745 -0.23804255 -0.5008133 -0.0035691906 -0.4830544 -0.48142397 -0.20829925
-0.06952342 -0.2022554 -0.017591126 0.102129504 0.30780473 -0.6493419 0.1178562 -0.040736403
0.0077085886 0.12851833 -0.1455828 -0.26541734 -0.22414032 -0.26402834 -0.016057285 -0.30812392
-0.006160347 -0.1416231 0.0074083167 -0.12388796 -0.18284611 -0.00020775995 -0.19554918 0.023626659
0.038756713 -0.110773586 -0.3211529 -0.18566205 -0.1526823 -0.24417946 -0.09337766 0.06418798
-0.3731136 -0.16061915 0.09612762 -0.28772315 -0.25933337 0.026566256 -0.27031702 0.13222301
0.23692222 -0.08324176 0.10561544 0.00359985 -0.21371053 -0.2963249 -0.29716566 -0.20946203
-0.29955125 -0.029696237 -0.3412843 0.14657536 -0.024643306 -0.20275106 -0.052478686 0.13224095
0.022845462 -0.11096745 -0.24548903 -0.16359316 0.3731252 -0.09592514 -0.20748417 -0.13578321
0.40948 -0.24790876 0.048467387 -0.1274987 0.086712316 -0.14744106 0.08143357 -0.46552292
-0.2638638 -0.27240324 -0.272799 -0.14316668 -0.41193926 -0.13789266 -0.35392666 0.012492372
-0.20667268 -0.39059922 -0.41912368 -0.21397454 -0.079959 -0.28985652 -0.18913275 0.025769059
-0.3210748 -0.7934019 -0.123621956 -0.322994 -0.6002019 -0.4862033 -0.31895822 0.079365395
0.0973832 -0.716331 -0.90880126 -0.39435253 0.3079179 -0.07981296 0.14215335 -0.42862046
-0.6165828 -0.35611737 -0.50989825 -0.7070616 -0.9023698 -0.3828656 -0.14011727 -0.4103712
-0.02661699 -0.2562023 -0.31570736 -0.07921003 -0.20874932 0.5449887 -0.1734288 -0.5654602
0.24006689 -0.15177117 -0.041003212 -0.6590439 -0.6165582 0.017418219 -0.578267 -0.059708674
-0.21795009 -0.18246236 0.16550195 0.17494613 0.24731702 -0.18311563 0.34283122 -0.41520482
-0.039859027 -0.095045276 -0.06961062 0.47069514 -0.018870426 0.16712005 -0.52925223 -1.0061792
-0.52190423 -0.7936102 -0.047131486 -0.011231531 -0.6077336 -0.88033587 -0.37257013 -0.41834193
-0.18012668 -0.41289437 0.15677688 -0.84855443 0.044147734 -0.7424669 -0.67994386 -0.43161896
-0.16182521 -0.7222088 0.10640564 -0.43271095 -0.12503947 -0.2971502 -0.57157755 -0.53304505
-1.4764999 -1.1316501 0.2859353 -0.9309424 0.06944367 -0.41524172 -0.8669364 -0.19317636
-0.054090276 -0.1336144 -0.46072173 -0.5540885 -0.1043783 -0.18879142 -0.23085268 -0.32748502
00000000: 8ae3 03be fed4 2cbe 7e97 903d d90c dc3b
00000010: 483e 623e 7a4d 1abd 2ecf d83d 1ccc e6bd
00000020: 5af9 80bd 03ea 40be 0c8f 56be 1e12 a5be
00000030: 16b2 93bd e6da 0f3e 17f8 d9be 8272 69bd
00000040: 8374 3d3e daea 07bf 0bdb 6bbd f27b 663e
00000050: 86a2 92be c94c 013e 41a7 abbd 33ee 893c
00000060: b7ba 7bbe 25d4 863d 676e 9fbe 415d 22be
00000070: 0aca 69be 73f5 56bd 0c70 6f3e e46a ddbb
00000080: 9fea 2bbf 1890 8cbe b56b acbe 6584 f8bc
00000090: 776c 5cbe 4148 803e e87a 6fbd b3fe ad3c
000000a0: da00 9a3d 1d0f bdbe 485e 1ebe 723d 90be
000000b0: e76a abbe fb7c e63b 7583 98be 7f25 063e
000000c0: a34a 05be c948 fabe 015e 8abd ef7b 78be
000000d0: 87ab 8dbe f635 e8bd c99c 28be 76df b1be
000000e0: 64c1 38bd b42f 8bbe d79f b5be 8684 1fbe
000000f0: 195d 8bbe ed39 263e 1858 903d 78ca 52be
00000100: de49 66be c97e 94bd 6dc1 73be 4d35 00bf
00000110: 15e9 69bb e852 f7be 347d f6be 664c 55be
00000120: 4b62 8ebd 0a1c 4fbe 441b 90bc 4629 d13d
00000130: 9598 9d3e 453b 26bf 975e f13d 37db 26bd
00000140: 5498 fc3b 4f9a 033e a813 15be c8e4 87be
00000150: 0a85 65be b92e 87be 918a 83bc 6bc2 9dbe
00000160: bcdc c9bb a505 11be 77c1 f23b f9b8 fdbd
00000170: 033c 3bbe 23da 59b9 0b3e 48be b28c c13c
00000180: 5cbf 1e3d 43dd e2bd 276e a4be 311e 3ebe
00000190: c058 1cbe 2e0a 7abe c93c bfbd fd74 833d
000001a0: bf08 bfbe 5979 24be 8fde c43d 7350 93be
000001b0: 58c7 84be 7aa1 d93c fe66 8abe 7865 073e
000001c0: bd9b 723e a87a aabd e84c d83d 76eb 6b3b
000001d0: efd6 5abe e6b7 97be 1926 98be 377d 56be
000001e0: c85e 99be 8645 f3bc d1bc aebe da17 163e
000001f0: c2e0 c9bc f99d 4fbe e4f3 56bd 2c6a 073e
00000200: 6826 bb3c e742 e3bd 7a61 7bbe f784 27be
00000210: 440a bf3e 6674 c4bd bb76 54be c10a 0bbe
00000220: 5da7 d13e cbdb 7dbe bd85 463d 058f 02be
00000230: 3a96 b13d cafa 16be a5c6 a63d 0559 eebe
00000240: 2819 87be 7078 8bbe 4fac 8bbe 499a 12be
00000250: b4e9 d2be bc33 0dbe e035 b5be ceac 4c3c
00000260: 01a2 53be 9ffc c7be 6197 d6be 241c 5bbe
00000270: 8bc1 a3bd 1368 94be 04ac 41be a219 d33c
00000280: eb63 a4be 631c 4bbf 822d fdbd 785f a5be
00000290: d5a6 19bf a4ef f8be 7e4e a3be 538a a23d
000002a0: d870 c73d 7861 37bf 33a7 68bf 93e8 c9be
000002b0: 6aa7 9d3e fa74 a3bd a690 113e 2474 dbbe
000002c0: 5fd8 1dbf 0455 b6be b188 02bf fd01 35bf
000002d0: b501 67bf f606 c4be e77a 0fbe 2d1c d2be
000002e0: e00b dabc f32c 83be 65a4 a1be de38 a2bd
000002f0: 62c2 55be 6184 0b3f 5297 31be 00c2 10bf
00000300: 18d4 753e e769 1bbe fcf2 27bd 1ab7 28bf
00000310: c2d6 1dbf a7b0 8e3c 4e09 14bf 1591 74bd
00000320: 4f2e 5fbe 6ad7 3abe 5879 293e 1425 333e
00000330: ac40 7d3e aa82 3bbe 9387 af3e ba95 d4be
00000340: 3843 23bd 19a7 c2bd 0390 8ebd f4fe f03e
00000350: 2796 9abc 8521 2b3e 137d 07bf 7bca 80bf
00000360: 849b 05bf 0a2a 4bbf f20c 41bd 7504 38bc
00000370: 6e94 1bbf b15d 61bf 83c1 bebe ea30 d6be
00000380: 2173 38be e466 d3be 1e8a 203e dd3a 59bf
00000390: 41d4 343d 5012 3ebf cd10 2ebf 29fd dcbe
000003a0: 82b5 25be ade2 38bf 33eb d93d 4a8c ddbe
000003b0: 590a 00be 1224 98be e852 12bf a475 08bf
000003c0: f3fd bcbf e9d9 90bf 1d66 923e 3e52 6ebf
000003d0: 7c38 8e3d 909a d4be 8bef 5dbf 06d0 45be
000003e0: c48d 5dbd 37d2 08be b8e3 ebbe bed8 0dbf
000003f0: 4ac4 d5bd 8a52 41be a564 6cbe 1eac a7be

bias f4 [320]
0.070508145 0.9185715 0.8004993 1.048668 0.92617214 1.0449902 1.3878824 -0.4759864
-0.19201632 0.40111318 0.7667261 -0.24040465 0.809904 -0.341145 -0.037077434 -0.08868125
-0.29791746 -0.64161533 0.0035822846 -0.3648034 0.06660409 1.074908 0.19483769 1.057505
-0.04465431 -0.11859676 -0.071373895 0.0064226743 -0.38705665 0.47256634 0.007969984 -0.17255245
0.1901445 -0.17362143 -0.17585714 1.2500983 0.016071409 0.927381 -0.07070376 0.23630804
-0.09288694 0.1019425 -0.27157453 -0.5685105 -0.040758364 0.13843198 -0.58398265 0.8481945
1.584696 1.4284712 -0.062983766 0.91361314 0.66766644 1.1805472 0.0017653973 -0.054404862
-0.09710916 -0.064557835 -0.19063982 -0.25459388 -0.042324215 0.31968904 0.6386872 1.3319987
0.3892964 -0.19583534 -0.11012112 0.15680116 0.91265196 -0.47433954 -0.037278127 0.16809742
1.3284068 0.23175539 1.4737084 -0.31766933 0.1930094 0.40050864 -0.12596434 2.0766246
0.041584924 -0.0981769 -0.22758009 0.78571826 0.09847009 0.29981518 0.41035187 -0.018403135
-0.17413959 -0.086891636 0.92398864 -0.40373865 -0.039958008 -0.04600165 -0.6071319 -1.5225999
-0.8763719 0.33204854 -0.10825959 0.7444585 1.3768753 -0.042850554 0.55834794 -0.15401572
-0.090605326 -0.18842106 -0.1452215 -0.09058161 -0.071440145 1.4289595 -0.26441878 -0.005761359
0.009941503 0.36163637 -0.13112482 -0.07613291 -0.18777017 -0.051026326 0.011828905 -0.19806741
-0.2776035 0.1565087 -0.3489741 -0.11454244 -0.10818662 -0.09767849 1.6502782 -0.07180347
1.1194202 1.1273001 -0.28504294 1.5020415 -0.08724913 -0.2825239 0.61233115 -0.21057595
-0.054496694 0.2757479 -0.06269578 0.3295767 1.0013133 0.0870227 0.59312546 4.245867
1.3823453 1.1905054 -0.15702158 -0.11886395 -0.11527574 0.4051689 -0.29942214 1.0652945
-0.636242 -0.060364876 0.023123922 -0.033675507 0.85567415 -0.37627137 0.594185 -0.018437672
-0.011592211 -0.4970814 1.9326564 -0.3459648 -0.6060563 0.55726284 2.9626021 0.35208905
1.9185228 0.9265509 -0.11533732 0.9757051 -0.2167395 -0.11283552 0.8852518 1.2158617
-0.1651281 -0.5252072 -0.08085536 0.053893376 -0.26264057 -0.40121114 0.38894367 -0.5147029
-0.13175498 -0.13018373 0.1719115 -0.20542625 0.48353037 -0.009236609 0.2723874 -0.0013568455
0.28483692 1.2558838 -0.22215219 -0.4781206 -0.08613922 -0.037089817 -0.6660807 1.0293281
-0.1492786 0.3656469 0.7269043 0.76578355 0.9163861 0.9833668 6.614258 0.74951893
0.41512316 -0.048878856 -0.0079264855 -0.20183696 1.4892774 0.12290142 -0.07670591 1.5440311
-0.10750649 -0.46186164 -0.11654514 1.9455466 0.049460396 -0.71564853 0.15319632 -0.059869617
0.6895719 -0.60402024 -0.13975233 0.5828251 0.090666175 -0.95861274 -0.15003422 0.12693612
-0.11634306 -0.080881715 0.89734155 1.2258936 -0.07287729 -0.33644542 0.021285726 -0.056537542
-0.050849248 -0.07506554 -0.07487431 1.1827879 -0.1644001 0.1636757 -0.093048766 1.8079234
1.8921092 0.052584253 -0.12688512 -0.34728876 1.5829743 0.32846314 -0.14343666 0.016462626
00000000: 9366 903d 8027 6b3f 86ed 4c3f c13a 863f
00000010: 9e19 6d3f 3dc2 853f 21a6 b13f 7db4 f3be
00000020: ed9f 44be b55e cd3e 2948 443f a32c 76be
00000030: de55 4f3f 8faa aebe 82de 17bd 849e b5bd
00000040: a388 98be e740 24bf c3c4 6a3b 83c7 babe
00000050: ba67 883d 9696 893f 8883 473e 535c 873f
00000060: 70e7 36bd dce2 f2bd 7a2c 92bd 4c75 d23b
00000070: 4a2c c6be 37f4 f13e 8994 023c 97b1 30be
00000080: 3db5 423e d1c9 31be e513 34be 3903 a03f
00000090: 30a8 833c d768 6d3f 22cd 90bd bcfa 713e
000000a0: 823b bebd 3bc7 d03d d10b 8bbe e789 11bf
000000b0: 3ef2 26bd 1dc1 0d3e e37f 15bf 4623 593f
000000c0: 52d7 ca3f 25d8 b63f a2fd 80bd 8de2 693f
000000d0: 30ec 2a3f 2c1c 973f e764 e73a a2d7 5ebd
000000e0: 2be1 c6bd e636 84bd 1637 43be 215a 82be
000000f0: 285c 2dbd 48ae a33e 0181 233f ef7e aa3f
00000100: dc51 c73e 0f89 48be 2f87 e1bd 7c90 203e
00000110: 8fa3 693f a2dc f2be f3b0 18bd bb21 2c3e
00000120: 3c09 aa3f 4951 6d3e 7aa2 bc3f 8ea5 a2be
00000130: 42a4 453e 780f cd3e ccfc 00be 6be7 0440
00000140: f454 2a3d f810 c9bd c10a 69be d524 493f
00000150: b0aa c93d 6081 993e a419 d23e 2cc2 96bc
00000160: a651 32be 3ef4 b1bd 858a 6c3f d5b6 cebe
00000170: 02ab 23bd 3a6c 3cbd ff6c 1bbf 8ee4 c2bf
00000180: e959 60bf 4402 aa3e 34b7 ddbd d594 3e3f
00000190: 733d b03f 1084 2fbd e4ef 0e3f 4cb6 1dbe
000001a0: 498f b9bd 73f1 40be f2b4 14be da82 b9bd
000001b0: 364f 92bd 25e8 b63f e661 87be c8c9 bcbb
000001c0: b0e1 223c 6728 b93e 9645 06be 92eb 9bbd
000001d0: d346 40be fb00 51bd 06ce 413c 2fd2 4abe
000001e0: 0c22 8ebe d143 203e bcac b2be 3a95 eabd
000001f0: f290 ddbd a90b c8bd 513c d33f b30d 93bd
00000200: 2949 8f3f 5f4b 903f 26f1 91be e542 c03f
00000210: acaf b2bd f9a6 90be bcc1 1c3f 39a1 57be
00000220: ed37 5fbd d42e 8d3e a566 80bd 47be a83e
00000230: 092b 803f f538 b23d 12d7 173f 24de 8740
00000240: b1f0 b03f 7b62 983f 44ca 20be f16e f3bd
00000250: b015 ecbd 4c72 cf3e dc4d 99be 925b 883f
00000260: c1e0 22bf 2941 77bd 616e bd3c 54ef 09bd
00000270: 760d 5b3f a4a6 c0be 821c 183f 9a0a 97bc
00000280: 42ed 3dbc 7481 febe 4961 f73f 4c22 b1be
00000290: 8126 1bbf c7a8 0e3f 469b 3d40 0445 b43e
000002a0: 2892 f53f 7132 6d3f f935 ecbd cfc7 793f
000002b0: f6f0 5dbe 4f16 e7bd dd9f 623f 5ba1 9b3f
000002c0: 5717 29be fb73 06bf 7f97 a5bd 4dbf 5c3d
000002d0: d378 86be 8c6b cdbe a023 c73e 92c3 03bf
000002e0: c7ea 06be e24e 05be 9109 303e 425b 52be
000002f0: 4b91 f73e 2555 17bc 5c76 8b3e 2ed8 b1ba
00000300: 25d6 913e cdc0 a03f dd7b 63be 39cc f4be
00000310: c269 b0bd 7eeb 17bd 4484 2abf 06c1 833f
00000320: 7ddc 18be 1236 bb3e 6616 3a3f 640a 443f
00000330: 4898 6a3f edbd 7b3f 00a8 d340 79e0 3f3f
00000340: 068b d43e 3235 48bd 17de 01bc 59ae 4ebe
00000350: a4a0 be3f bdb3 fb3d fd17 9dbd d0a2 c53f
00000360: 5d2c dcbd 2179 ecbe 38af eebd ac07 f93f
00000370: fc96 4a3d be34 37bf 7fdf 1c3e d839 75bd
00000380: c987 303f 12a1 1abf 3c1b 0fbe 0734 153f
00000390: 30af b93d a567 75bf 92a2 19be 8bfb 013e
000003a0: 4545 eebd 50a5 a5bd 2db8 653f 15ea 9c3f
000003b0: b040 95bd 9342 acbe 675f ae3c e993 67bd
000003c0: 4d47 50bd f6bb 99bd b457 99bd 9865 973f
000003d0: 8058 28be 9a9a 273e 5a90 bebd 096a e73f
000003e0: a230 f23f 9662 573d 2cee 01be d5cf b1be
000003f0: e79e ca3f 522c a83e 0fe1 12be a1dc 863c

weight f4 [1, 320]
0.06428244 0.014589524 0.019045195 -0.092544295 0.3109805 0.037881188 0.005208869 -0.00464625
0.024012545 0.12650967 0.28619903 0.045473646 0.37491995 0.014604369 0.001304243 -0.0067777233
0.07251678 0.3100569 0.121497445 0.1474299 0.08636098 0.12584059 0.16640694 0.31740493
0.0120965615 0.021656405 0.020467754 0.27632198 0.057584926 -0.042013712 0.039722577 0.027910573
0.15097412 0.2607399 0.023000611 0.13862811 -0.009936323 0.4600956 0.03759306 0.28692994
0.01981632 0.06620733 0.20591334 0.033541482 -0.00070632854 0.043135695 -0.027782153 0.35212713
0.104907334 0.3528406 -0.0018476644 0.163377 0.18591341 0.18172829 -0.027708462 0.021098401
-0.023597121 0.02387094 0.0022698992 0.1870283 0.0048804907 0.06306831 -0.08606391 0.13464396
0.01227964 0.17759259 0.012002536 0.12876187 0.0851372 0.06709522 0.006566552 0.23762032
0.38321579 -0.004416236 0.10673406 0.22835429 0.02569779 0.061435208 0.0054107276 0.3259904
0.2517682 0.050701104 0.006647855 -0.019311493 -0.053936865 0.12589179 0.14900596 -0.019398965
-0.05143079 0.11992443 0.018729066 0.0051798 0.05173775 -0.0010791344 0.058363277 0.092677616
-0.040621534 0.32651234 0.016592152 0.17263116 0.2056125 0.1206379 0.12464331 0.049858466
0.0036710075 0.11122544 0.04468596 0.108631514 0.13946834 0.39599288 0.002356528 0.03265726
0.06785352 0.4375539 -0.0051647597 0.11850077 0.04983935 0.050495677 -0.029512197 -0.010615903
-0.034960978 0.039555434 -0.034908928 0.011512686 -0.0058142734 0.16425155 0.3719806 0.10968343
0.0017361077 0.18315227 -0.046532642 0.11805375 0.16465208 0.004569332 0.21433774 0.090656765
-0.009523943 0.14426972 0.020995991 0.15685157 0.11536445 0.10567592 0.0676227 0.3930249
0.33976713 0.27301678 -0.030609326 0.043523572 0.02676642 -0.008650875 0.017021032 0.04466844
0.069559924 -0.004818129 -0.006150014 0.006318206 0.0732268 0.092166655 0.69726735 -0.025160713
0.07928362 0.058438037 0.23805067 -0.015190101 -0.0115308575 0.49610725 0.1924878 -0.1327014
0.7211809 0.16755445 -0.016440008 0.048710786 0.06434174 0.27785298 0.28237385 0.24654503
-0.0021354666 0.03783488 0.019164104 0.016963026 -0.031364948 0.5401333 0.2811801 -0.07732958
0.056674883 0.04559517 0.27137 -0.005038657 0.06659719 -0.026507922 0.08387268 0.1448905
0.012437273 0.26075327 -0.011432924 0.03740932 0.02044805 0.09983346 -0.025832921 0.11691734
0.010724779 0.15235473 0.26889017 0.42365545 0.06833338 0.08477035 0.23032159 0.1528556
0.4368854 0.0054991744 -0.019787375 0.018237233 0.2363841 0.022347642 0.005329407 0.25551236
0.34817708 0.020765983 0.1995096 0.24105565 0.026432743 0.13042627 0.072147936 0.004369163
0.28929523 0.027152814 -0.066094466 0.05810749 0.052825037 0.23463221 0.008898097 0.069074675
-0.04645297 0.11784126 0.08414765 0.3223486 0.046108667 0.12235389 0.06127632 0.035044536
0.006203747 -0.009274414 0.05987722 0.19101539 -0.0043275035 0.05513859 0.13342823 0.72695804
0.25454107 0.036050834 0.020325635 0.0029476534 0.043504737 -0.03518312 0.42023787 -0.01677043
00000000: 83a6 833d e608 6f3c ab04 9c3c dd87 bdbd
00000010: d638 9f3e 4e29 1b3d 29af aa3b 923f 98bb
00000020: f5b5 c43c c08b 013e ae88 923e 9342 3a3d
00000030: 82f5 bf3e 2a47 6f3c 22f3 aa3a aa17 debb
00000040: ad83 943d c7bf 9e3e a7d3 f83d ddf7 163e
00000050: 07de b03d 5bdc 003e 9566 2a3e e682 a23e
00000060: a830 463c c668 b13c feab a73c 137a 8d3e
00000070: 2cde 6b3d 9216 2cbd 24b4 223d b7a4 e43c
00000080: f698 1a3e b37f 853e c76b bc3c 87f4 0d3e
00000090: f6cb 22bc a791 eb3e 2efb 193d 7be8 923e
000000a0: d655 a23c b597 873d f2da 523e cb62 093d
000000b0: e828 39ba 0eaf 303d 6697 e3bc 024a b43e
000000c0: a8d9 d63d 86a7 b43e 542d f2ba 4d4c 273e
000000d0: 1660 3e3e fb16 3a3e dbfc e2bc 8ed6 ac3c
000000e0: c04e c1bc fd8c c33c 97c2 143b 5984 3f3e
000000f0: 86ec 9f3b f529 813d 4642 b0bd 1be0 093e
00000100: 8b30 493c d5da 353e 49a6 443c 27da 033e
00000110: 6a5c ae3d 3869 893d 3b2c d73b be52 733e
00000120: dc34 c43e 13b6 90bb 6397 da3d b5d5 693e
00000130: 2c84 d23c 7ca3 7b3d 794c b13b 37e8 a63e
00000140: c3e7 803e f6ab 4f3d 40d6 d93b 2333 9ebc
00000150: e7ec 5cbd c7e9 003e 0595 183e 94ea 9ebc
00000160: 18a9 52bd f19a f53d b36d 993c 50bb a93b
00000170: f7ea 533d be71 8dba 550e 6f3d c3cd bd3d
00000180: c462 26bd a02c a73e 44ec 873c 39c6 303e
00000190: 158c 523e 0111 f73d fe44 ff3d 6438 4c3d
000001a0: 4995 703b 2aca e33d a008 373d 337a de3d
000001b0: cad0 0e3e 94bf ca3e fb6f 1a3b 9ec3 053d
000001c0: c9f6 8a3d 1107 e03e 253d a9bb 88b0 f23d
000001d0: 5924 4c3d 8ed4 4e3d 90c3 f1bc 53ee 2dbc
000001e0: 3e33 0fbd e104 223d aafc 0ebd b49f 3c3c
000001f0: a985 bebb 8f31 283e 3e74 be3e b5a1 e03d
00000200: 1c8e e33a 458c 3b3e 0399 3ebd 2ac6 f13d
00000210: 8e9a 283e 56ba 953b 5a7b 5b3e 41aa b93d
00000220: 500a 1cbc 71bb 133e c9ff ab3c b39d 203e
00000230: 3244 ec3d 9e6c d83d c57d 8a3d 8f3a c93e
00000240: f5f5 ad3e dbc8 8b3e 69c0 fabc c645 323d
00000250: 4045 db3c 66bc 0dbc b16f 8b3c 41f6 363d
00000260: 6f75 8e3d 65e1 9dbb 0e86 c9bb f408 cf3b
00000270: eff7 953d dfc1 bc3d 1d80 323f d71d cebc
00000280: 735f a23d b95c 6f3d 8ec3 733e e7df 78bc
00000290: eceb 3cbc c501 fe3e 861b 453e e0e2 07be
000002a0: 509f 383f 6593 2b3e 32ad 86bc f684 473d
000002b0: 9ac5 833d bf42 8e3e 4e93 903e 4d76 7c3e
000002c0: 2ff3 0bbb bff8 1a3d 0afe 9c3c 0bf6 8a3c
000002d0: 8878 00bd 2d46 0a3f d7f6 8f3e f95e 9ebd
000002e0: ec23 683d 00c2 3a3d 02f1 8a3e 521b a5bb
000002f0: 1c64 883d 2427 d9bc 71c5 ab3d 2d5e 143e
00000300: b4c5 4b3c 7481 853e 2951 3bbc 843a 193d
00000310: ab82 a73c 7c75 cc3d 909f d3bc 5c72 ef3d
00000320: fcb6 2f3c e102 1c3e f9ab 893e 5ee9 d83e
00000330: 5ff2 8b3d 149c ad3d 6cd9 6b3e 2e86 1c3e
00000340: 71af df3e 6b32 b43b 2219 a2bc 4066 953c
00000350: ac0e 723e 6712 b73c 4ea2 ae3b 84d2 823e
00000360: 4444 b23e 6c1d aa3c 3f4c 4c3e 4bd7 763e
00000370: 7b89 d83c 778e 053e 4cc2 933d 322b 8f3b
00000380: 811e 943e 946f de3c 895c 87bd 1f02 6e3d
00000390: 115f 583d 6d43 703e 53c9 113c 0677 8d3d
000003a0: 7845 3ebd c256 f13d 9a55 ac3d e00a a53e
000003b0: 71dc 3c3d ad94 fa3d e1fc 7a3d dc8a 0f3d
000003c0: cd48 cb3b b6f3 17bc d141 753d 8a99 433e
000003d0: bbcd 8dbb 01d9 613d 69a1 083e ec19 3a3f
000003e0: 3553 823e 0aaa 133d f281 a63c 6b2d 413b
000003f0: 0632 323d 2d1c 10bd 6b29 d73e 2462 89bc
