models/simple_tag/A2C-centralized/agent_0/critic_0.pt (torch, 13842 bytes, 5 tensors)

weight f4 [32, 10]
00000000: ec68 73bf 0c87 063f a4a6 873e 1442 0140
00000010: c970 ff3d aac7 cabf 3b3a 1ec0 ded1 8d40
00000020: 2952 9dbe e751 c2bf 1cc8 033f 3541 70bd
00000030: 252b febe 2fd6 f1bf 551c 843f 4e46 80bf
00000040: 506a 3f3f 5a3f d5be 22f1 8d3f 792d a33e
00000050: 9478 5940 f9d5 d83e a64a aa40 e0ab 823e
00000060: a783 74be ecbd e53e 3b96 02bd 2a85 8ebf
00000070: a3ed 8a3e 2af4 603f 1582 a7bf 626b 9a3f
00000080: 5188 12bf cfa2 b640 43a1 a0be 3d02 d83e
00000090: 6a06 28bf ce1f 3a3b 24e1 01bf 28c2 5b3f
000000a0: f9e6 f73f b816 243f 294e 6ebf 580e 9bbf
000000b0: 7169 77c0 d83b 0340 d6fa 1dbf 0bab cb3e
000000c0: 149b c1bf a586 02bf ad55 81bf c175 2f3e
000000d0: d43b 98bf a773 9dbd 871c b93f 7a5d d63f
000000e0: 60b2 05bf b6cc e7be 1452 223f bd4f 433f
000000f0: 109a 62bf cf20 803d 630f 853e ae68 003f
00000100: 2b60 bb3d 06e7 3ebc da9d 383e 9b24 1fbe
00000110: 13b1 0b41 0103 93be a860 9ebe 45fe 0f3f
00000120: 72c6 06bf 154c 6dbe e9d9 1c3f 6190 0dbd
00000130: abf5 b4bf 8873 d4bf eddd 503f 33d7 013f
00000140: d2af d23d 7fcc a33f 720f 77bf 6bc3 ee3c
00000150: 420c 45c0 1a9c b8be b3c7 173f c1de c33e
00000160: 2ded 3a3e 33d0 82bf cb39 edbf 09ac 1340
00000170: 9d18 74c0 c689 8f40 ba7b ed3f 5480 3c3f
00000180: f368 043c c9dd b1bf eb09 933e 4f7d 233f
00000190: 7859 933c 0c8d b03c 8c1b 3b3f 2fe8 dabe
000001a0: e623 b640 b410 893e 4511 063f 849f 3ebe
000001b0: 512a 8a3e 756f d2bd 6f99 5640 f84c db3e
000001c0: a4e3 7b40 1bb7 1e3f c2ed e93d 19b1 82be
000001d0: 8f32 9e3e 329f 18bf 07b1 2a3f 2a59 5d3f
000001e0: a55c 01bf bc2f 2f3f e185 bdbe 3594 0b3e
000001f0: 5731 b3bf 5fe2 3c3f a61f 923f 627b a8bf
00000200: 2dda c53e 184e 083f 0ad5 823f be4a 0f40
00000210: caa9 0fc0 2be4 973f e45f e6bd 56cd 6c3e
00000220: 7399 8540 54bc 0d40 7e0c fb3d 3a71 943e
00000230: faa2 85be b21f 073f 72be 5f3f 8e66 0340
00000240: b855 01c0 732d 4ebf 6b23 dbbd f678 f7be
00000250: 3479 093f 76dc 0040 2e99 623c 5fdf 9b3e
00000260: 1e73 16ba 40b8 fcbd 5f0f 24be 6122 13be
00000270: f54b a640 e01e 9ec0 d4cf ad3e ca3d 7d3e
00000280: 9f20 04bc d21e f33f 125f 79bf d661 9bbf
00000290: 8b3d 8c3e 93ad 6e3e 160e 02bf 9011 d8c0
000002a0: 53d9 6d3e 7b83 a83d 51df 65bf 513b 923e
000002b0: e2a5 e9be fd3f e2be 2083 88be c020 2e3f
000002c0: f974 b33f 0d00 83bf ae26 9ec0 8d34 8dbf
000002d0: 9461 a33e 31cb af3e 0447 17c0 3bcd e7bf
000002e0: 39df dcbe 1226 33be 15df 5f3e 73ee 94bf
000002f0: b4bd b93f 072a f0be 9de6 793f 26ab d93e
00000300: 01e5 b3be d172 fcbf 6be0 313f bea9 35bf
00000310: a25b e7be f5bd 8bbf 73de 9b3f 723f 4bbe
00000320: c7b4 793e 2188 c03e 5109 97bf af9c f7bd
00000330: 1954 28bf e95f 39bf 58f4 1d3f 3994 8c3e
00000340: 9740 fac0 bbc6 123f 3777 27bf 4b48 9bbe
00000350: 55a9 97bd c91f 373f 8fc1 fcbe ab8a 1bbf
00000360: 98c7 5f40 5442 0841 9bed a9be 907b a6be
00000370: f274 8bbf a852 ae3f 00e7 18bf 3b4f cabf
00000380: 8491 c43e 2c07 8cbc 5ff4 3040 ec62 15c1
00000390: cf2b aa3e 25fe 313e f1f1 b23e 3af2 2fbf
000003a0: a7b5 303f fd11 633f 574d 9a3e 8234 ad3e
000003b0: ab63 46bf d97b 2bbf 18b4 9c3e a314 0540
000003c0: dc70 0f3f 19ef c3be d9bd 9a3e 4dc7 43bf
000003d0: 3e61 983f 572e 9d3e c14c 4b3e cd2f 40c0
000003e0: a30d c63f 0084 f2bf a766 31c0 68c8 aa3f
000003f0: 82e4 20bf 91a7 0a40 4440 99be 5a24 35bf
-0.95081973 0.52549815 0.26494324 2.019658 0.12472684 -1.5842183 -2.472304 4.4318686
-0.30726746 -1.5181245 0.5147722 -0.058655936 -0.49642292 -1.8893489 1.0321146 -1.0021455
0.74771595 -0.41649896 1.1089213 0.3187063 3.3979845 0.42350748 5.3216124 0.25521755
-0.23878346 0.4487146 -0.031881552 -1.1134388 0.27134427 0.87872565 -1.3086573 1.2064021
-0.5723925 5.707374 -0.31373033 0.42189208 -0.6563479 0.0028400305 -0.5073416 0.85843134
1.9367362 0.64097166 -0.9308801 -1.2113752 -3.8658106 2.0505276 -0.6171087 0.39778933
-1.5125451 -0.509867 -1.0104271 0.17134763 -1.1893258 -0.076880746 1.4461831 1.6747277
-0.52225304 -0.4527337 0.6340649 0.76293546 -0.8851633 0.06256258 0.25988302 0.5015973
0.09149202 -0.01165176 0.18028966 -0.15541308 8.730731 -0.2871323 -0.30933118 0.5624736
-0.52646554 -0.23173554 0.61270005 -0.03456152 -1.4137472 -1.6597757 0.8158863 0.5071899
0.10287441 1.2796782 -0.9650794 0.029145917 -3.0788732 -0.36056596 0.5928909 0.38255885
0.18254538 -1.0219787 -1.8533262 2.3073752 -3.8140023 4.485568 1.8553383 0.73633313
0.0080816625 -1.3895808 0.28718504 0.6386308 0.017986998 0.021551631 0.7308891 -0.42755267
5.691882 0.26770556 0.523701 -0.18615538 0.2698541 -0.10275165 3.3531148 0.4283216
3.935769 0.61998147 0.11422302 -0.2552574 0.30897948 -0.5961791 0.6667637 0.8646418
-0.5053199 0.6843221 -0.37016204 0.13630755 -1.3999432 0.73782915 1.1415908 -1.3162653
0.38643017 0.5324416 1.0221264 2.238937 -2.244738 1.1866506 -0.112487584 0.23125204
4.1749816 2.2146196 0.12258242 0.28992635 -0.26100904 0.5278274 0.8739997 2.0531344
-2.0208569 -0.805381 -0.10700115 -0.48334473 0.53700566 2.0134559 0.013830466 0.30443856
-0.00057391997 -0.123398304 -0.16021489 -0.14368583 5.196772 -4.941269 0.33947623 0.24730602
-0.008064418 1.8993781 -0.9741069 -1.2139232 0.27390704 0.23308401 -0.50802743 -6.752144
0.23227434 0.08228203 -0.8979388 0.2856088 -0.4563437 -0.44189444 -0.2666254 0.6801872
1.4020072 -1.023439 -4.9422216 -1.1031662 0.31910384 0.3433471 -2.3637094 -1.8109506
-0.43139055 -0.17494991 0.21862443 -1.1635269 1.4511018 -0.46907064 0.9761751 0.42513388
-0.35135654 -1.9722539 0.6948306 -0.7096213 -0.45187098 -1.0917345 1.2177261 -0.19848421
0.24385367 0.37603858 -1.1799718 -0.12090432 -0.6575332 -0.7241197 0.61700964 0.27456835
-7.8203845 0.5733449 -0.6541628 -0.30328593 -0.074053444 0.71532875 -0.49366423 -0.60758466
3.4965572 8.516193 -0.3318909 -0.32516146 -1.0895064 1.3618975 -0.5972748 -1.5805429
0.3839227 -0.017093264 2.7649152 -9.336651 0.33236548 0.17382105 0.34950212 -0.68728983
0.6902718 0.8869932 0.3013713 0.33829123 -0.7749583 -0.6698585 0.3060615 2.0793846
0.56031585 -0.38268355 0.30222967 -0.76475984 1.1904676 0.30699417 0.19853498 -3.0029175
1.5472912 -1.8946533 -2.7718904 1.3342409 -0.62848675 2.1664774 -0.29931843 -0.70758593

bias f4 [32]
00000000: 90d9 fabf 46c4 163f d807 693f 693a 98be
00000010: a30a a9bf 3a48 1640 3c89 b7be 7f00 5f40
00000020: b605 bcbd b52e 2e3f fb76 11bf 4642 0ac0
00000030: 7195 823e 92f9 50bf 562e a2bf 01fb bf3e
00000040: e130 31bf 9135 733f ebb3 d23f 4b5d 4940
00000050: 4308 28bf bbf8 9fbe 5456 c63c a078 d23f
00000060: d25d 8f3e 00f6 bfbe cd59 88bf 78c3 923e
00000070: 7918 45be a014 fd3e 1dd9 45bf 9f35 e33f
-1.9597645 0.5889324 0.91027594 -0.29732063 -1.3206371 2.3481584 -0.3584689 3.4844053
-0.09180777 0.6804002 -0.56822175 -2.160295 0.2550464 -0.81630814 -1.2670391 0.37496188
-0.6921521 0.9500361 1.6461157 3.1463192 -0.65637606 -0.31244454 0.024211086 1.6443062
0.28001267 -0.3749237 -1.0652405 0.28664756 -0.19247617 0.49429798 -0.77284414 1.7750739

weight f4 [64, 32]
00000000: ecb6 c9be fc10 00bf d331 fc3e c98a f0be
00000010: e718 1dbf 265f 383e 3300 c4be 8939 b7bf
00000020: 0bfb 85be 6477 00be 68d8 6fbe a78e 983e
00000030: 7c69 b5bf 0998 9ebe d90b d23c 9cdf d8be
00000040: 018f 9e3d 0fc9 6cbf bd89 e63c 5081 adbf
00000050: 09ba 77bf 90dc 61bf a7f7 e9be 7c8b 243f
00000060: 4dc6 6abe bf72 4abf 2a07 2ebd 182d 24be
00000070: d941 ad3c 8bd4 863e 07a1 8dbe 5e28 99bf
00000080: 110e babf fc17 89bf 1457 4ebf da0a 36bf
00000090: b9bf adbf 9fd2 403b 6021 27c0 03b8 823f
000000a0: f9d3 ba3d 3af0 c43e 3981 babf b6e3 01bf
000000b0: 618b ec3b 9b71 ffbf 25dd a3bf 7520 2ec0
000000c0: 46d6 7fbe 80df c5be 91ab 77bf 17b9 fdbd
000000d0: 9673 453d 2e5e 03c0 fc17 febf 3940 ecbe
000000e0: cdab 0bc0 4bc7 64be e142 4d3e 93cf 60bf
000000f0: cc7d dabf 3ebb dcbf dfdb a7bf abbe 1cc0
00000100: 4624 00bd 3dfb 01c0 b320 c3bf 37d8 fb3f
00000110: c3af ebbf f7ea 0bc0 897f 0fbd 4f2b 94bf
00000120: 5293 16bf 3fbc c83f 432a d8bf 8d61 debe
00000130: 343a 92bf b6b9 a83f 6c9a f6be 6ba0 ed3e
00000140: 8e8b d8bf e764 afbf e3f8 83c0 0576 3bc0
00000150: bd14 87bf e93f 0fbf a8f5 1cbf df2f 53bf
00000160: 26b9 6ebf e1a5 0abf 04da 23c0 ed9e 8b3f
00000170: 0715 24bf 627f 38c0 c3b1 87bf 4f8f 24c0
00000180: a48a 02be 095f abbe 411f af3e c4dc b3be
00000190: d862 e9be c3f6 953d 1d01 49bf e643 acbf
000001a0: c763 393c 482e 13be 486f 2d3c 3c4b 723e
000001b0: c52d 84bf c8a1 78bd 0c5e bb3d 5c29 d1be
000001c0: 824c 283c 45a0 e8be 8a16 073e b7f3 5dbf
000001d0: 7276 04bf 1f11 71bf 5752 8fbe 9ce0 983e
000001e0: 2810 f5bd 718c 54bf 2f80 01bf 5e9c cdbe
000001f0: 7f3e 1e3e 17e0 223e 85a5 f2bd 3a71 4fbf
00000200: b204 36bf e2f3 1ebd 969f 88be 82ea 37bf
00000210: e288 c5be 6b37 94bd 0fb4 d3be 2fed 15bf
00000220: 134c 49be 092f aabe 0aa0 55be fecd 7c3d
00000230: d3b5 c7be fe87 05bf 1975 a73e 49af 643e
00000240: 082e 963e 2451 debe 3250 f0bd 35df 7bbf
00000250: b028 e4be 7d27 6ebe 539f 56bf 34b8 843e
00000260: 3fad 443e bf50 cebe 9ef2 febe 2871 ba3d
00000270: 5b49 cabe f685 093d 8ebe 00bf 0b63 7bbf
00000280: 045f e2be 4302 09bf b711 c8bc 4ae5 fbbd
00000290: e4f4 c8be 4d51 123c 3ea7 71bf 6cf9 eabe
000002a0: 4217 273e f68e 003d 1454 afbe 2620 8bbd
000002b0: ad4a 14bf 1ed4 1fbf 001c 8ebe 47a0 42bf
000002c0: fbf8 70bd 1589 04bf e351 ee3d d078 febd
000002d0: 5fe6 f4be 7f14 01bf bf1f c0be 08f6 993e
000002e0: 30c5 bdbe 7fce 74bf 1add 4abf 2821 1fbf
000002f0: bacd 803e 1068 8dbd 3d43 12be c03c bfbe
00000300: f948 293f c261 8abf e2b2 a43e 12c8 ce3d
00000310: cb4f 893d 5d16 473e 3a4f 99be d7ad b73d
00000320: 4208 86bf 96fb 753c 5aec a63e a97f a1be
00000330: 10f6 f6be 461a 51bf b19c 513f 4cbb efbe
00000340: 80a8 16bf 89d0 50be 5b4a d0bc 019f 383d
00000350: 3532 82bf f157 7ebf de56 10c0 478e 0a3f
00000360: 2951 d0be 62ec a6bd a436 283f c539 3d3f
00000370: f61d ecbe 0984 353f 098c 5dbf f31f c1bf
00000380: 1215 01bf a717 59bf e825 2fbf ba17 54bf
00000390: 01b6 c1be 077e f03d 63d6 8dbf 819d bfbf
000003a0: 19ee 1d3e 609a bdbd 1ccc c0be d7c2 22be
000003b0: b0e3 70bf 75b7 d5be 45de 20bf 401b a7be
000003c0: 3816 403d 9491 0abf e77a d1be d40b 2fbf
000003d0: 4d53 40bf e9e4 2dbe daa6 93be f58b 8a3e
000003e0: 59ce f7bd 0197 43bf 6d63 5dbf a5c0 f63e
000003f0: 6249 27bf e910 d1be 5a7a 89be a000 81bf
-0.3939737 -0.50025916 0.49256763 -0.46980885 -0.6136612 0.18005046 -0.38281402 -1.4314433
-0.26168093 -0.12545544 -0.23422396 0.29796335 -1.4172816 -0.3097537 0.025640415 -0.423581
0.077421196 -0.9249429 0.02814185 -1.3555088 -0.9676824 -0.88227177 -0.45696756 0.64275336
-0.22927208 -0.7908134 -0.0424873 -0.16032827 0.021149563 0.26334032 -0.27661917 -1.1965444
-1.4535543 -1.0710444 -0.8060162 -0.7111031 -1.3574134 0.0029422415 -2.611412 1.0212406
0.09122462 0.38464528 -1.4570686 -0.50738084 0.0072187637 -1.9956545 -1.2801863 -2.720731
-0.24984083 -0.3864708 -0.96746165 -0.12388819 0.048205934 -2.0526233 -1.985107 -0.46142748
-2.182361 -0.22341649 0.20045044 -0.87816733 -1.706964 -1.7244642 -1.3113974 -2.4491374
-0.031284593 -2.0309594 -1.5244354 1.9675359 -1.8413013 -2.186216 -0.035033736 -1.1575717
-0.5881854 1.5682448 -1.6887897 -0.434338 -1.1424012 1.3181674 -0.4816469 0.46411452
-1.6917589 -1.3702668 -4.1241317 -2.9290783 -1.0553204 -0.55956894 -0.6131234 -0.8249492
-0.93251264 -0.5415936 -2.5601816 1.0907875 -0.64094585 -2.8827748 -1.0601124 -2.5712469
-0.127482 -0.33470944 0.34203532 -0.35129368 -0.45583224 0.07322457 -0.78517324 -1.3458221
0.011315293 -0.14373124 0.010585614 0.23661512 -1.0326468 -0.06070116 0.091487974 -0.40851867
0.010272147 -0.45434776 0.13192192 -0.86700004 -0.51743233 -0.9416675 -0.27992508 0.29858863
-0.11965972 -0.83026797 -0.5058622 -0.4015836 0.15453528 0.15905796 -0.118479766 -0.81032145
-0.71100914 -0.038806804 -0.26684254 -0.71842206 -0.38580996 -0.07237133 -0.4134831 -0.5856504
-0.19657926 -0.3323901 -0.20861831 0.061719887 -0.39005908 -0.5216063 0.32706526 0.22332491
0.29331994 -0.4342128 -0.11734046 -0.9838746 -0.44562292 -0.23257251 -0.8383686 0.25921786
0.19206713 -0.4029598 -0.49794477 0.09103614 -0.3950909 0.03357502 -0.50290763 -0.98198
-0.44213116 -0.53519076 -0.02442251 -0.12299593 -0.39249337 0.008930516 -0.94395816 -0.4589342
0.16317466 0.03138634 -0.34243834 -0.06793241 -0.57926446 -0.6243304 -0.27755737 -0.76025814
-0.058831196 -0.5177167 0.116367124 -0.12425387 -0.4783201 -0.504219 -0.3752422 0.3007052
-0.37064505 -0.9562759 -0.79243624 -0.6215997 0.25156957 -0.06904614 -0.14283462 -0.37351036
0.6612697 -1.0811083 0.32167727 0.10096754 0.067046724 0.19442125 -0.29943258 0.08968704
-1.047127 0.015013596 0.32602197 -0.3154271 -0.48234606 -0.81680715 0.8187972 -0.46822584
-0.5885086 -0.2039205 -0.02542608 0.045073513 -1.0171572 -0.9935294 -2.255302 0.5412335
-0.4068692 -0.08150555 0.65708375 0.73916274 -0.46116608 0.70904595 -0.865418 -1.5087875
-0.50422776 -0.84801716 -0.68417215 -0.82848704 -0.3783417 0.11742788 -1.1081051 -1.4969941
0.15422858 -0.0925796 -0.37655723 -0.15894638 -0.94097424 -0.4174153 -0.62839156 -0.32637978
0.04689619 -0.54128385 -0.4091408 -0.68377423 -0.75127107 -0.16981854 -0.28838235 0.27059904
-0.120999046 -0.7640229 -0.86479837 0.4819385 -0.6534635 -0.40833214 -0.2685116 -1.0078316

bias f4 [64]
00000000: c2f7 203f 024d 35be b7e9 3c3e c4ae 3e3f
00000010: 779a 9b3e 3dfa 553f 2cb9 65bf 61a7 d63e
00000020: 9eb9 6540 0d7a 303f 9677 633f 06bf f53e
00000030: 8ac7 1d3f b4d3 f43e 2ccb 353f 8a69 083f
00000040: 2aa3 9b3e c389 113d 6f95 8abf 5be2 fa3e
00000050: 9ae9 0f3e 6ce2 713f cf84 2d3f 036b 473f
00000060: fb65 183f 2bb0 f23e 64f0 9840 260b 553f
00000070: 9db2 81be 62dd 463f 6659 e33e 8875 67be
00000080: 69e6 f8be 632c c53e 4fab 3f3f c385 0abf
00000090: 5260 7abf 5810 7fbf 5879 1c3f 1205 ee3e
000000a0: 8761 603f c73e 2d3f 870c 2b3f ab8f 273f
000000b0: 237e 15be a2fc 653f 43d5 a3bf 1632 1a3f
000000c0: d9e7 e8be a63d 1d3f 9a1b 9dbe 54f0 3f3f
000000d0: d825 213f 0ef4 293f c4d7 9d3d dc7d 553f
000000e0: 5a0e 563f 256a 9e3f 2c8f 6b3f 41ee 5b3f
000000f0: 00ab 7d3f c4c4 653f d4b9 95be cb01 74bf
0.6287805 -0.17705157 0.1844853 0.7448542 0.30391285 0.8358496 -0.89735675 0.41924575
3.5894542 0.68936235 0.8885435 0.47997302 0.616326 0.47817767 0.7101314 0.5328604
0.30397922 0.03553177 -1.0826854 0.4900082 0.14053956 0.9448612 0.67780775 0.7789766
0.5953061 0.4740003 4.7793446 0.83220136 -0.25331584 0.77681553 0.44404143 -0.22603428
-0.4861329 0.38510427 0.7487077 -0.54110354 -0.97803223 -0.99634314 0.61122656 0.46488243
0.87648815 0.67673916 0.6681599 0.65453595 -0.14598899 0.8983861 -1.2799457 0.60232675
-0.45489386 0.61422193 -0.3068512 0.74976087 0.6294837 0.6638802 0.0770717 0.8339517
0.8361565 1.2376143 0.9201534 0.8591042 0.9908905 0.89753366 -0.29243338 -0.95315236

weight f4 [1, 64]
00000000: 761f 44be 7214 68bf 13e8 8cbe 3f87 5ebe
00000010: 2f7a 12be dad0 5bbd e565 9a3e 65ad 25bf
00000020: 1a93 47bf ab90 46be 9ff0 6fbe 956e dbbe
00000030: 2979 4dbe cb1e f93b 6730 23be 4f08 adbe
00000040: ed31 d0be eb6e 89be a2a7 45bd daa9 9dbe
00000050: 8e25 9cbe 839f 1cbf 3ce3 67be 2865 8fbc
00000060: 5bbe bcbd 3c31 95be 714b a0be 3210 803c
00000070: 2112 3ebb 373a 90be 579d 46be 31ca d0bc
00000080: 1740 28be 2b14 6ebe 79a7 56be 9f76 49bf
00000090: 1543 92bd 6208 b3be 754f 67bf 2e04 88be
000000a0: 2c87 30bf a29b 30be 9183 96be a5f6 7cbe
000000b0: 70ff e7bc 0fc5 0ebf 30d0 84be 5f2b 87be
000000c0: f51d babe 2201 8bbe d009 833b 5bee 29be
000000d0: 5407 9bbe 904f 70bc 184f 10bd 95fc 6dbe
000000e0: 75cd 26bf f0ea dbbe 5bac 1cbe fe0f abbe
000000f0: a55b 50be 4d49 81be a7b6 bcbd add8 56be
-0.19152626 -0.906562 -0.2752081 -0.2173128 -0.14304422 -0.053665973 0.30155864 -0.64717704
-0.77958834 -0.19391124 -0.23431633 -0.42857805 -0.2006575 0.0076025478 -0.15936433 -0.337954
-0.4066309 -0.26842436 -0.04825557 -0.3079365 -0.30497402 -0.61180896 -0.22645277 -0.01750429
-0.09215995 -0.29139125 -0.31307557 0.015632723 -0.0029002505 -0.28169414 -0.19395958 -0.025487037
-0.16430698 -0.23249881 -0.20962323 -0.78696626 -0.07141701 -0.34967333 -0.90355617 -0.2656569
-0.68956256 -0.17246869 -0.29397252 -0.24703462 -0.028320044 -0.5576944 -0.25940084 -0.26400277
-0.3635098 -0.27149302 0.0039989725 -0.16594832 -0.30279028 -0.014667407 -0.03523168 -0.23240884
-0.6515725 -0.4295268 -0.15300123 -0.3341064 -0.2034746 -0.25251237 -0.09214526 -0.20981093
