models/simple_tag/PPO-not-shared/adversary_1/critic_0.pt (torch, 14098 bytes, 5 tensors)

weight f4 [32, 12]
00000000: 6e59 d3bd a6b1 5f3e d099 073f d59c 653e
00000010: 40ca a2be 89de d63e d59b 9bbf 8984 a83f
00000020: 12f1 6a3e 37a8 8dbd ad20 923c 174b bc3e
00000030: 2c44 073f 61ee 0cbe 7c55 aebf 86f0 7fc0
00000040: a32f 253f a074 0740 515e d03d acb7 253f
00000050: 3fd9 873f 06b9 cbbf cfc7 353f 7ca4 d7bf
00000060: 99df 3bbf 05f0 0a40 79f8 bb3f 264a 493f
00000070: 60a4 80bf 525d dfba 3b0a 16c0 e06c c33f
00000080: f94e 18c0 ca2a 7abf 157d b13f 3bcc 55bf
00000090: f961 0240 5541 8dbf 5195 2840 f779 70c0
000000a0: ff46 1340 c02c f63e 5591 94be 884d 1d3e
000000b0: a296 233f 4f69 fbbf 7234 f53e 133a 53c0
000000c0: 0ea5 6cbe 529b a83e eb93 93bf 1fa4 aa3f
000000d0: bc2e 603f b896 c73f 7cd3 78bf 63cf acbf
000000e0: a805 11bf 98ef 3d3f 56ca 1abf 568b 25bf
000000f0: 6ff8 91bf 4905 7b3f 4541 dc3e 154b 48be
00000100: 880b 4a3f e582 fb3e e8bc 17bf 31b8 5b3e
00000110: 51b5 ddbe b1a2 aa3e b34f 21bb b804 97bf
00000120: 60c3 923f 42e9 b63f 7fe2 273e f2f1 29bf
00000130: 15ce ca3f f58b 3c3f 10d1 bdbf 3827 9b3d
00000140: 3829 b2be 9139 a33f ac6e 92bf 7091 bb3c
00000150: f9b0 f43e fd79 063f 7273 bebe 8565 8f3f
00000160: d887 013f 14ef b93e d373 903f 648a 1740
00000170: 8d08 aabf 9982 1abf 1edd c13f e00c ee3e
00000180: f966 61bf db69 8a3f e864 be3e 7e2f 41bf
00000190: f924 fcbf 3095 9ebf fa92 3b3f cef5 ad3f
000001a0: 8201 1e40 b550 493f 18f4 4dbf 2ebd 94bf
000001b0: 527c d4bf a280 ed3e c327 9a3f 4246 1bbf
000001c0: 16c4 9c3f 2cc0 d73e 3319 7d3d 12bb b53f
000001d0: e3c5 eb3d 4997 2bc0 cba0 77be 885d 67bf
000001e0: f669 1abd 041e ef3e dfbd 643e 44f5 823f
000001f0: 2e1d 153e ae39 3ebf b02f 1dbf 8e31 f63f
00000200: 54d6 963f d8ee b6bf 864c 6f3f be1a dcbf
00000210: c3ca cbbf 30c2 ea3e fb61 5b3f 0967 1140
00000220: 83f5 f1bf 5935 f13f a486 c0bf 434f e33e
00000230: 05b2 7240 ab74 66bf 1df1 9a3f 7eb7 fe3e
00000240: 7378 fcbe f866 da3f 2013 00c0 3beb f53f
00000250: 326b 77bf 8841 c9be c40d f4bd e2e1 8a3f
00000260: 774e 97c0 7f56 d13f afd8 1ec0 eb58 49bd
00000270: 414a 0140 c15c 8abf 1b2a 8640 234b 973f
00000280: 9612 2740 65af 7abe d294 4c3f 3e34 1a3f
00000290: 12c6 b33e b529 873e d51a acbf 3464 c93f
000002a0: 7687 48be eafc dbbe cbcf 96bf cc93 19be
000002b0: 3974 f03d 7614 6fbf b07e 963f b289 4dbf
000002c0: 14e4 75bf 6d5f ab40 725d 28bf a68f 8340
000002d0: bf4c b33f cd5e 533f 7e04 c7be 1b0c 653f
000002e0: 6fdb 42bf 03bb 133c 406b 09bf b130 c53f
000002f0: ec24 0dbe d3a0 cbbd a742 e5bf dbc9 ccbf
00000300: 7a15 17bf 6463 3c3d da9f 22bc a40d 4c40
00000310: fec7 02c0 38c1 7140 f28f f2be 6adc 733f
00000320: 87c4 d23f 9b55 34c0 ec58 203f 4d9b e1bf
00000330: 1d8f 50bf 13d6 e6be ffa8 4d3f bcea a93f
00000340: 8c46 a03f 57f0 d6bf d3e8 773f 7dac 953f
00000350: 0731 a93d c666 283f d440 273f debb 3040
00000360: 0b5a cdbe 299b 7a3b dd63 cebf f0c4 2b3f
00000370: 33c0 5fc0 1bd4 423d 6308 153e 9ad1 ddbe
00000380: 8ddd 0640 5694 563f 1ddd a740 38dc afbe
00000390: d580 793f 301a f53d 099f 5d3e 503f 0cbf
000003a0: 9ce7 0cc0 c056 98bf 454e 09bf a43c 813b
000003b0: eb9f bc3f a65c 3140 ab6c b63f 5ea1 1e40
000003c0: a3d7 373f f26f 493e dff3 3040 1706 50c0
000003d0: 0db1 9dbe fcf1 a5bf e8d4 0b40 a331 bfbe
000003e0: 3bab f13f 4e08 be3e 0e63 2fbf 1342 a8bf
000003f0: 45ed 593f c273 c1bf 2584 2040 5a8e 26bf
-0.10319792 0.21845111 0.52969074 0.22423108 -0.3179493 0.41966656 -1.2156931 1.3165447
0.22943524 -0.0691685 0.017837847 0.3677604 0.528384 -0.1376281 -1.3619838 -3.9990554
0.6452581 2.1164932 0.101742394 0.64733386 1.0613173 -1.591584 0.7100801 -1.6847072
-0.7338806 2.1708996 1.4685203 0.78628767 -1.0050163 -0.0017041361 -2.3443744 1.5267601
-2.37982 -0.9772154 1.3866297 -0.83514756 2.0372298 -1.1035563 2.6341136 -3.7574441
2.3012083 0.48081017 -0.2901713 0.15361607 0.6390172 -1.9641513 0.47891575 -3.3004196
-0.23109838 0.32931 -1.1529516 1.3331336 0.8757131 1.5592871 -0.971977 -1.3500789
-0.56649256 0.74193716 -0.6046499 -0.64665735 -1.1403941 0.9805494 0.43018547 -0.19559892
0.78923845 0.49123302 -0.59272623 0.21456982 -0.43302396 0.3332725 -0.0024614155 -1.1798315
1.1465874 1.4289935 0.16394995 -0.66384804 1.5844141 0.7365106 -1.4829426 0.0757584
-0.34797072 1.2751943 -1.1440024 0.022896498 0.4779127 0.5252989 -0.37197453 1.1202856
0.50597906 0.36315215 1.1285347 2.3678217 -1.328386 -0.60355526 1.5145605 0.46494198
-0.8804775 1.0813555 0.3718636 -0.7546309 -1.9698783 -1.2389278 0.73271143 1.3590639
2.468842 0.78638774 -0.8045058 -1.1620233 -1.660044 0.46387202 1.2043384 -0.6065408
1.2247341 0.42138803 0.06179161 1.4197714 0.11512353 -2.6811087 -0.24182431 -0.9037709
-0.03769871 0.46702588 0.22338055 1.0231099 0.14561912 -0.7430676 -0.6140089 1.9233873
1.1784158 -1.4291639 0.9347614 -1.7195661 -1.5921253 0.45851278 0.8569638 2.2719138
-1.8903049 1.8844405 -1.5041089 0.4439641 3.7921154 -0.9002177 1.2104832 0.49749368
-0.49310645 1.7062674 -2.0011673 1.9212412 -0.9664794 -0.3930781 -0.11916688 1.0850184
-4.728328 1.6354522 -2.4819753 -0.049157064 2.020157 -1.0809556 4.19264 1.1819805
2.6105094 -0.2448097 0.7991458 0.60235965 0.35112053 0.26399007 -1.3445688 1.5733705
-0.19582924 -0.42966396 -1.1782163 -0.14997786 0.11740918 -0.93390596 1.1757412 -0.8028823
-0.96051145 5.3553987 -0.65767586 4.111285 1.4007796 0.8256653 -0.38870615 0.89471596
-0.7611608 0.009016755 -0.53679276 1.5405484 -0.13783616 -0.09942784 -1.7910966 -1.5999101
-0.59017146 0.045993224 -0.009925807 3.1883326 -2.0434566 3.7774181 -0.47375447 0.952582
1.6466225 -2.817725 0.62635684 -1.7625519 -0.81468374 -0.450852 0.8033599 1.327476
1.2521529 -1.6792096 0.96839637 1.1693264 0.08261304 0.6578182 0.65333295 2.7614665
-0.4010776 0.0038239455 -1.6124226 0.6709738 -3.496106 0.04756556 0.1455398 -0.43323976
2.1072724 0.8382009 5.2457414 -0.343477 0.9746221 0.119678855 0.21642698 -0.5478411
-2.2016363 -1.1901474 -0.53635055 0.0039439965 1.4736303 2.7712798 1.4251913 2.478599
0.7181341 0.1967161 2.7648847 -3.2503717 -0.30799142 -1.2964473 2.1848698 -0.37342557
1.888038 0.3711571 -0.6851052 -1.3145164 0.8512767 -1.5113451 2.5080655 -0.6506096

bias f4 [32]
00000000: a6d6 2d40 929b 91bf e71e edbf 16c8 19bf
00000010: 2072 aebf 50a1 983f bd42 aebe 2c51 e8be
00000020: 133c 76bf fc82 833e e5c2 8abe e0a4 073f
00000030: afe1 dabf ad8a e6bf 5a1f 7abf 8a8b bcbe
00000040: 5bf0 51bf 914e d0be 7c3a 0cc0 2a82 aa3f
00000050: 31ff 8e3e 9d93 a7bf ca9c fcbe 7ba9 e6bf
00000060: 5be0 89bf 2aec af3e 6189 9ebf 6215 3fbf
00000070: 30f7 6d40 4719 d3be 09b4 49bd 90a9 62bf
2.716226 -1.1375601 -1.8525056 -0.6007093 -1.3628578 1.1924229 -0.34035292 -0.4537443
-0.96185416 0.2568587 -0.27101818 0.52985954 -1.7100123 -1.801107 -0.9770409 -0.3682521
-0.8200738 -0.4068494 -2.1910696 1.3320973 0.2792907 -1.3091923 -0.4933837 -1.8020471
-1.0771593 0.34359866 -1.2385675 -0.74642 3.7182121 -0.41230223 -0.04924396 -0.8853998

weight f4 [64, 32]
00000000: 69f8 893f e5f5 1b3f fd77 33bf 0ddf 59c0
00000010: 2cf7 063e a408 923f 0044 053f d185 8a3f
00000020: acb3 2f3f 16e6 7ac0 1c94 e8bd bdb9 15bf
00000030: 7e32 833e fbf1 603f 2262 45bd 1924 d93f
00000040: c862 bdbf ebe0 c73e 00fc debe f847 c63d
00000050: f1a6 b5bf 8359 27bf 7dae f1be 2da7 6cbf
00000060: cc07 ffbf 94ad d4be 21e0 6abf b0df 51be
00000070: b092 b63e 7170 aa3f 4242 0ebe 15fd 34be
00000080: 08ea 9ebe be6d 6cbf 2fb8 50bf 9fce a4be
00000090: 6077 d3be 14d7 a2be 3dde 753e 1c59 b13d
000000a0: e80c 20bf dce4 b9bf 8749 50bf 064f 34bf
000000b0: b68c a0bf e17d 0bbf 2645 b1be 783a c7bd
000000c0: 07a0 ad3e e4db 99be 6834 82bf 24c8 86bf
000000d0: 834f bdbe 667d 06bd 6215 b9bd 542c f6bd
000000e0: 4fea 9dbf 1e4f 92bf 2ab3 9bbf 595f 12bf
000000f0: f363 8bbe fc46 58be 00c5 11c0 b9c5 b7bf
00000100: ba1d ddbe 5ddc 79bc bb07 fabe c15c c5bf
00000110: af5b 1dc0 7caa ed3e fb20 893f df52 983e
00000120: 3dfd 76bf 279b bbbf 6724 2bc0 cce6 83bf
00000130: b71f b63e a3f1 c6bd d19f dbbf 5a16 59bf
00000140: a6cc 93be 714b 01bf 67c3 91bf ea63 89bf
00000150: 2a93 2fc0 e39a 82bd 1882 113e af45 59bf
00000160: ef2f ca3e 4e44 f3bf 0de7 2cc0 026c f5be
00000170: b5cd 0ebf 3c9b 10bf cd40 09c0 a4a4 f13e
00000180: c761 693f 1ba4 823f fc90 8abf a16f 11bf
00000190: 26e6 89be 1333 a13f d968 15bd 787a 1c3f
000001a0: 3db7 98bf 0819 f1be 2578 66be 2b96 c3bf
000001b0: f3d3 ecbf 2ad6 77bf b32d 21c0 e607 b63e
000001c0: 498e 4dc0 2c6c 06c0 8167 8dbf a6e5 04bb
000001d0: f1bd 5abf 9d12 8b3d 276b 6dbe f04b 03c0
000001e0: ddff 8ebf 46fd afbf 70d2 1dbf ceb6 e4be
000001f0: 0e88 0140 cf4e 34c0 4070 cbbf 663a 57bf
00000200: 5ba5 87bd 8221 4fbc 50e0 b6be 4daa 99be
00000210: ed87 f5bc 5fff 6abb 1f31 19bd e4aa b6bd
00000220: ed60 75be feb7 19be da8b 45be c281 8fbe
00000230: 0db3 13be 18a5 97be 8623 a5be 2f87 6ebe
00000240: f4dd 4abe 4d57 a9bd ba0f 67be 2976 69bd
00000250: 298c 5bbe dbd1 80be 883f 3bbe f087 5bbe
00000260: b021 cf3d 559d 03bf 9c99 2abe 2db4 53bb
00000270: 4647 56be 6642 0c3d 4c06 343e 88f0 f5bc
00000280: 472e 103f 092a 55be 91e9 ddbf 8662 bfbb
00000290: fc03 b03f 946d 44bf 2bf3 a6bf 92bf 073f
000002a0: 47a0 e43d 2b74 a8bf ae0d cd3e 0a2a b9bf
000002b0: 0f56 afbf fc7e d3bd b26e d83e a10b 6fbf
000002c0: 8fa1 b23f 222f 89bf 3412 89bf 0f76 09bf
000002d0: 6be9 20be e757 c9bf 1b73 873f 44a0 51bf
000002e0: cb05 d8bf 0bf0 803f e89b c8be 3b64 74c0
000002f0: 928a 0f3f f15c 25bd df76 76bf 0997 d8bf
00000300: 7019 c83e dc2e 5dbf 2e98 343e 1030 32bf
00000310: d176 21c0 b901 09c0 d896 753d ca3a 62bf
00000320: 9b25 b1bf df9b a0bf b17d 04c0 d11f 45bf
00000330: b9a7 473f 4e5d 443e 1992 b1be b428 f8bf
00000340: 0e84 88bf 879f c13f abae 043f 815f af3f
00000350: bc75 073d aba1 febf 2406 87bf 74ef 8bbf
00000360: 366b 87c0 f0bb 0840 c507 79be 95d2 0ec0
00000370: 612c 183f 2641 8ebf 2379 2dbf e724 c9bf
00000380: 1b75 af3e 2c6b aebf 6cc3 9bbf bec2 8ebf
00000390: 5d8f 143e 757e 8bbe 6286 f9be 0132 153e
000003a0: 9676 3fbf 7f61 02c0 358b 30bf ec58 80bf
000003b0: a029 ebbf 5504 c5bf 601d c8bf fddd 483c
000003c0: 2f19 48c0 9beb f4bf fb9e 4ec0 e5fe 50c0
000003d0: aa1e cdbf 6cfa 69bf 2f38 46bf 1014 23bf
000003e0: 3fc8 acbf af69 45c0 e452 32c0 6f62 0dbf
000003f0: cb52 fb3e 3286 ddbe f035 1cc0 4bd4 e6bf
1.0778934 0.6092208 -0.7010496 -3.404239 0.13180226 1.1408887 0.52056885 1.0822088
0.6863353 -3.9202933 -0.113563746 -0.5848654 0.2562446 0.8786923 -0.04818929 1.6964141
-1.4795771 0.39038786 -0.43551636 0.09681696 -1.4191571 -0.6537096 -0.47203436 -0.9244259
-1.9924254 -0.4153868 -0.91748244 -0.20495486 0.3565879 1.3315564 -0.13892463 -0.17674668
-0.31037927 -0.92354953 -0.8153104 -0.3218889 -0.41302013 -0.31804717 0.24010558 0.086595744
-0.62519693 -1.4522967 -0.81362194 -0.7043308 -1.2542942 -0.5448895 -0.3462307 -0.09727949
0.33911154 -0.30050576 -1.0172243 -1.0529828 -0.36974725 -0.032834433 -0.090372816 -0.12020174
-1.233713 -1.1430395 -1.2164052 -0.5717674 -0.27224693 -0.21120828 -2.277649 -1.4357215
-0.43186742 -0.015250293 -0.48834023 -1.5418931 -2.458721 0.46419132 1.071319 0.29750726
-0.9648016 -1.4656724 -2.6740968 -1.0304809 0.35571072 -0.09714057 -1.7158147 -0.8479973
-0.28867072 -0.5050574 -1.1387757 -1.0733616 -2.7433572 -0.063771985 0.14209783 -0.84871954
0.39489695 -1.900522 -2.7016022 -0.47933966 -0.55782634 -0.5648687 -2.1445801 0.47195923
0.9116482 1.0206331 -1.0825496 -0.5681096 -0.26933402 1.2593712 -0.036476944 0.6112437
-1.193092 -0.4708941 -0.22506769 -1.5280203 -1.8502182 -0.96811163 -2.5184143 0.355529
-3.2118094 -2.1003523 -1.1047212 -0.0020278483 -0.8544608 0.067906596 -0.23185407 -2.0515099
-1.1171833 -1.3749168 -0.6164923 -0.4467072 2.023929 -2.81731 -1.5893631 -0.84073484
-0.06623336 -0.012642266 -0.35718012 -0.30012742 -0.029972041 -0.003585778 -0.03740036 -0.089193135
-0.23962756 -0.15011594 -0.1929163 -0.28028685 -0.14423771 -0.29618144 -0.32253665 -0.23293756
-0.19811231 -0.082686044 -0.22564593 -0.056997452 -0.21440186 -0.25160107 -0.18285954 -0.21438575
0.10113847 -0.51411945 -0.1666016 -0.0032303438 -0.20925626 0.03424301 0.17580527 -0.03002192
0.56320614 -0.20816816 -1.7336904 -0.0058406023 1.3751216 -0.767297 -1.3042959 0.5302669
0.11163383 -1.3160452 0.400495 -1.4465954 -1.3698138 -0.10326955 0.42271954 -0.9337712
1.3955554 -1.0717509 -1.070868 -0.5369577 -0.15714042 -1.5729951 1.0582002 -0.8188517
-1.6876768 1.0073255 -0.39181447 -3.8186176 0.56070817 -0.04037184 -0.9627513 -1.6921092
0.39081907 -0.86399627 0.17636177 -0.6960459 -2.522877 -2.1407301 0.05995831 -0.88370955
-1.3839601 -1.2547568 -2.0701716 -0.77001673 0.779903 0.19176218 -0.34681776 -1.9387422
-1.06653 1.5126809 0.5182902 1.370102 0.033071265 -1.9893087 -1.0548749 -1.093245
-4.2318373 2.1364708 -0.2431937 -2.231603 0.59442717 -1.1113632 -0.67762965 -1.5714387
0.34269032 -1.3626456 -1.2169013 -1.1153181 0.14507814 -0.27244917 -0.48735338 0.14569856
-0.7479032 -2.0372007 -0.68962413 -1.0027137 -1.8372078 -1.5391947 -1.5633965 0.012259957
-3.126537 -1.9134401 -3.2284534 -3.2655575 -1.6024983 -0.9139774 -0.7742948 -0.6370249
-1.349861 -3.0845754 -2.7863092 -0.5522832 0.49086604 -0.43266445 -2.440792 -1.8033537

bias f4 [64]
00000000: 9954 91be 3669 083f a595 58bd c90e bd40
00000010: 8552 dbbe 4158 c93e 00a0 f9be 8cec 1140
00000020: 46e8 9640 533d e3be ba16 263f 0da0 9bbe
00000030: 5bf2 9dbf b027 0d40 e9f7 83bf f571 ef3e
00000040: 2d49 0340 2d10 81c0 1584 853e 3ce1 9c3f
00000050: bee0 7e40 ae06 353f d698 a0c0 528a 523f
00000060: 32e1 eb40 f1c6 1d40 3851 983f 4b3f 133f
00000070: f85d d7bf df99 6bbf 6d26 dc3e a76c 06bf
00000080: 5620 7c3f b186 17bf 35a3 283f bc8b 053f
00000090: b272 aa3f 424c 383e d8e7 ccbf f012 b2bf
000000a0: 0bbe 843f 9463 983e dfd2 c13e b63a c2bd
000000b0: c8cf e6be b767 ae3c b652 713e 7bc6 0340
000000c0: 8566 4ebe b5a3 3d3f 9593 09bf a214 e93e
000000d0: e0fa 42bf 0d0d 0ebe a097 4a3e c5d6 2b3f
000000e0: 94a6 31c0 2b99 9c3c 5f03 18c0 55f8 86bf
000000f0: db45 ecbe 6c83 ffbe 2ffa 3bbf c0cf 933f
-0.28384855 0.5328554 -0.052877087 5.908055 -0.42836395 0.39325145 -0.48754883 2.2800627
4.7158537 -0.44382724 0.6487843 -0.30395547 -1.2339586 2.2055473 -1.0310031 0.4676663
2.0513413 -4.0332246 0.26077333 1.2256236 3.9824672 0.7071332 -5.0186567 0.8224231
7.3712397 2.4652674 1.1899786 0.5751845 -1.6825552 -0.92031664 0.42998067 -0.5250954
0.9848684 -0.591899 0.65874034 0.5216634 1.3316252 0.1799784 -1.6008253 -1.3912029
1.0370497 0.29763472 0.37856194 -0.094838545 -0.450804 0.02128969 0.23566708 2.0589893
-0.20156296 0.7407792 -0.5374082 0.45523554 -0.76164055 -0.13872166 0.19784403 0.6712459
-2.7757921 0.019116005 -2.3752058 -1.0544535 -0.46147045 -0.49904954 -0.73428625 1.1547775

weight f4 [1, 64]
00000000: ec76 23be 30a9 253e 6144 f83e ba86 ad3e
00000010: f7ed 203d c1b8 0abf 4b12 70bf ad7f 443f
00000020: b9ff 443f 93b4 b6be ef6d 9b3d e001 c0bb
00000030: 947f e4be c24b 983f af0e e4be d0f1 743d
00000040: 5291 093f 24dd fabd 0e2b e7ba 1e80 a03e
00000050: 4fc0 30be 2385 3f3e be44 94be f718 4d3f
00000060: bf1f b03f 9a15 96be 2911 0b3e 670a a43e
00000070: 729f 533e 0297 573c 07a6 ed3e 8005 443f
00000080: 1ed8 26bd 8fa6 273d a61e c9bd ac78 4c3e
00000090: e036 30bd 9812 ae3e 7278 b03e 88bf dfbe
000000a0: 975b 3ebf 8a7c b23b f3d4 0a3e dd58 503c
000000b0: 29db b83b abdc fdbb b01e e53e 610f 303f
000000c0: a622 173c 23a1 f83e 970d 84be 7d9c 183d
000000d0: 0fe8 9cbe 7b07 c93d d095 d2bc 7f5e c23e
000000e0: 39cf a6be 066f e43c d959 05bf 4774 38bf
000000f0: 0601 d8be bc5a bb3e 794a 063f 61fc 493e
-0.15963334 0.16177821 0.4848967 0.3389185 0.03928944 -0.5418816 -0.9377791 0.7675732
0.769527 -0.35684642 0.075893275 -0.0058595985 -0.44628584 1.189812 -0.44542453 0.059800923
0.53737366 -0.122492105 -0.0017636733 0.31347746 -0.1726086 0.18703131 -0.28958696 0.8011622
1.3759688 -0.29313356 0.13580765 0.32039186 0.20666292 0.013158562 0.4641573 0.7657089
-0.04073345 0.040930327 -0.09820299 0.19967908 -0.043021083 0.3399856 0.34466892 -0.43700814
-0.74358505 0.005446975 0.13557796 0.012716499 0.0056413603 -0.007747253 0.44749975 0.68773466
0.009224569 0.48560438 -0.25791618 0.037258614 -0.30645797 0.0981588 -0.025706202 0.3796272
-0.32579973 0.027884971 -0.5209022 -0.72052425 -0.4218828 0.36592662 0.52457386 0.19725181
