models/simple_tag/A2C-not-shared/adversary_0/actor_0.pt (torch, 14792 bytes, 6 tensors)

weight f4 [32, 12]
0	0xc014e92f	-2.3267324
1	0xc03d2dcb	-2.95592
2	0xbf8c2d0c	-1.0951247
3	0x3e5d85c6	0.21633062
4	0xbe21d7dc	-0.15805
5	0xbe8fc046	-0.2807638
6	0xbe472dac	-0.19451016
7	0xbe847f29	-0.25878266
8	0x3f19cf17	0.6008162
9	0xbd2744c9	-0.040837083
10	0x3fbaaf3d	1.4584728
11	0xbeac44be	-0.33646196
12	0xc005f0cf	-2.0928228
13	0x3f963513	1.1734947
14	0x3f529296	0.8225492
15	0xbf2b3149	-0.6687208
16	0xbf83d9ee	-1.0300882
17	0x3dad3391	0.08457101
18	0xbe8fa3e4	-0.28054726
19	0x3f087e5d	0.53317815
20	0xbebbfb60	-0.3671522
21	0xbf3082fc	-0.68949866
22	0x3de7eec4	0.11324838
23	0x3db72bcd	0.08943901
24	0xbf30abdd	-0.6901224
25	0xbe666d9b	-0.22502749
26	0xbfe571bf	-1.7925338
27	0x3f0e6fff	0.5563964
28	0x3f1b7115	0.60719424
29	0x3f31daf4	0.6947472
30	0x3fa19c4b	1.2625822
31	0xbf82d8e5	-1.0222441
32	0x3ff372a4	1.901936
33	0x3d7f6900	0.062355995
34	0x3fc511b6	1.539603
35	0x3fb6af0d	1.4272171
36	0x3f80cb7e	1.0062101
37	0x3f02412d	0.508807
38	0x3ecb6bb9	0.39730623
39	0xbf1956f5	-0.5989831
40	0x3f571421	0.8401509
41	0x3eabc64e	0.33549732
42	0xbf1dc14a	-0.6162306
43	0x3e21910b	0.15777986
44	0xbf92a3d9	-1.1456252
45	0xbe415ec1	-0.18883802
46	0xbefcde0f	-0.49388167
47	0x3b800fff	0.003908157
48	0xbe195747	-0.149747
49	0xbf9515f3	-1.1647323
50	0xbe8b627e	-0.2722358
51	0xbbd99259	-0.0066397605
52	0xbe5c8726	-0.2153593
53	0xbdccd7c7	-0.10002094
54	0xbe249217	-0.16071354
55	0x3e457be3	0.1928554
56	0x3d86e080	0.06585789
57	0x3dca755f	0.09885668
58	0xbf06aad1	-0.52604395
59	0xbeb636d2	-0.355887
60	0xbec14825	-0.37750354
61	0xbf3b2d7d	-0.73116285
62	0xbef4e713	-0.47832546
63	0x3eceab95	0.40365282
64	0xbf257106	-0.64625585
65	0xbf01db4f	-0.50725263
66	0x3f226afe	0.6344451
67	0xbecd943c	-0.40152156
68	0xbf2e7396	-0.6814512
69	0xbf5b4694	-0.8565457
70	0xbf66fa49	-0.90225655
71	0xbf4cda35	-0.8002046
72	0xbe07119b	-0.1319031
73	0xbf9505c8	-1.1642389
74	0xbdd6423a	-0.104618505
75	0x3eb07917	0.34467384
76	0x3eb31366	0.34975737
77	0x3d761f82	0.060088642
78	0x3d9e93e3	0.07743051
79	0xbe0d51c0	-0.13800716
80	0xbefa8d21	-0.48935798
81	0x3e9953cf	0.29946753
82	0xbecf5553	-0.40494785
83	0x3f132d7d	0.57491285
84	0x3f93b8ca	1.1540768
85	0xc0206b18	-2.5065365
86	0x3f761134	0.9612
87	0x3f1c9989	0.61171776
88	0x3e5640ac	0.20923108
89	0xbf5c11a3	-0.8596441
90	0x3f5ac089	0.85450035
91	0xbf8724d4	-1.0558114
92	0x3f6c98c0	0.9242058
93	0xbf910cc8	-1.1332026
94	0x3f7eb6ba	0.9949757
95	0x3fb1894f	1.3870028
96	0xbfce8653	-1.6134742
97	0xbf706849	-0.93909127
98	0x3f03fd0c	0.51557994
99	0xbdff5d8e	-0.12469016
100	0x3fb660af	1.4248255
101	0x3f44daf4	0.76896596
102	0x3e8ff7e2	0.28118807
103	0xbeb29afb	-0.34883866
104	0x3cd96462	0.026537124
105	0xbf630ab1	-0.8868819
106	0x3d0d7392	0.034534045
107	0xbfec506d	-1.8462044
108	0xbef7d175	-0.4840199
109	0xbfe512a0	-1.7896309
110	0x3e6dcab4	0.23221856
111	0xbf285835	-0.65759593
112	0xbe0dcb87	-0.13847171
113	0xbed93077	-0.42419788
114	0xbefce163	-0.49390706
115	0x3e7af8dc	0.24508995
116	0x3f86c212	1.0527976
117	0x3fc32538	1.5245733
118	0xc02b65b5	-2.6780827
119	0x3f0c17e4	0.54723954
120	0xbed38eb1	-0.41319802
121	0xbecd4124	-0.4008876
122	0xbee0801b	-0.43847737
123	0x3e14496f	0.14481138
124	0xbe42a04c	-0.19006461
125	0xbd2c16ed	-0.04201405
126	0x3e55cc98	0.20878828
127	0xbd01dbb7	-0.031703677
128	0xbecad674	-0.3961674
129	0x3d018bf0	0.031627595
130	0xbaa0838a	-0.0012246233
131	0x3d851dfd	0.064998604
132	0xbfc9a081	-1.5752107
133	0xc0037a5b	-2.054343
134	0xbf8070a2	-1.0034373
135	0x3e4e5c3d	0.20152374
136	0x3f239356	0.6389669
137	0xbea4fad4	-0.32222617
138	0x3f158464	0.5840514
139	0x3f55453a	0.83308756
140	0x3fd2b556	1.6461589
141	0xbf602f6a	-0.8757235
142	0x3ec29edc	0.38011825
143	0x3e5313b0	0.20612979
144	0x3ea6ed17	0.3260276
145	0xbdf27fc4	-0.118407756
146	0xbe8c54f5	-0.27408567
147	0x3dd791b8	0.105258405
148	0xbe187a1a	-0.14890328
149	0xbbd24582	-0.0064169774
150	0x3ccb46c7	0.024814023
151	0x3d65622a	0.05600182
152	0x3ddf77ea	0.10911544
153	0xbdccf168	-0.10006982
154	0x3e612e39	0.21990289
155	0x3bb45bba	0.0055040987
156	0xc02d5f71	-2.7089503
157	0xbf3afecf	-0.7304506
158	0xbf9c37c2	-1.2204516
159	0x3df2d5f1	0.11857212
160	0x3f2caaf5	0.6744836
161	0x3d08e16b	0.0334181
162	0xbea3fe94	-0.32030165
163	0x3f6777bb	0.9041707
164	0x3f164746	0.58702505
165	0xbe8b7359	-0.2723644
166	0x3e8c3a42	0.27388197
167	0xbf987dbe	-1.1913373
168	0x3d7e7d80	0.062131405
169	0x3dee67b2	0.11640872
170	0xbf049cbc	-0.5180166
171	0x3e3df7da	0.18551579
172	0xbeb14359	-0.34621695
173	0xbe862304	-0.2619859
174	0x3e346c67	0.17619477
175	0x3e099e9a	0.13439408
176	0xbd0fd046	-0.035110734
177	0x3d971eeb	0.07378944
178	0xbd264a00	-0.040597916
179	0x3f137c35	0.576114
180	0x3ef2c674	0.47417033
181	0x3fbf5ec4	1.4950795
182	0xbf166ea6	-0.58762586
183	0x3da69ee8	0.08135778
184	0xbf1fa27e	-0.6235732
185	0xbf710e19	-0.94162136
186	0x3faadf37	1.334937
187	0xbe57efa6	-0.21087512
188	0x3f09238d	0.5356987
189	0xbf8df920	-1.1091652
190	0x3eb32dad	0.34995785
191	0xbd29116c	-0.04127638
192	0xbff280b3	-1.8945526
193	0xbfba99b7	-1.457816
194	0xbe9b4b36	-0.3033082
195	0x3f9f6a1c	1.2454257
196	0x3e04965f	0.12947987
197	0x3f0670aa	0.5251566
198	0x3f4a6557	0.7906088
199	0x3ebe1bd2	0.371306
200	0x3f74e4a0	0.95661354
201	0xbf8dbacc	-1.1072631
202	0x3e1c2fa0	0.15252542
203	0x3bb24b6c	0.00544112
204	0x3f2208da	0.63294756
205	0xbfc77349	-1.5582057
206	0xbea671a4	-0.32508576
207	0xbfc1d415	-1.5142847
208	0xbd340c96	-0.043957315
209	0x3f3004bd	0.6875723
210	0xbedf519d	-0.43616953
211	0x3ecad858	0.39618182
212	0xbe72c0f8	-0.23706424
213	0x3f80b4ab	1.0055135
214	0x3f9e8ae1	1.2386132
215	0x3fa28543	1.2696918
216	0x3dce07f7	0.10060113
217	0x3dfcfe6d	0.12353215
218	0xbf6d1b54	-0.92619824
219	0x3e936090	0.2878461
220	0x3f27f53f	0.6560859
221	0xbf543f1c	-0.829088
222	0xbdf31cf5	-0.118707575
223	0x3e4ea3d9	0.2017969
224	0x3f3d735a	0.7400414
225	0xbe834ed2	-0.25646073
226	0xbe932a38	-0.28743148
227	0x3f1fb9fe	0.62393177
228	0xbf4a5770	-0.7903967
229	0x3dbbcf4d	0.09170399
230	0x3f0b9548	0.5452466
231	0xbd6c4e8a	-0.05769209
232	0x3f17a40d	0.59234697
233	0xbed2fbed	-0.4120783
234	0xbf08c9bc	-0.5343282
235	0x3f0e9ee9	0.5571123
236	0x3ea7da17	0.32783577
237	0x3f04a7fb	0.5181882
238	0xbe5ae329	-0.21375717
239	0xbfa22e1c	-1.2670321
240	0x3fa0f0af	1.2573451
241	0x3f51693a	0.8180119
242	0xbf6f0e41	-0.93381125
243	0xbdc8e48a	-0.09809215
244	0x3d9a4dab	0.07534345
245	0x3d1ba56e	0.037999563
246	0xbf2a007f	-0.66407007
247	0x3e39863e	0.18117616
248	0x3ef4c40c	0.47805822
249	0xbed24afd	-0.41072837
250	0x3f5f5bd1	0.87249476
251	0x3f2fc118	0.6865401
252	0xbf9ee9a2	-1.2415049
253	0x3f9f3636	1.2438419
254	0xbdbd3840	-0.092392445
255	0x3f6f575b	0.9349267

bias f4 [32]
0	0xbea2a2f0	-0.31764936
1	0xbf1940e9	-0.5986467
2	0x3f472a8b	0.7779929
3	0xbfd5ffa4	-1.671864
4	0xbff25c6d	-1.8934456
5	0xbfc149e3	-1.5100673
6	0xc00b9770	-2.181118
7	0xbe4b6a12	-0.19864681
8	0xbe4b0c3a	-0.19828883
9	0x3dbb578a	0.09147556
10	0xbfd48317	-1.6602505
11	0x3e23c1dd	0.15991922
12	0xbf805a15	-1.0027491
13	0x3f749249	0.95535713
14	0xbffc0534	-1.9689088
15	0x3e1c0b9e	0.15238807
16	0xbf7a0aed	-0.9767292
17	0x3f1785aa	0.5918833
18	0xbfbff9ff	-1.4998168
19	0xbfe4bd2a	-1.7870228
20	0xbfd7a70b	-1.6847852
21	0xbfa35a37	-1.2761906
22	0x3e405d12	0.18785504
23	0x3fadcafe	1.3577573
24	0x3f07a09b	0.5297944
25	0xbf25e424	-0.6480124
26	0xbfa1b95f	-1.2634696
27	0xbcf17ff8	-0.029479966
28	0xbf5a0b6c	-0.8517368
29	0x3f58f6a8	0.8475137
30	0x3ea56e89	0.32310894
31	0xbeb3d250	-0.35121393

weight f4 [64, 32]
0	0xbf6b2aac	-0.9186199
1	0x3ed8a0f4	0.42310297
2	0x3ddddc77	0.10833066
3	0xbdb2ac44	-0.08724263
4	0x3ea6af32	0.32555538
5	0xbc8b1825	-0.016979286
6	0xbe4e6af9	-0.20157994
7	0xbf463e7f	-0.7743911
8	0xbf5156d5	-0.8177312
9	0xbfbf444c	-1.4942718
10	0x3d3108be	0.043221228
11	0xbf447c92	-0.7675258
12	0x3ec66757	0.38750717
13	0xbf68b685	-0.909035
14	0x3dd1d2f2	0.10245313
15	0x3e2a3f40	0.1662569
16	0xbf449df2	-0.76803505
17	0xbf77b6d8	-0.9676337
18	0x3e8693f8	0.26284766
19	0x3f52c229	0.82327515
20	0x3f719bd5	0.94378406
21	0xbe7d4a76	-0.24735436
22	0xbf519263	-0.81863993
23	0xbe1ef07e	-0.15521428
24	0xbe938148	-0.2880957
25	0x3eb30b91	0.34969762
26	0x3a8f5f1a	0.0010938377
27	0xbe93d2d6	-0.28871793
28	0xbfa68442	-1.3009112
29	0xbe9d20ff	-0.30689237
30	0xbf5da5e5	-0.8658126
31	0xbfa99415	-1.3248316
32	0xbe2b7c23	-0.16746573
33	0x3ba6a619	0.0050857184
34	0xbe2870e2	-0.16449311
35	0xbd2c19c9	-0.04201678
36	0xbe721997	-0.23642574
37	0x3e07585f	0.13217305
38	0x3d4b9279	0.049700234
39	0x3d98a015	0.07452408
40	0xbe5fc530	-0.21852565
41	0xbcffdfc2	-0.031234626
42	0xbee03ed8	-0.43797946
43	0xbe225745	-0.15853603
44	0xbdf14877	-0.117814
45	0xbce9e1a4	-0.028549977
46	0xbdb0277e	-0.086012825
47	0xbc9e4263	-0.019318765
48	0x3cc3ce10	0.02390197
49	0xbe1db885	-0.1540242
50	0x3d27a439	0.0409281
51	0x3cbb07e6	0.022830915
52	0x3cc80aa0	0.024419129
53	0xbe6b83ae	-0.2299945
54	0xbe1d68f3	-0.15372066
55	0xbe29689c	-0.16543812
56	0xbcbcc1f0	-0.023041695
57	0xbdabf0cd	-0.083955385
58	0xbea71fc7	-0.32641432
59	0x3dc2bac0	0.09508276
60	0xbe2d6ea9	-0.16936745
61	0xbe4e50b1	-0.20147969
62	0xbd01701b	-0.031601053
63	0xbdd03b01	-0.10167504
64	0xbfa69905	-1.3015448
65	0xbe44ccc7	-0.19218741
66	0xbea0ff8d	-0.3144497
67	0xbf3db9c9	-0.7411161
68	0xbf0c9553	-0.5491535
69	0xbf352b1e	-0.70768917
70	0xbf7657a7	-0.96227497
71	0xbe1b9152	-0.15192154
72	0xbfede4e6	-1.8585479
73	0xbf1eff23	-0.6210806
74	0x3e1b63b2	0.1517475
75	0xbf833c7f	-1.0252837
76	0xba56e6c2	-0.0008197838
77	0xbf0e4890	-0.5557947
78	0xbf1d1e97	-0.613748
79	0x3f6c0267	0.92191166
80	0xbfcb7689	-1.5895549
81	0xbe790dcc	-0.2432167
82	0x3fa5957e	1.2936246
83	0xbf70830b	-0.93949956
84	0xbd34a75a	-0.04410491
85	0x3e432142	0.19055656
86	0xbf20c2c4	-0.6279719
87	0xbf0699d2	-0.5257846
88	0xbe45c980	-0.19315147
89	0xbf8aae4f	-1.0834445
90	0x3ec5d903	0.3864213
91	0xbee78c41	-0.45224193
92	0xbf5562d2	-0.8335391
93	0xbffb71de	-1.9644125
94	0xbe803829	-0.25042847
95	0xbfb9b7c6	-1.4509208
96	0xbe2c39dd	-0.16818948
97	0x3cdcb0b8	0.026939735
98	0xbc6eebab	-0.014582555
99	0x3e1f3ef0	0.15551353
100	0x3e275364	0.16340405
101	0x3c841d6c	0.01612731
102	0xbcd781c6	-0.026306998
103	0xbe377856	-0.17916998
104	0xbdc60dd8	-0.09670609
105	0xbd3b5942	-0.04573942
106	0x3d269d34	0.040677264
107	0xbe633959	-0.22189845
108	0xbe3ed3bd	-0.18635459
109	0xbd61e494	-0.05514963
110	0x3db9787f	0.09056186
111	0xbe16def1	-0.14733483
112	0xbe59e032	-0.2127693
113	0xbe4309b4	-0.1904667
114	0xbe235d6d	-0.15953608
115	0xbd3b4ae8	-0.045725733
116	0x3dfe8079	0.12426848
117	0x3d2016db	0.039084297
118	0xbe82ecb3	-0.25571212
119	0xbda2991f	-0.07939362
120	0xbe707ce4	-0.23485142
121	0xbdd914fb	-0.10599705
122	0xbe0d7a43	-0.1381617
123	0xbe2ef0db	-0.17084067
124	0xbe58636c	-0.21131676
125	0xbd954597	-0.07288664
126	0xbd98b0e6	-0.07455616
127	0xbd9c76a8	-0.076398194
128	0xbf5318ef	-0.8245992
129	0xbe152cf4	-0.1456793
130	0xbf30a04d	-0.689946
131	0xbea53ce8	-0.3227303
132	0xbebe3148	-0.37146974
133	0xbf7fe966	-0.9996551
134	0xbd953e28	-0.07287246
135	0xbf4b0055	-0.7929738
136	0xbefa6ce0	-0.4891119
137	0xbf2cf762	-0.67564976
138	0xbe74ef4a	-0.23919407
139	0xbf09d504	-0.5384066
140	0x3e92e06e	0.2868685
141	0xbece54ca	-0.40299064
142	0xbe81acdc	-0.25327194
143	0x3b8dcc89	0.004327361
144	0xbf22c7ed	-0.6358631
145	0xbe834096	-0.25635213
146	0x3e5f72d6	0.2182115
147	0xbde60587	-0.11231523
148	0xbdcc3aac	-0.09972128
149	0x3f12de71	0.5737067
150	0x3eed02c6	0.46291178
151	0xbf060683	-0.52353686
152	0xbf89bec5	-1.0761343
153	0xbf26b2a7	-0.6511635
154	0xbcb6f4d8	-0.022333547
155	0xbe4c3be1	-0.19944717
156	0x3b315514	0.0027058767
157	0xbf18095e	-0.59389293
158	0xbe55def4	-0.20885831
159	0xbd0e1504	-0.03468801
160	0x3e09b42b	0.13447635
161	0xbea95031	-0.33068994
162	0x3d833c0f	0.0640794
163	0xbc82e64b	-0.015978953
164	0x3e69ca6d	0.22831126
165	0xbd21a71a	-0.039466
166	0xbead927e	-0.33900827
167	0xbef187a0	-0.47173786
168	0xbee39f3e	-0.4445743
169	0x3e0fc155	0.14038594
170	0xbe585b7b	-0.21128647
171	0x3e72eb06	0.23722467
172	0x3db739d4	0.08946577
173	0xbe9d6fd7	-0.3074939
174	0x3ecf367c	0.40471256
175	0xbcbb620d	-0.022873903
176	0xbe9f6665	-0.31132808
177	0xbfafd97b	-1.3738245
178	0xbd42b2e8	-0.0475339
179	0xbeafcade	-0.34334463
180	0xbe53195e	-0.20615146
181	0x3cd00816	0.02539448
182	0xbf774bf5	-0.96600276
183	0xbe659e4e	-0.2242367
184	0xbf3873e0	-0.7205181
185	0xbf2b85c7	-0.67001003
186	0x3e1cb46b	0.15303199
187	0x3db105e9	0.086437054
188	0xbf1ff6c5	-0.62485915
189	0x3e135eec	0.14391679
190	0xbf52f121	-0.82399184
191	0xbe739f7c	-0.23791307
192	0xbf069787	-0.5257496
193	0xbe19a711	-0.15005137
194	0xbf0e09d3	-0.5548374
195	0xbe8ff7ed	-0.2811884
196	0x3d5c4d30	0.05378455
197	0xbf405b55	-0.7513936
198	0xbea14fea	-0.31506282
199	0xbdf79bb8	-0.12090248
200	0xbec37d21	-0.38181403
201	0xbe9725f0	-0.29521132
202	0xbed61977	-0.41816303
203	0x3e85953d	0.26090422
204	0xbda41a1c	-0.080127925
205	0xbf47e408	-0.78082323
206	0x3e3a09ff	0.18167876
207	0xbcd897d3	-0.026439583
208	0x3da43936	0.080187246
209	0xbfacf5a9	-1.351247
210	0x3e293062	0.16522363
211	0xbe105502	-0.14094928
212	0x3be5b55a	0.007010144
213	0x3e0d33a2	0.13789228
214	0xbd7b55dd	-0.061361182
215	0xbd5bbef9	-0.053648923
216	0xbf4a7f09	-0.7910009
217	0xbf9a42ec	-1.2051673
218	0xbe365678	-0.17806423
219	0x3e6d44b1	0.23170735
220	0xbf810641	-1.0080034
221	0xbf3602dc	-0.71098113
222	0xbe803a4c	-0.25044477
223	0xbe90e374	-0.28298533
224	0xbe9c9015	-0.30578676
225	0xbd060fa4	-0.03272976
226	0xbcd83cb4	-0.026396133
227	0xbd9b522a	-0.07584031
228	0xbe5b75be	-0.21431634
229	0xbe100aa6	-0.14066562
230	0xbe0cbde8	-0.13744318
231	0xbdc0598e	-0.09392081
232	0xbdbd5a4a	-0.09245737
233	0xbb4d56cb	-0.003133225
234	0xbdb09194	-0.08621517
235	0x3d331c32	0.04372806
236	0xbd909bba	-0.070609525
237	0xbe2bfb56	-0.16795096
238	0xbea04cc8	-0.3130858
239	0xbd50ba6f	-0.050959047
240	0xbe62d9cd	-0.22153397
241	0xbc5cf77b	-0.013486738
242	0xbd0b9013	-0.034072947
243	0xbd439026	-0.047744893
244	0xbd5c53ca	-0.053790845
245	0xbdf4da5a	-0.1195571
246	0xbdc82864	-0.09773329
247	0xbcb54ee5	-0.022132346
248	0xbe018ba1	-0.1265092
249	0xbd01afd0	-0.03166181
250	0xbd7b074f	-0.061286267
251	0xbe8f6293	-0.28004894
252	0xbdc7d650	-0.09757674
253	0xbdafb05b	-0.08578559
254	0xbe8e5aa0	-0.27803516
255	0xbdde6d36	-0.10860674

bias f4 [64]
0	0xbebb7359	-0.3661144
1	0xbe53fcfa	-0.20701972
2	0x3d2f31e0	0.042772174
3	0xbe8973b4	-0.26846087
4	0xbf5b64ae	-0.857005
5	0xbf2a5e72	-0.6655036
6	0xbea7df6f	-0.32787654
7	0xbe48bfd5	-0.19604428
8	0xbf2dffa4	-0.679682
9	0xbe4a604f	-0.19763301
10	0xbd21cbc0	-0.03950095
11	0xbf0083f5	-0.5020135
12	0xbe51cf27	-0.20489179
13	0xbe86ed5c	-0.26352966
14	0xbf239208	-0.638947
15	0xbf153830	-0.5828886
16	0xbe9039ea	-0.28169185
17	0xbe3fd4b8	-0.1873349
18	0xbf7ca382	-0.98686993
19	0xbf700011	-0.937501
20	0xbf0a8b40	-0.5411873
21	0xbf84b5c7	-1.0367974
22	0xbf25e1b7	-0.6479754
23	0xbfabd8e5	-1.3425566
24	0xbecbab7c	-0.3977927
25	0xbe99bc61	-0.30026534
26	0xbe913bf2	-0.28366047
27	0xbf102387	-0.5630421
28	0xbf572c8d	-0.84052354
29	0x3ef569d4	0.47932303
30	0xbecd2907	-0.40070364
31	0xbf243526	-0.641436
32	0xbf5c5c27	-0.86078113
33	0xbf3b505b	-0.7316949
34	0xbd7559d9	-0.05990014
35	0xbf27f4b2	-0.6560775
36	0xbf075475	-0.52863246
37	0xbeff1968	-0.4982407
38	0xbfaf5215	-1.3696924
39	0x3d5061c8	0.0508745
40	0xbf3ed624	-0.745455
41	0xbf6419c2	-0.89101803
42	0xbf167e54	-0.5878651
43	0xbf30de91	-0.6908961
44	0xbe92e2af	-0.2868857
45	0xbe85c21d	-0.2612466
46	0x3f418b90	0.7560358
47	0xbe8bd51a	-0.2731102
48	0xbef9dd29	-0.48801544
49	0xbefbd41a	-0.49185258
50	0xbe64fbce	-0.22361681
51	0xbf698616	-0.91220224
52	0xbf37666a	-0.71640646
53	0xbf0f807f	-0.56055444
54	0xbf419c4f	-0.75629133
55	0xbf118f23	-0.56859034
56	0xbfa0db3b	-1.2566904
57	0xbf5745ef	-0.84091085
58	0xbea0de76	-0.31419724
59	0xbdff89b5	-0.124774374
60	0xbf268409	-0.6504522
61	0xbe8feea7	-0.28111765
62	0xbf81213f	-1.0088271
63	0xbf29098e	-0.66030204

weight f4 [5, 64]
0	0xbf1873bb	-0.5955159
1	0x3c1aa7db	0.009439434
2	0xbfa3335f	-1.2750052
3	0x3dd51447	0.10404258
4	0x3f06dc8a	0.52680266
5	0x3ef28dc1	0.47373775
6	0x3f09ed9c	0.5387819
7	0x3d864ffb	0.06558224
8	0x3e883f30	0.26610708
9	0xbf10a010	-0.56494236
10	0xbe28b63b	-0.16475765
11	0xbd4fb709	-0.050711665
12	0x3e1ef1e1	0.15521957
13	0x3dbb3fd1	0.091430314
14	0xbd5b9cc1	-0.05361629
15	0x3f120b1a	0.5704819
16	0x3eb0f28c	0.3456005
17	0x3e519e54	0.20470554
18	0x3d6fd5e1	0.05855358
19	0xbf94eb00	-1.1634216
20	0x3df0fdba	0.117671445
21	0x3f2d53ef	0.677062
22	0x3f1b73d3	0.6072361
23	0x3f5a844f	0.85358137
24	0xbfa555a5	-1.2916762
25	0xbe1bb1ae	-0.15204498
26	0xbd672d23	-0.05643953
27	0xbdae0d95	-0.08498684
28	0x3f132f71	0.57494265
29	0x3f84ce65	1.0375487
30	0x3d49476f	0.04914039
31	0x3ef07913	0.46967372
32	0x3e07ddf6	0.13268265
33	0x3ed91ebc	0.4240626
34	0xbe821676	-0.2540776
35	0x3f667fa2	0.900385
36	0x3f38e1ab	0.7221934
37	0x3d33dfe1	0.04391468
38	0x3f47b291	0.78006846
39	0x3fa87146	1.3159568
40	0x3dafa32f	0.08576047
41	0xbe3c770b	-0.18404786
42	0x3de80367	0.11328774
43	0x3e714f21	0.23565342
44	0xbde85706	-0.113447234
45	0xbce186bb	-0.027530065
46	0x3f6e0c8e	0.92987907
47	0xbec4121d	-0.3829507
48	0x3e7d5787	0.2474042
49	0x3f76ebbd	0.9645346
50	0x3d7de582	0.061986454
51	0x3f7b4a61	0.9816037
52	0xbe392265	-0.18079527
53	0x3f835b52	1.0262244
54	0x3e955968	0.29169774
55	0x3f0feb1e	0.56218135
56	0x3f74e1de	0.95657146
57	0xbe998358	-0.2998302
58	0x3cf51225	0.029915879
59	0x3f4f49ae	0.809718
60	0x3e9a301e	0.30114836
61	0xbe07e106	-0.13269433
62	0x3ebd8eb6	0.37022942
63	0x3f0b36a6	0.5438026
64	0x3fc38aad	1.5276695
65	0x3d96b406	0.073585555
66	0x3f366c61	0.71259123
67	0x3d7be45d	0.06149708
68	0x3eb2727f	0.3485298
69	0xbe780b4c	-0.2422306
70	0xbe2b6bbb	-0.16740315
71	0xbddcb512	-0.10776724
72	0xbdb5ab9a	-0.08870621
73	0x3f38cdef	0.7218923
74	0x3fb83759	1.4391891
75	0x3e06478b	0.13113229
76	0x3d40b8d7	0.047051277
77	0xbbf3fc74	-0.0074458662
78	0x3e93cbcd	0.28866425
79	0xbe2b468f	-0.16726135
80	0x3eb33c73	0.35007057
81	0x3e964c39	0.29355028
82	0xbe5d3f3f	-0.21606158
83	0x3f320d29	0.6955133
84	0xbbdc69c7	-0.006726477
85	0x3f48af33	0.7839233
86	0x3e7e2299	0.24817885
87	0x3f5f0fe6	0.87133634
88	0x3f5b85a3	0.8575079
89	0x3d23d5e9	0.039998922
90	0xbdc2fd47	-0.09520965
91	0x3de2f421	0.1108172
92	0x3fc37271	1.52693
93	0x3fcc0308	1.5938425
94	0x3e9fb43d	0.31192198
95	0x3fcc80d8	1.597682
96	0x3eb66ffa	0.35632306
97	0x3fb359e4	1.4011807
98	0xbee5d9d2	-0.44892746
99	0x3db9a65d	0.090649344
100	0xbc9f18b3	-0.019420957
101	0x3eaf615c	0.34253967
102	0x3cdca50d	0.026934171
103	0x3f8768ff	1.0578917
104	0x3e81e842	0.2537251
105	0x3ef6c0c1	0.48193935
106	0x3ea5cc7e	0.32382578
107	0xbec134a9	-0.3773549
108	0x3de0360b	0.10947808
109	0xbd6c39f9	-0.057672475
110	0x3f67828a	0.9043356
111	0x3f10c47f	0.5654983
112	0xbbdb39b5	-0.006690229
113	0xbe496917	-0.19668995
114	0xbd03b55f	-0.03215539
115	0x3f6e72e8	0.93144083
116	0x3ef9209e	0.48657697
117	0x3f686dbb	0.90792435
118	0xbdc3d5fd	-0.095622994
119	0xbd7340bb	-0.059387904
120	0x3e4e907c	0.20172304
121	0x3da8ac51	0.08235992
122	0xbe172e6e	-0.14763805
123	0x3f630102	0.8867341
124	0x3d375d42	0.044766672
125	0xbd920910	-0.07130635
126	0x3ed57206	0.41688555
127	0x3e9d3215	0.30702272
128	0x3ed543f9	0.41653422
129	0xbdf5267e	-0.119702324
130	0x3fe747dc	1.8068805
131	0x3d033524	0.0320331
132	0x3f42058f	0.7578973
133	0xbbbd0df2	-0.0057694847
134	0xbe70661a	-0.23476449
135	0x3d561296	0.05226382
136	0x3f5f25a8	0.87166834
137	0xbed9269c	-0.4241227
138	0xbfcf8f0d	-1.6215531
139	0xbe358962	-0.17728189
140	0x3d8286b2	0.06373347
141	0x3de8e603	0.11371996
142	0xbe1d0467	-0.1533371
143	0x3f2ec820	0.68274117
144	0xbedf9000	-0.4366455
145	0x3d62242a	0.05521027
146	0xbe7ba2c2	-0.24573806
147	0x3d8d96a3	0.06913497
148	0x3d2ce137	0.04220697
149	0x3ea4a69b	0.3215836
150	0x3eab94af	0.33511874
151	0x3f3eb3f8	0.7449336
152	0x3f878574	1.0587602
153	0xbdb194f0	-0.08670986
154	0xbc42d1d8	-0.011890851
155	0x3f54518f	0.8293695
156	0x3f7f6712	0.9976665
157	0xbf13ac28	-0.57684565
158	0xbe90a72a	-0.28252536
159	0xbf6698aa	-0.90076697
160	0x3f289a1d	0.6586016
161	0x3f58c242	0.84671414
162	0x3c74cf6f	0.014942034
163	0xbe703943	-0.23459344
164	0x3d6e9288	0.05824521
165	0x3e7dea5e	0.24796435
166	0x3f2d8843	0.67786044
167	0x3f070821	0.5274678
168	0x3d811725	0.063032426
169	0x3d990a4b	0.07472666
170	0xbc84a7d6	-0.016193312
171	0x3f03714c	0.5134475
172	0x3e42e0aa	0.19031015
173	0xbd736cc5	-0.059429903
174	0xbfd7a0e4	-1.6845975
175	0xbde0ccf3	-0.10976591
176	0x3cf71eb5	0.03016601
177	0xbeb7e301	-0.35915378
178	0x3d53e507	0.05173209
179	0x3f914bad	1.135122
180	0x3e4f0b29	0.20219101
181	0x3e378d93	0.179251
182	0xbf261505	-0.64875823
183	0x3eea9271	0.4581485
184	0x3f027484	0.5095904
185	0xbed99a74	-0.4250065
186	0x3dc73714	0.09727302
187	0x3eaff376	0.34365433
188	0xbea1996f	-0.31562373
189	0xbd95176c	-0.07279858
190	0x3f8858d1	1.0652105
191	0x3f2063d5	0.6265233
192	0xbec777a3	-0.38958463
193	0x3d137fd2	0.03601057
194	0x3db2ec5c	0.08736488
195	0x3d8a736f	0.067602985
196	0xbe2e1d62	-0.17003396
197	0x3c87a48b	0.016557952
198	0x3f2dfed7	0.6796698
199	0x3d356ada	0.044291355
200	0x3eb354d4	0.35025656
201	0x3f9c30d2	1.2202399
202	0x3fa363cd	1.2764832
203	0x3e0b607d	0.13611026
204	0xbc176dae	-0.009242458
205	0xbcf6488a	-0.030063886
206	0x3de43845	0.11143545
207	0x3eedcc0d	0.4644474
208	0x3e98df20	0.2985773
209	0x3cf87e0d	0.030333543
210	0xbeb1888d	-0.34674492
211	0x3f48e66b	0.7847659
212	0x3dc2b33b	0.09506842
213	0x3eb57685	0.35441986
214	0x3e9e4b8e	0.3091702
215	0x3f3176d7	0.6932196
216	0x3f271ac8	0.6527524
217	0x3db26468	0.08710557
218	0x3e1f7409	0.15571608
219	0x3e225844	0.15853983
220	0xbf024c57	-0.50897735
221	0x3f1793a8	0.5920968
222	0x3e878037	0.26465008
223	0x3eaf9c44	0.3429891
224	0x3eac471e	0.33648008
225	0xbeb3145c	-0.3497647
226	0x3e290929	0.165074
227	0x3f59b162	0.8503629
228	0x3e04488f	0.12918304
229	0x3ea4187a	0.32049924
230	0x3f1cc428	0.6123681
231	0xbeb61ca5	-0.3556873
232	0x3eabb4c2	0.33536345
233	0x3da58760	0.08082461
234	0xbe959c6d	-0.29220906
235	0x3ed3bc57	0.4135463
236	0xbd9793a0	-0.07401204
237	0xbd608b29	-0.054820213
238	0x3f7cd68a	0.9876486
239	0x3fc4196c	1.5320258
240	0xbe21d576	-0.15804085
241	0x3f1383c2	0.5762292
242	0xbd8b5958	-0.0680415
243	0x3f9a94aa	1.2076619
244	0x3f6237e5	0.8836654
245	0xbdabbd96	-0.0838577
246	0x3e8bfd79	0.27341822
247	0xbf22501a	-0.63403475
248	0x3ed366f8	0.41289496
249	0x3f42eaaf	0.7613935
250	0x3d5041f9	0.050844166
251	0xbf15e384	-0.58550286
252	0x3eb3a8c1	0.35089687
253	0xbe0a4311	-0.13502146
254	0xbe241e49	-0.16027178
255	0xbf333268	-0.6999879

bias f4 [5]
0	0x3f01b7f7	0.50671333
1	0xbe0824bc	-0.13295263
2	0x3ee4ae0c	0.44664037
3	0x3eb4c3c0	0.35305595
4	0x3f1885c1	0.5957909
