models/simple_tag/A2C-not-shared/adversary_0/critic_0.pt (torch, 14098 bytes, 5 tensors)

weight f4 [32, 12]
00000000: 6686 a1be 001d 98bc 3631 69be 961d 1540
00000010: 388f cb3f 4ea0 0abe dc6f 8abd 44a7 033f
00000020: d10b 30bf f903 ca3d bbef ebbe b97d 8dbf
00000030: 85e3 593d 9d69 a43f 3bbf b5bd 4920 a6bf
00000040: 062a 27bf 8df6 03bf f34a 9d3f 95b3 04c0
00000050: 18f6 05c0 9e06 433e f2bd c0bf 4bab 3b3f
00000060: 9782 95be d12a cbbe 109e 46bd 15a1 94bf
00000070: 07d7 b8be 52d5 543f 4ef1 04bf b834 a33e
00000080: 913d d83e 5190 0bc0 0896 9c3e 3912 d13f
00000090: 5fc6 5e3e ae95 a53f eb92 e63e 00b0 523e
000000a0: e7d1 d6be d712 8ebf d10c 5a3e e961 51be
000000b0: 3816 87be 4e27 813d b3c9 93bd e2bc 0ac0
000000c0: a233 953f e766 89bd 7c48 a9bf 9d79 4cbf
000000d0: 767f 9c3e 4881 8e3f 8d68 f33e dbf8 d43e
000000e0: c929 28c0 f145 b1bd 4c92 963f dc9c 3d40
000000f0: 2b78 80bd a75b 503e ea77 fdbe bff0 8cbd
00000100: f530 df3f f73d 4cc0 829c 91be 17cf a63e
00000110: 2536 bebf 7f52 2640 9c2b c1bf 9d36 5640
00000120: 5706 48bf bff9 12be 8da8 3e3f 32bc 5abf
00000130: ed5d 6340 b94d 6c3e 871c 23bf b74a 88be
00000140: 1028 b7bf 4158 0cbf 7fb2 6ec0 b5dc 98bf
00000150: 423d d5be b4f0 fcbe 9395 0bbf f3ad 1cc0
00000160: c4cb c53d a052 b63f f001 a8bf 699e d6bf
00000170: bf6f e23e 9793 2d3e 6652 b73f dc04 27bf
00000180: e429 bf3e fe7f 96bf 28fb 3bbf 6d0c 653e
00000190: 0d3c 903f 78ce 463f b008 413f 4408 37be
000001a0: 4460 5cc0 7fb9 ad3f afeb f9bf b686 a73f
000001b0: d1be 1cbe fb6e 883f bc3a 1ebf 9335 0bbf
000001c0: 37b1 8b3f f0fe 9bbf 2df6 babf 42fb 963f
000001d0: 36d5 84bf 6d29 913e 0bff edbe 142f 0dbf
000001e0: 6e12 91be f40e 5f3e 57fd 90be 142f 00bf
000001f0: 2c33 c0be f67f 923d 77c4 3cbd e638 03bf
00000200: 4d60 8ebf efe5 d03e 02b3 653c 1019 1c3d
00000210: 8518 473f 1d29 9c3f ab08 7ac0 1d1d d33f
00000220: c4c2 9abf 6e9e e33f 8d00 0ebf 1ff2 58bf
00000230: c6f0 04c0 db9e 00bf 4314 d7bf 28d5 cf3e
00000240: 2493 cc3e 6963 25bf 192a 87bf 690f b7be
00000250: 8d7d 753e dbe9 34bd eda9 d6bf 9f48 b03f
00000260: 19e2 ab3d 5f36 06bf 52d5 1140 4731 15be
00000270: 3b94 27be 77cf 40bf 440e f13e 7460 76bf
00000280: e530 1f40 39bf 813f 2a88 833f 35e6 95be
00000290: 8a2b 63bd 7836 98be e753 253f 8444 c93e
000002a0: b7ed fe3e ab95 cebe 1635 393d 68c7 e23f
000002b0: 9883 f7bf dba8 4640 8dbf 57bf 6b9f b93f
000002c0: 1645 f63f 9059 02c0 4da6 f23f 92f0 55c0
000002d0: dcf5 02be a42d 09bd 6a32 873f 65b2 f03d
000002e0: 8cc3 39c0 ef37 10bf cee1 013f 5c1a b1bd
000002f0: ba1a 3440 191d d7be f3aa 36c0 172e 26bf
00000300: 48e7 a4be a475 cc3f 48cc 823f cf88 d23f
00000310: f83e 963f c732 f23f 96c1 0d3f 9a5d f5bd
00000320: 1a16 ba3f ac9a 62bf d57f 953f 076d f9bf
00000330: a90c 77bd 3707 af3e 9f9f 10bf 9d2e 78bf
00000340: f6f3 15c0 1abe 163e 34ba 7e3f 0d03 dd3f
00000350: 4094 9fbf eb61 e7bf e5d0 643e 0088 583f
00000360: 32f1 143e 8bad db3e 5cd7 433e 4f9c cabf
00000370: f8e3 d53f cadb 893f 404b 17bf 2380 4ebf
00000380: 214d 07c0 c1b8 00c0 7d4c 583f ed51 8d3f
00000390: 0f9e 9b3f f73c 81bd 84df 0940 b187 ddbf
000003a0: 6059 e33f b142 40c0 c7b5 5c3f 9036 7cbf
000003b0: 143c f6be 4b14 0440 7bac edbe de62 2940
000003c0: 7cb7 4f3e 2fba ea3e 19c3 5cbf 67f6 8f3e
000003d0: 9784 b93e 17c0 453e abd4 0fbe 29d1 e1bd
000003e0: 7908 c5bf 69ca c03e 77cc de3f e1c5 b6bf
000003f0: a561 b5bf ce47 27bd 8de9 96be b14d 15bf
-0.3154785 -0.018568516 -0.22772679 2.3299308 1.5903082 -0.13537714 -0.06759617 0.514271
-0.6876803 0.09864039 -0.46081337 -1.1053993 0.053195495 1.2844731 -0.08874365 -1.2978603
-0.652985 -0.5154808 1.2288498 -2.0734608 -2.0931454 0.19045493 -1.5057967 0.7330825
-0.29201195 -0.39681104 -0.048490584 -1.1611658 -0.36101553 0.83138 -0.519307 0.3187616
0.4223447 -2.1806834 0.30583215 1.6333686 0.2175536 1.2936304 0.45033965 0.20574951
-0.41957018 -1.10995 0.21293952 -0.20447506 -0.2638414 0.06306325 -0.072162054 -2.1677785
1.1656382 -0.0670908 -1.3225245 -0.7987307 0.30565995 1.1133204 0.47540703 0.41596112
-2.6275504 -0.086559184 1.1763396 2.962699 -0.0627292 0.20347463 -0.4950555 -0.06881856
1.7436816 -3.191282 -0.28439718 0.32579872 -1.4860274 2.5987852 -1.5091434 3.3470833
-0.78134674 -0.14353083 0.7447594 -0.85443413 3.5526078 0.23076524 -0.63715404 -0.26619503
-1.4309101 -0.54822165 -3.7296445 -1.1942354 -0.41648299 -0.49402392 -0.5452511 -2.448117
0.09658006 1.4243965 -1.3125591 -1.6767093 0.4422588 0.16950832 1.4322021 -0.6524179
0.37336648 -1.175781 -0.7343011 0.22368021 1.1268326 0.77658796 0.7540388 -0.17874247
-3.4433756 1.3572234 -1.952505 1.3087986 -0.15307166 1.0658869 -0.6180837 -0.5437862
1.0913457 -1.2187176 -1.4606377 1.1795428 -1.0377567 0.28351918 -0.46483645 -0.5514996
-0.28334373 0.21783048 -0.28318283 -0.50071836 -0.3753904 0.07153313 -0.0460858 -0.51258695
-1.1123139 0.40800425 0.01401973 0.03810984 0.7777179 1.2200047 -3.906779 1.649326
-1.2090688 1.7782724 -0.5546959 -0.8474445 -2.0771956 -0.50242394 -1.6803058 0.40592313
0.3995601 -0.6460481 -1.0559722 -0.35753945 0.23973675 -0.044168334 -1.6770607 1.3772162
0.08392734 -0.52426714 2.278645 -0.14569579 -0.16365139 -0.75316566 0.47081196 -0.96240926
2.4873593 1.0136482 1.0275929 -0.29277197 -0.055461444 -0.29729056 0.6458115 0.39310086
0.49790737 -0.40348563 0.045216642 1.7717104 -1.9337034 3.1040561 -0.8427666 1.4501776
1.9239833 -2.0367165 1.8957001 -3.3428082 -0.127891 -0.033490792 1.056226 0.11752776
-2.9025602 -0.5633535 0.50735176 -0.08647606 2.8141313 -0.42014387 -2.854184 -0.6491408
-0.32207704 1.5973401 1.0218592 1.6448001 1.1737967 1.8921746 0.55373514 -0.11980744
1.4537995 -0.8851726 1.1679636 -1.9486398 -0.060314808 0.34185192 -0.5649356 -0.96946126
-2.3430152 0.14720955 0.99502873 1.7266556 -1.2467117 -1.8076757 0.22345312 0.8458252
0.14545134 0.4290584 0.19125122 -1.5828952 1.6710196 1.0770199 -0.590992 -0.8066427
-2.1140826 -2.0112765 0.8449171 1.1040627 1.2157611 -0.06310456 2.1542673 -1.7307035
1.776165 -3.0040705 0.8621487 -0.98520756 -0.4809271 2.0637386 -0.46420655 2.6466594
0.20284837 0.45845172 -0.86235195 0.28117678 0.3623397 0.19311558 -0.1404597 -0.11026222
-1.5393211 0.37654427 1.7406148 -1.4279138 -1.4170424 -0.040839963 -0.2947506 -0.5832167

bias f4 [32]
00000000: 158c 21c0 cd79 09c0 6dbb 1440 3e5c 993f
00000010: 4a42 07bf a334 57bf b1a9 c8bf 5a1c 08c0
00000020: a572 3bbf 2999 febf 3fa1 b73e 5e0f 98bf
00000030: 2a3c 09c0 95a0 14c0 d08c 44bf 911c 163f
00000040: 214e ddbf 7f74 3ebf 8122 4440 dfe4 ecbf
00000050: 6383 21bf 7b64 cfbd 5fba 95bf 6ded 6ebf
00000060: 76fe debe 2fa9 a4bf bc69 c9bf b846 23c0
00000070: ac1b 253f 6cf0 90bf 57fb 543f 8b98 a5bf
-2.524175 -2.1480591 2.3239396 1.1981275 -0.52835524 -0.8406469 -1.5676786 -2.1267304
-0.7322181 -1.9890491 0.35865209 -1.187969 -2.1442971 -2.3223011 -0.7677736 0.5863734
-1.7289468 -0.7439651 3.064606 -1.8507346 -0.63091105 -0.10126587 -1.1697501 -0.93331033
-0.43553513 -1.2864131 -1.5735393 -2.5511913 0.6449535 -1.1323371 0.83196014 -1.2937177

weight f4 [64, 32]
00000000: d83e b7bf 8520 00c0 9e22 e03e 13fb 20be
00000010: 9639 963e 4525 98be ec50 23c0 9d3f ccbf
00000020: e102 49c0 a061 91bf 7fbb 773f 4a7c 1cc0
00000030: 907d 07c0 0d84 2abf df0a a3bf 819a d5be
00000040: 430b b0bf 949a 8c3e 947d 603f e8a3 603e
00000050: c012 863e 7225 bbbf a9b8 95bf 6615 b0bf
00000060: 8015 2440 b419 18bf f198 42be 9e82 50c0
00000070: 56b9 213f 1f48 6bbf 3410 e6bf 8c11 87bf
00000080: 0b4e 9b3e e4fc 6cbf a58e 92bf 83fc 49c0
00000090: 0bcd 4fbf 7727 e33e cffd 36bf 04c7 d7bf
000000a0: e735 c43e e81d d5bf 4ae1 12be 86ca b5bf
000000b0: a058 99bf e82f e03e 4fcf 82bf e5fc 2dc0
000000c0: 4b76 1bc0 b923 65bf d5d8 aa3b 1c7b e43d
000000d0: 1ae4 90bf 345f 863f ef4a 2bbe 12a1 0bbf
000000e0: f52f 90bf 3168 e1bf d8d6 26c0 5220 64c0
000000f0: d691 bfbe f039 08c0 5d44 09bf 3874 333f
00000100: de9b 73be 70e3 8ac0 d443 c4bd 81cf 533f
00000110: 4239 05c0 70ee 353f b3a6 353e eac8 3cbf
00000120: 9fcc 6bbf 0e94 c3bf ca63 ac3d 8df0 c5bf
00000130: 15cc 07c0 cc94 1dc0 aaf9 033f 909a a33f
00000140: 844d 2bbf 6952 083e 9206 4ac0 7c8a 6a3e
00000150: 3405 44be 50bb a23f 4447 d4be 5261 f9bd
00000160: b9f2 eb3e f75b 8ebf 7252 a33f 6598 803f
00000170: 1267 d83d d81f 43bd 7723 873f 58b2 9ebf
00000180: 9460 313f 2ca8 b8bf 82fb d8bf 7378 9abe
00000190: 992e 92be 40d8 febf b027 bcbf 8057 84bf
000001a0: 4c4e 01c0 5f04 06bf fd5f ce3e df60 78bf
000001b0: 2f6c 81bd 1358 67bf 6329 ecbf ac5c 1c3c
000001c0: 61a3 abbf bbf5 7ebf a0d2 69bf 7094 80bf
000001d0: 0f07 3cbf 0f3a c2bf 64b0 fdbf 0eaf ebbf
000001e0: e492 d4be 2c4c d2bf 2104 c0bf 781c 36c0
000001f0: 4f24 46bf ec5d ba3e b2e7 b7bf e927 91bf
00000200: 98e5 563f c3cc 03bf bd95 b7bf 63bf db3e
00000210: 0dca 07bf 93e6 e2be 7395 a0bf e67c bfbf
00000220: e889 2abf 3eec 8cbf 07ee fb3d a8de 90bf
00000230: 0103 423f 1f23 c23e d670 7b3e 1b0f 583e
00000240: 5178 4ebf 66c6 60bf e531 c9bf 9f82 cabf
00000250: 9462 233e b3ac 23be f36f 69be 7d00 9bbf
00000260: 0bf4 68bf bc34 d3bf 4d37 30bd 595b dd3e
00000270: 4055 17bf bf86 0c3f f93a e4bf 2554 31be
00000280: baba c3bf 5e3f ecbe 7bc6 9ebc 1d0b f5bc
00000290: 4d6b 93bf a039 e0be 1daa 31bf c9c2 67be
000002a0: b930 5cbf e64b 87be 59da babe 5e76 5cbf
000002b0: f9c8 20bf f61c 99bf 5381 0ac0 7795 afbe
000002c0: f8aa acbf 2603 b4bf 6f99 2ac0 fd67 0dbf
000002d0: c34b 92bf aa7b 21bf 8780 7abf 6c11 7cbf
000002e0: 9357 b5be 2934 adbf a4c1 eebf c85d 63bf
000002f0: df54 aebd 13b4 0bbf bf7f 79bd 9a01 36bf
00000300: c117 b5bf fb29 f2bf 2b84 51bf 0c3b 83be
00000310: 14a1 88bf afde db3d d34b b7be 7011 c4bf
00000320: 0d5f 3cbf 342f 3c3e 369f 91bf 74a4 8abf
00000330: cad9 4cbf a496 88bf bc39 70bf 5e0e 29bf
00000340: 7154 643f ec51 3cbe 59b6 13bf 2b71 7dbf
00000350: e298 27bf d47e 29be 10fe 4cbf 9374 12bf
00000360: 0bd5 a7bf 5a41 9dbf 8402 4abe 0681 34bc
00000370: 6f8e 2fbf 5ef7 16bf c173 23bf e32f e8bf
00000380: f57c ecbe 1392 8fbf c41c a43e fa2c 993e
00000390: 8a23 93bf 6187 85bf 1ea7 96bf b14d 20bf
000003a0: 0a93 1ec0 3526 38bf c26e 0cbf 8642 a5bf
000003b0: f391 f8bf 4594 cd3f db48 16bf e676 3b3d
000003c0: 3967 823e b877 4dbf 18a8 83bf 0870 abbe
000003d0: 1b24 04bf ec96 80c0 efce a5bf 42c2 dabe
000003e0: e622 71bf 8d1d 61c0 ec17 1dbf 68df 5bc0
000003f0: 67c8 85bf 5842 f6be fe03 01c0 f291 89bf
-1.4316053 -2.0019848 0.4377641 -0.15720777 0.2934081 -0.29715934 -2.551814 -1.5956913
-3.1408007 -1.1357918 0.9677047 -2.445086 -2.1170387 -0.66607744 -1.2737693 -0.4171944
-1.3753437 0.27461684 0.87691617 0.21937525 0.2618618 -1.4620802 -1.1696979 -1.375653
2.5638123 -0.5941422 -0.19003655 -3.2579722 0.63173425 -0.91906923 -1.7973695 -1.055223
0.3033298 -0.9257338 -1.1449782 -3.156037 -0.81172246 0.44366047 -0.7148103 -1.685761
0.38322374 -1.6649752 -0.14343753 -1.420243 -1.1980171 0.4378655 -1.0219516 -2.7185605
-2.429095 -0.89507633 0.0052138367 0.11156294 -1.1319611 1.0497804 -0.16727804 -0.5454265
-1.1264635 -1.7609922 -2.606863 -3.5644727 -0.37415951 -2.1285362 -0.5361994 0.7009921
-0.23789927 -4.3402634 -0.0958325 0.827385 -2.0816197 0.7106695 0.17739372 -0.7374407
-0.921091 -1.5279558 0.08417471 -1.5464035 -2.1218312 -2.4622068 0.5155283 1.2781544
-0.66915154 0.13312687 -3.156651 0.2290439 -0.1914261 1.2713413 -0.4146062 -0.121767655
0.4608362 -1.1121815 1.2759535 1.0046507 0.10566534 -0.04763779 1.0557698 -1.2398176
0.6928799 -1.4426322 -1.6951754 -0.3017002 -0.28551176 -1.9909744 -1.4699612 -1.0339203
-2.0204039 -0.5235042 0.40307608 -0.97022814 -0.063194625 -0.90368766 -1.845013 0.009543579
-1.3409234 -0.99593705 -0.91337013 -1.00453 -0.7344827 -1.5173968 -1.9819455 -1.8412797
-0.4151832 -1.6429496 -1.500126 -2.8454876 -0.7739915 0.36399782 -1.4367583 -1.1340305
0.8394408 -0.51484317 -1.4342571 0.42919454 -0.5304268 -0.4431654 -1.2545608 -1.4959991
-0.6661668 -1.1009595 0.123012595 -1.1317949 0.75785834 0.3791742 0.24554762 0.21099512
-0.8065234 -0.8780273 -1.5718352 -1.5821112 0.15955573 -0.15983848 -0.22796611 -1.2109524
-0.9099738 -1.6500468 -0.04302149 0.43233755 -0.59114456 0.54893106 -1.7830497 -0.17317255
-1.529136 -0.46142095 -0.019381752 -0.029912526 -1.1517121 -0.43793964 -0.694002 -0.22632898
-0.86011845 -0.26425093 -0.3649471 -0.86118114 -0.6280666 -1.1961963 -2.1641433 -0.3429372
-1.3489676 -1.4063461 -2.6656148 -0.552368 -1.1429371 -0.6307932 -0.9785237 -0.98464084
-0.35418376 -1.3531543 -1.8652844 -0.88814974 -0.085122816 -0.54571646 -0.060912844 -0.71096194
-1.4147874 -1.8919061 -0.818423 -0.25630987 -1.0674157 0.10735833 -0.35800037 -1.5317822
-0.73582536 0.18377382 -1.1376712 -1.0831437 -0.8001982 -1.0670972 -0.93838096 -0.6603755
0.8919135 -0.18390626 -0.57700115 -0.99000806 -0.65467656 -0.16552287 -0.8007517 -0.5720913
-1.311189 -1.2285569 -0.19727522 -0.01101709 -0.6857671 -0.589712 -0.638485 -1.8139614
-0.46189085 -1.1216453 0.32053196 0.29917127 -1.1495221 -1.0431939 -1.176975 -0.6261855
-2.4777246 -0.719333 -0.54856503 -1.2910926 -1.941954 1.6060873 -0.5870492 0.045767687
0.25469378 -0.802608 -1.0285673 -0.3348391 -0.5161759 -4.018423 -1.2953776 -0.42726332
-0.94193876 -3.5174286 -0.61364627 -3.4355106 -1.0451783 -0.4809749 -2.0158687 -1.0747664

bias f4 [64]
00000000: 37d5 4940 ceed f0bf 96c5 cc3f 9dc5 1240
00000010: 6844 eabf 7465 a33e 1dbd 873f fc42 9440
00000020: f3cd 2440 8ef4 c13f a2d1 eb3e 2e2c 923f
00000030: e0c3 3cc0 73a8 933e 92fd 0fc0 8ecc f43d
00000040: 5a34 cb3e ce89 2e40 ba74 d73e d0cc c63f
00000050: af60 173f 03bf a43f 7939 0fc0 946d 5240
00000060: 7612 923f a57f 96be ee6e 9f3d a2b0 913e
00000070: 9577 053f 62cf f0be c2a1 3b40 035d 8abf
00000080: ef21 333f fdae ed3f 45c8 b3c0 3f3b 36be
00000090: 7d0a 1041 03cf b63f 5351 3b40 f44b 2b40
000000a0: cc07 0abf 4a1d f5bf 8ef6 033f 16e1 81be
000000b0: 5d57 063e 3a64 523f cb0c d93f d23b f13f
000000c0: cd82 8f3e 64bb b440 6b33 f1bf 2b6a 783f
000000d0: f02a 24be 5e6f c33f 50d0 ccbe 6150 70c0
000000e0: c079 a13f 640f be40 3376 21c0 ae3b b740
000000f0: bdc4 85bf 6893 29be bec2 83bd 878b 9f40
3.1536386 -1.8822572 1.5997798 2.2933114 -1.8302126 0.3191334 1.0604588 4.633177
2.5750701 1.5152757 0.46058375 1.1419733 -2.9494553 0.28839454 -2.2498517 0.11953078
0.3968838 2.727161 0.42081243 1.5531254 0.591319 1.2870792 -2.2378829 3.287938
1.1411884 -0.2939426 0.0778483 0.28455073 0.5213559 -0.4703322 2.931748 -1.0809635
0.69973654 1.8569027 -5.618197 -0.17796038 9.002561 1.4281925 2.9268386 2.6765108
-0.5391815 -1.9149563 0.5154809 -0.2536704 0.13119264 0.82184184 1.6957029 1.8846381
0.2802948 5.647875 -1.8843817 0.97037 -0.16032004 1.5268362 -0.4000268 -3.754906
1.261528 5.9393787 -2.5228393 5.726035 -1.0450665 -0.16560137 -0.064336285 4.985782

weight f4 [1, 64]
00000000: 9e6f 01bf 42b5 39bd 70b9 563e 2471 8b3e
00000010: 653d b5bc 60af 6cbc 85b9 8f3e be6d b13d
00000020: 1d70 df3e 504e 0a3e ebdc 173e 40dd 823d
00000030: 9ed4 97be f3dc a23e 5d2a c1bc 6986 27bd
00000040: 1a9d 203f d320 5f3e 3a23 06bf f099 183f
00000050: 3e95 c23e c927 81be 7bba d0be 2f60 4bbf
00000060: d84f 5a3f 6dbb fe3e a70b 51bd 0db2 8e3d
00000070: 807a 913e 3430 823e baa7 ffbe cd07 253d
00000080: d064 b93b 75ac 4dbc e8a4 aabe 2dfd c6bc
00000090: ec8e 823f 9563 a43e 781f 5d3f 420f 50bf
000000a0: 8c5a b7be 4f50 18be ff2a b03e 406e 92bc
000000b0: 3f3f 4d3d eee9 f8be bea0 27bf 059e e33e
000000c0: 97e3 9a3e 0a89 0b3f 2791 fcbe 9b86 f5bc
000000d0: a8c6 cbbc 80be 9d3e 43af 233e 9d3e be3d
000000e0: ac70 b93e 5b0b bc3e ca56 b0bd b52c 963e
000000f0: 26aa a9bd a00f b4bc 50f1 243f 6ebc 503e
-0.5056094 -0.045338877 0.20969176 0.27234757 -0.022124002 -0.0144461095 0.28071228 0.0866351
0.43640223 0.13506436 0.14830367 0.06389856 -0.29654402 0.31809196 -0.02357977 -0.040899668
0.6273972 0.21789865 -0.523975 0.5960989 0.38004488 -0.25225666 -0.40767273 -0.7944364
0.8527808 0.4975237 -0.051036503 0.06967554 0.28413773 0.254274 -0.49932653 0.040290643
0.0056577697 -0.012553324 -0.33328938 -0.024290645 1.0199866 0.32107225 0.8637614 -0.8127328
-0.3581127 -0.14874385 0.34407803 -0.017874837 0.050109144 -0.48615974 -0.6547965 0.44456497
0.30251762 0.5450598 -0.49329492 -0.029971411 -0.024875 0.30809402 0.15984826 0.09289286
0.36218774 0.36727414 -0.08610304 0.29330984 -0.08284406 -0.021980107 0.64430714 0.2038438
