models/simple_tag/PPO-not-shared/agent_0/actor_0.pt (torch, 14536 bytes, 6 tensors)

weight f4 [32, 10]
-0.31006163 -0.4412587 -0.23990765 -0.15535909 0.48082152 -0.35361838 0.9644943 -0.51524746
0.39589635 -0.8937747 -0.079695255 0.7198735 2.1764557 -1.2411898 0.69656885 -0.04219265
0.49592754 -0.83835864 -0.045940734 -0.3753539 -0.16541474 0.6920432 0.25828668 1.1231428
-1.0327933 0.061459783 -0.08738277 0.5538338 -0.19558415 0.69017774 0.33840057 -0.14173318
-0.24417596 0.094205566 1.6911024 -1.0283917 -0.039845243 -0.83878744 0.663129 -0.7248275
-0.4478232 2.0032694 1.18013 0.33449942 -0.08470992 0.031805497 0.66913235 -0.41989017
-0.89715856 -0.9623495 -0.69318795 -1.6804979 -0.3684266 1.2697942 0.44817322 -0.27955183
0.24558933 0.56216705 -0.088897556 -1.054689 -0.6408893 0.47289917 -0.81866986 1.1035464
-0.8780028 0.13760495 0.97424114 -0.5253469 -0.7742722 -0.69475293 0.34917018 0.06496856
-0.7528132 0.86800784 0.59136355 0.23251364 0.18605699 -0.9307508 -0.6410648 0.12511218
0.3695379 0.2149752 1.2188545 -1.2745813 1.199509 0.703667 0.32077938 0.22433907
0.096858785 -0.12703404 0.060947917 -0.16731666 -0.6488613 0.17514598 -0.14744839 -0.037852876
-0.32527217 -0.083667785 -0.03854204 0.4792031 1.0785996 1.2573104 0.6054258 -1.0929021
2.327838 0.30123106 -0.10520661 0.1285753 0.057288248 0.34292063 1.2194437 -0.18759216
-0.9336287 0.47854766 -1.5230477 0.057742696 0.035739534 -0.055230297 -0.08011327 -0.62224346
-0.7672122 0.29071993 -1.3864204 -0.22590928 0.00042035207 0.92520523 -0.22994673 0.67308646
-0.024264004 0.81955415 -0.04206632 0.53501725 0.6947179 0.04599897 -1.939039 0.15568721
-0.7065513 0.76568216 -0.7763189 -0.5921082 -1.2040308 -0.7043995 -1.3377873 -0.45008615
0.4209096 -0.25336424 0.6270563 -0.14534663 0.5888156 0.040642135 0.29604694 -1.0321137
-1.196976 -0.95948666 -0.14117868 -1.1700536 1.58255 -0.50098014 0.63734996 0.39060727
0.9901423 0.13607663 1.8490202 -0.9133817 -0.7004459 0.77036744 0.21890104 0.44922784
-0.78479546 0.1286579 -0.3706391 1.8089867 0.027947571 0.9825123 -1.0949211 -1.2354395
0.69491863 -1.2235606 -0.19627689 -0.24096064 1.0979217 0.66625845 0.12618926 -1.089094
-0.14674486 -0.45894364 -0.58384496 0.238769 0.29818806 -0.5662714 -0.71074563 -0.61618596
-2.7080152 0.38517234 0.16624808 -0.65833944 0.81644166 0.2560191 0.79141563 -0.4079075
-0.43831864 0.220179 -1.7133877 -0.77994466 0.19258557 -0.043904353 -0.15738532 0.5447748
0.47193804 1.0612774 -0.897042 -0.38382587 -1.0124078 -0.25259614 -0.0008438028 -0.2718802
0.6174628 -0.21907626 0.22506072 -0.28421417 0.0064665535 -1.0012587 -1.9830929 0.43910575
-0.14824088 -0.7858825 0.9680879 0.053097107 0.32905203 -0.5053508 -0.54851013 0.059291195
0.7088748 0.66558945 0.26010242 -0.30490738 -1.1863656 -1.3720016 -0.34403983 -0.5266574
0.43726197 -0.14492686 0.290005 -0.15319413 -1.3144621 1.1286368 -0.836743 -0.31869322
-0.3881207 0.6963454 0.41314998 -0.7076619 0.5234948 -0.64426 1.1811568 -1.4559629
00000000: 66c0 9ebe a9ec e1be 5aaa 75be 7416 1fbe
00000010: 3d2e f63e 780d b5be 19e9 763f 42e7 03bf
00000020: edb2 ca3e 6bce 64bf 4437 a3bd a149 383f
00000030: 0d4b 0b40 4fdf 9ebf 5652 323f 33d2 2cbd
00000040: 37ea fd3e ac9e 56bf 5a2c 3cbd 632e c0be
00000050: 7b62 29be be29 313f 273e 843e 25c3 8f3f
00000060: 9232 84bf 41bd 7b3d bdf5 b2bd 0dc8 0d3f
00000070: 3647 48be 7daf 303f d742 ad3e 8122 11be
00000080: 4309 7abe d9ee c03d 0b76 d83f 57a2 83bf
00000090: c434 23bd c6ba 56bf d2c2 293f 4c8e 39bf
000000a0: 1549 e5be 9135 0040 800e 973f 8243 ab3e
000000b0: 657c adbd 7b46 023d 424c 2b3f d8fb d6be
000000c0: 2fac 65bf 895c 76bf c474 31bf 8e1a d7bf
000000d0: 69a2 bcbe 9e88 a23f f676 e53e 6b21 8fbe
000000e0: c57b 7b3e 2eea 0f3f ec0f b6bd 0d00 87bf
000000f0: 5211 24bf d71f f23e 5994 51bf 0241 8d3f
00000100: cbc4 60bf 50e8 0c3e de67 793f 227d 06bf
00000110: b436 46bf 54db 31bf 6fc6 b23e 3d0e 853d
00000120: 5eb8 40bf c335 5e3f 9a63 173f 0e18 6e3e
00000130: b985 3e3e af45 6ebf d31c 24bf 681d 003e
00000140: 1234 bd3e 7522 5c3e 6d03 9c3f 7b25 a3bf
00000150: 8389 993f 8523 343f 323d a43e 24b9 653e
00000160: e65d c63d 3615 02be 86a4 793d 0f55 2bbe
00000170: c61b 26bf 7859 333e b6fc 16be 9e0b 1bbd
00000180: 138a a6be 045a abbd 42de 1dbd 1c5a f53e
00000190: 8d0f 8a3f 8cef a03f 2ffd 1a3f 37e4 8bbf
000001a0: 4cfb 1440 f53a 9a3e 9076 d7bd 3ea9 033e
000001b0: 15a7 6a3d 4b93 af3e bb16 9c3f 2918 40be
000001c0: 4a02 6fbf 3304 f53e 3af3 c2bf 9b83 6c3d
000001d0: 9e63 123d 2a39 62bd 6d12 a4bd 594b 1fbf
000001e0: 0568 44bf 3ed9 943e 3976 b1bf c354 67be
000001f0: b362 dc39 40da 6c3f 2877 6bbe 654f 2c3f
00000200: 4ec5 c6bc 4dce 513f bc4d 2cbd e4f6 083f
00000210: 08d9 313f 6a69 3c3d 6e32 f8bf 786c 1f3e
00000220: 8ce0 34bf bf03 443f d6bc 46bf 6794 17bf
00000230: ae1d 9abf 8753 34bf 9d3c abbf b171 e6be
00000240: 7781 d73e f5b8 81be c386 203f bfd5 14be
00000250: 9fbc 163f 5e78 263d 7793 973e 4d1c 84bf
00000260: 8236 99bf eba0 75bf 2591 10be 51c4 95bf
00000270: 0091 ca3f 3c40 00bf 5e29 233f adfd c73e
00000280: f779 7d3f ac57 0b3e b2ac ec3f 62d3 69bf
00000290: 6c50 33bf cd36 453f 9827 603e 3101 e63e
000002a0: 5be8 48bf e6be 033e 68c4 bdbe e08c e73f
000002b0: 4ef2 e43c ed85 7b3f 6026 8cbf e222 9ebf
000002c0: 30e6 313f a29d 9cbf cffc 48be 63be 76be
000002d0: b388 8c3f ea8f 2a3f c237 013e 6f67 8bbf
000002e0: 4944 16be a9fa eabe dd76 15bf dc7f 743e
000002f0: 1bac 983e 2af7 10bf 6df3 35bf 5dbe 1dbf
00000300: 1f50 2dc0 4f35 c53e f03c 2a3e ef88 28bf
00000310: 5202 513f ef14 833e 379a 4a3f 40d9 d0be
00000320: 4d6b e0be 9b76 613e 4a50 dbbf 74aa 47bf
00000330: 2735 453e 0dd5 33bd 9e29 21be 5c76 0b3f
00000340: dda1 f13e f0d7 873f 8ba4 65bf d384 c4be
00000350: 9496 81bf 4854 81be a632 5dba e233 8bbe
00000360: 0b12 1e3f 8755 60be 5176 663e 8584 91be
00000370: 62e5 d33b 3f29 80bf fdd5 fdbf 78d2 e03e
00000380: 75cc 17be 982f 49bf 9cd4 773f 5a7c 593d
00000390: 8279 a83e ac5e 01bf 296b 0cbf 53db 723d
000003a0: d278 353f 1264 2a3f 252c 853e d21c 9cbe
000003b0: d4da 97bf c09d afbf fd25 b0be 05d3 06bf
000003c0: cde0 df3e b567 14be 897b 943e ecde 1cbe
000003d0: 4b40 a8bf 2c77 903f ca34 56bf c22b a3be
000003e0: c2b7 c6be b143 323f 6588 d33e 5529 35bf
000003f0: c103 063f 39ee 24bf 2530 973f fe5c babf

bias f4 [32]
-0.17801054 0.06583652 0.85108507 0.8791023 -0.26259002 -0.45129538 -0.9644869 -0.885115
-0.29703096 -1.257397 0.06557345 -0.12458509 -0.41514373 0.5934082 -0.4922911 -0.6663833
-0.6762501 -0.3562939 -0.27494177 -0.28892958 -0.8159237 -1.461032 -0.5195869 -0.36428788
-0.56470203 0.57662016 -0.2589377 -0.8809962 0.00019347941 -0.10095878 -0.6183966 0.3420883
00000000: 6548 36be 4cd5 863d b6e0 593f d90c 613f
00000010: 3372 86be 3010 e7be 9de8 76bf e696 62bf
00000020: 7114 98be 63f2 a0bf 5f4b 863d 7826 ffbd
00000030: b88d d4be 9ae9 173f 940d fcbe 1998 2abf
00000040: ba1e 2dbf 276c b6be 2bc5 8cbe 94ee 93be
00000050: 60e0 50bf 1903 bbbf a603 05bf f183 babe
00000060: 5090 10bf 619d 133f 7b93 84be f888 61bf
00000070: bce0 4a39 7ac3 cebd 3d4f 1ebf 3326 af3e

weight f4 [64, 32]
0.46473697 1.1457541 -0.896577 0.46473414 0.3114068 -0.13092701 -0.38324076 0.1849106
0.29396662 0.44314536 -0.32751393 -1.414232 -1.2918044 -0.28276998 -0.49753284 0.4878528
0.8765144 0.62448674 0.2550697 -0.3510885 -0.592508 -0.37476534 -0.05279741 0.8981941
-0.53574514 1.1799014 1.2391399 -0.71132827 -0.22276787 0.62775725 1.3401649 -2.1758587
1.5402429 1.1049453 -0.666425 0.4071725 0.6781293 0.6034556 -1.0378246 -0.37040812
0.44350535 0.034715276 0.007203944 -0.19205545 -1.6233377 -0.7967474 -0.46970323 0.82849705
-0.85094386 0.36803296 0.19184588 0.7496847 0.17980513 -0.345922 -0.016326835 -0.40226778
-0.32851434 2.0707684 -0.66057867 0.24559908 1.9019068 -0.46274447 0.33000857 -1.1812099
-0.14311412 0.76187664 -0.26375055 -0.39826515 1.3337697 -0.12201184 -1.0012826 -0.12895852
0.8352171 -0.31217217 0.2746867 -1.9547862 -0.95889086 -1.9099402 -0.56617665 0.6583849
0.3836536 0.20918466 -0.2888059 -0.61307806 -0.11790335 -0.20368417 -0.6826192 0.6902998
-1.8707193 0.2409288 -0.3168311 0.02630322 0.23023084 0.08008834 0.72653157 -1.7193427
0.29542115 -0.16327657 1.0373733 0.4955463 0.27281776 1.0753349 0.77451575 -0.35543594
-0.517749 0.17177287 -0.022737453 -0.06500691 0.15362017 -0.27517116 0.041836686 -0.48319668
-1.2521093 0.20213321 -0.5942367 0.8181862 -0.14292727 -0.13611428 0.49447703 0.92390543
0.65981495 0.13099153 0.5633729 -0.44559392 -0.69698095 0.009032816 -1.7126272 0.5445687
-0.44435525 -1.3880004 0.7172222 -0.7333777 -0.501719 -0.73784345 0.31303868 0.5205827
0.05332233 -0.2895568 0.40289646 -0.19849062 1.1187744 -2.3836246 0.5824687 0.70586264
-0.96831954 -1.3695 -0.33410767 1.431413 1.602003 0.8185336 0.49532992 -0.6714017
-1.2670805 -0.80063945 -0.29914963 0.7152013 0.078745976 0.26946473 -1.3817693 -0.3378741
-0.16662063 -0.1692702 -0.20251296 -0.035817686 -0.049590174 -0.07754744 -0.21285965 -0.18702461
-0.021290744 -0.12290402 -0.027137814 -0.028097074 -0.18403591 0.03675823 -0.0023461254 0.002083839
0.05187041 -0.06143283 -0.15652011 0.026474876 -0.09699486 -0.058785316 -0.19003347 -0.09203145
-0.00771911 -0.12799072 -0.10586653 -0.22455016 -0.10548957 -0.16547312 -0.099312276 0.08459425
-0.5088886 -0.27849823 -0.39641142 -0.2029783 -0.33426163 0.0071870857 -0.1714756 0.071361445
-0.4688417 0.058929097 -0.043279324 -0.4084061 0.08524087 0.07580278 0.024165517 -0.07442901
-0.13508426 -0.59686345 0.024886055 -0.05003262 0.13496943 -0.01600202 0.05554485 -0.15848681
-0.7791767 -0.0026677556 -0.62957007 -0.18947355 -0.21515831 -0.4103497 -0.40614036 -0.16521178
0.016934246 -0.120528124 -0.08082562 -0.10464019 -0.10425156 0.021798953 -0.1323242 0.071072266
-0.1010408 -0.11453892 -0.21214707 -0.108760156 -0.029505022 -0.12217311 -0.0300449 -0.03742957
0.044893388 -0.11784357 0.102916025 -0.08185198 0.00791887 -0.16760975 -0.19152814 0.16460992
0.14193559 -0.26939803 -0.072652996 -0.04870986 -0.16902529 -0.046206653 0.037088223 -0.12833326
00000000: 01f2 ed3e 12a8 923f 1286 65bf a2f1 ed3e
00000010: b670 9f3e bb11 06be 2238 c4be 3459 3d3e
00000020: cb82 963e f3e3 e23e e8af a7be 8e05 b5bf
00000030: d959 a5bf 3ac7 90be a0bc febe d8c7 f93e
00000040: 3f63 603f 5dde 1f3f 7f98 823e dfc1 b3be
00000050: 9bae 17bf 3ee1 bfbe 1942 58bd 0cf0 653f
00000060: 9826 09bf 0207 973f 239c 9e3f 9c19 36bf
00000070: 431d 64be b3b4 203f 868a ab3f 4541 0bc0
00000080: ae26 c53f d96e 8d3f d49a 2abf ea78 d03e
00000090: e299 2d3f 117c 1a3f 70d7 84bf 22a6 bdbe
000000a0: 2213 e33e 9b31 0e3d 100f ec3b 2faa 44be
000000b0: 88c9 cfbf a3f7 4bbf f17c f0be 6218 543f
000000c0: 75d7 59bf d16e bc3e 3f73 443e 56eb 3f3f
000000d0: d61e 383e b01c b1be dbbf 85bc 0bf6 cdbe
000000e0: 0833 a8be 7887 0440 af1b 29bf 537e 7b3e
000000f0: af71 f33f d8ec ecbe e2f6 a83e e331 97bf
00000100: 828c 12be 590a 433f 500a 87be 69e9 cbbe
00000110: f7b8 aa3f 58e1 f9bd 072a 80bf b40d 04be
00000120: cad0 553f 08d5 9fbe bca3 8c3e 6f36 fabf
00000130: df79 75bf ec78 f4bf f4f0 10bf ea8b 283f
00000140: 3f6e c43e 8134 563e 5ede 93be aff2 1cbf
00000150: 5077 f1bd 9592 50be 22c0 2ebf 7db7 303f
00000160: bb73 efbf 0ab6 763e b037 a2be da79 d73c
00000170: a2c1 6b3e 5b05 a43d f9fd 393f 6c13 dcbf
00000180: 7141 973e f931 27be a6c8 843f 3fb8 fd3e
00000190: c5ae 8b3e 93a4 893f aa46 463f b3fb b5be
000001a0: 338b 04bf 3ae5 2f3e e543 babc 5822 85bd
000001b0: 9b4e 1d3e 3ce3 8cbe f25c 2b3d 8e65 f7be
000001c0: 1e45 a0bf 02fc 4e3e e51f 18bf a774 513f
000001d0: 875b 12be 8b61 0bbe 182c fd3e 1185 6c3f
000001e0: a2e9 283f a522 063e 3539 103f e324 e4be
000001f0: 586d 32bf 60fe 133c 5e37 dbbf db68 0b3f
00000200: 8882 e3be ffa9 b1bf e09b 373f a4be 3bbf
00000210: a870 00bf 4fe3 3cbf 9b46 a03e e844 053f
00000220: 8468 5a3d ca40 94be 7248 ce3e 2041 4bbe
00000230: 0034 8f3f 4e8d 18c0 ab1c 153f 6ab3 343f
00000240: cae3 77bf c74b afbf 2910 abbe 8b38 b73f
00000250: 6f0e cd3f 6b8b 513f e29b fd3e fbe0 2bbf
00000260: b22f a2bf b5f6 4cbf 242a 99be 6f17 373f
00000270: 9245 a13d 48f7 893e d1dd b0bf d6fd acbe
00000280: 999e 2abe 2b55 2dbe 8f5f 4fbe 91b5 12bd
00000290: 111f 4bbd 31d1 9ebd e1f7 59be 6183 3fbe
000002a0: ed69 aebc 1ab5 fbbd 1f50 debc d62b e6bc
000002b0: e973 3cbe cc8f 163d 74c1 19bb 0491 083b
000002c0: 1176 543d fea0 7bbd cf46 20be d7e1 d83c
000002d0: 3ea5 c6bd dfc8 70bd 2298 42be fc7a bcbd
000002e0: 97f0 fcbb 0010 03be 8dd0 d8bd 7af0 65be
000002f0: ea0a d8bd c971 29be 3c64 cbbd c03f ad3d
00000300: 8646 02bf 5297 8ebe 70f6 cabe 8bd9 4fbe
00000310: 5724 abbe a581 eb3b 4d97 2fbe f325 923d
00000320: 050c f0be a35f 713d a945 31bd 9b1a d1be
00000330: c492 ae3d 7d3e 9b3d c3f6 c53c 3d6e 98bd
00000340: 8753 0abe 0bcc 18bf d7dd cb3c 01ef 4cbd
00000350: 6d35 0a3e ab16 83bc ff82 633d 5e4a 22be
00000360: 2078 47bf 83d5 2ebb 812b 21bf 5b05 42be
00000370: 7652 5cbe 5b19 d2be a1f1 cfbe 472d 29be
00000380: b0b9 8a3c 73d7 f6bd e787 a5bd 994d d6bd
00000390: d881 d5bd b893 b23c ff7f 07be 568e 913d
000003a0: 7bee cebd 6293 eabd 153d 59be a5bd debd
000003b0: 84b4 f1bc e535 fabd b920 f6bc c04f 19bd
000003c0: 21e2 373d f857 f1bd a3c5 d23d 03a2 a7bd
000003d0: 26be 013c e4a1 2bbe f41f 44be 818f 283e
000003e0: 9057 113e 8aee 89be 18cb 94bd fd83 47bd
000003f0: f714 2dbe 3043 3dbd d2e9 173d cb69 03be

bias f4 [64]
0.21365997 0.35508284 -0.014372936 0.6061022 0.337044 -0.077029385 -0.17987977 -0.34551555
-0.21626405 -0.21798378 -0.52646035 -0.44958204 -0.41380665 0.2728644 0.45467556 -0.10521179
0.3773768 1.0879574 -0.06590373 -0.18692145 -0.35250652 -0.95809704 0.47910258 -0.63812447
0.15210691 -0.30786526 -0.5849563 -0.17955118 -0.9540091 -0.1351626 -0.82932484 -0.19722691
0.2005877 -0.39719754 -0.22870727 -0.27597353 0.67595446 -0.47146285 -0.43092677 -0.37035897
-0.36853078 -0.45619848 -0.4826235 -0.76261896 -0.18883307 -0.20498332 0.61849576 -0.95332414
0.043004777 0.019916926 -0.010425143 -0.8365039 0.32927737 -0.9474595 -0.54709166 0.21532516
0.007915623 -0.084342204 -0.27424145 -1.0313936 0.40494353 -0.3801604 0.66631013 -0.23755082
00000000: aec9 5a3e 6bcd b53e 777c 6bbc 8429 1b3f
00000010: 0891 ac3e 95c1 9dbd 6732 38be 6ae7 b0be
00000020: 5374 5dbe 2437 5fbe 1bc6 06bf 9e2f e6be
00000030: 77de d3be e2b4 8b3e 3ccb e83e 4779 d7bd
00000040: 8837 c13e 3042 8b3f 89f8 86bd 5668 3fbe
00000050: bc7b b4be d945 75bf ef4c f53e 205c 23bf
00000060: eac1 1b3e 84a0 9dbe b2bf 15bf 44dc 37be
00000070: f139 74bf 1168 0abe a24e 54bf daf5 49be
00000080: dd66 4d3e 7a5d cbbe 3d32 6abe 674c 8dbe
00000090: 5a0b 2d3f 9463 f1be 6fa2 dcbe b19f bdbe
000000a0: 11b0 bcbe d992 e9be 6d1a f7be ff3a 43bf
000000b0: 755d 41be 26e7 51be bd55 1e3f 0d0d 74bf
000000c0: c725 303d d228 a33c 38ce 2abc 1f25 56bf
000000d0: 0b97 a83e b58c 72bf 330e 0cbf 337e 5c3e
000000e0: 87b0 013c 9bbb acbd 6069 8cbe b504 84bf
000000f0: c254 cf3e 62a4 c2be 4d93 2a3f 8640 73be

weight f4 [5, 64]
-0.49197465 -0.89246535 -1.038079 -0.33836284 0.48668924 -0.11742721 0.21088594 0.062047448
0.033645544 0.7382558 0.6119715 -0.13498437 0.11585232 0.35705838 0.0137648275 -0.019087633
0.8178713 -0.28569287 0.22020592 0.7553883 0.05868019 0.9506548 -0.28913912 -0.18430398
0.650105 -0.320935 -0.31248766 0.740345 0.4439391 0.86393565 0.41080904 1.1960106
-0.0034169632 0.14399706 -0.0037660135 0.058795277 0.49126592 -0.099380165 1.1419535 0.1891315
-0.018015714 1.0401468 0.03844905 1.0170261 0.24605955 0.18621966 -0.3560249 0.45969102
1.3362483 1.340753 0.059864167 0.9824006 -0.4525641 0.57270074 1.0867864 0.66969544
0.91474104 -0.27302483 0.11361063 -0.123538636 -0.2947719 -0.11739437 1.0146369 0.029840015
1.3294611 1.2062374 0.86405665 -0.5476102 -0.25104913 0.018037219 -0.24596526 -0.011278616
0.006040883 1.0440576 -0.23854975 0.9439528 0.20260471 -0.09616659 0.6717191 0.44518563
0.06139162 1.2202964 0.6062577 0.6806335 0.13428101 -0.72319496 0.4866388 0.2509045
1.0112375 0.28667182 0.7182911 0.5814626 0.48358753 0.82970154 0.69027233 -0.6964565
1.7481092 0.14852664 0.523118 0.063211784 0.2441927 0.10946738 -0.49673596 -0.41790113
-0.12022433 0.18197297 -0.1289446 0.14751461 -0.18539114 -0.05666211 -0.21117331 -0.41974545
1.3320203 1.1786876 1.47067 0.13080862 1.6849264 0.85007656 0.23518886 1.4368474
-0.41452938 0.74084955 -0.010813232 0.44266406 1.7913791 0.09079208 -0.5238065 0.2672092
-0.0020668085 1.0497204 0.73169696 1.0806576 2.5438616 0.047544494 0.07773334 0.18887806
0.06303348 0.42835516 0.46888474 0.1315826 0.49467897 1.879327 1.3593419 1.0152427
1.2070485 0.70106643 0.40888843 1.2452093 0.018685518 0.26954627 1.5323001 1.6032115
0.6599754 0.587733 0.6680307 0.047473747 -0.50035197 1.3708471 1.0134436 0.7519704
0.086213864 0.06138527 -0.01336583 0.12006181 1.5439258 0.043189626 1.0435308 0.100498825
0.21916045 0.44466686 0.19212043 0.60397786 0.5877924 0.22942938 0.8649463 0.64733917
-0.33579305 -1.1733435 0.8139932 0.47552094 0.71439844 -0.2737183 0.1370844 -0.62506866
0.46935475 1.2297043 0.008660214 0.5116461 -0.25454283 0.17233106 0.57565534 -0.09357228
0.015392972 -0.77244514 -0.064939305 0.028846782 1.001562 -0.018657928 0.039242797 -0.11481372
0.13473164 1.0950682 0.42261374 0.52533334 -0.50497943 -1.0057031 1.132651 0.80695266
0.31368634 2.1114132 -0.9207055 0.17007613 -0.2353477 -0.34663957 1.3876785 -0.7213393
1.2932318 -0.4263498 -0.3500424 1.184513 0.5387148 -1.1489996 -0.62313396 0.27029264
0.9340933 -0.1649234 0.19334906 0.09906167 -1.0643318 -0.7158768 -0.43087122 0.08536361
0.70586985 -1.1679881 0.110946655 -0.4276782 0.86566305 0.024709204 -0.08794188 0.81155336
0.80173236 1.2861274 0.53197503 -1.3988036 0.7278429 0.35238126 0.98415214 0.80410355
0.735438 1.3031042 -0.12690836 -0.3958302 1.0403426 0.091101326 1.3344936 -0.08030988
00000000: 1ae4 fbbe 9c78 64bf c6df 84bf e53d adbe
00000010: 552f f93e ad7d f0bd 7cf2 573e 7725 7e3d
00000020: e9cf 093d 55fe 3c3f 2aaa 1c3f 5839 0abe
00000030: fb43 ed3d 5bd0 b63e df85 613c ab5d 9cbc
00000040: 0360 513f 5646 92be a97d 613e 2161 413f
00000050: a45a 703d 1d5e 733f 0b0a 94be 2fba 3cbe
00000060: 486d 263f 9851 a4be 62fe 9fbe 4087 3d3f
00000070: fc4b e33e e32a 5d3f 9055 d23e e016 993f
00000080: 21ef 5fbb f773 133e 39cf 76bb 51d3 703d
00000090: 3587 fb3e d487 cbbd 882b 923f b0ab 413e
000000a0: b195 93bc 8823 853f c07c 1d3d e92d 823f
000000b0: 09f7 7b3e 5eb0 3e3e e548 b6be 9f5c eb3e
000000c0: 2f0a ab3f cb9d ab3f 2134 753d 9b7e 7b3f
000000d0: 7bb6 e7be 849c 123f d11b 8b3f 2971 2b3f
000000e0: 782c 6a3f e9c9 8bbe b1ac e83d d301 fdbd
000000f0: 58ec 96be 766c f0bd 9fdf 813f 0c73 f43c
00000100: c82b aa3f fd65 9a3f d132 5d3f 2f30 0cbf
00000110: 8389 80be cac2 933c 51de 7bbe f2c9 38bc
00000120: 99f2 c53b aea3 853f 6346 74be e4a6 713f
00000130: 9c77 4f3e fdf2 c4bd c8f5 2b3f 5fef e33e
00000140: c875 7b3d ac32 9c3f b433 1b3f ff3d 2e3f
00000150: f680 093e 4e23 39bf b928 f93e 8e76 803e
00000160: 3b70 813f a6c6 923e ede1 373f bcda 143f
00000170: c998 f73e 5267 543f b0b5 303f f94a 32bf
00000180: 0bc2 df3f 5e17 183e 10eb 053f 2e75 813d
00000190: a70d 7a3e 6f30 e03d 2d54 febe 23f7 d5be
000001a0: 2c38 f6bd 1f57 3a3e 0e0a 04be 120e 173e
000001b0: 2dd7 3dbe 8716 68bd d13d 58be e0e8 d6be
000001c0: a47f aa3f 3cdf 963f ea3e bc3f b2f2 053e
000001d0: abab d73f 9e9e 593f 59d5 703e 9eea b73f
000001e0: 323d d4be 51a8 3d3f fb29 31bc dda4 e23e
000001f0: e94b e53f 33f1 b93d 2f18 06bf a5cf 883e
00000200: 4b73 07bb 3d5d 863f 7e50 3b3f fd52 8a3f
00000210: a1ce 2240 04be 423d a832 9f3d 4069 413e
00000220: b217 813d 5e51 db3e a911 f03e 97bd 063e
00000230: 9046 fd3e ca8d f03f eafe ad3f 79f3 813f
00000240: 9180 9a3f 1779 333f d359 d13e 0563 9f3f
00000250: 5f12 993c f801 8a3e 6922 c43f 0936 cd3f
00000260: 26f4 283f ab75 163f 0f04 2b3f d573 423d
00000270: 1117 00bf eb77 af3f 85b8 813f 2281 403f
00000280: e590 b03d 1f6f 7b3d 5bfc 5abc f7e2 f53d
00000290: 5c9f c53f 9be7 303d 6b92 853f 54d2 cd3d
000002a0: 996b 603e 60ab e33e 38bb 443e 4b9e 1a3f
000002b0: 9079 163f 89ef 6a3e 1f6d 5d3f 05b8 253f
000002c0: 11ed abbe 1f30 96bf dc61 503f 7b77 f33e
000002d0: d1e2 363f ce24 8cbe da5f 0c3e 8004 20bf
000002e0: 444f f03e f366 9d3f 92e3 0d3c 3dfb 023f
000002f0: 7053 82be 8e77 303e 265e 133f d3a2 bfbd
00000300: ce32 7c3c f7be 45bf e6fe 84bd 1650 ec3c
00000310: 2f33 803f 83d8 98bc 0ebd 203d 7523 ebbd
00000320: 17f7 093e 322b 8c3f d460 d83e 3f7c 063f
00000330: 5546 01bf e1ba 80bf b5fa 903f 7394 4e3f
00000340: 7f9b a03e 6521 0740 5bb3 6bbf 7028 2e3e
00000350: fdfe 70be be7a b1be 739f b13f b1a9 38bf
00000360: 9f88 a53f 854a dabe c238 b3be 1f9e 973f
00000370: 37e9 093f 6b12 93bf b585 1fbf cc63 8a3e
00000380: bd20 6f3f aee1 28be 4cfd 453e d8e0 ca3d
00000390: 063c 88bf b443 37bf 279b dcbe 1ed3 ae3d
000003a0: e3b3 343f a280 95bf 0038 e33d a3f8 dabe
000003b0: 189c 5d3f f56a ca3c df1a b4bd f6c1 4f3f
000003c0: 553e 4d3f d39f a43f 842f 083f ff0b b3bf
000003d0: ea53 3a3f 516b b43e 65f1 7b3f bbd9 4d3f
000003e0: aa45 3c3f 1ecc a63f 44f4 01be 42aa cabe
000003f0: f229 853f 5593 ba3d b0d0 aa3f 8279 a4bd

bias f4 [5]
-0.3320265 0.31340033 1.1794975 0.79104704 0.9231231
00000000: 61ff a9be 0276 a03e c6f9 963f 0f82 4a3f
00000010: cc51 6c3f
