models/simple_tag/PPO-not-shared/agent_0/critic_0.pt (torch, 13842 bytes, 5 tensors)

weight f4 [32, 10]
0.07148095 2.007945 -0.89265615 -0.122565575 1.2029752 -1.2552363 1.4206045 -4.0106454
-0.45192793 -0.35723305 0.01741806 -2.1384907 1.8716841 -1.0300126 2.0617437 -1.757959
-1.0911894 -0.12919012 -0.56130743 -1.3041817 -0.290942 1.7900809 0.9558398 1.4865581
0.33634955 0.78532654 0.19033864 0.10070176 0.2723928 -0.40004462 0.2776108 -0.75687957
-0.050249573 0.69035274 -3.0713706 3.2498572 0.42206103 -1.1135539 0.17840703 0.58417743
2.124468 -0.4063122 -1.1169693 -0.2791688 2.82311 -1.0833352 0.3473832 0.8712822
-0.9079686 -0.6810662 -0.5628541 0.3748827 -2.1514196 1.0414221 1.2623858 1.5761507
-0.47847876 -1.0266634 -1.2313105 1.3687065 -1.2152082 -0.8012222 -1.2932949 -0.026079386
-0.29597455 -1.1844784 -0.39615896 0.27836832 -1.8076056 1.0698249 -0.35971338 1.6584052
1.7896799 1.3487855 2.2650502 -2.122643 -0.6994404 1.4211643 0.48427087 -0.5210373
0.5843038 -1.2478713 0.28236413 2.6443024 1.9431864 -2.0235965 -1.2119678 -1.1177919
-0.8739767 -0.4895676 1.2051767 -0.262741 -1.2684628 -3.4984536 -0.607918 -0.6499069
0.40007403 0.6865263 0.4307973 0.23726422 -0.029251821 0.7795096 -0.81270057 -0.4140384
-1.523544 -0.36094686 -2.0958657 1.6256391 2.1448834 -1.7357391 2.5113804 -0.584184
-2.500044 1.6624302 -1.7397289 1.2198691 0.14304844 -0.9728335 -1.1627841 -0.91984224
-0.12662257 0.19728735 -0.4126099 1.5740025 1.4192183 0.58481246 -0.3749215 -0.75687563
-0.6926407 -0.4128851 0.8291773 -1.4736977 -1.2083452 -0.14876391 0.16010502 -1.1911792
-0.5629309 -0.4948458 -0.60385716 0.11210427 -0.77384657 -0.35822794 2.3885345 1.3869348
0.09726503 0.32448816 -0.028436078 -1.9543918 1.3617277 -0.010616073 0.79652905 1.3693991
-1.6073424 -0.39490345 -0.06683292 0.7709159 -1.1149162 0.7141405 0.82346386 -1.5407991
-0.18670347 -0.24311835 -3.3380144 -0.040297084 -1.3113745 0.27286997 -0.07685267 0.2669117
-1.3809577 -0.049073566 0.5200592 1.361021 -1.2346976 -0.9869888 -0.53545254 0.28598347
0.44990963 -0.91187423 -1.793787 -0.7121047 -0.14693178 2.9850338 0.4559741 0.46142155
0.1682398 -2.007204 -1.0600276 -0.2911473 1.3775655 0.52208066 1.6119537 1.131121
-1.9437234 1.2619625 0.42247877 -1.1632907 -1.7119825 0.040365953 0.5056243 -0.27775413
0.30860594 -1.1985542 -0.07576826 -3.35467 0.24656379 -1.0576303 -1.1440912 -0.13129374
0.21897909 -1.0697119 0.6746594 2.3329508 -1.5383731 -2.1144948 -0.046148177 -4.0159655
-1.1961888 -1.7890884 -0.24778949 -0.2838372 -1.1096767 1.1468284 0.2816079 1.6671065
1.268143 1.1114347 0.12818739 -1.1804638 -0.88473505 0.6619002 0.008840118 1.226023
-1.160464 0.9258846 -1.8922299 -0.20277677 0.49817687 0.54510516 1.5054044 1.5238492
0.18539177 6.173805 0.06462131 -0.021018427 0.5404658 -3.2689025 -0.8603745 0.28732887
0.6626704 -0.28726852 0.10120037 0.96956843 0.9783621 0.1927667 -0.016134657 -0.49347028
00000000: 9b64 923d 2c82 0040 1d85 64bf a903 fbbd
00000010: 17fb 993f 95ab a0bf 5ed6 b53f 3557 80c0
00000020: 1963 e7be 40e7 b6be 52b0 8e3c 08dd 08c0
00000030: 5893 ef3f 74d7 83bf 9cf3 0340 cd04 e1bf
00000040: 18ac 8bbf 6a4a 04be d8b1 0fbf 6def a6bf
00000050: 5af6 94be 5f21 e53f ebb1 743f 8947 be3f
00000060: 0236 ac3e 290b 493f 22e8 423e b93c ce3d
00000070: 1277 8b3e a6d2 ccbe 0123 8e3e dcc2 41bf
00000080: 7fd2 4dbd f5ba 303f 5691 44c0 a9fd 4f40
00000090: 6218 d83e ef88 8ebf 55b0 363e a78c 153f
000000a0: 49f7 0740 2708 d0be daf8 8ebf 37ef 8ebe
000000b0: d6ad 3440 baaa 8abf 36dc b13e 5a0c 5f3f
000000c0: a170 68bf 5b5a 2ebf 3517 10bf a0f0 bf3e
000000d0: dcb0 09c0 524d 853f dc95 a13f 4ebf c93f
000000e0: 2bfb f4be b569 83bf 959b 9dbf c631 af3f
000000f0: f18b 9bbf e61c 4dbf b08a a5bf 70a4 d5bc
00000100: fa89 97be fd9c 97bf 59d5 cabe 4b86 8e3e
00000110: 9f5f e7bf 06f0 883f 5a2c b8be 9f46 d43f
00000120: 3b14 e53f 01a5 ac3f 95f6 1040 62d9 07c0
00000130: 870e 33bf b6e8 b53f 5af2 f73e b362 05bf
00000140: ef94 153f 3fba 9fbf 0892 903e 403c 2940
00000150: 55ba f83f 9b82 01c0 c321 9bbf ce13 8fbf
00000160: f0bc 5fbf 9ba8 fabe 3b43 9a3f fd85 86be
00000170: fd5c a2bf aae6 5fc0 84a0 1bbf 4c60 26bf
00000180: 81d6 cc3e 30c0 2f3f 7791 dc3e 64f5 723e
00000190: 84a1 efbc f18d 473f 250d 50bf d7fc d3be
000001a0: 7d03 c3bf 07ce b8be aa22 06c0 f114 d03f
000001b0: c545 0940 b32c debf 75ba 2040 158d 15bf
000001c0: b900 20c0 83ca d43f 70af debf ac24 9c3f
000001d0: 4a7b 123e 9e0b 79bf 1cd6 94bf c87a 6bbf
000001e0: 59a9 01be b205 4a3e 9b41 d3be ea78 c93f
000001f0: f2a8 b53f 45b6 153f b6f5 bfbe 9ac2 41bf
00000200: e750 31bf ad65 d3be f744 543f 20a2 bcbf
00000210: 0eab 9abf 9155 18be 92f2 233e 8f78 98bf
00000220: 3d1c 10bf 6e5c fdbe 6296 1abf ec96 e53d
00000230: cf1a 46bf a769 b7be c0dd 1840 1487 b13f
00000240: e332 c73d 5023 a63e c7f2 e8bc 8329 fabf
00000250: 184d ae3f 0aef 2dbc 54e9 4b3f 7848 af3f
00000260: 65bd cdbf c930 cabe b3df 88bd bf5a 453f
00000270: 93b5 8ebf e9d1 363f 87ce 523f e838 c5bf
00000280: 322f 3fbe 04f4 78be 07a2 55c0 8e0e 25bd
00000290: 1fdb a7bf 9db5 8b3e ef64 9dbd a6a8 883e
000002a0: 39c3 b0bf 5d01 49bd 9a22 053f f035 ae3f
000002b0: 920a 9ebf 4cab 7cbf 6b13 09bf 6d6c 923e
000002c0: 8e5a e63e 9770 69bf d09a e5bf 7e4c 36bf
000002d0: 4975 16be cb0a 3f40 7075 e93e 723f ec3e
000002e0: 0e47 2c3e 0876 00c0 fcae 87bf 4211 95be
000002f0: 1154 b03f 14a7 053f 8054 ce3f 93c8 903f
00000300: eecb f8bf fd87 a13f 234f d83e b6e6 94bf
00000310: 3e22 dbbf c556 253d 9870 013f ca35 8ebe
00000320: 9901 9e3e 396a 99bf 642c 9bbd eab2 56c0
00000330: 387b 7c3e 6e60 87bf 9571 92bf de71 06be
00000340: 0e3c 603e 52ec 88bf 7ab6 2c3f 114f 1540
00000350: 69e9 c4bf e253 07c0 df05 3dbd ca82 80c0
00000360: b71c 99bf d900 e5bf 87bc 7dbe 1c53 91be
00000370: e309 8ebf 46cb 923f e92e 903e bf63 d53f
00000380: 8352 a23f 7e43 8e3f 8e43 033e 7019 97bf
00000390: ff7d 62bf 4b72 293f 24d6 103c 52ee 9c3f
000003a0: 168a 94bf c606 6d3f 9734 f2bf b7a4 4fbe
000003b0: 0a11 ff3e 038c 0b3f 17b1 c03f 7e0d c33f
000003c0: 57d7 3d3e d08f c540 2d58 843d d62e acbc
000003d0: f75b 0a3f b335 51c0 8141 5cbf c51c 933e
000003e0: c4a4 293f dc14 93be 2442 cf3d a335 783f
000003f0: f075 7a3f a264 453e d42c 84bc 23a8 fcbe

bias f4 [32]
-1.661113 -0.25933447 -2.1722999 -0.6190406 -1.6986667 -2.2962914 -1.0149564 -2.1516159
-0.752329 -0.9516006 -1.1807063 -1.1445965 1.4276716 -0.7579027 -0.8037861 -0.8512516
-1.7205094 3.3573325 0.3134758 -2.0156982 0.11512651 -0.8584388 -0.7749031 -2.0123122
-1.129381 1.4762325 -1.8124564 -0.32439092 -1.0388956 1.4136242 -1.7985412 -0.12020936
00000000: 5a9f d4bf 7dc7 84be f606 0bc0 7279 1ebf
00000010: e96d d9bf 70f6 12c0 17ea 81bf 13b4 09c0
00000020: a298 40bf 199c 73bf 6221 97bf 2382 92bf
00000030: f1bd b63f e905 42bf edc4 4dbf a0eb 59bf
00000040: a739 dcbf 89de 5640 e67f a03e 3301 01c0
00000050: 73c7 eb3d a5c2 5bbf 0d60 46bf b9c9 00c0
00000060: 8e8f 90bf 30f5 bc3f 92fe e7bf 9116 a6be
00000070: 88fa 84bf a3f1 b43f 9936 e6bf 5330 f6bd

weight f4 [64, 32]
-1.6791399 -0.9574379 -2.1738467 -0.21084516 -1.3766842 -2.3070748 -0.047777686 -0.17810547
-0.5788743 -0.07266454 -0.3730753 1.609067 0.2836409 0.6259013 -3.3453665 -1.0462749
-0.65377057 -0.21409184 -1.5654485 0.8491112 -0.74998933 -2.861039 -1.5432411 -0.54679084
0.7541619 -1.8275265 -4.0935187 0.9984183 -0.09922608 0.2700899 -3.4014156 -2.7819827
-2.266709 -0.0019511837 0.68127155 -0.06328376 -0.20126763 -0.75271755 -2.513451 -1.2624588
-1.8966424 -3.2477877 -3.5004187 -0.33207577 0.46876237 -1.6517917 1.7135007 -1.7986662
-0.4243042 -1.7349892 -0.49391395 -0.87504745 -2.7214289 -3.002381 0.57765 -0.8357058
-2.227632 -1.1325507 -2.6707835 -0.98325074 -2.4680638 -0.44722986 0.84164184 -1.0513482
-0.83551353 -1.4059925 0.8828176 -0.3305137 -1.8706527 -2.2312984 -0.83881235 -4.130028
-2.0913064 -2.9646487 0.14480354 -1.451068 1.0725484 -0.6327426 1.9113079 0.85332704
0.4739792 1.7137525 0.06086961 -1.1333635 -1.0367876 -2.9614613 -0.9222122 -0.23191284
-2.1376371 -1.338599 -1.3642533 -0.32298246 -1.4849831 0.3911834 -0.5473433 1.3616002
-0.022982918 -2.1392078 0.21598493 0.012199824 0.51901287 0.30202165 0.71973264 0.6420962
0.13427119 -0.24816471 -1.6355088 -0.5276703 0.35922962 -0.4544045 -0.23320448 -1.0043255
-1.0295331 -2.015782 0.116576605 -1.404458 -2.576827 -1.1179478 1.0526488 -0.49285203
-1.3247592 0.23875791 0.4015232 -0.53658414 -0.6093882 -0.89121014 -2.0082307 -1.0144844
1.1862974 -1.1692239 0.2257275 0.38242903 0.45283476 0.25789794 -0.21879196 2.0465734
-1.3347163 -2.7902355 -2.0360265 -0.4867933 -1.5528514 -2.462787 2.0821488 -0.84644485
-1.5181949 -1.9269359 -0.03096493 -1.410223 -3.3111806 -0.90617317 -0.9519417 0.33522943
-1.0776376 -1.3254803 0.25464216 0.3172925 -1.4408773 -0.5209117 1.5700092 1.4048318
-2.9797468 -2.1788526 0.20107216 -0.8398917 0.43137726 -0.62830377 0.5616418 2.002531
-1.1431682 -4.055137 -1.6094519 0.5531061 -0.15787011 2.7229095 0.8474904 -0.23936963
-0.5111255 -1.2732146 -2.1941667 -0.006392338 -3.2245636 -4.163868 0.42493665 -1.5968413
-1.0880996 -1.0180554 0.5887231 1.1755868 -0.74489784 -0.6367928 -0.7276088 -0.85108894
-0.551478 -0.9869946 -1.6545987 0.20346607 2.022476 -0.48143774 0.65111744 -1.1574122
0.09763472 0.61325276 -1.1424772 -1.15959 0.27262026 -0.30828252 -0.14131533 -1.6436737
-0.8304847 -1.9148179 0.66673285 -2.2102187 -2.199737 -1.0784721 -0.70032805 1.6614299
-1.4209673 -0.19083853 -0.5447329 1.3903602 -1.4880939 1.0388783 -0.6993042 1.8079412
-1.1897373 -1.7073811 -0.677425 -0.89137936 -1.0000787 -1.1796035 -0.54423624 -0.68584776
-0.9068166 0.63974833 1.2579235 -1.1606585 -0.36543867 -0.9524447 -1.2831266 -0.3054939
0.23564935 -0.98641175 1.0317085 0.6950822 -0.658525 -0.9570107 -1.7735064 -0.38184902
-2.1056993 1.0241009 0.30433887 0.6787878 -0.20399563 -0.8788375 -0.49993968 -0.10096401
00000000: 0eee d6bf a61a 75bf 4e20 0bc0 cbe7 57be
00000010: 3037 b0bf 1da7 13c0 89b2 43bd 4861 36be
00000020: 1b31 14bf 25d1 94bd ba03 bfbe e8f5 cd3f
00000030: 6139 913e 113b 203f 7c1a 56c0 56ec 85bf
00000040: 825d 27bf e43a 5bbe 9e60 c8bf 5a5f 593f
00000050: 4dff 3fbf 431b 37c0 ed88 c5bf 7cfa 0bbf
00000060: c110 413f 63ec e9bf 1bfe 82c0 5798 7f3f
00000070: 0b37 cbbd 3949 8a3e cbb0 59c0 010c 32c0
00000080: c311 11c0 dcbe ffba d067 2e3f ea9a 81bd
00000090: 1a19 4ebe 19b2 40bf 62dc 20c0 4098 a1bf
000000a0: 2ec5 f2bf c1db 4fc0 dc06 60c0 d605 aabe
000000b0: 9f01 f03e e96d d3bf fe53 db3f b23a e6bf
000000c0: 663e d9be 2014 debf 4ae2 fcbe 1c03 60bf
000000d0: e42b 2ec0 0327 40c0 dfe0 133f d1f0 55bf
000000e0: 8691 0ec0 6cf7 90bf 1eee 2ac0 52b6 7bbf
000000f0: c2f4 1dc0 50fb e4be d775 573f 9492 86bf
00000100: 37e4 55bf 90f7 b3bf 5600 623f 1739 a9be
00000110: 8c71 efbf 98cd 0ec0 68bc 56bf 3029 84c0
00000120: f7d7 05c0 cebc 3dc0 6147 143e 99bc b9bf
00000130: 4449 893f 6bfb 21bf bda5 f43f a473 5a3f
00000140: 67ad f23e 3e5c db3f 6a52 793d 0e12 91bf
00000150: 75b5 84bf 9588 3dc0 1916 6cbf 8f7a 6dbe
00000160: 0ccf 08c0 3657 abbf da9f aebf f55d a5be
00000170: ed13 bebf 3149 c83e b11e 0cbf ea48 ae3f
00000180: ac46 bcbc c8e8 08c0 272b 5d3e c5e1 473c
00000190: 07de 043f 95a2 9a3e 6640 383f 6b60 243f
000001a0: 637e 093e e41e 7ebe 5a58 d1bf 6715 07bf
000001b0: f2ec b73e b5a7 e8be 28cd 6ebe bd8d 80bf
000001c0: bec7 83bf 9302 01c0 b7bf ee3d 48c5 b3bf
000001d0: bcea 24c0 ea18 8fbf 32bd 863f 1a57 fcbe
000001e0: b691 a9bf f47c 743e 7394 cd3e 945d 09bf
000001f0: dd00 1cbf 5926 64bf da86 00c0 a0da 81bf
00000200: 98d8 973f 21a9 95bf 1c25 673e bdcd c33e
00000210: f5d9 e73e 330b 843e 000b 60be 0ffb 0240
00000220: fcd7 aabf 3893 32c0 424e 02c0 f93c f9be
00000230: d6c3 c6bf 4d9e 1dc0 ed41 0540 9cb0 58bf
00000240: 3654 c2bf d6a5 f6bf 2aaa fdbc 3082 b4bf
00000250: 62ea 53c0 f7fa 67bf 74b2 73bf 31a3 ab3e
00000260: 07f0 89bf 57a9 a9bf 7560 823e 2a74 a23e
00000270: ab6e b8bf 785a 05bf 10f6 c83f 87d1 b33f
00000280: 2cb4 3ec0 5272 0bc0 dce5 4d3e 2403 57bf
00000290: 7bdd dc3e 84d8 20bf c2c7 0f3f 7829 0040
000002a0: 5653 92bf afc3 81c0 8502 cebf 5d98 0d3f
000002b0: b4a8 21be 2644 2e40 21f5 583f 501d 75be
000002c0: 1fd9 02bf b2f8 a2bf 3a6d 0cc0 d176 d1bb
000002d0: 405f 4ec0 683e 85c0 4c91 d93e 4c65 ccbf
000002e0: d946 8bbf a44f 82bf 8fb6 163f a179 963f
000002f0: a0b1 3ebf da04 23bf 9244 3abf f7e0 59bf
00000300: aa2d 0dbf aeab 7cbf e4c9 d3bf 6959 503e
00000310: 3f70 0140 027f f6be a2af 263f 1526 94bf
00000320: b6f4 c73d 22fe 1c3f b13c 92bf 726d 94bf
00000330: e294 8b3e 35d7 9dbe f7b4 10be e663 d2bf
00000340: a59a 54bf c118 f5bf 01af 2a3f 3974 0dc0
00000350: 7ec8 0cc0 600b 8abf b348 33bf bca9 d43f
00000360: 42e2 b5bf 2d6b 43be 9e73 0bbf 53f7 b13f
00000370: dc79 bebf f7f9 843f 9a05 33bf 9e6a e73f
00000380: 5049 98bf 778b dabf ba6b 2dbf 7031 64bf
00000390: 9402 80bf 3ffd 96bf 1153 0bbf b893 2fbf
000003a0: 2225 68bf 8cc6 233f a303 a13f 7590 94bf
000003b0: c71a bbbe 6ad3 73bf 7e3d a4bf b269 9cbe
000003c0: 104e 713e 7b85 7cbf 060f 843f e8f0 313f
000003d0: 1895 28bf a7fe 74bf 4202 e3bf b781 c3be
000003e0: c7c3 06c0 bd15 833f 4ed2 9b3e 0ac5 2d3f
000003f0: 3be4 50be 7ffb 60bf 18f8 ffbe 38c6 cebd

bias f4 [64]
3.4441092 2.6802115 4.671356 -2.5705385 -3.8945043 1.7685163 0.40407684 -0.41214973
-0.05628658 -5.058703 0.06715739 4.4607596 0.93012077 1.5275705 -1.1389672 0.8794157
3.2698004 4.346679 2.2882228 0.8372072 5.710055 -0.8067924 0.98534006 0.91206
0.44612217 -0.38657767 -3.3018997 -2.6696372 4.5565147 3.6453023 0.9019942 -2.3391154
3.291154 0.5780234 -0.33744475 -1.8263179 0.105664484 0.97452 3.4006815 -0.1929446
-0.15106496 -0.29036152 1.7565852 -1.6078354 4.244135 0.34712538 -0.82740575 0.05612097
3.1977005 1.3066343 0.7705538 0.68431383 0.24730757 0.7212382 0.53999794 4.575596
0.82910734 1.1053826 4.0906873 -0.15362209 -2.0403001 -1.5915114 0.6957115 3.5767753
00000000: 496c 5c40 9688 2b40 c07b 9540 b483 24c0
00000010: 8f3f 79c0 be5e e23f 29e3 ce3e 4a05 d3be
00000020: c28c 66bd e5e0 a1c0 d089 893d 8bbe 8e40
00000030: 651c 6e3f 6e87 c33f adc9 91bf 6321 613f
00000040: 6944 5140 ff17 8b40 3e72 1240 3653 563f
00000050: c5b8 b640 f289 4ebf 3f3f 7c3f c47c 693f
00000060: 206a e43e 82ed c5be 5352 53c0 56db 2ac0
00000070: f8ce 9140 a24c 6940 18e9 663f 11b4 15c0
00000080: 44a2 5240 57f9 133f 8fc5 acbe c9c4 e9bf
00000090: 9f66 d83d 257a 793f c4a4 5940 4593 45be
000000a0: c6b0 1abe 44aa 94be c9d7 e03f 8dcd cdbf
000000b0: f4cf 8740 6bba b13e ddd0 53bf 1adf 653d
000000c0: 20a7 4c40 cb3f a73f 0443 453f 312f 2f3f
000000d0: 323e 7d3e 11a3 383f 4e3d 0a3f 486b 9240
000000e0: 6140 543f 2d7d 8d3f e9e6 8240 1c4f 1dbe
000000f0: 4794 02c0 a5b6 cbbf 261a 323f e3e9 6440

weight f4 [1, 64]
-0.5553364 -0.5184484 -0.7044836 -0.2620158 -0.61078286 -0.49276614 0.39049798 -1.093691
-0.07472174 0.50788444 0.4669323 1.3800343 -0.4866907 0.30201843 0.048449602 -0.5470711
-1.0187013 -0.6198721 -0.17824431 0.6755307 -1.3414373 0.27296075 -0.12470238 -0.26091084
-0.114097945 0.026545946 0.34914172 0.09292688 -0.118343115 -0.72318304 -0.051195092 -0.46615314
-0.3169317 0.037552502 0.64386076 0.79353887 0.5315107 0.3087542 -0.18872796 -0.2272456
-0.043156963 -0.074632294 0.6179307 -0.019859347 -0.09140759 -0.08417751 -0.013642701 -0.014873213
-0.2912164 -0.4253582 -0.5260521 -0.5249562 -0.5118775 0.016606476 0.001970368 0.35065135
0.056738406 -1.4285896 -0.34512258 -0.011484843 0.20977882 -0.1165939 0.12259248 0.41750157
00000000: 872a 0ebf 09b9 04bf 0a59 34bf ef26 86be
00000010: 445c 1cbf d84b fcbe 5aef c73e 11fe 8bbf
00000020: b607 99bd b704 023f c011 ef3e f7a4 b03f
00000030: 862f f9be 29a2 9a3e 1773 463d da0c 0cbf
00000040: ce64 82bf f0af 1ebf ad85 36be 94ef 2c3f
00000050: 38b4 abbf 83c1 8b3e f663 ffbd 1b96 85be
00000060: 2fac e9bd e276 d93c b4c2 b23e 7350 be3d
00000070: e05d f2bd 8622 39bf f2b1 51bd a0ab eebe
00000080: df44 a2be a7d0 193d 0fd4 243f 5d25 4b3f
00000090: 1611 083f 0815 9e3e e741 41be 12b3 68be
000000a0: 5bc5 30bd d1d8 98bd b530 1e3f 12b0 a2bc
000000b0: e733 bbbd 4265 acbd a385 5fbc c7ae 73bc
000000c0: 511a 95be 8dc8 d9be 5aab 06bf 8863 06bf
000000d0: 670a 03bf 4e0a 883c 4a21 013b 9388 b33e
000000e0: 8866 683d 06dc b6bf e8b3 b0be ec2a 3cbc
000000f0: 42d0 563e c8c8 eebd c411 fb3d c4c2 d53e
