models/simple_tag/DQN-not-shared/adversary_2/qnet_target_0.pt (torch, 15172 bytes, 6 tensors)

weight f4 [32, 12]
000000 5a 72 0c 3d 04 3e 17 3c f3 3d 32 3d 16 76 00 3e
       0.03428874 0.009231094 0.04351611 0.12545046
000010 22 16 bc bf ae 0d 7f 3f 64 7e 19 3e 83 c6 e7 3a
       -1.4694254 0.9963025 0.1498962 0.0017683062
000020 f2 83 65 3f 2d 4b 2e bf bd 43 cc 3e 2a cf 68 be
       0.8965446 -0.6808346 0.3989543 -0.22735277
000030 4f 61 0e be 5c aa 34 bf 77 3a 0c 3e 8f 9b 25 be
       -0.13904308 -0.7057245 0.13694178 -0.16172622
000040 59 8f 53 3d a2 04 59 be 31 f0 91 bc 5e b2 bb be
       0.05165038 -0.21193174 -0.017814728 -0.3665952
000050 1c c0 9f 3e 26 d3 cf 3f fb e5 fd 3d e0 44 89 3f
       0.31201255 1.6236312 0.12397381 1.0724144
000060 d5 a8 25 bc 0e d4 23 3e be fa 90 3d 31 7a 11 3d
       -0.0101110535 0.15998861 0.07079075 0.03551692
000070 08 13 04 be d9 8d 5b 3e 11 cf b7 3d b3 02 e7 3d
       -0.12897885 0.2144083 0.08975042 0.11279812
000080 36 d8 0d 3e bc cf f7 3c 3d 75 9e bd b3 37 08 bd
       0.13852009 0.030250423 -0.07737205 -0.033256244
000090 04 54 8b be ba 15 a4 3d ef 15 8b be 75 3e 14 3c
       -0.27212536 0.080119565 -0.27165172 0.009048094
0000a0 a9 58 12 be 9b a0 48 3e 2d 84 cb 3d 8b de c8 be
       -0.14291634 0.19592516 0.0993732 -0.39232287
0000b0 90 11 5c 3e e7 3f 13 bd 90 1a 14 be 28 3c f5 bd
       0.21491075 -0.035949614 -0.14463258 -0.119743645
0000c0 00 38 4b be 6f 81 ba 3e 24 8a 1b 3e 9f 39 ae bd
       -0.19845581 0.36426875 0.15189415 -0.08507084
0000d0 02 cc 4d bd 60 eb 9a be 8d 2e a2 bd 53 ba 02 bf
       -0.050243385 -0.30257702 -0.07919035 -0.5106556
0000e0 47 ef 34 3f af f0 38 bf 77 91 65 3e 65 5d d0 be
       0.7067761 -0.72242254 0.22418772 -0.40696254
0000f0 44 a3 92 3e 5b 61 4e 3d 15 eb 00 3e 12 8c b6 3c
       0.28640187 0.050385814 0.12589677 0.022283588
000100 35 45 f3 bc 50 64 0e bd d9 9a 90 3d 84 30 8f 3e
       -0.029696086 -0.034763634 0.07060785 0.27966702
000110 7d 82 18 be a6 02 b7 be 8a d4 ea 3c 5c 4f 4e 3e
       -0.14893527 -0.35744208 0.0286658 0.2014746
000120 7d 81 12 3f cd f5 e6 be 37 d4 46 be 40 3e 88 bd
       0.57228833 -0.45109406 -0.19416891 -0.06652498
000130 28 9d c1 bd 27 88 b1 bd 60 a7 2f be ad a6 01 be
       -0.09453803 -0.08668547 -0.17153692 -0.12661238
000140 ac d2 0e bf 1d e3 92 3f a4 38 0c bf 36 9a e0 3e
       -0.5579021 1.147556 -0.54773927 0.43867654
000150 b9 24 6e 3d 65 3d 02 be f6 62 79 3c 04 81 6b be
       0.05814049 -0.12718733 0.015221348 -0.22998434
000160 a9 78 85 3e d6 b1 8e 3d 11 ad 08 be 7d 0c c4 bd
       0.2606862 0.06967513 -0.1334727 -0.095726945
000170 ea dd 77 bd 2f 49 ae 3d c4 bb 83 bd cd 8b 3e be
       -0.060514368 0.085100524 -0.06432298 -0.18608017
000180 67 5f 25 be 2f 41 75 be 9d ee 9c 3e a4 e3 20 bf
       -0.16149674 -0.23950647 0.30650797 -0.6284735
000190 7e d9 34 3f 2a dc 1d bf d0 43 02 3f 11 38 a4 be
       0.70644367 -0.6166407 0.50884724 -0.32074025
0001a0 f4 a5 05 bf c4 6e 70 3d eb 60 02 bf e0 5c d3 3d
       -0.5220635 0.058699384 -0.50929135 0.10320449
0001b0 35 17 8f 3b 58 88 ec 3d 96 02 41 3d ee a7 8e bc
       0.00436678 0.11549443 0.047121607 -0.01741406
0001c0 ba 5c fa bc 47 34 47 be d2 96 3f 3f 46 30 8e 3f
       -0.030561794 -0.19453536 0.7483951 1.1108482
0001d0 91 a4 0c bf 09 5e 59 bf 00 d7 38 be 7c da ac be
       -0.5493861 -0.8490911 -0.18050766 -0.3376044
0001e0 3c d4 27 be 8e 31 62 bd 18 0b 83 bf d9 62 84 bd
       -0.16389555 -0.05522304 -1.023776 -0.06464166
0001f0 ab 1f c4 be ea c8 e0 bd ff 53 20 bf 98 81 28 3e
       -0.3830541 -0.10975821 -0.6262817 0.16455686
000200 3a f0 5b 3d cc 1a 2c 3c 37 82 87 be a7 14 c6 bc
       0.053695895 0.010504436 -0.26466534 -0.02417977
000210 40 38 9e 3d 62 ce 41 be b7 06 96 be a3 d6 a8 bd
       0.077255726 -0.18926385 -0.29301998 -0.08244064
000220 98 bb 11 be 6d 8d 59 3e 30 5e 95 3d 89 bb 11 be
       -0.14231718 0.21245356 0.072933555 -0.14231695
000230 76 ee 53 3d fb 8c 0b be 0b d5 da bd 1d d2 3b 3e
       0.051741086 -0.13627999 -0.10685166 0.1834187
000240 eb e7 77 bd 21 bc c8 3d 5d 95 09 3d a2 6b b0 bd
       -0.06052391 0.09801508 0.03358971 -0.08614279
000250 05 6b c4 bc b4 35 46 3e d7 94 b1 3e e9 9d 6e 3c
       -0.023976812 0.19356424 0.34683868 0.014564016
000260 86 64 4c be 07 d0 07 bd 4c 81 b3 bc 02 7a a7 3e
       -0.19960222 -0.033157375 -0.02191224 0.32710272
000270 f3 b5 07 bb 23 35 25 3e 1a 21 ac bd b4 41 82 bd
       -0.0020707815 0.16133551 -0.08404751 -0.06360188
000280 5a 7c 2e be 38 a2 61 3e 1b d0 6e 3e 57 60 c0 3d
       -0.17039624 0.22034538 0.23321573 0.09393375
000290 e4 1a 46 bc 01 2a 38 bd a6 36 fd 3d 68 e6 22 be
       -0.012091372 -0.044961933 0.12363939 -0.15908206
0002a0 38 41 5d bd 4e c5 ed 3d 33 89 44 3f ca 52 02 3e
       -0.054017276 0.116098985 0.7677185 0.12726894
0002b0 b5 da 3f 3e 79 6b 86 bd 67 0b 1b 3f 68 e2 a4 bb
       0.18735774 -0.065634675 0.60564274 -0.0050318725
0002c0 a0 5b d1 3d 79 d6 ec 3d 6b a7 1c 3f 0c 0d ca 3d
       0.10222554 0.11564345 0.6119296 0.0986577
0002d0 df 01 b9 be 6d 6e 23 3e b5 56 91 be 6a 7b f7 bd
       -0.3613424 0.15960093 -0.28386465 -0.12084086
0002e0 26 99 92 3e 1e 60 ad 3e 27 c2 d1 3e c9 66 e1 3d
       0.28632468 0.33862394 0.4096844 0.11005933
0002f0 8e b8 9d bd e0 84 be be 06 19 e3 bd 12 40 0b bf
       -0.07701217 -0.3721075 -0.11088757 -0.5439464
000300 e3 0a cf be c3 39 e1 3e 34 1d 2a 3d eb 08 7b bd
       -0.40437993 0.4398938 0.041531757 -0.0612878
000310 b3 11 a7 bd 77 62 ad bd fb 84 28 3c 44 c1 cf bc
       -0.08157673 -0.08466046 0.010285611 -0.02536071
000320 3b 05 93 3f 0e 16 8d bf a8 c9 c7 3e f0 21 e0 be
       1.1485971 -1.1022356 0.3902104 -0.43775892
000330 b3 99 1d 3f 94 9a 77 3d 40 f0 2c 3f 40 e1 f1 bd
       0.6156265 0.06045015 0.6755409 -0.11810541
000340 d4 45 d1 be b5 d7 89 3e 23 9e 2d bf 1b 00 01 3d
       -0.40873587 0.26922384 -0.6781942 0.03149424
000350 6d c9 17 3f a1 53 9e be a2 76 e9 3d 97 cb 77 be
       0.59291726 -0.3092318 0.113995805 -0.24198757
000360 1b 79 54 3e 43 1f 12 3e 01 d7 00 bf d5 ed 20 3e
       0.20749323 0.14269738 -0.5032807 0.15715726
000370 22 c3 fa 3c f2 b0 17 bd 73 1e 3d 3e 32 45 61 3d
       0.030610625 -0.037033983 0.18468647 0.05499763
000380 26 6f b4 bf 18 f2 53 be 65 f0 0e bf 95 d1 38 be
       -1.409642 -0.2069782 -0.5583556 -0.18048699
000390 e7 b2 42 be d8 2d d9 bd 26 48 3b bd e7 c2 06 bf
       -0.19013558 -0.10604447 -0.045723103 -0.5264115
0003a0 0f 35 c1 be c6 f6 47 3e e8 f7 d7 bc 2d 11 88 3e
       -0.37735793 0.1952773 -0.026363328 0.26575604
0003b0 64 bb ee 3d 6f b4 83 bf 21 a5 ab 3e 8d d8 06 bf
       0.11656836 -1.0289439 0.3352442 -0.5267418
0003c0 e7 f3 de 3e c3 f0 c9 3e 89 7f b9 bd 17 64 45 bd
       0.43545458 0.394415 -0.090575285 -0.048191156
0003d0 b5 77 43 bc 94 58 92 bd dc 34 23 bd 4b 5d f4 3b
       -0.011930396 -0.07145801 -0.039845333 0.0074574105
0003e0 e7 54 ae bf 7f 45 a3 bf a0 2b eb be 02 65 e4 be
       -1.361966 -1.2755584 -0.4593172 -0.44608313
0003f0 6f 3b 88 3c a2 c4 e6 3d cb 36 d8 3c 8d 79 68 bd
       0.016629903 0.112679735 0.026393315 -0.056756545

bias f4 [32]
000000 78 cf 8c bd 0a 1f d6 3c 0f bc 9e 3f a1 fd 6f 3f
       -0.06875509 0.026137847 1.2401141 0.9374638
000010 da 39 f2 3e ec 70 8c 3f ee 80 ff 3c 7c 96 9c 3f
       0.47309762 1.0971961 0.031189408 1.2233424
000020 32 e9 15 bc c0 3f 2b 3c af 81 d5 be 1d a0 89 3f
       -0.009149836 0.010452211 -0.41700503 1.0751988
000030 48 9b 94 3f c4 6a 93 3f 55 90 a1 3d c6 4d 0a 3f
       1.1609888 1.1516957 0.07888857 0.5402492
000040 41 81 2e 3c 1c 70 fc 3e 77 09 b3 3e 28 54 23 3f
       0.010650934 0.49304283 0.3496816 0.6380029
000050 a0 22 d0 bd 45 58 45 3c af a6 f2 bc fc e3 3b 3f
       -0.10162854 0.012044971 -0.029620497 0.7339475
000060 16 1e e6 bc 20 e2 83 3d 46 b9 ae bd d5 b6 7c 3f
       -0.028090518 0.06439614 -0.08531432 0.9871648
000070 ef 8b e3 3d 8d a8 64 3f e0 af 20 be 97 ff b8 be
       0.111106746 0.8931969 -0.15692091 -0.361325

weight f4 [64, 32]
000000 39 eb 9e be 2c 73 90 3e a1 88 6e 3f af 70 5f 3f
       -0.31038836 0.2821287 0.9317723 0.87281317
000010 9f 07 18 3f 16 1c 3a 3f 3b 00 08 3e 6b 69 78 3f
       0.5938663 0.72699106 0.13281338 0.97035855
000020 a3 c8 ae 38 be 84 58 bf 81 93 d0 be 13 d0 65 3f
       8.334338e-05 -0.8457755 -0.40737537 0.8977062
000030 02 83 2d 3f e4 8f 73 3f 30 20 a5 3c 16 84 00 3f
       0.6777803 0.95141435 0.02015695 0.5020155
000040 e1 33 7e 3d ce 03 06 3f 6b 4e 3e 3f 26 3b 30 3f
       0.062061194 0.52349555 0.74338406 0.68840253
000050 a3 bb 8a 3c 2c c9 1b bf e2 f2 76 bf 73 cf 4a 3f
       0.016935175 -0.6085384 -0.9646436 0.7922279
000060 58 84 99 be d2 0e 68 be 9f 28 52 3e 48 36 ee 3e
       -0.29983783 -0.22661904 0.20523308 0.46525788
000070 85 fe 5e 3e d9 04 55 3f ab e5 df be 83 0a bd be
       0.21776779 0.8321052 -0.4372991 -0.36922082
000080 db 2b a9 be 9f e8 fd bd bb 30 b6 3e e9 bf ec 3e
       -0.33041272 -0.123978846 0.35584053 0.46240166
000090 21 66 63 3f 4c 33 1e 3f 47 c4 fa be 56 a6 cf 3e
       0.8882771 0.6179702 -0.48977873 0.40556592
0000a0 93 27 15 bf d9 5f 13 c0 28 25 87 3e 17 ac fd 3e
       -0.5826351 -2.302725 0.26395535 0.49545357
0000b0 e9 01 ac 3e 39 3a f4 3e db 7c 14 be c2 34 3d 3e
       0.33595207 0.4770067 -0.14500754 0.18477157
0000c0 e2 d3 36 bf 4a df 32 3e 5e e1 f8 be 07 39 03 3f
       -0.7141706 0.1746799 -0.48609442 0.5125889
0000d0 6d be b3 bf 16 d7 83 bf 8e be 21 c0 9d 34 67 3d
       -1.4042488 -1.0300014 -2.5272555 0.05644666
0000e0 fb 88 2a bf 52 bc 05 bf 0b 5c 4d be 8d 1a 23 3f
       -0.66615266 -0.5224048 -0.20054643 0.6371239
0000f0 2a 4f 39 bf fc 69 86 3e c1 2a df bd 12 ed da be
       -0.7238642 0.26252735 -0.108968265 -0.42758995
000100 c1 61 e0 be 7c 1d 94 3e ac e1 5c 3f e7 d1 28 3f
       -0.4382458 0.28928745 0.8628185 0.65945286
000110 6b 4b 15 3f 60 fd 2b 3f 11 7a 29 bd b2 a0 55 3f
       0.58318204 0.67183495 -0.041376177 0.83448327
000120 16 05 31 3e 70 09 8c bf e3 23 bb be db 11 63 3f
       0.17287096 -1.094038 -0.36550817 0.8869912
000130 c7 e3 54 3f 8b 2a 25 3f b4 6c 83 bd 96 b4 ca 3e
       0.8316006 0.6451804 -0.06417218 0.395909
000140 4b 09 8c bd 79 e8 a7 3e 4b 83 4c 3f 59 9e 21 3f
       -0.0683771 0.3279455 0.7988784 0.63132244
000150 fd 7d 50 be 77 fe 1d bf cd 0e 6e bf 49 a6 f1 3e
       -0.2036056 -0.6171641 -0.92991334 0.47197178
000160 11 8e 8c be 05 ed 4f be 4d 64 68 3e a6 33 0f 3f
       -0.27452138 -0.2030526 0.22694512 0.55938184
000170 9f 42 80 bd f8 eb 4a 3f 34 d2 d8 be 71 55 9f be
       -0.06262707 0.7926631 -0.42347872 -0.31119874
000180 71 87 26 3f e2 8f 35 3f 94 88 34 be 7c b8 66 be
       0.6505042 0.7092267 -0.17630225 -0.22531313
000190 36 6e 22 be dc 25 ae be d9 5c 8f bc 70 d7 5c be
       -0.15862355 -0.3401326 -0.017500328 -0.21566558
0001a0 fe 34 b9 bc d6 58 72 3f 06 59 db 3f 04 5d af be
       -0.022608276 0.946668 1.7136543 -0.34250653
0001b0 97 06 20 be 86 f2 61 be 9e a2 f0 3e c4 05 cb be
       -0.15627514 -0.22065172 0.46999067 -0.39652836
0001c0 aa 97 f2 3e 97 bb 0a 3e 07 cc 6c bf 74 00 a8 bc
       0.47381335 0.13548122 -0.9249882 -0.020508029
0001d0 75 ce 73 be f4 e3 ff 3e 8a cc 35 3f bb 9e 85 bd
       -0.23809226 0.49978602 0.71015227 -0.06524416
0001e0 dc 06 4b 3f 56 7c 6d 3d c7 ac f9 be cb 3d 46 3e
       0.7930734 0.057979904 -0.4876463 0.1935951
0001f0 67 7e 9e 3e 76 36 9d be 6d 75 83 3f 5b 11 0e bf
       0.30955812 -0.30705613 1.027021 -0.5549523
000200 bd 8a 2b bf c3 2e 16 3c d6 99 1b 3f 7e c6 18 3f
       -0.6700857 0.009166422 0.6078161 0.59677875
000210 2c e4 e8 3e ac d1 ee 3e 91 77 aa bd 3a 70 0b 3f
       0.4548658 0.46644342 -0.08323587 0.5446812
000220 28 3e ad 3e 74 be df bf 07 45 0d 3e 5d ea 30 3f
       0.33836484 -1.7479997 0.13795863 0.6910761
000230 12 53 03 3f c8 cd 0a 3f 44 ce 6d 3e 94 13 9e 3e
       0.5129863 0.5422025 0.23223215 0.30874312
000240 e6 6a ce bf 8d bd aa 3e fd 45 a6 3e f8 e6 49 3e
       -1.6126373 0.3334774 0.32475272 0.19717014
000250 db 22 cb bf f1 d8 c5 bf e9 6c 5e bf 72 b3 1e 3f
       -1.5870012 -1.545683 -0.86884934 0.6199256
000260 dd c0 e8 bd 36 8b 84 be e9 59 75 be b5 b1 1c 3f
       -0.11364911 -0.2588746 -0.23960079 0.6120866
000270 ce 76 ad be d6 67 de 3e 40 9e 15 bf 98 c6 a5 bf
       -0.33879703 0.43438596 -0.58444595 -1.2951231
000280 53 3c 41 bd 6b fa 23 c0 b1 50 8a bd 15 fa c6 3d
       -0.04717667 -2.5621593 -0.06753672 0.09715668
000290 b6 cd 15 3f e2 78 e3 3e e3 2a f1 bf 6e 00 ce 3d
       0.58517015 0.44428164 -1.8841213 0.10058676
0002a0 b1 b7 5d 3f 87 81 2b bf 17 37 c1 3e aa 61 18 3f
       0.86608416 -0.6699452 0.37737343 0.59524024
0002b0 a4 79 2f 3e 9e 6f 87 bd 26 b4 55 bc b2 c4 d3 3e
       0.17136246 -0.06613086 -0.013043439 0.41361004
0002c0 22 23 4d c0 c6 e4 c5 bd 38 df fc bd 54 98 4b 3f
       -3.2052693 -0.09662776 -0.12347263 0.7952931
0002d0 ef e5 95 c0 e2 b2 16 be 2b 92 d2 bd 16 4f f2 3e
       -4.684318 -0.14716676 -0.102817856 0.47325963
0002e0 64 01 3c 3f 6d 31 26 3f a0 6c 22 c0 e9 29 a1 3e
       0.7343962 0.6491917 -2.53788 0.31477287
0002f0 bf d5 f6 bd b5 b2 46 bd 75 d0 26 3f 83 41 73 bc
       -0.120524876 -0.048510272 0.6516183 -0.014847162
000300 18 62 3d be 80 3c 09 bf 31 a7 ec 3e 1f 0e fa 3e
       -0.18494451 -0.5360794 0.46221307 0.488389
000310 33 a7 3c 3f 61 eb e1 3e 3b b5 9b bf 77 c1 f0 3e
       0.73692626 0.44124892 -1.2164682 0.47022602
000320 97 a2 28 bf 7e 34 b4 bf e2 a5 b7 3d 52 05 0f 3f
       -0.6587309 -1.4078519 0.089671865 0.55867493
000330 7c 65 eb 3e 86 2b 0d 3f 7c a6 35 bf b4 58 51 3e
       0.45975864 0.55144536 -0.7095716 0.20443994
000340 3d 35 97 be 12 9f c3 3e 14 db 78 bd 30 b5 56 3f
       -0.29532805 0.382073 -0.060755804 0.8387022
000350 d2 0a 56 bf 20 ec 6a bf d6 7a 54 c0 a5 fa 4e be
       -0.8361026 -0.9176655 -3.3199973 -0.20212801
000360 49 20 43 bf 74 5b 9a bf 0c 85 fd bd ec 15 8c 3e
       -0.7622114 -1.2059159 -0.12378892 0.27360475
000370 19 47 22 bf 6d ce d7 3e 31 30 8f be dd f9 93 be
       -0.63389736 0.42149678 -0.27966455 -0.28901568
000380 15 e5 cc 3e 22 53 fb 3a ae 1f 88 3d 59 31 e0 3c
       0.40018526 0.0019174556 0.066466674 0.02736728
000390 42 44 02 3e 88 7f 1d 3d 19 71 b9 be e0 f1 2c 3e
       0.12721351 0.0384517 -0.362191 0.16889143
0003a0 45 9b 33 3c 2b 8e a2 3f 24 cf cf 3f 86 11 96 bb
       0.010962312 1.2699636 1.6235089 -0.0045797257
0003b0 d7 08 95 be 80 21 2b 3e f8 6c da 3e a9 39 7b 3c
       -0.29108307 0.16711998 0.42661262 0.0153335715
0003c0 ba b5 cf 3e 9a 86 9a 3e 1d fe 80 be a7 fd db bd
       0.40568334 0.30180818 -0.25193873 -0.1074174
0003d0 83 f3 29 be 51 d7 87 3f 9a 8f c8 be 60 86 9f be
       -0.16596799 1.0612584 -0.3917206 -0.31157207
0003e0 b7 9f b7 3e 14 a3 89 bd 1d 9d 3f 3e 4a 1e 38 3e
       0.3586404 -0.06720558 0.18712278 0.17980304
0003f0 5f a1 40 3c e6 7d af bc f4 64 4b 3f 32 fe 26 3f
       0.011757224 -0.021422338 0.7945092 0.6523162

bias f4 [64]
000000 ab 73 79 3f f1 4d 41 3f c1 94 99 3f 5b d6 15 bf
       0.9744212 0.75509554 1.1998521 -0.58530205
000010 b1 fe 59 3f f2 f8 e2 3e 95 26 24 3f 31 29 c3 be
       0.85154253 0.44330555 0.6412137 -0.38117364
000020 a2 dc 28 3f 91 9f a3 3f 3f 7f 6d bc 3b 7b 87 3f
       0.6596166 1.2783071 -0.01449567 1.0584482
000030 37 47 36 3f 3b 3a 1f be df b3 94 3e 70 24 64 3f
       0.71202415 -0.15549557 0.2904348 0.891181
000040 e5 30 b7 3e f1 7d 84 3f c8 61 8b 3f da bd 93 3f
       0.3577949 1.0350934 1.0889215 1.1542313
000050 a3 e9 85 bd db b1 ed be df 93 a1 3f d9 61 f4 bd
       -0.06538703 -0.46424755 1.2623252 -0.119327255
000060 5e 6e c6 3e 87 79 98 3f cf 85 a4 3f 83 b0 cd be
       0.38756078 1.1912087 1.2853335 -0.4017373
000070 c1 e9 cd be c8 20 80 be c5 81 7c 3f 5f bd 1d 3f
       -0.40217403 -0.2502501 0.9863551 0.6161708
000080 38 50 ce be 46 6e 8c 3f 65 8f 30 3f b3 a0 70 3f
       -0.40295577 1.0971153 0.689688 0.9399521
000090 18 1c 92 3f 5f 11 28 3f 1a 69 91 3f 12 96 d9 bc
       1.1414824 0.65651506 1.13602 -0.026560817
0000a0 b9 07 06 bf a7 27 20 be 75 ef 80 be 4a f2 81 3f
       -0.52355534 -0.15640126 -0.2518269 1.0152066
0000b0 00 b5 1e 3f 68 7f 63 3e 4c 63 80 3f 68 7f 3a be
       0.61994934 0.2221657 1.0030303 -0.18212664
0000c0 b3 5e 56 3f 1e 00 3c 3f 53 8f b1 3e 7e 69 84 3f
       0.8373825 0.7343768 0.3467966 1.0344694
0000d0 d4 1a 85 bd 9f 6a 58 3d 47 a5 cb 3e 6a d5 8b bc
       -0.06499258 0.052836057 0.39774534 -0.017069537
0000e0 d9 9f 76 bb 84 c3 b8 3e e6 0a c5 be 08 4b 31 3f
       -0.0037631898 0.36086667 -0.38484877 0.69255114
0000f0 69 ec 0a bf e3 de 91 be 29 97 9b 3f ee 62 9d be
       -0.54266983 -0.28490362 1.2155505 -0.3073954

weight f4 [5, 64]
000000 b6 c5 1f 3f 36 82 a2 3f e5 25 48 3f ba 1a 91 bf
       0.6241106 1.2695987 0.7818282 -1.1336281
000010 11 f6 95 3f 1a 07 0f 40 27 9b a1 3f d0 72 39 bf
       1.1715719 2.2348084 1.2625474 -0.72440815
000020 08 f1 82 3f 98 b1 3c 3f db 13 c1 be d7 46 2f 3f
       1.0229807 0.73708487 -0.3771046 0.6846747
000030 81 50 b2 3f 39 41 2a bd 5e 17 73 3f 3f 64 6e 3f
       1.3930818 -0.041566107 0.9495753 0.93121713
000040 9a 19 d5 3f cd 2b 23 3f a2 8c 47 3f 7c 63 21 3f
       1.6648438 0.6373871 0.77948964 0.63042426
000050 62 a1 0f bf 44 5a 7f bf c1 01 31 3f ab fc 8c bf
       -0.56105626 -0.9974711 0.691433 -1.1014608
000060 84 0c 31 3f 36 f9 3a 3f c6 0e 23 3f 9d 07 8c bf
       0.6915972 0.73036516 0.6369442 -1.0939823
000070 02 42 87 bf 84 b0 64 bf 8b 51 96 3f c6 28 52 3f
       -1.0567019 -0.8933184 1.1743635 0.82093465
000080 ee ad 3a bf 27 ea 78 3f da 38 82 3f 27 72 55 3f
       -0.72921646 0.9723229 1.01736 0.8337731
000090 bb 74 28 3f 86 9a 8c 3f 3a 89 55 3f 7f d8 90 bf
       0.65803117 1.0984657 0.83412516 -1.1316069
0000a0 a8 e7 8b bf c0 ea 87 3b 02 dd 62 3d 74 e0 75 3f
       -1.0930071 0.0041478574 0.05538655 0.96045613
0000b0 f3 4c 8f 3f bc 5b 6a 3f 43 ce 86 3f 0a 49 e7 b9
       1.1195358 0.91546226 1.0531696 -0.00044114172
0000c0 ff b9 6d 3f 1f dc 9c 3f 02 c7 f4 3f eb d1 5a 3f
       0.9286193 1.2254676 1.9123232 0.8547656
0000d0 4a 42 ea be a7 a6 eb be c7 b7 d7 3f 32 8f b6 be
       -0.457537 -0.46025583 1.6852959 -0.35656124
0000e0 57 c0 e4 3e 61 64 33 3f 54 57 80 bf 2e 03 81 3f
       0.44677994 0.7007504 -1.002665 1.0079095
0000f0 96 57 59 bf 26 5d 8d bf 86 0a 12 3f d0 0d 06 bf
       -0.8489927 -1.1044052 0.5704731 -0.52364826
000100 d3 b5 37 3f c5 0e 9c 3f 81 64 51 3f 50 0f 88 bf
       0.71761817 1.2192007 0.8179398 -1.0629673
000110 cd 54 95 3f e0 be 16 40 7e ea 99 3f b7 2a 8f bf
       1.1666504 2.3554 1.2024686 -1.118491
000120 37 dc 72 3f fb 08 31 3f ac f2 3b bf bc 5b 47 3f
       0.9486727 0.6915433 -0.7341716 0.7787435
000130 cd 04 c2 3f 6e 6b a5 3c 1d d2 85 3f 9d 7c 78 3f
       1.5157715 0.020192828 1.0454746 0.97065145
000140 1d 48 ae 3f 73 1f 30 3f 57 74 61 3f 3d 79 1c 3f
       1.3615757 0.6879799 0.88068146 0.61122495
000150 3d ee 6e bf 3c 62 9a bf c5 e2 24 3f 0f a0 91 bf
       -0.9333227 -1.2061229 0.6440852 -1.1376971
000160 7f b4 cd 3f 79 f1 19 3f 76 e1 39 3f d4 83 80 bf
       1.6070708 0.60134083 0.7260965 -1.0040231
000170 c6 60 70 bf 79 f6 39 bf d0 f1 85 3f dc 7d ac 3f
       -0.93897665 -0.7264171 1.046442 1.3475909
000180 8e a4 cb be 5c 2b 7a 3f 57 cd 4b 3f 48 b6 3d 3f
       -0.39773983 0.9772241 0.796102 0.74106264
000190 03 3b 21 3f 07 01 d6 3f 41 c4 4c 3f 8d ec 98 bf
       0.6298067 1.6719064 0.7998696 -1.194719
0001a0 2e 79 64 bf b6 49 f4 3d 6e ba 90 3d 90 34 78 3f
       -0.89247406 0.11928122 0.07066809 0.96955204
0001b0 71 8f 20 3f 4c ac 4d 3f 9c 0c 84 3f 57 5c b1 3d
       0.62718874 0.8034103 1.0316348 0.086601906
0001c0 6c a7 69 3f e4 7d a4 3f 49 45 05 40 c8 32 3d 3f
       0.9127109 1.2850919 2.0823538 0.7390561
0001d0 24 d2 05 bf 4c c3 7a bf 78 03 ed 3f e8 86 cb bf
       -0.52273774 -0.9795425 1.8516684 -1.5900545
0001e0 a9 73 fc be e9 db 83 3f 9b cb 50 bf 90 14 7b 3f
       -0.49306992 1.0301486 -0.8156068 0.9807825
0001f0 4c c7 5c bf f3 0b 9e bf 45 e5 39 3f f5 e0 43 be
       -0.862416 -1.2347397 0.7261546 -0.19128783
000200 a1 ba 12 3f 94 18 a9 3f 87 47 26 3f 4a c0 c1 bf
       0.57316023 1.3210626 0.6495289 -1.5136807
000210 0e 96 98 3f 19 1b 32 40 9b cd 96 3f 09 69 20 bf
       1.1920793 2.782904 1.1781496 -0.6266027
000220 12 5b 86 3f aa 89 2a 3f 16 99 60 bd f3 94 67 3f
       1.0496542 0.6661631 -0.054833494 0.90461653
000230 3a 0f a6 3f c9 49 a1 be 3d cc 5a 3f 2c 02 81 3f
       1.2973397 -0.31501606 0.8546789 1.0078788
000240 2d 0d 08 40 4b b2 06 3f a6 f9 31 3f 7e 83 27 3f
       2.1258042 0.52615803 0.6952156 0.65435016
000250 ed 2d 84 3e 39 e5 12 bf 80 5b 3e 3f be 6c b1 bf
       0.2581629 -0.57381016 0.7435837 -1.386131
000260 55 2b c3 bd 99 56 1e 3f 51 2f 2a 3f 2a 64 98 bf
       -0.09529749 0.6185089 0.6647845 -1.1905568
000270 93 c7 bc bf ed b9 56 bf 13 0b 91 3f 77 90 cd be
       -1.4748405 -0.8387745 1.1331505 -0.4014928
000280 c9 b0 68 bf 48 13 8e 3f 82 9e 8a 3f 1b 2a 36 3f
       -0.9089475 1.1099634 1.0829623 0.71158
000290 48 76 1e 3f a8 be 98 3f 2a e0 37 3f 99 d1 9f bf
       0.6189923 1.1933184 0.7182642 -1.2485839
0002a0 ee 02 bb bf 24 43 ea 3d 63 91 6c 3c 29 73 89 3f
       -1.4610269 0.11438587 0.01443896 1.0738269
0002b0 7c 8e be 3f a3 3b 8f 3f 65 4c 92 3f 52 f7 a3 bd
       1.4887233 1.1190075 1.1429564 -0.08006157
0002c0 92 42 6b 3f 46 61 aa 3f dc 7e dc 3f 1b 14 49 3f
       0.91898453 1.3310935 1.7226214 0.78546304
0002d0 a8 39 63 bf 0d 67 06 bc 8a 26 cd 3f 70 77 83 3e
       -0.8875985 -0.00820328 1.6027386 0.2567706
0002e0 32 7f db 3f 35 9a bf 3e 15 e2 f8 be f5 f5 9d 3f
       1.7148192 0.37422338 -0.48609987 1.2340685
0002f0 e2 36 92 bf 68 38 4d bf 98 3d 2d 3f 0e 60 65 be
       -1.1422999 -0.80164194 0.6767211 -0.22399923
000300 1c 52 31 3f 99 33 b9 3f 2d 9d 42 3f a4 a1 a7 bf
       0.69265914 1.4468871 0.7602108 -1.3096204
000310 0e c7 96 3f 06 9d 2f 40 04 32 a0 3f 3f 62 a6 be
       1.1779497 2.743959 1.2515264 -0.3249683
000320 89 b5 58 3f 5e 71 26 3f 9b 7b f3 3e ae f5 59 3f
       0.84652 0.65016735 0.4755524 0.851405
000330 2a 01 59 3f 4b 0a 24 3f 16 7b 0e 3f bd de 80 3f
       0.847674 0.64078206 0.55656564 1.0067974
000340 b2 e3 00 40 bb f3 05 3f b9 d8 3d 3f 92 2d 36 3f
       2.0138974 0.5232503 0.7415882 0.71163285
000350 5f 79 eb 3c 7f e0 9c bf fd 99 16 3f 1f 42 d8 bf
       0.028744398 -1.2256011 0.5882872 -1.6895179
000360 0b 02 b9 3e 6f b2 16 3f 41 6b 35 3f f1 23 9b bf
       0.3613437 0.5886602 0.7086678 -1.2120343
000370 23 5c b7 bf fd 9e 19 bf c7 d1 95 3f 13 f6 63 3f
       -1.4324993 -0.6000822 1.1704644 0.89047354
000380 5b c8 32 bf b7 67 85 3f b4 81 63 3f 44 8e 41 3f
       -0.6983697 1.0422276 0.88869786 0.75607705
000390 1d fe 15 3f c3 c4 ad 3f 9e 76 4f 3f dd 61 c5 bf
       0.5859087 1.3575672 0.8104037 -1.542049
0003a0 18 bd 99 bf 4f 51 ba 3c c6 4d 16 3d 9d 87 4b 3f
       -1.2010832 0.02274385 0.036695264 0.79503804
0003b0 61 6b 2a 3f 27 ce 55 3f 16 b1 90 3f 3c 90 4e 3d
       0.665701 0.8351769 1.1304042 0.05043052
0003c0 6c f9 77 3f e1 ef b0 3f 44 6f e2 3f 96 19 4c 3f
       0.9686496 1.3823205 1.7690206 0.7972654
0003d0 d4 09 c9 be 29 f2 6a bf 06 47 f9 3f a0 fc ac 3e
       -0.3926531 -0.9177576 1.94748 0.33786488
0003e0 65 64 14 3f 7c cd ae 3f a6 57 23 bf d5 ca 8e 3f
       0.5796569 1.3656459 -0.63805616 1.115565
0003f0 2d 63 23 bf ab 39 4a bf 2f c1 22 3f 0f 27 83 be
       -0.63823205 -0.78994244 0.63576025 -0.25615737

bias f4 [5]
000000 95 5f 05 3f 81 55 12 3f 62 dc 22 3f 96 01 2c 3f
       0.5209897 0.5716172 0.6361753 0.6718992
000010 8a f0 2e 3f
       0.68335783
