models/simple_tag/DQN-centralized/agent_0/qnet_target_0.pt (torch, 14916 bytes, 6 tensors)

weight f4 [32, 10]
-0.18054341 0.72323346 -0.09998236 1.0927063 -0.121597156 0.10699948 0.016276639 -0.020608064
-0.078896016 -0.008414616 0.124360144 -0.18083975 -0.16092189 0.04252064 -3.0320153 2.282099
-0.045728266 -0.009887731 -0.027920155 0.0010200827 -0.61934143 -1.0479144 -0.09440908 -0.48476925
0.62163806 2.3901258 0.087390505 -0.02862281 0.025025103 -0.039022505 -0.20306247 0.03954072
0.11137298 0.21616098 0.46647096 0.5779306 0.070468575 -0.13283774 -0.09349424 -0.22888516
0.0202537 0.058481716 0.14677224 -1.2927835 -0.12099422 0.021038411 -0.19898039 -0.6140889
0.6203766 -0.87160397 0.027412418 0.46238223 -0.18836348 -0.6856848 -0.4884757 -3.4770303
0.021146307 0.013763799 0.004262113 0.025097756 0.24491192 0.38579038 0.40743607 0.94991875
0.022536185 -0.6382184 0.12976865 -0.02170985 0.10805048 -0.0014017608 0.31486452 0.04383949
-0.4786735 -0.49340886 2.037496 1.3927543 0.060429692 -0.031351015 -0.04239863 -0.028713612
0.13867147 0.069638215 -0.48869827 -0.09006056 -1.9795513 -2.6287334 -0.01009246 -0.012306944
-0.019145967 0.025116455 0.48914438 1.409251 0.27275503 0.7021678 -0.70655084 0.059853613
0.08934534 0.071471795 0.091660485 -0.1207271 0.6418906 0.11350785 0.87930256 0.66485476
-1.6693028 -1.996956 0.04595255 -0.11067888 0.013134202 -0.11119778 -0.26210296 0.37314907
-0.49928272 0.7092448 -1.1328706 0.6826478 -0.060715806 0.014603012 -0.059524626 0.055670176
0.41962174 0.20836982 0.9759812 0.19721928 1.2044206 0.315507 -0.04246281 0.04142358
0.005109551 0.0012509726 0.60807747 0.06973096 -0.7193478 0.15467186 -4.626221 0.9215532
0.04850514 -0.01581547 -0.029698009 0.0072635803 -0.84163535 -0.10807802 -0.91847897 0.0005642919
0.012406973 0.049169634 -0.049377006 -0.03302996 0.008792983 -0.02751742 0.09760914 0.3118942
-0.14890365 0.23004836 -0.6068872 0.5929468 -0.019621802 -0.028835021 -0.19162937 0.069237635
0.3938767 -0.3048869 1.1721891 -1.1524732 -0.80796397 1.4962186 0.061176844 0.006091714
-0.02896802 -0.101070456 0.056941047 -0.2082618 0.12229645 0.05886254 2.7259958 0.5308386
0.012242097 -0.0034362285 -0.08011114 -0.047730226 0.07678486 0.33322337 0.22890483 1.2360874
0.49995536 1.7340264 0.006423832 -0.023080066 -0.07998788 -0.024242349 0.63470846 0.029850094
0.39531264 0.26181683 0.36184844 -0.26351342 -0.2673206 0.3733541 -0.46884948 0.20961164
-0.12554765 -0.48043093 0.06992412 0.20395797 2.8244655 3.9924376 -0.009696491 0.023478312
0.011297825 0.00070649484 0.12754576 -0.32137352 -1.1489885 0.44088188 0.020998012 -0.6297164
-0.279905 0.52196956 -0.8678053 0.92708796 -0.05903884 -0.01218202 -0.55145025 -0.8177078
0.010065157 -0.046866763 0.18288456 0.17501111 -0.7297643 -0.8984617 0.20946504 -0.08712681
0.21277337 0.18497793 0.6349858 1.0162514 -0.15530261 0.25607926 0.21191484 0.29720804
-0.78290296 -0.41451773 -0.23267645 -1.1249435 0.2931172 0.7279613 -0.07283773 -0.1711342
0.1972707 -0.2534249 0.067569196 -0.043609343 0.90790385 -1.6360221 0.061020676 -0.20235415
00000000: 5fe0 38be d425 393f 8dc3 ccbd cddd 8b3f
00000010: ee07 f9bd 8b22 db3d 9656 853c 3ed2 a8bc
00000020: 3c94 a1bd 75dd 09bc 88b0 fe3d 0e2e 39be
00000030: b5c8 24be 1f2a 2e3d 8a0c 42c0 e90d 1240
00000040: 904d 3bbd 2600 22bc cfb8 e4bc 4cb4 853a
00000050: 298d 1ebf 0f22 86bf 8c59 c1bd ad33 f8be
00000060: ac23 1f3f d2f7 1840 cbf9 b23d 627a eabc
00000070: 7201 cd3c 10d6 1fbd 9cef 4fbe 73f5 213d
00000080: 8417 e43d 4e59 5d3e 48d5 ee3e 43f3 133f
00000090: d451 903d 9e06 08be e879 bfbd df60 6abe
000000a0: 16eb a53c 868a 6f3d 764b 163e ee79 a5bf
000000b0: d1cb f7bd bf58 ac3c 84c1 4bbe ee34 1dbf
000000c0: 00d1 1e3f 7021 5fbf 0290 e03c 5dbd ec3e
000000d0: 5be2 40be 0a89 2fbf 7d19 fabe aa87 5ec0
000000e0: 053b ad3c 8f81 613c 32a9 8b3b cf99 cd3c
000000f0: 31ca 7a3e 5186 c53e 769b d03e e02d 733f
00000100: ce9d b83c 4862 23bf 13e2 043e dbd8 b1bc
00000110: 9249 dd3d 4abb b7ba ec35 a13e 0991 333d
00000120: b114 f5be 16a0 fcbe 5666 0240 c645 b23f
00000130: 2085 773d ec69 00bd 30aa 2dbd cf38 ebbc
00000140: e5ff 0d3e 7b9e 8e3d a936 fabe ac71 b8bd
00000150: f061 fdbf 2b3d 28c0 d85a 25bc 10a3 49bc
00000160: 01d8 9cbc 06c1 cd3c 2271 fa3e 5662 b43f
00000170: 8ca6 8b3e 45c1 333f 84e0 34bf 1029 753d
00000180: b1fa b63d ce5f 923d 7eb8 bb3d c53f f7bd
00000190: f152 243f ce76 e83d f919 613f ec33 2a3f
000001a0: b7ab d5bf 419c ffbf be38 3c3d 9cab e2bd
000001b0: d630 573c a9bb e3bd 5c32 86be 650d bf3e
000001c0: fca1 ffbe 1191 353f e701 91bf 02c2 2e3f
000001d0: 23b1 78bd 7941 6f3c 18d0 73bd 6906 643d
000001e0: a9d8 d63e e65e 553e e7d9 793f daf3 493e
000001f0: 742a 9a3f 228a a13e 7ced 2dbd c6ab 293d
00000200: 056e a73b adf7 a33a f7aa 1b3f 1bcf 8e3d
00000210: 2d27 38bf 4d62 1e3e 010a 94c0 e9ea 6b3f
00000220: 53ad 463d 728f 81bc 3d49 f3bc 5403 ee3b
00000230: 6a75 57bf 0258 ddbd 7021 6bbf fdec 133a
00000240: 9e46 4b3c 1966 493d 8b3f 4abd 6c4a 07bd
00000250: 7210 103c 366c e1bc 4de7 c73d 99b0 9f3e
00000260: 337a 18be cc91 6b3e f65c 1bbf 5dcb 173f
00000270: e7bd a0bc 6c37 ecbc 7d3a 44be 76cc 8d3d
00000280: 35aa c93e 231a 9cbe 4b0a 963f 3e84 93bf
00000290: bad6 4ebf 1784 bf3f 9294 7a3d 009d c73b
000002a0: 574e edbc 07fe cebd 043b 693d 9542 55be
000002b0: 9076 fa3d d919 713d b776 2e40 0ae5 073f
000002c0: 1493 483c 5932 61bb 4f11 a4bd c580 43bd
000002d0: 6141 9d3d 419c aa3e 0766 6a3e 1d38 9e3f
000002e0: 26fa ff3e 94f4 dd3f 027f d23b 6812 bdbc
000002f0: b0d0 a3bd e497 c6bc 417c 223f 2f88 f43c
00000300: 6b66 ca3e db0c 863e 3344 b93e 3beb 86be
00000310: 3fde 88be 4528 bf3e 0a0d f0be 6fa4 563e
00000320: 908f 00be 0bfb f5be 6134 8f3d 5cda 503e
00000330: 0bc4 3440 1984 7f40 08de 1ebc 9755 c03c
00000340: 831a 393c 1134 393a 5b9b 023e 128b a4be
00000350: 0e12 93bf 45bb e13e 0604 ac3c 1835 21bf
00000360: b54f 8fbe cc9f 053f 7d28 5ebf a355 6d3f
00000370: b6d2 71bd 1897 47bc d82b 0dbf 4c55 51bf
00000380: 54e8 243c 5df7 3fbd 1746 3b3e 1d36 333e
00000390: d5d1 3abf 9601 66bf 017e 563e 8a6f b2bd
000003a0: 43e1 593e db6a 3d3e 6e8e 223f 8714 823f
000003b0: a607 1fbe d21c 833e 3400 593e a72b 983e
000003c0: 546c 48bf ab3b d4be bc42 6ebe 26fe 8fbf
000003d0: 7513 963e ac5b 3a3f f32b 95bd ce3d 2fbe
000003e0: 5501 4a3e e9c0 81be b861 8a3d b69f 32bd
000003f0: 636c 683f 2c69 d1bf d1f0 793d ed35 4fbe

bias f4 [32]
-0.9230254 -0.07747346 -0.5143278 1.6377842 -0.15721434 0.20081788 1.1286048 0.18401895
0.5824003 0.36746135 0.11348509 -0.26757303 -0.12790558 -0.11907817 -0.6281424 1.7908852
0.30537036 0.35545874 -0.33295754 0.22704242 0.021755097 -0.29892188 -0.21722119 1.5299698
0.33101743 -0.18183422 -0.04601449 -0.025657633 -0.07271855 -0.09694346 1.0634964 -0.19830649
00000000: 654b 6cbf 68aa 9ebd fdaa 03bf eaa2 d13f
00000010: ccfc 20be 34a3 4d3e 1f76 903f 776f 3c3e
00000020: 3018 153f e523 bc3e df6a e83d 55ff 88be
00000030: aef9 02be 41df f3bd f1cd 20bf ba3b e53f
00000040: 8159 9c3e b0fe b53e 6979 aabe cf7d 683e
00000050: bf37 b23c 4a0c 99be 3b6f 5ebe 0dd6 c33f
00000060: 1e7b a93e c032 3abe b179 3cbd f52f d2bc
00000070: 77ed 94bd 4b8a c6bd a620 883f db10 4bbe

weight f4 [64, 32]
1.322 0.29317668 -0.050823804 -1.6580344 -0.31220067 0.03879931 -0.3861859 -0.031126834
-0.0041281544 0.9900246 0.09963507 -0.17401716 -0.037210707 0.33063975 1.5131725 -1.3348182
-0.049607266 0.12778126 -0.36085483 -0.26592955 0.08256349 0.6623462 0.21788469 -0.9107291
0.18013729 -0.18023261 0.26192945 0.5268483 0.2841052 -0.27262107 0.24599029 0.14492185
-1.145292 0.4182173 -0.023063783 -0.3414744 0.8251867 0.941329 0.26001862 0.086909585
-0.64346284 0.9931663 0.14005797 0.78074354 0.77361387 0.590566 -0.9344943 0.01950284
-0.2756471 0.3994727 0.08312668 -0.56275976 0.46683523 -0.4404008 0.49121532 0.3417078
0.24841195 0.7363958 0.2953178 0.5722008 0.38061172 0.5210679 -0.040475823 0.13223357
-0.23790894 -2.282124 -1.3714224 1.0595078 0.33181664 -3.3073533 0.44180316 0.37233487
0.11998399 -0.7126348 -0.77163243 -1.7567583 -2.0147066 -2.5433946 0.80131733 0.91148925
-0.14336325 -0.5476256 -0.4381735 0.26892865 -1.9677893 0.20955864 0.5286007 0.98952246
-0.19924232 0.30926868 -2.063101 -1.669992 -0.6020627 0.43335253 0.42274517 0.72967446
0.22083826 -0.30841807 1.2094083 -0.53414553 -0.051579203 -0.34942806 0.25583118 0.12324664
0.3649855 0.19536702 -0.7539437 -0.18530749 -5.644953 -0.25298586 0.6870276 0.7215507
-1.4390018 -1.2841911 -0.6612849 0.10800207 0.58091736 0.024549523 -0.056311566 -0.41729274
0.31076524 -0.06673962 -0.020862624 -2.2182577 0.049784634 -0.093123175 0.66157514 0.12959266
0.75900334 -0.3726387 0.51933396 0.4288983 0.12592772 0.19921726 0.3031003 0.37525722
0.6829247 0.4759614 0.38588873 -0.8484266 -0.866044 0.54953223 1.4738983 -0.18214323
-1.5602597 0.9079745 -2.0119796 0.5869825 0.13844042 -0.46958408 -0.7256842 -0.38065192
0.6744881 -0.5316021 -0.45798263 -0.25439674 0.4002842 -0.03523119 0.37834963 -0.41183445
1.0169673 0.25348523 0.33783945 -0.69149613 0.25094706 -0.3355862 0.12619832 1.2202152
-1.3996726 0.77001226 0.823955 -1.566369 -0.015002652 -0.04649137 1.1444 -1.2927182
0.8987515 -1.0745003 -0.44936988 0.54621154 -0.5475585 0.5453197 -0.12033265 -0.18801565
0.7316499 0.6748905 0.4468825 -0.6509076 -0.53986573 -0.060826927 0.2621467 0.10292453
-0.49982533 -0.01739031 0.3283033 -0.31060722 0.80182475 0.29802257 -0.26244196 -0.16302976
0.19364698 -0.09610322 -0.17832273 1.231447 1.1378701 0.40295145 -0.41488823 -0.63583577
-0.20513517 -0.14074652 0.92009026 0.31225747 0.7780558 0.90905195 1.0339214 0.027265292
0.06297606 1.0205725 0.5811967 0.313502 0.24141532 1.1677909 -0.46581063 0.48404512
0.6020164 -0.16693503 -2.0981345 0.8817779 0.21606453 -2.2532322 0.1851851 -0.18447769
0.089957036 -0.3617416 0.32874206 -0.6320853 -2.4517148 -0.80860436 1.0685943 0.76452124
0.57981753 -1.0157986 -0.70941514 0.29570207 -2.559433 0.14382246 0.17900997 0.59769595
-0.043454967 0.5648536 -0.42476758 -1.2726306 -0.81735605 0.10298911 0.32792255 0.09025683
00000000: 4c37 a93f 411b 963e 9f2c 50bd 793a d4bf
00000010: c4d8 9fbe 06ec 1e3d 29ba c5be b4fd febc
00000020: 7845 87bb 4172 7d3f 790d cc3d 8e31 32be
00000030: 416a 18bd 9d49 a93e a3af c13f 53db aabf
00000040: fd30 4bbd 17d9 023e f7c1 b8be eb27 88be
00000050: 0c17 a93d 858f 293f 2a1d 5f3e 8b25 69bf
00000060: e975 383e e68e 38be 9e1b 863e 88df 063f
00000070: 3d76 913e fd94 8bbe e1e4 7b3e 6566 143e
00000080: ee98 92bf 9420 d63e 42f0 bcbc bcd5 aebe
00000090: 703f 533f f0fa 703f 2921 853e a7fd b13d
000000a0: fbb9 24bf 2640 7e3f 5b6b 0f3e cfde 473f
000000b0: 8f0b 463f 552f 173f 053b 6fbf 6bc4 9f3c
000000c0: 9e21 8dbe b087 cc3e 523e aa3d 0611 10bf
000000d0: 0705 ef3e 377c e1be 9380 fb3e 53f4 ae3e
000000e0: b45f 7e3e 6f84 3c3f e533 973e c07b 123f
000000f0: 8adf c23e b564 053f fac9 25bd 3d68 073e
00000100: 679e 73be 520e 12c0 c58a afbf f49d 873f
00000110: dfe3 a93e adab 53c0 0634 e23e ada2 be3e
00000120: 2bba f53d 3c6f 36bf b489 45bf 75dd e0bf
00000130: f4f0 00c0 fac6 22c0 2223 4d3f 5c57 693f
00000140: d1cd 12be 3131 0cbf 4758 e0be 04b1 893e
00000150: 85e0 fbbf 8a96 563e 6052 073f 5851 7d3f
00000160: 2e06 4cbe 7758 9e3e d909 04c0 4cc2 d5bf
00000170: c820 1abf 62e0 dd3e 0e72 d83e f2cb 3a3f
00000180: 6d23 623e f9e8 9dbe e4cd 9a3f c3bd 08bf
00000190: b744 53bd 3ce8 b2be 4efc 823e bc68 fc3d
000001a0: 61df ba3e 4b0e 483e 7402 41bf 3fc1 3dbe
000001b0: 74a3 b4c0 5d87 81be 0ae1 2f3f 8cb7 383f
000001c0: 3631 b8bf 6060 a4bf f849 29bf 3030 dd3d
000001d0: 00b7 143f 151c c93c f5a6 66bd 65a7 d5be
000001e0: 9f1c 9f3e c8ae 88bd 18e8 aabc eff7 0dc0
000001f0: f9ea 4b3d 5db7 bebd fd5c 293f f0b3 043e
00000200: 0b4e 423f 80ca bebe 12f3 043f 8f98 db3e
00000210: 32f3 003e 9cff 4b3e f62f 9b3e b721 c03e
00000220: 27d4 2e3f 36b1 f33e 3593 c53e 7c32 59bf
00000230: 0fb5 5dbf 25ae 0c3f b3a8 bc3f c183 3abe
00000240: 97b6 c7bf 0471 683f 46c4 00c0 7c44 163f
00000250: 53c3 0d3e 536d f0be 71c6 39bf cfe4 c2be
00000260: 41ab 2c3f 1317 08bf b37c eabe 4a40 82be
00000270: 0df2 cc3e 954e 10bd 0bb7 c13e f7db d2be
00000280: fc2b 823f d1c8 813e 4bf9 ac3e e405 31bf
00000290: 227c 803e f4d1 abbe 223a 013e 0330 9c3f
000002a0: 7928 b3bf 861f 453f b7ee 523f c87e c8bf
000002b0: afcd 75bc bc6d 3ebd b37b 923f ca77 a5bf
000002c0: 9414 663f 3a89 89bf cf13 e6be 85d4 0b3f
000002d0: cb2c 0cbf 129a 0b3f f770 f6bd 2d87 40be
000002e0: 684d 3b3f a0c5 2c3f c8cd e43e e1a1 26bf
000002f0: a434 0abf a825 79bd 1838 863e 19ca d23d
00000300: 1be9 ffbe 2076 8ebc 5f17 a83e e907 9fbe
00000310: 6344 4d3f 6a96 983e cb5e 86be 46f1 26be
00000320: 654b 463e c4d1 c4bd 3c9a 36be 0ea0 9d3f
00000330: baa5 913f a74f ce3e 3b6c d4be 22c6 22bf
00000340: f40e 52be db1f 10be 098b 6b3f 36e0 9f3e
00000350: aa2e 473f a1b7 683f 8957 843f 765b df3c
00000360: 98f9 803d 1fa2 823f 4fc9 143f 5683 a03e
00000370: 9435 773e 2c7a 953f bb7e eebe c3d4 f73e
00000380: bf1d 1a3f 04f1 2abe d647 06c0 32bc 613f
00000390: 0540 5d3e f534 10c0 2aa1 3d3e b8e7 3cbe
000003a0: 653b b83d 3236 b9be e150 a83e 58d0 21bf
000003b0: e5e8 1cc0 b200 4fbf b3c7 883f aab7 433f
000003c0: ec6e 143f b005 82bf 3b9c 35bf 4366 973e
000003d0: c0cd 23c0 3246 133e 644e 373e 9a02 193f
000003e0: d6fd 31bd 3f9a 103f 237b d9be 8fe5 a2bf
000003f0: 3f3e 51bf f4eb d23d 77e5 a73e 93d8 b83d

bias f4 [64]
-1.7788293 0.040331684 1.3097593 0.33357567 -0.08875295 -1.5091428 -0.8569237 0.99322236
-0.77078587 -0.47598702 0.6796448 0.63152623 -0.36674008 0.8379395 -0.15321459 -0.20166148
-0.5284572 -0.17408475 -1.5286108 -1.926476 -0.9498955 -1.0261594 0.5606846 -0.38419586
1.0074149 -0.31898373 0.50267214 1.0376232 -0.06710521 0.40176246 0.2023629 -0.27801704
-0.7664222 -0.9904033 1.0156425 -0.22514279 0.525583 0.6645977 -0.31642586 0.67478126
-0.5635229 -1.7831049 -0.5482371 -0.61601084 -1.2198253 0.9197014 -0.058083452 -0.6836519
-0.28468698 0.51160914 -0.54584223 -0.53619456 -0.37641782 -0.31848386 0.7401779 0.17673402
0.26487923 0.22476111 0.43402693 0.58137214 -0.5491168 -1.2993959 0.3591795 -1.2957007
00000000: aeb0 e3bf d632 253d 31a6 a73f 6eca aa3e
00000010: 1bc4 b5bd 972b c1bf 5a5f 5bbf d243 7e3f
00000020: 3952 45bf 92b4 f3be 34fd 2d3f b4ab 213f
00000030: 5bc5 bbbe 3483 563f 49e4 1cbe 5980 4ebe
00000040: f948 07bf 4643 32be 85a9 c3bf c496 f6bf
00000050: 5a2c 73bf 3159 83bf 0789 0f3f 52b5 c4be
00000060: f9f2 803f d651 a3be 1faf 003f d6d0 843f
00000070: 756e 89bd cfb3 cd3e 3838 4f3e 4058 8ebe
00000080: 3f34 44bf 128b 7dbf 9300 823f d58b 66be
00000090: 9c8c 063f 1323 2a3f 9202 a2be 77be 2c3f
000000a0: 0943 10bf c83c e4bf 4459 0cbf e3b2 1dbf
000000b0: 3c23 9cbf 8d71 6b3f eae8 6dbd d003 2fbf
000000c0: 7ec2 91be d1f8 023f 51bc 0bbf 0c44 09bf
000000d0: d6b9 c0be 5110 a3be 4d7c 3d3f c3f9 343e
000000e0: 409e 873e c727 663e c738 de3e ced4 143f
000000f0: eb92 0cbf 9b52 a6bf 60e6 b73e 85d9 a5bf

weight f4 [5, 64]
-1.9091347 0.5457701 -3.486699 0.8911204 -0.88143516 -1.5097728 1.2713072 -1.6599071
1.4690675 1.5325876 -1.4910148 -1.0144986 -0.992621 -1.0996418 -0.7314021 1.5956193
1.2180763 1.2375427 -1.7214757 -1.6071047 -0.8591133 -1.3703047 -1.089159 1.4521605
-1.5038062 1.2586226 -0.9454173 -1.2321079 0.06784282 -0.76653117 -0.95900965 -1.0991343
1.0940872 -1.9254826 -3.1336586 -0.112942085 -0.8783635 -1.4587419 1.5695484 -0.9301142
1.1358566 -1.0261302 -0.72349995 -1.7472553 -1.8588216 -1.2170428 -1.4429727 -1.7132705
-0.049148917 -1.7449628 1.5384439 1.4457662 -0.96966124 -1.3360157 -0.5992917 -1.6550761
-0.45112228 -1.593011 -1.4135238 -1.6836902 1.2985784 -1.4079154 -0.65810484 -1.6211975
-1.0642377 1.187675 -2.6340985 -0.79018 -1.2599967 -1.60429 1.4102212 -3.5686212
1.4856148 1.7352788 -0.8076051 -1.1475235 -1.6582599 -0.5917684 -0.3410423 0.2729709
1.4261756 1.4801236 -1.8604178 -1.3580786 -1.3823484 -1.4347659 -1.0996411 1.0914242
-1.3581015 1.1530352 -0.22821651 -0.98123777 -0.07809929 -1.2964096 -0.7988415 -0.99241567
1.2159314 -1.7748326 -4.048419 -0.9216236 -0.84857905 0.39771974 1.6242523 -0.07321346
1.0076092 -1.0594926 -0.6351636 -1.1081532 -2.0774708 -1.5553545 -1.2036022 -1.6681042
0.0338604 -1.3003368 1.3170644 0.96201515 -0.29541007 -1.5688132 -1.2692345 -2.371987
-0.49028754 -1.0235018 -1.368338 -0.56141734 0.92817837 -1.1210712 -1.0609503 -1.7714212
-0.24262784 0.25722393 -3.7191863 3.097471 -0.21751384 -1.153709 1.0348448 -0.9462153
1.2505065 1.3072044 -1.7224629 -1.4452897 0.3241532 -0.88954794 -1.0688604 1.9169753
1.2641842 1.28119 -2.010793 -0.55616325 -0.8699601 -0.6487812 -0.99214244 1.3737198
-1.5074484 1.1701192 -1.6435295 -1.0937886 0.03817122 -0.33099186 -1.3475215 -1.0962766
0.5827982 -2.4064424 -0.7118844 0.3910924 -0.93178374 -4.704171 1.6837342 -1.0451663
1.6506014 -0.24357754 -0.70411986 -1.8484306 -1.9847815 -1.2498585 -1.8130728 -1.6651447
-0.046632852 -1.6906276 1.4205781 1.3731903 -1.5894337 -0.49413642 -0.5005207 -1.0047036
-0.14998972 -1.8276662 -0.91566205 -1.3231689 1.3149636 -0.67603844 -0.94573706 -1.8244704
-0.66715056 0.14584967 -3.545881 1.0552734 -0.8962844 -2.183007 1.3638651 -2.0440772
1.3477951 1.4465905 -2.7700105 -1.1216943 -1.1005967 -0.8741168 -1.498171 1.1242868
1.2751491 1.480095 -2.1950734 -1.6350737 -0.38376322 -0.660341 -0.90660363 1.1040156
-0.865539 1.1945466 -0.6920994 -1.3392227 -0.05118666 -0.87356037 -1.2395173 -1.8082024
1.2700715 -1.6520692 -3.7554524 -0.7523571 -0.5091482 -1.2251574 1.4429567 -1.5956318
0.71328825 0.0064211013 0.045656208 -1.4065821 -1.9429536 -0.8129561 -1.8846787 -1.4647671
0.078488216 1.6068442 1.6208847 1.6574734 -0.7361608 -0.40102667 -0.48626536 -1.7393407
-0.5339964 -0.88423306 -0.34444922 -2.880577 1.101898 -0.19057746 -1.2780026 -1.3596815
00000000: 875e f4bf 97b7 0b3f 1426 5fc0 7720 643f
00000010: bca5 61bf 3c40 c1bf 32ba a23f d677 d4bf
00000020: 670a bc3f d52b c43f 93d9 bebf 17db 81bf
00000030: 691c 7ebf 10c1 8cbf 2b3d 3bbf 413d cc3f
00000040: ede9 9b3f cd67 9e3f 5159 dcbf 9bb5 cdbf
00000050: d9ee 5bbf 2566 afbf 9069 8bbf 65e0 b93f
00000060: b97c c0bf 8c1a a13f de06 72bf b6b5 9dbf
00000070: 2df1 8a3d 633b 44bf a881 75bf 6fb0 8cbf
00000080: 0d0b 8c3f 3776 f6bf dd8d 48c0 2e4e e7bd
00000090: 6edc 60bf 0eb8 babf f6e6 c83f f71b 6ebf
000000a0: c063 913f 3c58 83bf 4b37 39bf 10a6 dfbf
000000b0: deed edbf 0fc8 9bbf 54b3 b8bf 734c dbbf
000000c0: 6050 49bd f15a dfbf bbeb c43f de0e b93f
000000d0: b83b 78bf 9002 abbf 2e6b 19bf 89d9 d3bf
000000e0: 80f9 e6be c9e7 cbbf 59ee b4bf 2983 d7bf
000000f0: d137 a63f 9236 b4bf 8f79 28bf 6683 cfbf
00000100: f138 88bf bc05 983f 1295 28c0 3d49 4abf
00000110: 9247 a1bf 6059 cdbf 2182 b43f 4a64 64c0
00000120: a028 be3f 9e1d de3f 35bf 4ebf 0de2 92bf
00000130: dc41 d4bf 227e 17bf 199d aebe d8c2 8b3e
00000140: ec8c b63f b174 bd3f 2c22 eebf 85d5 adbf
00000150: cbf0 b0bf 69a6 b7bf 0ac1 8cbf cab3 8b3f
00000160: 45d6 adbf a896 933f 97b1 69be 6632 7bbf
00000170: 85f2 9fbd c0f0 a5bf e080 4cbf f40e 7ebf
00000180: a4a3 9b3f b72d e3bf a68c 81c0 86ef 6bbf
00000190: 7a3c 59bf eca1 cb3e 80e7 cf3f f0f0 95bd
000001a0: 57f9 803f 749d 87bf 159a 22bf f7d7 8dbf
000001b0: 48f5 04c0 db15 c7bf a30f 9abf 7084 d5bf
000001c0: 34b1 0a3d 7071 a6bf 9195 a83f a046 763f
000001d0: fd3f 97be dfce c8bf 4776 a2bf a3ce 17c0
000001e0: f806 fbbe 1b02 83bf b325 afbf 0cb9 0fbf
000001f0: 199d 6d3f 437f 8fbf 38cd 87bf eebd e2bf
00000200: 6f73 78be dbb2 833e 2607 6ec0 f73c 4640
00000210: f3bb 5ebe bdac 93bf cb75 843f 2a3b 72bf
00000220: 9910 a03f 7952 a73f aa79 dcbf 41ff b8bf
00000230: 69f7 a53e 6ab9 63bf 6bd0 88bf 725f f53f
00000240: cad0 a13f 09fe a33f d5b0 00c0 b760 0ebf
00000250: b5b5 5ebf 8616 26bf 0cfd 7dbf 0dd6 af3f
00000260: 12f4 c0bf 77c6 953f 2d5f d2bf 4401 8cbf
00000270: 6d59 1c3d c477 a9be 967b acbf cb52 8cbf
00000280: 4332 153f 2703 1ac0 0e3e 36bf 433d c83e
00000290: 6189 6ebf 9288 96c0 9a84 d73f 02c8 85bf
000002a0: e846 d33f 646c 79be 3341 34bf 6099 ecbf
000002b0: 520d febf 5dfb 9fbf c512 e8bf 7623 d5bf
000002c0: 1702 3fbd 7c66 d8bf 81d5 b53f b3c4 af3f
000002d0: 9072 cbbf 73ff fcbe 2022 00bf 219a 80bf
000002e0: e896 19be f7f0 e9bf d468 6abf 995d a9bf
000002f0: ba50 a83f db10 2dbf d31b 72bf 3f88 e9bf
00000300: 61ca 2abf 9e59 153e b7ef 62c0 3313 873f
00000310: e572 65bf 63b6 0bc0 2293 ae3f 29d2 02c0
00000320: 8d84 ac3f e129 b93f da47 31c0 ae93 8fbf
00000330: 5ae0 8cbf 1ec6 5fbf 11c4 bfbf a1e8 8f3f
00000340: 1638 a33f c173 bd3f 157c 0cc0 184a d1bf
00000350: 9d7c c4be 1c0c 29bf 2d17 68bf 6250 8d3f
00000360: f793 5dbf e7e6 983f 6d2d 31bf a66b abbf
00000370: 1aa9 51bd a7a1 5fbf 81a8 9ebf 2d73 e7bf
00000380: b491 a23f 0177 d3bf 5559 70c0 7a9a 40bf
00000390: 8957 02bf f5d1 9cbf ceb2 b83f aa3d ccbf
000003a0: 0f9a 363f 1a68 d23b 0102 3b3d e20a b4bf
000003b0: b4b2 f8bf e41d 50bf 273d f1bf 7d7d bbbf
000003c0: 6ebe a03d 12ad cd3f 2679 cf3f 1728 d43f
000003d0: 0975 3cbf 5e53 cdbe c6f7 f8be b7a2 debf
000003e0: fdb3 08bf 195d 62bf a65b b0be 605b 38c0
000003f0: fe0a 8d3f bd26 43be 9795 a3bf 0b0a aebf

bias f4 [5]
-0.054623485 -0.44155872 -0.3709317 -0.67886084 -0.14695415
00000000: e0bc 5fbd fc13 e2be c3ea bdbe d3c9 2dbf
00000010: 267b 16be
