models/simple_tag/PPO-centralized/agent_0/actor_0.pt (torch, 14536 bytes, 6 tensors)

weight f4 [32, 10]
00000000: 644b 37be a73c c0be 219b 333f 7cb4 3fbf
00000010: 6624 93bd 1caa 943f 0856 0d3f 3d05 823e
00000020: 853d b7bc 47f9 543f edb8 a4be 8306 c3bf
00000030: cd62 d13c 25a4 06bf 3076 153f e630 0d3d
00000040: 8784 b93e 776d 4bbf 9409 7d3d 23c7 1e3e
00000050: fe05 56bf 19c4 b7be 5db5 df3c 5fb2 41bf
00000060: 2e9a bdbe 20b2 8d3e e803 afbe dd94 a3bf
00000070: 9c8b aabd 2d32 1d3f 5ff6 023e 4eaa cfbf
00000080: 2c6c cf3e c400 33bf b826 3c3f 5ffd b83e
00000090: 5dac 4d3f d508 93bf 11af 77be 2f80 5d3e
000000a0: 1d2d 29c0 ca80 023f a21c 98bf 8f6a 82bf
000000b0: ba86 a5be 69bf 433f 83b6 2e3f 85d9 ac3d
000000c0: 85bd 023e 0751 a53f 01cd b63f fb20 dcbc
000000d0: 0afe d63e 5b56 d53f bf7b cabc e3bf b6bf
000000e0: 51ce 33bd 5c22 a6be 4f58 343f d483 63bf
000000f0: 6d74 08c0 39da a3bf e696 16be daf3 0bc0
00000100: 85ca 853e 4969 ab3e 70e0 f5bd 68f3 54bd
00000110: 1756 263f 2daf eb3e 6db7 7c3f 3d65 51be
00000120: eb4d f13f 553a 283f 9dd5 b9be 8f0b d5be
00000130: 83de 683d 5419 073f 6d18 81be 4040 6dbd
00000140: 31f5 2d3e 74d1 1a3f 8349 e8be 18b0 96bf
00000150: e0ec 71bf fb8f 043f 7e95 843e b007 a2be
00000160: 746f 0e3f be19 513d 3758 783f c8b7 e83e
00000170: b8ba 953f 3d47 0d3f 4be4 c1be f74d 52be
00000180: 3e5e 893e 3a64 3bbe d9fc bc3d 2dac 71bf
00000190: 0593 9e3e cd90 263f 448f 503f 4bf4 d93f
000001a0: 3bbb 2c3d 50c2 36bf 22c4 48bf cd49 82be
000001b0: 4a77 c73e 97ce 9f3e 53ec f93f 483b de3e
000001c0: 374d c83e c4f9 84bf 8d40 36bf 2968 563f
000001d0: de73 103f ffee f5bc eb1b 2fbe ef9d d33e
000001e0: 249e ebbf d744 52be b17c 50bf 8a6e c9bf
000001f0: 2660 7bbe f67a 563e bde0 0b3c 0c3c 4b3e
00000200: b6ac ff3e f567 4e3f f691 d13f 1128 0b3d
00000210: 67d5 6fbe 22b1 0b40 093a aa3e 26d8 86bf
00000220: 1a7b a23e a2c1 08bf 7e81 6e3f 8b6f afbe
00000230: 9538 f2bf aaec 18bc c679 d2bf 36ae 5ebf
00000240: 4732 793e a77b fa3e bf78 813e 5b4d f63e
00000250: 5ba0 90bd c0c3 503f 295b cb3e d1ba 863f
00000260: 40f4 ae3e 9812 19bf 25cd 87be 0422 c1be
00000270: 5b9a a9bd e921 d3be 8b0c 293e 85d1 25be
00000280: 17b2 bc3f 7488 e2bb 335c 2740 fc75 193e
00000290: 9fba 2cbe f241 873d f0ac a9bf 7986 67be
000002a0: a0a2 14bd 9db8 76be 235d d9bf 16ad 983e
000002b0: 3acf 0fc0 2c63 b03e cc37 283d 50ba 2dbe
000002c0: b620 db3d 566b 663f 2ff2 a43e e0bd 16be
000002d0: b228 cd3d 6791 e8be 88d0 753e a16d 2b3f
000002e0: 773b 34be 3e7e 4fbf 083a 2dbf 8e5d d63e
000002f0: 62db 34be db07 febf 4c08 433f 673c b43e
00000300: 1f11 553f fd08 d63f 0058 35be e53c 59be
00000310: b8f0 96be c3ad 96bf 809e 853f 72a8 22bf
00000320: 613e ce3d ec9b 093e 50ff cdbf 08bd 603f
00000330: 185c ab3e 3769 7abf 1c53 f0be b906 823e
00000340: 7172 4abe 1f9c a7bf f8c6 b2bf 96ca 56bf
00000350: 6fe9 57bf 03fc 7abf 080f a33e 4fd7 e63e
00000360: a6e9 ef3d 024b b73b 13b1 c03f 7a69 f53d
00000370: 8dc5 38bf f98b 4c3e 951a 78bf 2cd5 fdbe
00000380: 2db8 2dbf 4016 283f 96b1 63bd a694 b13e
00000390: d39e c33f 0312 4ebd da8c c5bf 7a7b 2dbf
000003a0: 3bd8 85bf 7adc f9bf 652b 87be 7526 813e
000003b0: 95e8 ac3d db4e 013c 0ec0 8b3e f804 953f
000003c0: d993 38be dcd9 68be 5d7e 2dbc 9ca7 0340
000003d0: 6aa3 4e3e a042 4bbf 2262 76be 54a6 34bf
000003e0: 15f2 07be 8505 12bc d0c5 923f 7ff0 04c0
000003f0: dc6c adbe e944 233f c395 1abe cbad 3abf
-0.17899853 -0.37546274 0.7015858 -0.7488477 -0.07184677 1.1614413 0.552094 0.25394621
-0.022368202 0.8319287 -0.32172337 -1.5236362 0.025559807 -0.52594215 0.58383465 0.03447046
0.36233923 -0.79463905 0.061776713 0.15505652 -0.83602893 -0.35891798 0.02730816 -0.756628
-0.37031692 0.2767496 -0.34182668 -1.2779804 -0.083274096 0.6140469 0.12789296 -1.6223848
0.40512216 -0.69923043 0.7349658 0.36130807 0.8034113 -1.148707 -0.24187876 0.2163093
-2.6433785 0.50977767 -1.1883738 -1.0188769 -0.3232935 0.76463944 0.6824724 0.08439926
0.12767608 1.2915353 1.4281312 -0.026871195 0.4199069 1.6666979 -0.02471721 -1.4277309
-0.04389793 -0.3244809 0.7044725 -0.8887303 -2.132106 -1.2800971 -0.14706 -2.1867585
0.26131073 0.33478764 -0.12005699 -0.051989943 0.6497511 0.46032086 0.98717386 -0.20448776
1.8851904 0.6571401 -0.36295786 -0.4161038 0.05685283 0.5277302 -0.25213948 -0.0579226
0.16988064 0.6047585 -0.45368585 -1.177249 -0.9450207 0.51782197 0.25895303 -0.3164649
0.55638814 0.05104994 0.97009605 0.45452714 1.1697607 0.55186826 -0.37869486 -0.20537554
0.26829714 -0.18299952 0.09227914 -0.94403344 0.30971542 0.650647 0.81468606 1.7027677
0.042170744 -0.7139025 -0.78424275 -0.2544693 0.38958198 0.31212303 1.9525245 0.43404603
0.3912141 -1.0388722 -0.71192247 0.83752686 0.564268 -0.030021189 -0.17100494 0.4133143
-1.8407636 -0.20534073 -0.81440264 -1.5736859 -0.24548396 0.20945343 0.0085374685 0.19847125
0.49936455 0.80627376 1.6372669 0.033973757 -0.2342125 2.1826863 0.33247402 -1.0534713
0.31734544 -0.5342046 0.9316634 -0.34264788 -1.8923517 -0.009333769 -1.6443412 -0.86984575
0.24335586 0.48922464 0.25287434 0.48105893 -0.070618354 0.8154869 0.39717987 1.0525762
0.34170723 -0.59793997 -0.265237 -0.37721264 -0.08281394 -0.4123681 0.16508691 -0.16193207
1.4741849 -0.006913239 2.6150024 0.14986414 -0.16868065 0.06604375 -1.3255901 -0.22609891
-0.036287904 -0.24093862 -1.6981548 0.29819554 -2.247023 0.34450662 0.041068837 -0.16965604
0.106995985 0.9000753 0.3221602 -0.14720869 0.10017528 -0.45423433 0.2400533 0.66964155
-0.17600809 -0.81052005 -0.67666674 0.41868252 -0.17661813 -1.9846147 0.76184535 0.35202333
0.8322925 1.6721493 -0.1770935 -0.21214636 -0.2948053 -1.1771778 1.0438995 -0.6353828
0.100704916 0.13438386 -1.609354 0.8778844 0.334687 -0.97816795 -0.46938407 0.25395754
-0.19770218 -1.3094519 -1.396697 -0.8390287 -0.84340566 -0.9804079 0.31847405 0.45086142
0.11714487 0.0055936584 1.5054039 0.11983009 -0.7217644 0.1997527 -0.9691556 -0.495767
-0.67859155 0.6565895 -0.05558928 0.34683722 1.5282844 -0.050310146 -1.543361 -0.67766535
-1.0456613 -1.9520409 -0.26400295 0.25224653 0.08442799 0.007892336 0.27294964 1.1642141
-0.1802515 -0.22739357 -0.010589209 2.057105 0.20179525 -0.79398537 -0.24060872 -0.70566297
-0.1327594 -0.008912449 1.1466618 -2.0771787 -0.33872116 0.63777024 -0.15096192 -0.7292144

bias f4 [32]
00000000: bbff 6fbe b9ea f2be 9442 ccbe e215 593f
00000010: 3d1b 903e 5604 843f e238 993d e38a ebbe
00000020: 6412 acbe f312 153f 5b31 803f 11ae 49bf
00000030: 52d3 873e 9a37 bc3e 6345 fc3e 896f 99bf
00000040: debd 2a3e 571e ad3e fb3b 42be 6634 15bd
00000050: ba1d 893f cacd b2bd ac8e 24bf 03fe 6c3f
00000060: fc43 363f 10bf e6be 2a93 953e 6dee 5dbf
00000070: 9a19 22be 6750 39bf a457 8e3f f79e 0c3f
-0.23437397 -0.47444704 -0.39894545 0.84799016 0.2814578 1.0313823 0.07481553 -0.460044
-0.3360778 0.5823204 1.0015062 -0.7878123 0.26528412 0.3676117 0.49271688 -1.1987163
0.16673991 0.3381221 -0.18968193 -0.036426924 1.0712197 -0.087306574 -0.642802 0.9257509
0.71197486 -0.45067644 0.2921384 -0.86691934 -0.15830079 -0.7238831 1.1120496 0.5493006

weight f4 [64, 32]
00000000: 58e9 db3c 02ac 453e 2f92 763e 6e76 0abf
00000010: 18c9 39bf 1bde 92be 8b24 a4bd ec2c e0be
00000020: 5639 86bd 6b29 e6be 6429 4bbe a77a 9a3d
00000030: 1bc0 2e3e 1f00 59be 154f b5be 7a9f 3d3b
00000040: f2ba 00bf 82ae a5be a8a8 d8be a742 c7bd
00000050: 8a9d 15bf 8e5e a83d 8b61 013d fed1 0dbf
00000060: 4d52 92bd d000 ab3e ea88 5abe 0d1c 92be
00000070: 1d92 b73c fac7 103f 5be6 b9bf f03b 8f3e
00000080: 6b1e 8e3e 1ee8 df3e 5d7e b4bc f44a 6a3f
00000090: db6d f33f 0990 7abf ba33 a13f fe6d ecbe
000000a0: c553 813e 1202 18bf d7fb 87be ec14 103f
000000b0: afcb 303f a4c8 87bf 39e7 623e 4d3e 2bbe
000000c0: 3825 84bf 869a fb3e 9e2d 1bbd ec2e 28bf
000000d0: 3be0 f0be 1ef5 553f 75b0 35bd 8ba4 6b3f
000000e0: d6cd 82bf 89ff 40bd 9458 51bf 93ee 88be
000000f0: 5c40 5d3e 3eec b8bd 3c5b 55be 5b59 17be
00000100: 8fc0 92bf 6915 9dbe eb5b 993e 6add 6abf
00000110: 41fc 8cbf f99c a53f 7588 0cbf d77f c13e
00000120: 8c34 da3d 0037 0d3f da69 ec3e ea15 53be
00000130: 4d91 c33d e46e debe fb8a 73be f4b8 0dbe
00000140: af7e 16be 0a18 f73e 1046 2a3f 039f 1e3f
00000150: 777d 8b3f 17c3 413d ae37 153d cbd6 023f
00000160: bddc cf3d 60d4 213f 311c 853f 8c1d 953e
00000170: 852b 7fbf 9ac5 adbf 6332 a63f 2208 af3f
00000180: c689 9dbe e4ef 8e3e 7c1e e73e 4107 31be
00000190: 0e46 23bf e04a 713f 36f8 8dbe ba78 de3e
000001a0: 1570 d33e 2dbd 6a3e a9da 3c3f 8a40 7dbd
000001b0: 391e c0be 9ee0 5b3f 5edb a83e 2c2b db3e
000001c0: 209e 0f3f 1f7e 73bd dc8b 823e 8582 363f
000001d0: 3fd2 3e3f 7f2d a03e 29c1 26bc f0a5 ff3e
000001e0: 7905 3e3f 1cf7 073f 8235 8e3f 7759 a0be
000001f0: 4e97 8cbf 7ff2 793c 038a cc3f c557 5a3f
00000200: cbe0 ce3d 3026 ea3b 5d68 debd 9eaa 11be
00000210: 5473 00bf 3c38 47be b82a 7ebe 3340 d1bd
00000220: cb13 1abe 11a4 b5be 1e82 173e 6620 b9be
00000230: 508f 14be 8d74 333e d87c 8abe c41b 983d
00000240: a933 3fbe 71e0 8c3d d068 35be 6d3e 88bc
00000250: 1c3d b7bc af1b 48be 9c77 35bd 6142 d7bd
00000260: 2fa5 753e bff5 7dbe 0c94 9fbe 80da ce3d
00000270: da8a 0cbe 0d69 38be 09cc 0dbe 3d79 b4bd
00000280: 2732 383c 23b3 3c3e dfa0 383b 42e5 dfbd
00000290: 7ef2 e5be 46aa a7be 8cbe f9be 665b 69bf
000002a0: 9c70 85bd bca1 5ebf e916 5cbe c7b1 3bbe
000002b0: 5593 5bbe 8653 31bf 6c31 96be 0565 99be
000002c0: 21a3 93bd 5cdd 5c3e 00db abbe 049d b5be
000002d0: 362d 203c cb0c c23d a537 55bd 10c3 c03c
000002e0: 7f1c 7d3e 7b0a 133b 0b38 3cbe 89da 5ebe
000002f0: 7b5c 083d 151d 13be bc50 12bf 76f3 4bbe
00000300: 49ef ecbd 4ad2 a13e fde0 6e3f c899 133f
00000310: aa93 72bf 53f5 a13e 777a 88bd 80c4 a4bf
00000320: de86 a63e 4351 9fbe ee51 18bf b69e c43d
00000330: 3fde 88be 3a6e 9e3e 62ba 19bf fcab a53f
00000340: a2df f53e 6f75 d5bf 6220 2dbf 3735 4d3e
00000350: ca3d 9abf e523 debe 712f 54bf ca03 07be
00000360: 217e 23be c41e db3e 30e2 25be 1d34 42ba
00000370: 15e2 003f 4b49 80be b684 21bf eb4d aa3c
00000380: 535e 3cbf d998 bfbe 17b6 60bf 0622 38bf
00000390: 4a6c e3bd 37d4 e9be 4edf 783e be8a 36bf
000003a0: 4d72 0a3e abb0 77bf 1bb5 f2be bf53 173d
000003b0: ea85 a43d 22d4 03bf 3ee1 2bbe 7d53 3dbf
000003c0: 273b 46bf b2ef b1be 65fb c6be 88dd 92be
000003d0: 8376 02bf 9401 01bf 2370 263e 2ec5 8abf
000003e0: a222 4fbf b7c9 6bbf a3c1 88bf 1f64 20be
000003f0: 6c21 fa3e 8c9d d9be 13d8 f3bb e827 93bf
0.026844665 0.19303897 0.24079202 -0.5408696 -0.7257247 -0.28685078 -0.080147825 -0.43784273
-0.06553905 -0.44953474 -0.19840008 0.07542925 0.1706547 -0.21191452 -0.35411897 0.0028934167
-0.50285256 -0.323597 -0.42316175 -0.0972951 -0.5844351 0.0822116 0.031587165 -0.5539855
-0.07144604 0.33399057 -0.21341291 -0.28537026 0.02240854 0.5655514 -1.4523424 0.27975416
0.27757582 0.4373178 -0.022032911 0.9152062 1.90179 -0.9787603 1.2593911 -0.46177667
0.25259224 -0.5937816 -0.26559326 0.56281924 0.69060796 -1.0608106 0.22158517 -0.16722985
-1.0323858 0.4914133 -0.0378853 -0.656966 -0.47046074 0.83577144 -0.044357736 0.9204795
-1.0219066 -0.047118697 -0.81775784 -0.26744518 0.21606582 -0.090294346 -0.20835584 -0.1478018
-1.1465014 -0.30680397 0.2995294 -0.917441 -1.1014482 1.2938529 -0.54895717 0.37792847
0.10654554 0.5516205 0.46174508 -0.20613828 0.09549198 -0.43443978 -0.23783486 -0.13840085
-0.14696763 0.48260528 0.66513157 0.6196138 1.0897664 0.047305193 0.036430053 0.51109
0.10149524 0.63214684 1.0399228 0.29124105 -0.9967578 -1.3575928 1.2984127 1.3674357
-0.30769175 0.27917397 0.45140445 -0.17287923 -0.6377877 0.94254875 -0.27728432 0.43451482
0.4129645 0.22923727 0.7377115 -0.061829127 -0.37523058 0.85889614 0.32979864 0.42806375
0.56100655 -0.05944645 0.2549733 0.71292907 0.7453956 0.3128471 -0.010177889 0.49931288
0.742271 0.53111434 1.1110079 -0.31318256 -1.0983675 0.0152555695 1.5979618 0.85290176
0.101014696 0.0071456656 -0.108597495 -0.14225242 -0.50175977 -0.19455045 -0.24820983 -0.10217323
-0.15046613 -0.35476735 0.1479573 -0.3615753 -0.14507794 0.1752493 -0.27048373 0.07427171
-0.1867205 0.06878746 -0.17715764 -0.01663133 -0.022368006 -0.1954181 -0.04430352 -0.10510708
0.23988794 -0.24800776 -0.31167638 0.10100269 -0.13724843 -0.18008824 -0.13847364 -0.08812187
0.011242426 0.1842771 0.0028172059 -0.10932399 -0.4491157 -0.32747096 -0.48778188 -0.9115509
-0.06515619 -0.8696554 -0.21493115 -0.18329535 -0.21442921 -0.6926807 -0.2933458 -0.29959884
-0.07208849 0.21568817 -0.3356552 -0.35471356 0.009776404 0.09475096 -0.05205502 0.023530513
0.24717902 0.0022436667 -0.18380754 -0.21763052 0.03329132 -0.14366563 -0.5715444 -0.19917092
-0.115690775 0.3160575 0.93312055 0.57656527 -0.9475657 0.3163248 -0.06663983 -1.2872467
0.3252477 -0.31116685 -0.59500015 0.09600584 -0.2673206 0.3094347 -0.6005002 1.294311
0.4802218 -1.6676463 -0.6762754 0.20039831 -1.2050107 -0.4338676 -0.8288489 -0.13185039
-0.15966083 0.4279691 -0.16199565 -0.0007408278 0.50344974 -0.25055918 -0.63093126 0.020789107
-0.7358143 -0.374213 -0.8777785 -0.71926916 -0.11104639 -0.4566972 0.24303934 -0.71305454
0.13520165 -0.9675395 -0.47403798 0.0369451 0.080333546 -0.51495564 -0.16785142 -0.7395552
-0.7743401 -0.34753186 -0.38863674 -0.2868464 -0.50962085 -0.50393033 0.16253714 -1.0841424
-0.8091222 -0.9210467 -1.0684093 -0.15663193 0.48853624 -0.4250301 -0.0074415295 -1.1496553

bias f4 [64]
00000000: cce2 33bf c90d c93e 603a e63e c536 0f3f
00000010: dc51 2fbe a125 ffbd 2e4f 523e bbe9 17bf
00000020: 411c 5e3d ae70 be3d ea90 87be 89ef b03e
00000030: 8d06 9f3e 10ea b03e abac 18bf 368a 05be
00000040: 42d7 ab3d dfc8 7dbd 35e3 bc3b c1ee 49be
00000050: 4554 c6be 9476 133f 87a2 e7be a624 6e3e
00000060: 7dfc 1d3f 6aca 63be 2a40 053e 943b 56be
00000070: bc1a 9c3f d39e 31be df01 19bf 5a6c d53e
00000080: ee82 cfbe e5b5 d1be ed8c 81be 32ab fc3e
00000090: 7ad9 b4be 1295 7cbe dd7b 3abd 687b a6be
000000a0: 5b6c 90be 3157 463f 6a61 5e3c d2d2 023f
000000b0: 1302 02bf 5cb8 1bbf 6556 4ebe a7f4 77be
000000c0: 4949 2ebf c094 c7be b1b0 1a3f 9cf7 4abe
000000d0: 9b69 9bbd 93d9 303f d101 323f 5f68 97be
000000e0: 285b 043f e749 9fbd 7acf 8dbe 3487 1bbe
000000f0: d58e 2abe 10ef abbe adf8 b4be 14a6 d7be
-0.7026794 0.3926833 0.44966412 0.55942947 -0.1712107 -0.12458349 0.20538017 -0.5934102
0.054226164 0.09298836 -0.26477748 0.3455775 0.31059685 0.34553576 -0.5963847 -0.13041005
0.083906665 -0.061959144 0.00576439 -0.19719984 -0.38736168 0.5760281 -0.45241186 0.23256168
0.6171339 -0.22245184 0.13012758 -0.20921165 1.2195659 -0.17345743 -0.5976848 0.41684228
-0.4052958 -0.40959087 -0.2530283 0.49349362 -0.3532217 -0.24666241 -0.04552828 -0.32516026
-0.2820767 0.77476794 0.01357303 0.51102936 -0.50784415 -0.60828185 -0.20150144 -0.24214421
-0.68080574 -0.38980675 0.6042586 -0.19821018 -0.07588502 0.6908199 0.6953402 -0.29571816
0.51701593 -0.07777768 -0.27697355 -0.15188295 -0.16656049 -0.33580828 -0.35345975 -0.42118895

weight f4 [5, 64]
00000000: b504 723f 208c eb3e 3701 713f bb6a 483f
00000010: 173f 0bbd 929f 913e 1df6 5bbf bcf5 a83e
00000020: 32c1 363d 6b99 0b3f 252c 9bbd 0fe4 873e
00000030: 498b 133f 27ec da3e dd34 75bd bd9f 163f
00000040: 51ae 123f b36f e83c 8d66 1e3e 745a c23d
00000050: 27f7 0cbc 648a 46bf 8a1e 033f 1bed 6a3e
00000060: aa6e 4ebe 75bf 7b3f c6df 2e3e 4832 2c3e
00000070: b6db 353f 0338 a43e aa3a 5d3e d0e9 1e3e
00000080: a683 b43d be93 db3e b878 843f 0dec ea3e
00000090: bef0 c6bd 2ead 403e b54f b5be 8aa3 1c3f
000000a0: 6ed6 843e b2f0 63bf a1a1 a2be dcdb a03f
000000b0: 8eea 833e e5de d8be d80b 8dbd 53b6 d2bc
000000c0: a233 e43e 716f 1a3f e3a5 153f af1f 14bd
000000d0: 474b ce3b 9a2a 9abe 4841 ae3e 2e4b 853e
000000e0: 9caa f13d b50c 433f fb01 533c a671 493d
000000f0: ab13 763d f6fb d9be 9962 42bd ce53 043f
00000100: 3386 993d 2a63 dcbe b7d4 3dbf e517 d43d
00000110: bfa3 adbd a8fb 55be 785d a03f 542d 2e3f
00000120: 3938 4d3c eb5e 9b3f 10db 233d 05d2 d6bf
00000130: e3c1 e0be 0946 92bf ebeb eb3d b57b 2ebe
00000140: 52fd 123f dfa3 05be d723 32be 7b74 aabe
00000150: ae8e debe 4498 f03e c771 3d3e baee 34bf
00000160: cedc 4abf d757 003f 9cb4 673f 307d aa3c
00000170: f2e8 95bf 8a76 253f 0d10 033e 37b8 6b3f
00000180: ba30 32bf e181 143f 201a 10bf bc2a 6e3f
00000190: eff2 853e fc1d 52bd 3d97 f9be 8b98 413f
000001a0: cab5 c7bd cfe1 c13e 3662 253e b0e0 893f
000001b0: f691 9c3d 1d8f 213f 125a 8dbd 5f1f 47be
000001c0: 86a4 2f3f 86b9 153f 81e9 30bf 3389 df3b
000001d0: 903d a1bd 1898 a0bf 69cf 7f3f 1da9 5c3f
000001e0: 3d05 54bf 208a 65be b3fe 713d 3b3e 143e
000001f0: 2287 b13d 0fdc 0a3f c5b2 8bbd 793b 073e
00000200: c501 e93d 9875 713f 8697 853f d0b7 713e
00000210: a4e7 4abd 5c73 653e 537e e2be e379 103f
00000220: 2de8 f5bd 5d7b 073e 040d 87bc a395 ff3d
00000230: dc05 843f 783d a73f 011d c03d 8a7b 3b3f
00000240: f0f5 a03e 902f 11bd f7b5 a8be 98e1 2c3d
00000250: 3376 483e a626 ccbe a324 cd3c 57c3 dc3e
00000260: c156 2a3f 9fd4 c23e 06e9 913f 9b6e 203b
00000270: afde 2a3f b446 85be 79d3 18be f71f b13d
00000280: a61d 28bf 2688 383f 54da 433f 4800 03be
00000290: 23f6 dd3e e2ae 05bf 19f1 c4bd ed20 75be
000002a0: f121 b6bd 6073 3fbf beb7 4d3f f14a 21bf
000002b0: fb8a 183e beaa 913f bd7a 25be a0d8 c63e
000002c0: e404 213f 5cb6 bc3e bc8f 44bf 69cd d5bc
000002d0: 928a 4c3c 2156 9fbe 3525 8fbf ba33 2a3c
000002e0: 6a7f 5c3f 563c 283f 19dd b93d a740 b93c
000002f0: 5ba7 a23c b8f2 85be cfe9 fc3d b81e 213e
00000300: 8e2c 08bf 8336 293e f441 893f 661a 853f
00000310: c523 3a3d c13d 9dbe 9830 0d3f 20ed 183d
00000320: 2542 893d 057c 8f3e 9188 cfbd f2b6 843f
00000330: c6ec 6d3d 2f07 23be bf86 683c caa6 17bf
00000340: f587 a93f 674b 31be d3b2 d23d cea3 b23d
00000350: b7e3 54bf aed3 933f 4f14 dc3d 2195 21bf
00000360: a155 6c3f ad8d c1be 7646 083e 182a 95bd
00000370: f7cb 763f d214 34bd 233d f63d ba58 8d3f
00000380: db47 2c3d 4939 dcbe b798 f4be 8236 6c3f
00000390: e833 5b3e e32b febd fa26 323e 7887 86be
000003a0: ac15 033d 5794 d73f 7d81 b7bd 66c9 8e3f
000003b0: e8a9 fabd 4b02 9c3d b1d2 043d 6a73 bdbd
000003c0: 5d38 d4be 14e3 adbc e4e3 c33f 933a 19be
000003d0: 25f6 acbd a718 673f a6dd 9f3f f289 d8be
000003e0: 4640 53bb c310 12bf 4026 d83b 5363 b63c
000003f0: 06a2 3b3c 63fb 8dbd 1d9b 113e facf ff3d
0.9453843 0.46005344 0.9414248 0.7828786 -0.033995714 0.28442055 -0.85922414 0.3299998
0.04461784 0.5453097 -0.07576779 0.26541182 0.5763441 0.42758295 -0.059864867 0.5883749
0.57297236 0.028373575 0.15468808 0.09489909 -0.008603848 -0.7755492 0.51218474 0.22942011
-0.20159402 0.98339015 0.1707755 0.16816056 0.7103838 0.32073984 0.2160441 0.1551888
0.088141724 0.42886156 1.034934 0.45883217 -0.09713887 0.18816063 -0.35412374 0.6118704
0.25944847 -0.89039147 -0.31763938 1.2567096 0.2576489 -0.42357555 -0.06887025 -0.025721705
0.44570643 0.60326296 0.5845625 -0.03616303 0.006295595 -0.30110627 0.3403418 0.2603392
0.11800119 0.76191264 0.01287889 0.04918065 0.06007735 -0.42575043 -0.04745731 0.51690376
0.074962996 -0.43044406 -0.741527 0.1035612 -0.08478498 -0.2089678 1.2528524 0.68037915
0.012525612 1.2138342 0.040003836 -1.6782843 -0.43897924 -1.1427623 0.11519607 -0.17039378
0.57417786 -0.13050793 -0.17396484 -0.33291993 -0.4346823 0.4699117 0.18500434 -0.7067677
-0.7924317 0.5013403 0.90509963 0.020811647 -1.1711714 0.64634 0.12799092 0.92077965
-0.696056 0.5801068 -0.56289864 0.9303396 0.26161906 -0.051298127 -0.48748198 0.7562339
-0.097514704 0.3786759 0.16150746 1.0771694 0.07645027 0.63109 -0.06901945 -0.19445561
0.6861042 0.5848621 -0.691063 0.0068217753 -0.0787307 -1.2546415 0.9992586 0.86195546
-0.82820493 -0.22415972 0.05908079 0.14476864 0.08668353 0.5424203 -0.06821207 0.13206281
0.11377291 0.9432006 1.0436866 0.23605275 -0.049537316 0.22407287 -0.44237003 0.56435984
-0.12007175 0.13230653 -0.016485699 0.12479713 1.0314288 1.3065634 0.09380532 0.7323538
0.31437635 -0.03544575 -0.32951328 0.04220733 0.1957634 -0.39873236 0.025041884 0.43117782
0.66538626 0.38052842 1.1399238 0.0024479988 0.6674604 -0.26030505 -0.1492442 0.08648675
-0.6567024 0.72082746 0.7650502 -0.12793076 0.4335185 -0.52219975 -0.09616298 -0.23938341
-0.088931926 -0.74785423 0.80358493 -0.63004977 0.14896767 1.1380231 -0.16160102 0.38837147
0.6289809 0.3685788 -0.7678182 -0.026098924 0.01248421 -0.311204 -1.118323 0.010388309
0.8613192 0.65717065 0.09075374 0.022613836 0.019855192 -0.26161742 0.12349283 0.15734375
-0.53192985 0.16524701 1.0723252 1.0398681 0.04544427 -0.30711177 0.55152273 0.037335515
0.06702069 0.28024307 -0.1013347 1.036833 0.058087133 -0.15920709 0.014192282 -0.59238875
1.3244616 -0.1731392 0.10288014 0.087226495 -0.83159965 1.1548975 0.10746061 -0.6311818
0.9231816 -0.37803403 0.13308129 -0.07283419 0.96404976 -0.04396517 0.1202338 1.1042702
0.042060714 -0.43012455 -0.47772762 0.9227067 0.2140652 -0.124107145 0.17397681 -0.2627523
0.03200309 1.6842145 -0.08960245 1.1155212 -0.12239438 0.07617625 0.032427493 -0.09250529
-0.41449252 -0.021226443 1.5303922 -0.1496375 -0.08445386 0.9027199 1.2489517 -0.42292744
-0.0032234355 -0.57056826 0.0065963566 0.022264158 0.011452204 -0.06932714 0.14219327 0.1249084

bias f4 [5]
00000000: 172a 003f 8571 a03d edf6 bb3e 6892 433f
00000010: 1e2a 51bc
0.50064224 0.07834152 0.36711827 0.76395273 -0.012766389
