models/simple_tag/PPO-centralized/agent_0/critic_0.pt (torch, 13842 bytes, 5 tensors)

weight f4 [32, 10]
00000000: f724 0dbd fbf2 843f ff2c d73f 2391 3b3e
00000010: 2a33 1a40 59dd 983e 43c6 9bbf 116c 3e3f
00000020: b672 87bf 9c9b 94bf 39f7 063f 7232 c63f
00000030: 48ec 813e e780 f73e bd18 133f 81c5 8abe
00000040: 0e30 40bf 8fff 1bbe 8160 193f 9e14 6dbe
00000050: b386 a83e 9a9b 543f fae1 5c40 1522 bd3f
00000060: d2d7 0840 44ec 67bf 3cfb 87be 39bc 213e
00000070: 1586 48bd a749 cc3c ce01 913e 7f17 e83e
00000080: d0fc 91bf 22e6 08c0 abdc 12c0 1608 b3be
00000090: c17b 643f f1f5 03bf ab2c aa3f bb20 c1bf
000000a0: 84f8 abbf b9f3 243f 6610 aa3f 231d 27c0
000000b0: 81c7 9cbe 34cf 153c d6de 3f3e 11a2 a4be
000000c0: 178d 4bbf 72d0 0bbf 6cbb c43f 2f9b 8d3f
000000d0: 1deb 3e40 944e fb3f 3cb0 06c0 e859 ba3f
000000e0: d6f2 a8be ef6e 8abf 4f8a 4dbe 40b8 90bd
000000f0: 463b febe 98a5 a73e 4df9 aebf f67c 90bd
00000100: 3fd1 013f 854b 03be 0879 b6be 1226 0fbf
00000110: 133a 2940 d13b bebf a03c c13f 0978 b9be
00000120: 2e44 3640 1c0a 3cc0 fa32 863e 663a babe
00000130: fe78 0abe c476 00bf c49c d43f f2f7 04be
00000140: c5cd d9be 7eab 6fbe 44e4 9bbf b172 37c0
00000150: fcaa fd3e 8e0a 523f 4026 9bbf 687e 53bf
00000160: 875a a53f bd1d d1bf ea47 4d3f 8b28 06bf
00000170: 369f 89bf 0a30 d13d 2cb2 f7c0 4be5 0740
00000180: 70ef c73e aa19 a33e ca86 153f 38a5 6a3e
00000190: 7d8a c23d 9952 36bf 63d2 23c0 0e8d b2be
000001a0: a5d7 613e 056b 06be c366 94bf 7737 49bd
000001b0: 106d 09c0 fd6e 85bf 5c6b 403e 4bcd 9abe
000001c0: 4172 6fbf 495b a33f bd4f 75be 2a21 96bf
000001d0: a16e 8c3f 5181 b8bf 5fc6 d33f 21a2 8a3f
000001e0: 482b cdbe 0e15 c9be dd78 92be 1cbf c83f
000001f0: 6c9b b03f 78cf db3f 2d27 073f b1e9 f03f
00000200: b81a 14bf e68c 6cbe 7ef2 1f3f 0c59 263f
00000210: df32 45bf d358 92bf 9540 72be c0f5 833f
00000220: 9f47 123f 54ef 863f e02c 5cbf 8e9d 9ac0
00000230: 512a 01bf 9b09 2f3f 7051 9fbf a6cf e43f
00000240: 5031 f4bc ee1f d03e c07e ca3e c7ab f03e
00000250: c23d 21bd 8efb a43f 85dc 8cbf 7f3f 813f
00000260: affc 59c0 b02b b33f 5ab0 6fbf 949b cfbe
00000270: c2c0 22bf ecb9 153f 0d06 b7bf c581 953e
00000280: aeef 893f 6946 7c3f ee18 c43e a4e8 62bf
00000290: 2a31 81bf aa3c 703f 7012 9d3f 6ad9 a63d
000002a0: db17 803e 3a73 9ec0 ea88 a83e 1bf7 9c3e
000002b0: 9010 1ac0 af78 bc3f 234c 2fbf c79e 0240
000002c0: 57b9 8b3f 821d d1bf 8b21 6d40 b9ee 04bf
000002d0: 948c 493f d52d 02c0 84f5 8e3f 6a72 68c0
000002e0: cffd 0dbe 14b2 f93e 055f c9be e60b b0bd
000002f0: f3ac bc3f 38ef 06be 8630 213f 341d ae3e
00000300: 8584 7540 3de6 5e3f 0228 b3be 7282 db3e
00000310: f2d9 b53e 2b1e 22be 0a3c 823f c941 bb3e
00000320: 7529 efbe 8a5b 0e3f 4733 f03f a2a0 87be
00000330: 8333 db40 f2d5 44bf 78e3 f3be a8ca 893d
00000340: 6395 f9bf 37b6 99be 6dac e3bf e722 f9bf
00000350: aa86 41c0 e3be 27c0 aba9 32c0 c945 c23f
00000360: 2047 e93f c0e0 0ebe f2b6 0640 a2ea 813f
00000370: 8355 29bf 24b1 25bf 325e 3c3e 5943 65c0
00000380: 129c 1f3e e51e cb3e f5c0 94be 7711 79be
00000390: 4168 2f3e dbd3 b93e 79d3 88bf ec94 45bf
000003a0: c837 8abf 054d c53f 84f6 023e ab7a 18bf
000003b0: a164 bebe b89f 5b3f ab29 d83e f420 9b40
000003c0: 51f7 183f d5dd 143f 74e5 97bf ecdf 51bf
000003d0: b34c b5bf fe32 4c3d e897 8e3f c08a 3abf
000003e0: e69b e33d a843 4740 5a35 e9be 7d17 9fbf
000003f0: 663e 1cbf 5693 a73f 826a b73f e886 d13d
-0.03445908 1.0386652 1.6810607 0.18317084 2.4093728 0.29856375 -1.216988 0.74383646
-1.0581882 -1.1609988 0.5272098 1.5484145 0.2537558 0.48340532 0.5745962 -0.2710381
-0.75073326 -0.15234207 0.5991288 -0.23152396 0.32915267 0.8304993 3.4512925 1.4776026
2.1381726 -0.9059489 -0.26558864 0.15794457 -0.048955996 0.024937464 0.2832169 0.45330426
-1.1405277 -2.1390462 -2.2947185 -0.34967107 0.89251333 -0.5154715 1.3294882 -1.5088114
-1.3435216 0.6443439 1.3286254 -2.6111534 -0.3062096 0.009143639 0.18737349 -0.32154897
-0.7951216 -0.5461494 1.5369697 1.1062983 2.9831002 1.9633355 -2.1045065 1.4558687
-0.3299777 -1.0815104 -0.20072292 -0.07066393 -0.49654597 0.32743526 -1.366983 -0.070550844
0.5070991 -0.12821777 -0.35639215 -0.55917466 2.6441696 -1.4862005 1.5096626 -0.36224392
2.8479114 -2.938117 0.26210767 -0.3637268 -0.13522717 -0.5018122 1.6610341 -0.12985209
-0.42539802 -0.23405263 -1.2179036 -2.8663752 0.49544513 0.82047355 -1.2121048 -0.82614756
1.2918252 -1.63372 0.8018786 -0.52405614 -1.0751712 0.10214241 -7.7404995 2.12337
0.39049864 0.31855518 0.58408797 0.22914588 0.09499071 -0.71219784 -2.559716 -0.3487324
0.22054918 -0.13126762 -1.159386 -0.04912516 -2.1472816 -1.0424496 0.18790954 -0.3023475
-0.9353371 1.2762233 -0.23956199 -1.1728871 1.0971261 -1.4414464 1.6544913 1.0830728
-0.40072083 -0.39273876 -0.28607836 1.5683322 1.3797431 1.717269 0.5279415 1.8821317
-0.5785327 -0.23100623 0.6247939 0.64979625 -0.7703075 -1.1433357 -0.23657449 1.0309372
0.57140535 1.0541787 -0.86005974 -4.8317327 -0.50455195 0.6837403 -1.2446728 1.7875869
-0.02980867 0.4064936 0.39549828 0.47006056 -0.039365537 1.2889268 -1.1004797 1.0097502
-3.4060476 1.3997707 -0.93628466 -0.40548384 -0.63575375 0.5848682 -1.4298722 0.2920057
1.077627 0.9854494 0.3830027 -0.8863623 -1.0093129 0.93842566 1.2271252 0.08146937
0.250182 -4.9515657 0.32916957 0.30657277 -2.407261 1.472433 -0.6847555 2.040941
1.0915936 -1.633713 3.7051723 -0.5192676 0.7873013 -2.0340474 1.1168675 -3.6319833
-0.13866352 0.48768675 -0.39330307 -0.085960194 1.474028 -0.13177192 0.62964666 0.34006655
3.8362134 0.87070066 -0.3499146 0.4287296 0.35517842 -0.1583182 1.0174572 0.36573628
-0.46711317 0.5560843 1.8765649 -0.2648974 6.850038 -0.76888955 -0.47634482 0.06728107
-1.9498714 -0.3002183 -1.7786995 -1.9463776 -3.0238442 -2.6210258 -2.7916057 1.5177547
1.8224831 -0.13952923 2.104916 1.0149729 -0.66146106 -0.6472342 0.18395308 -3.5822356
0.1558688 0.39672008 -0.29053465 -0.24323069 0.17129613 0.36294445 -1.0689536 -0.7718036
-1.0798273 1.541413 0.12789351 -0.59562176 -0.3718615 0.85790586 0.4221929 4.8477726
0.59752375 0.5815099 -1.1866899 -0.819823 -1.4164032 0.049853317 1.1140108 -0.72867966
0.1111372 3.1135044 -0.45548517 -1.2429043 -0.6103271 1.3091838 1.4329379 0.102308095

bias f4 [32]
00000000: 12f3 c4bf 5424 4740 77e3 e2bf da7d 94bf
00000010: 19b0 2cc0 61e2 06bf b673 1640 a093 dabf
00000020: 9da1 8bbf 68e6 efbd 351b 6d3f 7d06 05c0
00000030: c0e0 3040 8b65 03c0 6966 56c0 e5d9 67bf
00000040: 46ce d7bf b4f3 9bbd f416 20c0 a9ca c9bf
00000050: c2d2 bcbf cae8 d8bf d637 15c0 76d3 e4be
00000060: c072 903f f3b9 0abf 63f9 39c0 2ce9 14bf
00000070: b435 c3bf 27fb e2be 5565 99bf b7d2 cc3e
-1.5386679 3.1115923 -1.7725667 -1.1600907 -2.6982481 -0.52689177 2.3508124 -1.7076302
-1.0908695 -0.117138684 0.9261964 -2.078521 2.7637177 -2.0530727 -3.3500006 -0.90566856
-1.6859825 -0.07614842 -2.501401 -1.5764972 -1.4751818 -1.6946042 -2.331533 -0.44692582
1.1285019 -0.54189986 -2.9058464 -0.5816829 -1.5250764 -0.4433224 -1.1984049 0.40004513

weight f4 [64, 32]
00000000: 9af3 edbe af18 20bf d3b3 a9be f2f0 acbe
00000010: cdd8 7cbf 8d23 1ebe 69a8 80be 742a febd
00000020: c886 21bf cbb3 ed3c a142 1ebf 2dfe a4bd
00000030: 342e f1be 6786 49bf 0e11 a53e ba38 b1be
00000040: 3071 20bf 0d95 3bbf 104c 27be e237 f63d
00000050: cd79 d73d ade5 58be 1e93 05bf 79fc 9dbe
00000060: 167b 92be 7cd2 b3be 36c2 a3be cb10 20bf
00000070: 068b acbd c1dc d13d 71aa 33bf 8d5d 20bf
00000080: ccaa 6dbe f1fe e0bd 61fe 05bd 6d61 9ebd
00000090: 5a44 013e f455 5ebe 2f57 0bbe cc4e a3be
000000a0: 2471 d5bd 3b6a e73c 6bf9 b63c 25e4 7dbe
000000b0: c594 b4be 6f12 823c 9d11 df3d c027 cdbd
000000c0: e4e1 b0be 3046 f0bd af4d 93be 3908 38bd
000000d0: 6484 2eba 748d 15be 5f93 65be d8e1 e0be
000000e0: a399 8fbe 4edf f3be fa60 a93d b256 d5bd
000000f0: 0442 dcbd f71a 64be 583f ecbe ef85 64be
00000100: 6bbd 9ebf c36e bebf 88cb 533f 7ad1 12bd
00000110: 2b1b 0a3f 9059 97bf 0ffb f6bf ba88 b13e
00000120: 8a09 e9be 5e2c 2d3f 06f9 2d3e defb 8f3e
00000130: b44e 98bf eff9 a93d ae37 84bf 03ad 02c0
00000140: 7ff1 cbbe 8c81 f1bf bf42 1b3f 954d edbe
00000150: 1557 75be 9f2a f3be d6ca a1be f987 0ebf
00000160: fcac 9bbf bec1 39c0 4305 3d3f 912f 97bf
00000170: 2c13 11bf 8106 d8be 49c5 37bd 6379 723e
00000180: 8f9c 52bf b7b6 98bf 736a 09bf 1f3e a73e
00000190: f36c a53e 5252 8bbf b289 1cbf 1c08 91bd
000001a0: e8c4 163f 8d27 f4be 4682 1c3f b264 b1bf
000001b0: 654e 8bbf be10 8abf f45c dbbf 887a 723e
000001c0: 73b9 b6bf 9c50 e0be 193c 96be 8cd9 d7be
000001d0: 6afc c1bf d3b2 15c0 8059 d0be ba06 f0bf
000001e0: cbf9 783e a29b cfbf 395a 81bf c6e6 6ebf
000001f0: 5b69 d7bf 0b68 0ec0 fa1f b3bf fd53 28c0
00000200: 7388 85c0 25a3 133f 6b05 f6bd 751a 57bf
00000210: c76e 5dbf 06eb d9be 4e81 f5be 9cbf 5a3d
00000220: 23c3 f5bf 1dbf 4bc0 e205 fcbf 08b3 b83e
00000230: c7bd d0bf aead 83bf 2ab6 673f f8c6 25bf
00000240: b4d4 c1bd 8ce9 a5bf cd99 81be fe8a 2a3f
00000250: ad65 1cc0 fe3a 2ac0 ce00 88bf 0d93 e83d
00000260: 23c3 fcbf d977 e0bf 7d40 9fbe 2d76 453f
00000270: 3896 833e 2130 7abf 0c28 8fbf 5b8b 45bf
00000280: 9b5a febf d7dd 383e 3517 103d c9a3 00bf
00000290: 9b2c 953e d9de a3be 2428 a93c f299 913e
000002a0: 052d 6ebf 7a2a 28bf 97f0 41bf 92cf 8ebf
000002b0: e23b 42bf 46af d5bf 350b 05c0 d99a a9bf
000002c0: 0841 59bf 124c ea3e 0e22 023e 0eba 98bf
000002d0: e8d8 1ac0 e70a c7bf fe23 85bf e664 d8be
000002e0: 9ce7 87bf e8d6 1ebf f330 4d3f 6ea1 71bd
000002f0: 6d26 0e3f 0479 b9be 9b49 983e ba9c 6bbe
00000300: d9c1 743e 5a20 aebe 058b 57bf c9a2 79be
00000310: 369c debd aef7 fcbe ae8f 1fbf fad6 263d
00000320: e3db 78be d7f8 f4bf be3b a0bd 9207 56bf
00000330: 080d 8ebf e793 37be 20c8 56bf 8a43 4b3e
00000340: 83d6 fbbf 1ca0 123e 80aa eb3c 4d05 0abf
00000350: 24d5 11be 4364 29bf be74 a1be 13a5 7bbf
00000360: 1281 bdbd 7df0 75bf 9ffc 5fbf b0ea 3fbf
00000370: 0628 203c a9d1 8abf ff48 a8bd b1cb 7dbf
00000380: 414a 0840 9185 efbe 58d6 89bf 2bba ca3e
00000390: f0c6 563e 6c17 ebbe e539 713f 5f54 1b40
000003a0: 371e 9d3f dd5b 143f ff8d 13c0 3c00 12bf
000003b0: fb8d 3ebf 26cd c0bf c43b 3dc0 0d9e cebe
000003c0: 7544 3bc0 1947 23bf 92e2 7d3f 9e02 44be
000003d0: 393b e53e 5cfd 82bf 13f2 74bf 7074 37c0
000003e0: 95fa 21c0 3ad8 07c0 ffec f5bf 2ac8 b9bf
000003f0: f8c8 a8be 9c80 f1bd 9a66 4e3f 6e4e 69bf
-0.46474916 -0.62537664 -0.33145007 -0.33777577 -0.9876831 -0.15443249 -0.25128487 -0.12410441
-0.63096285 0.029016396 -0.6182042 -0.08056293 -0.47105563 -0.78720707 0.32239574 -0.3461359
-0.6267271 -0.7327431 -0.1633761 0.120223776 0.105212785 -0.21181364 -0.5217761 -0.30856684
-0.28609532 -0.35121524 -0.3198411 -0.62525624 -0.08424954 0.102471836 -0.7018195 -0.6264275
-0.23209685 -0.10986126 -0.032713298 -0.07733426 0.1262373 -0.21712476 -0.13607477 -0.31896055
-0.104219705 0.028248897 0.022335729 -0.24794061 -0.35269752 0.01587793 0.10892031 -0.10017347
-0.3454734 -0.11732137 -0.28770205 -0.044929717 -0.0006657301 -0.14604741 -0.22419499 -0.43922305
-0.28046903 -0.47631305 0.0827045 -0.104169264 -0.10754779 -0.22275911 -0.46142077 -0.22316717
-1.2401556 -1.4877552 0.8273244 -0.035844304 0.53947705 -1.1824207 -1.9295367 0.34674627
-0.4551509 0.67645824 0.16989526 0.28121847 -1.1899018 0.08299624 -1.0329492 -2.0418098
-0.39832684 -1.886766 0.6064872 -0.46348253 -0.23959 -0.47493455 -0.31600064 -0.5567623
-1.2162166 -2.90245 0.73836154 -1.1811391 -0.5666988 -0.42192462 -0.04486588 0.23679118
-0.8227014 -1.193076 -0.53678054 0.32664582 0.32309684 -1.0884497 -0.61147606 -0.07081625
0.58894205 -0.47686425 0.6113628 -1.3858855 -1.0883299 -1.0786359 -1.7137742 0.23679554
-1.4275345 -0.438115 -0.29342726 -0.42158163 -1.5155156 -2.3390396 -0.40693283 -1.8752053
0.24314038 -1.621937 -1.0105659 -0.9332088 -1.6829027 -2.2251003 -1.3994133 -2.6301262
-4.1729064 0.57670814 -0.12012752 -0.84024745 -0.8649716 -0.4256212 -0.47950214 0.05340539
-1.9200176 -3.1835396 -1.9689295 0.3607409 -1.6307915 -1.0287378 0.90512335 -0.6475673
-0.09464398 -1.2961898 -0.25312653 0.66618335 -2.4437058 -2.6598506 -1.0625246 0.11356173
-1.9747051 -1.7536575 -0.31103888 0.77133447 0.25700545 -0.9772969 -1.1184096 -0.77165765
-1.98714 0.18053375 0.035178382 -0.50249916 0.29135594 -0.32005957 0.020649023 0.28437763
-0.93037444 -0.65689814 -0.75757736 -1.1157095 -0.75872624 -1.6694114 -2.078809 -1.3250381
-0.84864855 0.45761162 0.12708303 -1.1931779 -2.419489 -1.5550202 -1.0401609 -0.4226448
-1.0617557 -0.6204667 0.80152816 -0.058991842 0.55527383 -0.3622514 0.29743657 -0.23009005
0.23902072 -0.34009057 -0.841965 -0.24378504 -0.108696386 -0.49407715 -0.6232861 0.04073236
-0.2430263 -1.913844 -0.07823895 -0.836053 -1.1097727 -0.17927514 -0.83899117 0.19849983
-1.9674839 0.1431889 0.028767824 -0.5391434 -0.14241463 -0.6616861 -0.3153438 -0.9829876
-0.09253134 -0.9607008 -0.87494844 -0.7496748 0.009775167 -1.0845233 -0.08217048 -0.99138933
2.129532 -0.4678159 -1.0768538 0.3959516 0.20974326 -0.45916307 0.94228965 2.4270246
1.2274846 0.5795267 -2.3055418 -0.5703161 -0.74435395 -1.5062606 -2.9567728 -0.40354958
-2.9260533 -0.6378036 0.99173844 -0.19141623 0.44771746 -1.0233569 -0.95681876 -2.8664818
-2.5309193 -2.1225724 -1.921295 -1.451421 -0.32965827 -0.117921084 0.8062531 -0.911353

bias f4 [64]
00000000: a61e 05bf 0ef3 b7be d092 8fbf 7edc c23e
00000010: 3532 8abe d4e4 3fbf 407a 78be ba54 0b3f
00000020: 96f5 b23f 7770 173d 7386 f43f cc15 a8bf
00000030: 358e 843f 1cfc 5f3e f00a 043f 7979 b140
00000040: 0064 c740 1280 edbc f9b4 11be 2f72 063f
00000050: f1c1 113e 83ce 8c3f afe6 853f 00c5 d2be
00000060: 6b2a 563e 2a0d 44bf 7b17 da3e 9d4b 313f
00000070: 7cb0 88be cd89 f63d c5c4 1e3f ac1f 2abf
00000080: da60 343f 5943 84bf 3218 e93f f73a a7be
00000090: 19cc e53c 50ba 9d3c 7dba b9bf 60b7 a5bf
000000a0: 5f0e 913f c07f dfbe 9ac9 f63e 5634 e3be
000000b0: 5ea0 3b3f b21a d63d f5dd 9bbe ff07 fabd
000000c0: bc75 f5bf fae3 f9be 8025 fc3f 3d8a 16bf
000000d0: 4e32 ebbc 672a 6e3e ad05 cf3e 437a b23f
000000e0: f19d 3b3e 74d3 1b40 bda5 5a3f d6ee 65bf
000000f0: 20c9 b43e 4f65 5d3f 3728 0340 4d16 2d3f
-0.5199989 -0.35927624 -1.1216679 0.38058847 -0.2699143 -0.7495854 -0.24265385 0.5442616
1.3981197 0.03697249 1.9103531 -1.3131652 1.0355898 0.21873516 0.5157919 5.546078
6.230957 -0.028991733 -0.14229192 0.5251798 0.14234139 1.1000522 1.0461024 -0.41165924
0.20914619 -0.76582587 0.4259604 0.69256 -0.26697147 0.12038002 0.62018996 -0.6645458
0.70460284 -1.0333053 1.8210509 -0.32662174 0.028051423 0.01925388 -1.4510037 -1.2946587
1.1332511 -0.43652153 0.48200685 -0.44375867 0.73291576 0.104543105 -0.30442777 -0.122085564
-1.9176555 -0.48806745 1.9698944 -0.58804685 -0.02871051 0.23258363 0.40434018 1.3943561
0.18321969 2.434781 0.85409147 -0.8981756 0.35309696 0.8648271 2.0493295 0.67612153

weight f4 [1, 64]
00000000: 0b3a a13c 032d 88bc d53b bfbd a57e 8abd
00000010: a44e d7bd 7cba 11be a39c 5bbd c3a5 1fbf
00000020: 69f2 cf3e 0b5b c0bd 8e29 b2bf 0626 8ebd
00000030: 0cfa 93be 08d6 07bf 760a 69be 2a97 20bf
00000040: bebd 77bf eae5 a63c 2277 28bf 5ed9 55bf
00000050: 8c72 283d e531 2bbf a91c 35bf 74c8 82be
00000060: d411 b5bd 4c81 c7be a1b2 b9be 3c65 11bf
00000070: 14ef 01be 3649 9cbe 69c9 4ebf ea92 b8bc
00000080: 02c9 66bf e003 05bf c300 133e b7d7 d9be
00000090: 4dc6 2fbc 6f30 17bf cdf6 b1bb a22d 8cbe
000000a0: 9b8c 8cbe 28af 80bd 2ddb 13bd d2d0 e6bc
000000b0: 64e2 fdbe b150 d33c b087 9bbe 3109 d9bd
000000c0: 7355 03be 1774 07be 0dc0 30bf 1b59 ce3a
000000d0: 3e27 45be 5ab4 4c3d 01cb a1be ee1a 16bf
000000e0: 6496 04be 0e86 8d3e dc9b 98be 30ca 6abf
000000f0: 9f6e 033d 038c 8abe 9227 93be 2ea9 d4be
0.019680997 -0.016623026 -0.09337584 -0.06762437 -0.105130464 -0.14231294 -0.053616177 -0.6236231
0.40614632 -0.09392365 -1.3918931 -0.06940846 -0.28901708 -0.5306096 -0.22757897 -0.6273066
-0.967739 0.020373303 -0.6580678 -0.835348 0.041124865 -0.6687301 -0.70746857 -0.2554356
-0.08841291 -0.38965833 -0.36269096 -0.56795096 -0.12688857 -0.30524606 -0.8077608 -0.022530992
-0.90150464 -0.5195904 0.1435576 -0.4254739 -0.010728431 -0.5905828 -0.0054310323 -0.27378565
-0.27451023 -0.062834084 -0.036097694 -0.028175745 -0.49586785 0.025795313 -0.3037696 -0.10597456
-0.12825565 -0.13227879 -0.69043046 0.0015743108 -0.19253251 0.049976684 -0.31600192 -0.5863484
-0.12947994 0.27641338 -0.2980641 -0.91714764 0.03208792 -0.27059945 -0.28741127 -0.41535324
