models/simple_tag/A2C-shared/adversaries/actor_0.pt (torch, 14792 bytes, 6 tensors)

weight f4 [32, 12]
00000000: a8d2 533f 2d7b 413f fb69 da3e 740b 683f
00000010: 0875 ce3e 2258 f3bd 0c5b 8c3e b5d8 353f
00000020: 0603 f33e 73a4 49bf 5b94 173f bcc5 ee3e
00000030: 1781 22be fab3 c03e 6fa9 d53d d3fe 143f
00000040: 2727 013e c83a 983e 521c 023f 7507 3f3e
00000050: 7b8b c33f 6afe 753f 4312 a33e b885 183e
00000060: 0f9c e9bd 347b c4be eefb ea3d 0185 9bbe
00000070: 6f03 593c 627e 8abd 7c8b 73bd 19b3 74be
00000080: 2915 d23e c9d3 3e3e 3647 0d3e 3f84 7dbe
00000090: 4fa9 bcbf 21cd 58be 69bf 293e 9b19 ea3e
000000a0: 779e 333e d7aa 17be 72da f13b 0e8b 173f
000000b0: 7cc7 74be 3d6e a53e 5a2d efbe 3598 2ebf
000000c0: 7896 6abf ddf4 5f3f c419 c0be 7b92 a3be
000000d0: 55c9 fabe a0ef a53d 7de6 023f c59a 6e3e
000000e0: 4039 1c3f 8799 b53e 8c33 d6be cba2 223f
000000f0: 291a 173f 0391 5e3f 5168 763e 63af eb3e
00000100: 8daa dcbe 893f 85bd c2d5 db3e 4992 7bbd
00000110: dd8f fabe ac63 253e 3aa0 693f 4524 263f
00000120: a2f3 c2be 910e 0cbf 5716 203e a248 8abe
00000130: 056f 1abe 15fe 863e e44e dc3d 5027 893a
00000140: e9b3 a7be cb43 0f3e d43e 36be 71c6 e53e
00000150: faaa 8b3e e685 ca3e adb7 903e 20ab 563d
00000160: 619f 4bbe b112 a8be 8b37 27bf ae79 9d3f
00000170: d800 763f 05b8 7fbf 19c7 8dbc 8540 a13e
00000180: 69df ef3e aab7 1b3f 59a9 863e 9fd1 da3e
00000190: f58a 60be 9d03 d63e 8d1c 1d3f 4987 a23c
000001a0: 9063 8e3f 858d 2e3f d5dd 573f 2119 ae3f
000001b0: 73c3 283f 7c21 5c3f 8fdb 1abf 5def 09bf
000001c0: 673a 7b3f 03e3 12bf f862 cabc 9555 f03e
000001d0: 92ec ddbe 5fc6 b33e 94b1 9c3e 7817 f03e
000001e0: c719 61be 7538 49bd f75c 3b3e ed3d 27be
000001f0: 8f7d 033d 654d 1e3c 666e 023e 53dc 62bd
00000200: 5260 8cbd 93cd 40bd 0fc8 00be 5f46 b1bd
00000210: 5f6e d83e 2d43 583f a7c6 873e f48a 32bf
00000220: 10b0 dabd 28d6 7cbd 52a4 aebe d78e 563e
00000230: 2d4d cb3d 2470 00be 7c18 263d 62d7 bebe
00000240: 2564 cfbe b3a7 7fbf 68e1 f43d e02a cdbe
00000250: 1e02 02be fb54 53bd d311 1f3e c45e cfbd
00000260: 96d3 9e3f 98c5 7740 9b8c b43d 6c58 8f3f
00000270: 4abc 7f3f 5a89 8ebf 1179 38bf 7392 4cbf
00000280: 7add 9dbe 2a15 ec3b 0364 b7bd 84a0 4bbe
00000290: 38c2 6abd 3cb1 6cbe bde7 bb3d 5f46 5e3f
000002a0: a8e7 99be 5f84 dbbd 2bbd 9dbe f240 8a3e
000002b0: efee 523e 7a9f 58be 2d02 9abc 131d 443d
000002c0: ed4f 5a3e e061 d33e b675 1ebe b7b8 7ebe
000002d0: aca7 07bf 50ac 433f 1caa a9be e85e efbe
000002e0: fb6c fcbc cb63 9dbe 6ced 0bbe 7fe3 85be
000002f0: e2a2 fc3f 613a 57c0 7de6 303f 30f5 91bf
00000300: 2003 5f3f e6e0 ce3e a80e 8ebd eff9 823e
00000310: 9481 82bd 47e8 c3be 4b99 ecbd 0b90 fbbd
00000320: 9c41 58c0 86a2 7ebf d19d 3fbf a3a7 18bf
00000330: 91d1 64bd 4920 8d3f a517 203b c4cb 4e3f
00000340: 3b77 8ebe 9787 e4bd fb1a 51be 5d3a 3b3c
00000350: 0758 d03e 7255 9ebf 5abb 34bf 4ba0 313f
00000360: 5299 0ebf 8aa7 433f 8364 52be baad a33e
00000370: b180 06be d890 883d 30b2 f3bd f390 fabc
00000380: f72a 0b40 f33c 50c0 c4d7 0d3f adfc 86bf
00000390: 9581 2e3f d08d 8fbf dc83 8d3d 9b08 50bf
000003a0: 3223 df3e a3d1 ffbd 53ce df3e 96d7 9dbe
000003b0: bdc6 9a3f d17c 29bf 5240 b53d 4613 f53e
000003c0: b8a8 8d3e e31f 59be 3514 0b3f 84a2 0b3f
000003d0: 8b33 12be 0746 99be 33a2 083f 8b33 59bd
000003e0: f339 1f3f e5e3 14bf e4b6 70bf e11b 36bf
000003f0: 8a4e 26bf 2e85 a53e 13d5 78bf 7fc6 fb3e
0.8274331 0.75578576 0.42658982 0.90642476 0.40323663 -0.118820444 0.27413213 0.71033794
0.47463244 -0.78766555 0.5921075 0.46635234 -0.15869556 0.3763731 0.104327075 0.5820133
0.12612592 0.29732347 0.50824463 0.18655188 1.5276941 0.9609133 0.3184987 0.1489476
-0.11406719 -0.38375247 0.11473833 -0.3037491 0.013245448 -0.06762387 -0.059459195 -0.23896445
0.4103177 0.18635477 0.13796696 -0.24757479 -1.4739169 -0.21172 0.16576923 0.4572266
0.17540918 -0.14811264 0.007380777 0.59196556 -0.23904222 0.32310668 -0.46714288 -0.68201
-0.9163585 0.87483007 -0.37519658 -0.31947693 -0.4898173 0.081023455 0.5113295 0.23301227
0.61024857 0.35468695 -0.41836202 0.6352965 0.5902429 0.8694002 0.24063231 0.46032247
-0.4309887 -0.06506259 0.42936522 -0.061418805 -0.48937884 0.16151303 0.9126011 0.6489909
-0.38076502 -0.54709727 0.15633522 -0.2700854 -0.15081413 0.26365724 0.10757235 0.0010463987
-0.32754448 0.13990705 -0.17797405 0.4487796 0.27278882 0.3955528 0.28265134 0.05240929
-0.19885017 -0.3282676 -0.65319127 1.2302759 0.9609504 -0.99890167 -0.017306851 0.31494537
0.46850136 0.60827124 0.26301077 0.42738053 -0.21928008 0.41799632 0.6137169 0.0198399
1.1124134 0.6818469 0.84322864 1.3601419 0.6592323 0.85988593 -0.6049127 -0.53880864
0.9813599 -0.5737764 -0.024705395 0.46940294 -0.4334455 0.35112283 0.3060423 0.46892905
-0.2198249 -0.049126107 0.18297182 -0.16332217 0.032102164 0.009662007 0.12737426 -0.0553859
-0.06854309 -0.04707105 -0.12576316 -0.08656 0.42271706 0.844775 0.26518747 -0.69743276
-0.106781125 -0.061727673 -0.3410974 0.20952927 0.099268295 -0.12542778 0.040550694 -0.372737
-0.40506092 -0.99865264 0.11957055 -0.40071774 -0.1269612 -0.051594716 0.15534143 -0.10125497
1.2408321 3.8714352 0.08815881 1.1198859 0.9989668 -1.1135666 -0.7205973 -0.79910964
-0.30833036 0.0072046714 -0.089546226 -0.1988545 -0.057314128 -0.23114485 0.0917506 0.8682613
-0.30059552 -0.10718607 -0.30808386 0.27002674 0.20598958 -0.21154585 -0.018799866 0.04787929
0.21319552 0.4128561 -0.1547459 -0.2487515 -0.5299022 0.76434803 -0.33137596 -0.46752095
-0.030813685 -0.30740198 -0.13664788 -0.26150128 1.9737208 -3.3629382 0.691017 -1.140295
0.87114143 0.4040596 -0.06936389 0.2558131 -0.06372371 -0.3826315 -0.11552676 -0.122833334
-3.3790045 -0.9946674 -0.74850184 -0.59630793 -0.05586392 1.1025478 0.0024428156 0.8077967
-0.2782534 -0.11158674 -0.20420448 0.011427489 0.4069216 -1.2369826 -0.70598376 0.6938521
-0.557027 0.7642752 -0.20546155 0.3196848 -0.1313503 0.06668252 -0.11899221 -0.030586695
2.1744974 -3.25372 0.5540736 -1.054586 0.68166476 -1.1215153 0.06909916 -0.8126313
0.4358154 -0.12491157 0.437121 -0.30828542 1.20919 -0.6620608 0.08850159 0.47866267
0.27667785 -0.2120357 0.5432771 0.54544854 -0.14277475 -0.2993624 0.53372496 -0.05302767
0.621978 -0.5816024 -0.9402907 -0.7113629 -0.6496359 0.3232817 -0.97200125 0.49174878

bias f4 [32]
00000000: 34b1 9bbf 93b7 b7bf 8e0f d5bf a7c3 ccbf
00000010: 7762 cebf 7ee7 b7bf 844c fcbf 5cde 1fbf
00000020: 8813 abbf a6b9 aabf 92ab 5dbf 8cd3 c5bf
00000030: beef b93e 18b7 a6bf f906 dfbf e4bd 18bf
00000040: acef 53be 4fa9 50bf ec01 cf3e 04fa a3bf
00000050: b1c1 b4bf 87f6 65bf e45e 0c3e a1ef e9bf
00000060: ab1b 40bf a103 0bbf c678 0bbf f818 91bf
00000070: 9689 71bf 2e04 09bf df74 f1bf ac3c 6abf
-1.2163453 -1.4352897 -1.6645372 -1.5997208 -1.6123799 -1.4367521 -1.9710851 -0.6244867
-1.3365335 -1.3337905 -0.8658992 -1.5455184 0.3631572 -1.3024626 -1.7424003 -0.5966475
-0.20696896 -0.81508344 0.40431154 -1.2810674 -1.412161 -0.89829296 0.13708073 -1.8276254
-0.7504222 -0.5430241 -0.5448116 -1.1335745 -0.94350564 -0.53522 -1.8863791 -0.9149883

weight f4 [64, 32]
00000000: 1f60 123e 569f 99bf 03f1 893e dc88 cebe
00000010: bd7a 893e 2333 45be 04ad 1ebd 9e5d 0cbf
00000020: 15bc 8d3e f4dc 9cbf d594 8d3e 037f 36bf
00000030: 7399 dabf c659 ea3e 804a fabf cc92 d3bc
00000040: f65f 01bf 4524 f7be 6433 c7bf 7ae3 15bf
00000050: b8ba d6be 175b c63d 19ed 11bf c1f0 d03e
00000060: b597 49bf 47ac f2be 67f2 74bf f922 62bf
00000070: ba9e e0be 5b98 34bd 4eda a33e 4b01 afbe
00000080: 64ec ccbe 25a4 01be 493e d0bd 9926 ecbe
00000090: ff62 18be e7c6 40be c61f 03bf 8eae 88be
000000a0: 3ac1 bebe 9d0a 943e e7fe a23e 34e1 483e
000000b0: 352c e6be d1fc 45bf eba2 e5be 9d03 3fbf
000000c0: fe4e 14be 8ae7 61bf 93fc 22be 1fe5 78be
000000d0: 19d1 b73b b94d adbe cd3b 973d d0de 913c
000000e0: c64f aebe 3906 0bbe 6116 123e 1586 2dbc
000000f0: dacf 3bbe 40b1 0cbe b960 833e e314 e8be
00000100: b05b 3e3f d569 033d 797d 6dbe eb0e 15bf
00000110: 58c0 7d3f 650f 1f3d c7a9 f1be 8f6b 0b3e
00000120: b5ba 64be fd7d e5be c072 55be 99da 03bf
00000130: 0cd4 75bf 66d5 9abe cf32 a43f 3912 28bf
00000140: fc09 33bf 2894 f23e aa9f 933e 19d0 85bf
00000150: c6e1 1dbf c4d1 a2be d8fd 333e abd8 23be
00000160: 6fbc adbf 0b42 3cbf 0960 e2be 924c 0cbe
00000170: 565e 33be f7cb d23d b157 1d3e 1318 e4be
00000180: 344d a03c e841 8dbe c097 813d 6d27 e0bd
00000190: f5fb bbbd 1083 0fbe 5954 0d3c 13f3 d4bd
000001a0: dd25 26be f8f5 8b3a 8473 06be a967 e0bd
000001b0: 1152 debd 4814 d2bd 2758 7e38 e133 8cbe
000001c0: d235 42bd a1d4 46be 4854 4bbe 1001 1ebd
000001d0: 7093 cabd e9cd 6dbe 73b1 dbbd abe7 b5bc
000001e0: 680b dcbd e177 823d 2966 42bc 9a30 77be
000001f0: 0f9e 41be 3d3a 19be d969 f93c 2f6b cf3d
00000200: 4b35 82be 84d3 82be 220b 3ebd 8bb2 913e
00000210: e4ca 0e3e e23b 9dbe 700d 3c3e 6d1e 0cbf
00000220: 7bdc 903e 14ff 9fbe 9005 91bc db77 0bbd
00000230: cb0f 4a3e a3f8 17bf bef8 14bc 6f1e 58be
00000240: 5a7d 1dbe f7c5 ab3d 5a72 3bbf 6a9b 68be
00000250: 838f 43be b0b6 003f 3261 a63e 25de 453e
00000260: 8521 8dbf 318d 43be b834 50bf 55d5 3c3f
00000270: 9013 25bf 2555 2dbe 4bad 80be a15f 4dbf
00000280: 5923 4abe 3c87 cc3c 55c9 d5be bf07 4c3d
00000290: 86ac 3e3b 6300 16bd 43eb e33c b560 4bbd
000002a0: 2fb5 53be a945 64bd dc44 1abe 492d b4bd
000002b0: 6dde 95be d0ce 723d dc5d 05be fd80 97be
000002c0: 6e73 e2bd 266c 44be af07 04be 5cc1 20bd
000002d0: ff69 cfbe 86fa 70be 7bab 2ebe 5025 8b3d
000002e0: 2784 9cbc d801 bdbd f62d d0bd cb2d 6cbe
000002f0: 5dbf c03a 0ad9 283d 1e0a ecbd 7eaf 01be
00000300: 08a3 fcbe 675a 01c0 dc2b aabd dd33 05be
00000310: fe5d a2be 6b17 21bf ccd5 e73e 2f3a 193f
00000320: 80c9 cbbe cdf0 3abf a6e4 b2be d433 01be
00000330: c1c7 8bbf af8f 7cbf 1e53 d73d 2e34 46bf
00000340: 3418 fdbe f607 be3e f00f 073f 8334 a1bd
00000350: 6ed5 d33e 060e a5be a416 d3bf d530 05bf
00000360: 0492 c7be d389 8c3d 361f 5b3e bf81 6f3e
00000370: 9f16 05bf 4205 0cbe ddff d63d eae9 59bf
00000380: 7082 ccbf 3d0e 0f3f 55d6 19bf 2360 cebe
00000390: fb5b 333e cc54 bdbe 9518 b7bf 9538 56bf
000003a0: 27b8 2d3e 2023 053e 0dfc 7ebd 029a 84bf
000003b0: 6cf7 24bf 4f9a a0bf eac7 33bc f242 dfbe
000003c0: 6a55 efbe ba0f dcbe 742e 9abe adee 81bf
000003d0: 3eb9 e2be 7c9c b93e e1a6 8abf e75c bdbf
000003e0: f2cd c6be c754 4bbd 06a4 a83e afd7 343e
000003f0: ccc1 b8bf 722b 5cbc 76f4 d93e 1401 63bf
0.1429448 -1.200175 0.2694169 -0.4033879 0.26851454 -0.19257788 -0.03873922 -0.5483035
0.27682558 -1.225493 0.27652612 -0.71287555 -1.7078079 0.45771617 -1.9553986 -0.025826834
-0.5053705 -0.4826986 -1.5562558 -0.58550227 -0.4193933 0.09685343 -0.5700241 0.4080868
-0.7874711 -0.47397062 -0.95682377 -0.88334614 -0.438711 -0.04409061 0.3200249 -0.34180674
-0.40024102 -0.12660272 -0.1016813 -0.46123198 -0.14881514 -0.18825875 -0.5122036 -0.26695675
-0.37256795 0.28914347 0.318351 0.19617158 -0.44955602 -0.7733889 -0.4485086 -0.7461489
-0.14483258 -0.88243926 -0.15916662 -0.24306153 0.005609643 -0.3384836 0.07384453 0.01780644
-0.34045237 -0.13576593 0.1426635 -0.01059105 -0.18341008 -0.1373949 0.2565973 -0.45328435
0.74358654 0.03208335 -0.23192395 -0.5822589 0.9912162 0.03883304 -0.47199842 0.13615249
-0.22336848 -0.44822684 -0.20844555 -0.5150543 -0.9602668 -0.30240935 1.2828006 -0.65652806
-0.6993711 0.4737866 0.28832752 -1.0454131 -0.6167263 -0.31800663 0.17577302 -0.16000621
-1.357313 -0.73538274 -0.44213894 -0.13701084 -0.17516455 0.102928095 0.15365483 -0.44549617
0.019568063 -0.27589345 0.06327772 -0.1094502 -0.09178916 -0.1401484 0.008626067 -0.10397925
-0.16225381 0.0010678163 -0.13130003 -0.109572716 -0.10855497 -0.102577746 6.0640417e-05 -0.2738333
-0.04741461 -0.19417049 -0.1985637 -0.038575232 -0.09891403 -0.2322308 -0.10727205 -0.022205194
-0.10744363 0.06370521 -0.011865177 -0.24139634 -0.18907951 -0.14963622 0.03044598 0.101278655
-0.25431284 -0.25552 -0.046397336 0.2845653 0.13944584 -0.3070975 0.18364501 -0.54733926
0.28293213 -0.31249297 -0.017702848 -0.03404985 0.19732587 -0.59363765 -0.009092508 -0.2110536
-0.15379849 0.08387368 -0.7322136 -0.22715536 -0.19097714 0.5027876 0.3249603 0.19323023
-1.1025854 -0.19096829 -0.8133044 0.7376302 -0.64482975 -0.16927011 -0.25132212 -0.80224043
-0.19740047 0.024966829 -0.41755167 0.049812075 0.0029094531 -0.036621463 0.027822142 -0.049652774
-0.20674585 -0.055730496 -0.1506533 -0.087977 -0.2927126 0.059279263 -0.13024086 -0.29590598
-0.11057173 -0.1918188 -0.12893556 -0.039246902 -0.40510556 -0.23533067 -0.17057602 0.06794226
-0.019105984 -0.09228867 -0.10165016 -0.23064344 0.0014705468 0.04122261 -0.11525367 -0.12664601
-0.49343133 -2.0211427 -0.08309147 -0.13008066 -0.31712335 -0.6292636 0.45280302 0.59854406
-0.3980217 -0.7302368 -0.3494007 -0.12617427 -1.0920335 -0.98656744 0.105139 -0.7742337
-0.49432528 0.3711545 0.52758694 -0.07871344 0.4137377 -0.32237262 -1.6491284 -0.52027637
-0.3897859 0.068622254 0.21398625 0.23389338 -0.5198764 -0.1367388 0.10498021 -0.8512255
-1.5977306 0.558811 -0.6009267 -0.40307721 0.17515557 -0.36978757 -1.4304377 -0.8368009
0.1696478 0.1300168 -0.062252093 -1.03595 -0.64440036 -1.2547091 -0.010972956 -0.43605763
-0.46744853 -0.42980748 -0.30113566 -1.0150963 -0.44281954 0.362522 -1.0832177 -1.4793977
-0.38829 -0.049641397 0.3293764 0.17660402 -1.4434142 -0.013438093 0.4256932 -0.8867352

bias f4 [64]
00000000: d15d 7abe 7a57 fcbe 33b1 433f 7d83 85be
00000010: 2c64 8e3c 0510 5dbe 7c48 bc3f acdb 53bf
00000020: a531 9abe 8e7a 91be 7191 3fbe 47b4 c5be
00000030: c481 90be 0fad aebe d514 1ebd 60f8 84be
00000040: 7303 81bf 4803 2ebe 832f 693f a370 0ebe
00000050: fcb6 9ebe 0654 96be 4713 63bf b730 e43c
00000060: 9c36 6bbe fa6e b2be 4aad 91be a1bd 7dbe
00000070: e5bf cebe b5b4 adbe 5ed7 07bf f145 223f
00000080: 3ee9 b73c 6a0c 9fbe d1de 82be 39e2 aa3e
00000090: 1fbf 78be 4f6d 39be 4a86 e1bd 54f9 813f
000000a0: 7d75 84be 0d2e 8ebe 6c8a efbd 94ed 8abd
000000b0: d6dd ac3f 0634 b4bc ae43 c2be 5bcc 88be
000000c0: 899a ac3f eca5 9cbe 0c17 903f cd54 a9be
000000d0: dfef bebe 7852 573f 8b4b 59be 18ff 24bf
000000e0: 3dad adbe c7f2 f53d af8e 08bf d755 ffbe
000000f0: cded f6be 0ef4 ed3e ed33 17bd afab c63f
-0.2444985 -0.4928549 0.7644226 -0.2607688 0.01738175 -0.21588142 1.470962 -0.8275707
-0.30116 -0.28413814 -0.18707825 -0.38614103 -0.28224003 -0.34116408 -0.038594086 -0.25970745
-1.0079178 -0.16993439 0.9108812 -0.13910155 -0.3099898 -0.2936098 -0.8870129 0.02785526
-0.2297005 -0.34850293 -0.28452522 -0.24779369 -0.4038078 -0.3392693 -0.53063 0.6338797
0.022450086 -0.3106416 -0.2556062 0.3337572 -0.24291657 -0.18108104 -0.11011942 1.0154214
-0.25870886 -0.2776951 -0.11696324 -0.06783596 1.3505199 -0.021997463 -0.3794226 -0.2671841
1.348466 -0.30595338 1.1257033 -0.3307251 -0.37292382 0.8411021 -0.21220224 -0.6445174
-0.33921233 0.12009197 -0.5334272 -0.49870178 -0.48228303 0.4647526 -0.036914755 1.5521144

weight f4 [5, 64]
00000000: 4ae5 8e3f 1308 a63e 9b33 953e f003 e2bd
00000010: ba85 013d 38e1 1e3e eec3 c63e 3a04 d83e
00000020: 8643 c33d 06b3 c73d 9846 863d 2627 bf3c
00000030: 64c0 ed3d 35d8 30bd dc0c 8c3f 6119 dfbd
00000040: 32fd 12be f73c 8b3d b826 a93e 6ea1 2d3e
00000050: a8e9 03be d2e2 a33e adda 293e a317 a83e
00000060: 589d 6c3d aad0 4dbe 0d9e a73d 7ee3 9c3d
00000070: 2bbd d23e 6756 453b f62f 063f 2c32 663e
00000080: 1c50 dd3e ea39 36bd 80a5 ee3b 0ae6 40bd
00000090: 8ce0 4dbe 6e6e 863e fa35 893f 1f84 dd3e
000000a0: 47f2 0b3e 7d07 173d 431b 20bd c678 c23f
000000b0: c6f5 b83e 25d9 1f3f 0739 0dbe 28b8 6d3e
000000c0: f637 bd3e ff2a 943e 4076 bb3e 901f a03d
000000d0: 80e3 b4bc de38 fb3e 788f 4c3e 8b34 d6bd
000000e0: 3759 66be c7d0 673e 333f 7a3f 158f 263f
000000f0: 87d1 8abd 5a4d 1b3f 69a8 fc3e 26f0 b83e
00000100: 45c3 b6be 184e bc3d 9dbe 92bd ec27 abbd
00000110: adc8 013f 678e 213c 284a 923f bfbb 013e
00000120: e452 1f3d ca14 083d 9829 d73e a8c9 23be
00000130: ba5f 4b3d 78eb 7cbd c71e 823f 9e69 28be
00000140: a38e 023f 5ed9 e13d 3f33 1b3f 0ac6 7a3d
00000150: 935f aa3e 7011 433e 6b56 9d3e dd74 97be
00000160: e6ed d03d 08c2 323e baad 1cbd 5a8f 8d3c
00000170: 2717 e43d 2ba7 4a3d 75d3 313f e0ac 863f
00000180: 5d81 993f 2f37 63bc ff49 08bc d7ab 2c3e
00000190: 6803 703c 6e51 c3be 09bc c73d 45e6 26bf
000001a0: 66ee 153d 90c4 fe3d ea9b 523d 6a60 2c3f
000001b0: 839a 193f 7cb4 66bb e437 d2bc 5864 763e
000001c0: 9d54 993f c385 bd3d f20b 363f c139 903e
000001d0: 760c 763e 7e9a a8be edba 01be 34d3 d43e
000001e0: 6c84 8c3e 6c84 ca3e e436 cabe d26f 9c3e
000001f0: b85a 293f 2569 533f 6bc2 2d3f a32e 323f
00000200: bfea 253e f302 79be e73a 393f 4e20 38bd
00000210: fa0c 003e 2d44 cf3d 835f 6fbf 73f4 093f
00000220: 7b53 89bd 9933 86bc 9b96 1c3e 1e94 753e
00000230: 88b4 1d3e 922e 283c 3b32 973f 586f 95bd
00000240: 63d1 033e f3e1 dc3d 08b1 563f 1f89 01be
00000250: 73c7 4bbe 0178 613f 4f1e df3e ea9f e43e
00000260: ad05 673d d54a 763e b7d3 b23e d00c 0b3e
00000270: 2afb 18bf e502 923d 6fa2 623f 735e 4b3e
00000280: ba2b 72bf 8ada d33d 9e33 f43d 328c 113e
00000290: f38b 4bbe ed2d 85be e3f6 90be 2b33 593f
000002a0: 845e 083d 53f9 33be 43d2 d8bd c5af 1a3f
000002b0: d644 87be 50a3 833f 193e 203c 4b89 173e
000002c0: e398 88bf 7df4 883e 5ff3 1bbe 83c5 013e
000002d0: 345b 0ebd 1f75 1d3f 958c 443e 672e 193e
000002e0: 7307 17be 5903 eabd 24e1 ad3f 68fb 013f
000002f0: 6bce 3d3f a7aa cdbe 2770 6b3e 6920 333f
00000300: cb2f 3c3f 33ac 983e 6df9 633f 18a6 fb3d
00000310: a1c8 5a3f f75b 9fbd ae59 853f ff5f 9d3e
00000320: 988a 293d 116d 3abc 56ba 473e 8def e83d
00000330: 93a8 3d3d c2b7 92bc 3c9d 69bf 7667 5c3e
00000340: acfc 0f3f 38a8 23bb eee1 373f 37a9 573e
00000350: 5b03 f23d ff51 143f d145 123f 9747 a5be
00000360: c55f 963c 7480 9a3d 72a7 283e 4a12 f73c
00000370: 4936 573f 8804 873d 530c 3e3d e026 713f
00000380: 9a32 d2be bd79 d53d 002a 083d cbd8 673f
00000390: 45f4 003f ee9f 44bd d8f2 a33f 4a02 873c
000003a0: 0042 c2bc 17ae abbd 51c3 383d cc41 b4be
000003b0: f13d ae3f fbc4 623f 6bca f2bd 2a67 803e
000003c0: e348 6fbe 558d 333e a030 a73d 1d1f a7be
000003d0: ac1e 34bd 1e85 d83e 0aac 833e f932 993d
000003e0: 2ff2 373d bf2a 2b3e a3d0 45be a5cb 143f
000003f0: c0c5 133f 5cfe d43e 31ac cd3d 4829 febe
1.1163723 0.32428035 0.29140934 -0.11035907 0.031621672 0.15515602 0.38821357 0.42190725
0.095343634 0.09750943 0.065564334 0.023334097 0.11608961 -0.04317494 1.0941424 -0.108935125
-0.14354399 0.067987375 0.33037353 0.16956112 -0.12882102 0.32008988 0.16587324 0.32830533
0.057767242 -0.2009913 0.08184443 0.07660578 0.4115995 0.0030111314 0.5241693 0.22480077
0.4322518 -0.044488825 0.0072829127 -0.047094382 -0.20105189 0.26256126 1.0719597 0.43264863
0.1366664 0.036872376 -0.0390885 1.5193107 0.3612501 0.6244071 -0.13791285 0.23214781
0.36956757 0.28939053 0.36613655 0.0781852 -0.022081137 0.49066824 0.19976604 -0.104592405
-0.2249497 0.22638236 0.97752684 0.65062076 -0.067782454 0.60664904 0.49347237 0.3612072
-0.35695854 0.09194583 -0.07165263 -0.08357224 0.5069683 0.0098606115 1.1428881 0.12669276
0.03889741 0.03322295 0.4202392 -0.15994895 0.04965184 -0.061747998 1.0165642 -0.1644654
0.50998896 0.110277876 0.6062507 0.06122402 0.33276042 0.1904962 0.30729994 -0.29581347
0.102016255 0.1745683 -0.038251616 0.01728027 0.111372285 0.04947583 0.6946328 1.0521507
1.1992604 -0.013868137 -0.008318423 0.16862427 0.01464925 -0.38148063 0.09752662 -0.65195113
0.036604308 0.12439835 0.051418222 0.67334616 0.6000139 -0.0035202792 -0.025661416 0.24061716
1.1978947 0.09254029 0.7111198 0.28169063 0.24028191 -0.32930368 -0.12668963 0.41567385
0.2744478 0.39554155 -0.39495003 0.30554062 0.6615405 0.8258231 0.67874783 0.6960241
0.1620283 -0.24317531 0.723555 -0.044952683 0.1250495 0.101204254 -0.93505114 0.53888625
-0.06705376 -0.016382026 0.15291826 0.23982283 0.15400898 0.0102650095 1.1812204 -0.07296628
0.12872843 0.10785284 0.8386388 -0.12649964 -0.19900303 0.88073736 0.4357781 0.44653255
0.056401897 0.24051984 0.3492715 0.13579106 -0.59758246 0.07129458 0.88529104 0.19860248
-0.9459797 0.103444174 0.11923908 0.14213637 -0.19877605 -0.260116 -0.2831336 0.848437
0.033293262 -0.17575578 -0.10586979 0.60424453 -0.26419705 1.0284214 0.00978043 0.14798467
-1.0671657 0.2674903 -0.15229557 0.12673001 -0.034754947 0.6150684 0.19194253 0.14959107
-0.14748935 -0.1142642 1.3584332 0.5077424 0.74143094 -0.4016926 0.22992001 0.6997133
0.73510426 0.29818878 0.8905247 0.12287539 0.85462385 -0.07781213 1.0417993 0.30737302
0.04139194 -0.0113785425 0.19504675 0.11373816 0.046303343 -0.017909888 -0.91255546 0.21523842
0.5624492 -0.0024972092 0.71829116 0.21060644 0.11817046 0.57937616 0.5713778 -0.3228118
0.018356213 0.07544032 0.16470125 0.030160088 0.8406721 0.06592661 0.046398472 0.94199944
-0.4105423 0.1042361 0.03324318 0.90565175 0.50372726 -0.048004083 1.2808485 0.016480584
-0.023713112 -0.083828144 0.045108143 -0.3520645 1.3612653 0.8858182 -0.118550144 0.25078708
-0.23367648 0.17534383 0.08163571 -0.32640925 -0.043974563 0.4228906 0.25717193 0.074804254
0.0449087 0.16715525 -0.1931787 0.58123237 0.5772362 0.4160031 0.100426085 -0.4964087

bias f4 [5]
00000000: 5c25 163e f0eb 913d 19f9 cb3e a057 10be
00000010: 803f f93d
0.14662689 0.0712508 0.39838484 -0.14095926 0.12170315
