models/simple_tag/A2C-shared/adversaries/critic_0.pt (torch, 14098 bytes, 5 tensors)

weight f4 [32, 12]
00000000: be01 0fbe a2a0 5bbf b0b6 293d 30b6 093f
00000010: a176 ce3d 5852 cc3b 309e cbbe f658 963e
00000020: 1342 7a3e 7101 30bd 605b 6fbd aedb 80be
00000030: 9240 53be a09e b0be 9374 443e cd1d 02bf
00000040: ad9f 76bf 4070 7840 5753 98bd 680d 9bbe
00000050: 3bae 803f 1a17 83c0 c047 5c3f 19ba 44c0
00000060: 7eb8 3ebf c7b2 483d 4df5 7540 dd79 76c0
00000070: 6d4f e73f e954 76bf 6313 9f3f 24cf 72bf
00000080: 4b8f 133f 8022 b2bf e3e0 18bf ddd4 73bf
00000090: 8021 05bf 0663 bdbd a0f4 8240 aafc 1c40
000000a0: 1519 c23f 6c52 fcbd efe1 ff3f ad50 2f3f
000000b0: bc93 2f3f a94e d43f 6cb5 62c0 ae8d 9fbf
000000c0: 84ca e4bd 40e1 bbbc a051 023f 2429 193d
000000d0: 9aa2 2c3d 382e f8bd f305 24be 4565 3e3f
000000e0: 221e a73d 3cc0 ccbe 8868 a8bd c4b7 9fbd
000000f0: 5801 8cbf e40c a33f b1af bd3b 6f84 39bf
00000100: b226 a73e fb1f 6ebd 9f2c f7bd 9ae0 b7be
00000110: 9366 6b40 3329 8ac0 4135 b63f ad85 07c0
00000120: 9008 073e 15b6 f5be 7d5d 9fbe 72ee aabe
00000130: 0bc1 af3e ec8e 69be ad4e 7ac0 d99f 5840
00000140: c8ab 4440 6d92 55c0 5851 f63f 97ac 0bc0
00000150: baec dd3d e3bc 77bd a11d 84be 247d 1ebf
00000160: 49be 9240 8f53 0940 7063 17bf 3511 f0be
00000170: aa72 86c0 b791 e9bf 70b3 52c0 5dd8 97bf
00000180: 6cc7 4bbe 547a d6be ed45 223e ae10 d13e
00000190: e37d 10be 4cbc 18be 6258 44bf 6c80 483f
000001a0: a804 523d a34e 44bf b28a b93e aba8 c73e
000001b0: 803f 273c bfbb eebe e483 573e 7657 953e
000001c0: 7b9f 863e c57e 853e 1777 27bf ad9d 863e
000001d0: 4c4c 3c3e 9253 adbe b4e9 5dbe 1eec b5bd
000001e0: e6fb c13e 3069 e6bf c930 2ebf a36d 353e
000001f0: ba33 20bd 33c0 083e facf af3d 0e21 003d
00000200: 39f8 74be bb55 a340 86bf 95be 357f 1c40
00000210: deef 0fbf dfd9 9cbe e906 a33e 2d47 353e
00000220: 1189 de3e 2731 f33d 64f1 693c 91d5 d33e
00000230: a2ca a13d b01b a8be 8fa9 8c3e 6160 96be
00000240: 8c7f c93f 30e7 58bf d1eb 563f e8a5 543f
00000250: 2dda 063d 639e 92be 66e2 9a3e 8367 a6bd
00000260: 1325 cc3f 5d95 a5bf 68ae bcbf 67d3 833f
00000270: e797 f2bf 15f9 84bf 87a1 123f 36d8 1b3e
00000280: f21d 53be 076c 65bc 93be 5f3e 6069 16be
00000290: 2538 9640 978b 2240 b781 1340 02ec 8a3f
000002a0: 82f0 8f3f 9285 833e 20b5 203f 79e8 0c3e
000002b0: 6e6c acbf 00e7 09bf c263 ebbe 8e7a 1040
000002c0: cd47 1d40 0541 96bf 8a24 323f f9ae 503f
000002d0: 199e 1dbe 2665 34be 422c 973e 5659 49bf
000002e0: 31ef a43c 06a0 dbbe 86cf 5940 e476 4e40
000002f0: 0e46 18c0 d0ff 48c0 9267 bbbf f120 dcbf
00000300: 9f4f 36be d544 a93e 2d70 5c3e d229 aa3c
00000310: 0cde 3e3f 6d87 90c0 22cd a43e e0db 093e
00000320: 8b65 20bf fecc 7140 5a09 a0be fea0 3d40
00000330: 9cab 40bd 8586 02bd c434 803c 6f9f 933f
00000340: e595 8fbe 82a9 92be 17a2 02bf 6d37 8ebf
00000350: baec b33e 5e09 49be 9a28 12be 768d 8f3f
00000360: a16a 78be 1d8a aa3e 92e2 79bf 94c0 1b3a
00000370: 1a76 e9be e371 903e 5665 2540 5dbd 03c0
00000380: f97c 28c0 8092 0740 01bf 14c0 41da bf3f
00000390: 9753 b0bb a66b febd 9666 adc0 3229 f7bf
000003a0: 2b7a aabf 5681 43bf 68b3 e6bf e290 9ebe
000003b0: 9086 74bf 9f35 6dbf 8f9e fc3e a304 223f
000003c0: 4748 9a3f f5fa 95bf 7dc3 2f40 5b53 1ac0
000003d0: dbb7 a33e 5642 8ebf d043 153f 91a3 91bf
000003e0: f1f8 b2bf 92fa bd3f a513 40c0 45c4 7d40
000003f0: 4750 ccbe 5fd9 f43e fe17 a7bf 3482 cebf
-0.13965508 -0.8579198 0.04143399 0.5379362 0.100812204 0.006235402 -0.39769125 0.29364747
0.24439268 -0.042970125 -0.05843675 -0.25167602 -0.206301 -0.3449602 0.19185095 -0.5082672
-0.96337396 3.8818512 -0.07437771 -0.30283666 1.0053171 -4.09657 0.8604698 -3.0738585
-0.7450026 0.04899862 3.843097 -3.851188 1.8071114 -0.9622331 1.2427791 -0.9484732
0.5764052 -1.3916779 -0.5971815 -0.9524668 -0.5200424 -0.09247403 4.0923615 2.4529214
1.5163904 -0.12320408 1.9990824 0.68482476 0.685848 1.6586505 -3.542323 -1.2465112
-0.11171439 -0.022934556 0.509058 0.03739275 0.042147256 -0.121181905 -0.16017894 0.74373275
0.08160044 -0.39990413 -0.08223063 -0.077987224 -1.093791 1.2738309 0.0057887663 -0.724677
0.3264671 -0.058135968 -0.12069058 -0.35913545 3.6781356 -4.317529 1.4235002 -2.117534
0.1318686 -0.4799048 -0.31126013 -0.33385044 0.34326968 -0.22808427 -3.911052 3.3847563
3.0729847 -3.3370621 1.9243574 -2.182409 0.10836168 -0.06048287 -0.25803855 -0.619097
4.585728 2.145725 -0.59136105 -0.46888128 -4.201497 -1.8247594 -3.292202 -1.1862904
-0.19900292 -0.41890204 0.15846987 0.40833038 -0.14110522 -0.1491558 -0.7669736 0.78320956
0.05127397 -0.7668249 0.3623863 0.3899587 0.010208011 -0.46627614 0.21046406 0.2916829
0.2629355 0.2607328 -0.6541609 0.26292172 0.1838848 -0.33852822 -0.21671182 -0.088829264
0.37887496 -1.8000851 -0.6804319 0.17717604 -0.03911183 0.13354568 0.0858459 0.031281523
-0.23922814 5.104215 -0.29247683 2.445264 -0.56225383 -0.30634972 0.3184121 0.17702933
0.43463948 0.118746094 0.014278743 0.41373876 0.07899977 -0.32833624 0.27473113 -0.29370406
1.5742049 -0.84727764 0.8395358 0.8306565 0.032922912 -0.28636464 0.30250853 -0.08125212
1.5948814 -1.2936207 -1.4740725 1.029889 -1.8952607 -1.0388514 0.5727772 0.15219197
-0.20616892 -0.0140028065 0.21850042 -0.14688635 4.6943536 2.53977 2.3047922 1.0853274
1.1245272 0.25687844 0.62776375 0.13760556 -1.347059 -0.53868103 -0.45974547 2.2574801
2.4575074 -1.1738592 0.69587004 0.8151699 -0.1539234 -0.1761671 0.29525954 -0.7865194
0.020133587 -0.42895526 3.4032912 3.2260065 -2.3792758 -3.1406136 -1.4640982 -1.7197553
-0.1780381 0.33060327 0.21527167 0.020771895 0.74557567 -4.5165315 0.32187754 0.13462782
-0.6265494 3.7781367 -0.31257135 2.9629512 -0.04703866 -0.03186657 0.01565016 1.153303
-0.28044048 -0.2864495 -0.5102858 -1.1110665 0.35141546 -0.1963248 -0.14273301 1.1215045
-0.24259426 0.33308497 -0.97611344 0.0005941477 -0.45597917 0.2821189 2.58431 -2.0584328
-2.6326277 2.1183167 -2.324158 1.4988481 -0.0053810584 -0.12422876 -5.4187727 -1.9309447
-1.3318533 -0.76369226 -1.80235 -0.30969912 -0.95517826 -0.92659944 0.4933972 0.63288325
1.2053307 -1.1717211 2.7463067 -2.4113376 0.31976208 -1.1113994 0.583066 -1.1378042
-1.3982221 1.4842093 -3.001199 3.9651043 -0.39904997 0.4782209 -1.3054197 -1.6133485

bias f4 [32]
00000000: 370a 4640 a6b9 70bf 8654 19bf 65fd b5bf
00000010: 6b42 fd3f ce6f 02bf a50c 16bf cb14 36bf
00000020: 5676 833f 18e3 3840 07d4 18bf fd91 4940
00000030: cfe2 85bf e488 72bf 8966 33bf ce53 88bf
00000040: 66b3 54bf 46a2 59c0 eb0d afbe 90e5 83bf
00000050: 542e 07c0 044b a2be 0850 4240 aaef 21bf
00000060: c151 97bf c095 c4bf b702 c5be d8a8 4cbf
00000070: 273f fbbe 5b11 5340 abd4 28bf 6be5 f5be
3.0943735 -0.9403328 -0.598946 -1.4217955 1.9785894 -0.5095185 -0.58613044 -0.7112548
1.0270488 2.8888607 -0.5969853 3.1495354 -1.0459841 -0.9474013 -0.7007833 -1.0650575
-0.8308624 -3.4005294 -0.34190306 -1.0304432 -2.1122026 -0.31697857 3.0361347 -0.63256323
-1.1821824 -1.53582 -0.38478634 -0.79945135 -0.4907162 3.2979343 -0.65949506 -0.48026595

weight f4 [64, 32]
00000000: 4737 f2be 9a2d 17bf 14b4 12be 288a 74bc
00000010: c66b 2fbd ef13 03bf b43b 14bf 99ca be3c
00000020: a3df 77be 032e a9be e21c cebe 1924 3cbe
00000030: 5672 19be 3bc0 48bf 17de 4fbe c032 acbe
00000040: dffb a6be b116 70bd b0c4 553d 2335 1bbd
00000050: 8df3 b9be 3ecc 123e 9b1e 02be bacc 713e
00000060: d127 15be 9aac 3b3d 76c0 e4be bbb2 5dbe
00000070: cdc7 11be a591 573d 1c7d b7be 868a 60be
00000080: 8efb 8ebe e63b 0dbf 8825 23bf 4a42 b5bf
00000090: 1546 d8bd ce76 4dc0 9148 a4bf 84a0 b7bd
000000a0: 8177 bdbe fb20 4cbe a0b5 06c0 6c55 803d
000000b0: c299 313e 1f27 e4bf 7fee 5bbf da9d ffbe
000000c0: 2d75 82be c9a4 14bf d392 fdbe 1cfb d2bf
000000d0: 62b3 82be 3a48 4d3d 9bc1 1bbe b9ac cdbf
000000e0: e894 97bd 2c55 45bf c811 a2bf 23ae 5dc0
000000f0: 0520 69bf f50b 4bbe 0e70 8dbf 0a5e 60bf
00000100: 4530 2240 91c6 f5bf e86b afbf 7bd6 13c0
00000110: c6ac a83f 55c4 06bf 664a e3bf 54c7 dfbf
00000120: dda8 873f 56bc 1040 a878 30bf 334c 1e40
00000130: af11 963f b1d7 55bf b0b3 9b3f 1532 debf
00000140: 113c 39bf 62fb 53bf 582f bf3e 2a3f 30c0
00000150: 246e b9bf f672 12bf 7fb2 1b40 6575 12c0
00000160: 9254 e73e 830f e0bd 6bd2 6bbf 577e 7cbf
00000170: 8147 483f 64e7 1d40 4166 c7bf c092 9cbf
00000180: ce97 edbe 4172 1cbf 1393 1c3c 5e6b b3bf
00000190: 31fb 7a3e 2cf7 ae3e e9e5 7ebe 5bec 0a3f
000001a0: abde 6e3d 773e ddbe 9a43 d13c 40cb 0cbf
000001b0: 84e7 a53f 5cc2 c53f 5fe2 0540 0c6a 523f
000001c0: b8e2 91be f3c1 e23d 0c2b f43f 4856 1540
000001d0: 14e6 17bf 5593 cb3f 97e7 5abf 7fac d8bf
000001e0: 8a1a 833f 38d5 32bf 5eba 1bbf d38c 8fbf
000001f0: 69e9 ee3e 8dfc 0bbf 3464 5f40 10b1 bb3f
00000200: 40ea b5bd 2de3 be3d 3cfa 2ebe a319 b5bd
00000210: 25ea aebe 3afa 8cbd 6fd5 3bbe cb35 53bd
00000220: 9ded 48bd 0599 aabe dd28 04bd 2e7e d6be
00000230: 7822 3ebe e10e bebd 7bfc 1dbe 8314 2dbe
00000240: bee3 053e 6536 ffbd 0d1a 35be 2e95 c5bd
00000250: 8eb3 36bd 20c5 1fbe be85 a4bd 1ef6 dbbd
00000260: 89da a5bd 10ed 8fbd d1d6 febd 9d52 44be
00000270: 71f8 7bbe 319d a0be 89f5 87bd 17ac 26be
00000280: a33e 5e3f 4011 a7c0 eb1e 96bf 3d48 7dbf
00000290: 95fc 783e cc9c 413f 64ff a1bf e4d5 a7c0
000002a0: 3677 22be d8c1 8f3f 3ade fd3e 9f20 ad3f
000002b0: 88d8 183f 9e34 bb3e bcf7 3bc0 00ac cdbf
000002c0: 51dd a2c0 7742 dbbe 3f40 483e b47b 2dbf
000002d0: 174b e43e 81dd 0e3e 5ea9 7f3f af7d b1bf
000002e0: 6d02 0f3d b4f7 4ebf ac16 b5bf ab7f 6d3f
000002f0: 0133 58be 4f97 773f e400 18be 21f8 8cc0
00000300: 4b79 8b3e 7227 34bf 4e57 05c0 e45c 1ac0
00000310: 669d 6c3d 0afd 633e 9cdb 41bf 1d24 91bf
00000320: aa30 ce3e 0fee bf3e 55a0 50c0 60b0 773d
00000330: 99fd 6dbf f2a1 06c0 f346 acbf 050b 6bc0
00000340: 47fe 50c0 e9ff efbf ed04 38be eff0 c0bf
00000350: f854 6ec0 1b36 0cbd d6b9 f93e bdd7 13c0
00000360: 5b8b b4bf 6ae5 853c 618d 5bc0 919a 1cbe
00000370: 1f02 85c0 a8ca 273f 62e5 5bc0 05ed 41c0
00000380: 83de 2ebf 50a4 b1bf ee40 b4bf 9fc4 533d
00000390: c2d1 1f3f 62a3 123d 4b64 b0bd fa4d e73f
000003a0: 9fb1 813f 42b1 dcbe 3b16 6cbf 1f4b eebe
000003b0: 85e5 fe3f 739f 1140 aa25 68bf b7d1 06c0
000003c0: 433a 413f 2889 d63e 8150 d43f 6045 3040
000003d0: 81b1 64c0 2ecb 9c3f 5ce0 9bbe caa0 f53e
000003e0: c84b 053e a581 a0bf 09d8 803f 37c5 7cbe
000003f0: 2225 8b3f 621f 7dbf 2b8c b33e bcb1 30bf
-0.47307798 -0.5905396 -0.14326507 -0.014925517 -0.04282739 -0.5120229 -0.579036 0.023289965
-0.24206404 -0.33042917 -0.4025641 -0.18373145 -0.14985022 -0.7841832 -0.20299564 -0.3363247
-0.32614037 -0.05861539 0.05218953 -0.037892472 -0.36318627 0.14335725 -0.12706988 0.23613253
-0.1456597 0.045818903 -0.44678086 -0.21650212 -0.14236374 0.05262913 -0.35837638 -0.21927842
-0.27926296 -0.5516952 -0.63729143 -1.4160855 -0.10560242 -3.2103763 -1.2834646 -0.08966163
-0.37005237 -0.19934456 -2.1048355 0.06266293 0.1734381 -1.7824439 -0.8591079 -0.4992512
-0.25480023 -0.5806394 -0.4952608 -1.6482882 -0.25527483 0.05011771 -0.15210573 -1.6068336
-0.074014485 -0.77083087 -1.2661676 -3.4637535 -0.9106448 -0.1982878 -1.1049821 -0.8764349
2.5341961 -1.9201223 -1.3704805 -2.3099658 1.3177726 -0.5264333 -1.775708 -1.7482705
1.0598408 2.261495 -0.68934107 2.4734008 1.1724147 -0.83532244 1.2164211 -1.7359034
-0.7235728 -0.82805455 0.37340808 -2.7538552 -1.4486737 -0.57206666 2.4327695 -2.2884152
0.4518171 -0.109404586 -0.9211795 -0.9863028 0.78234106 2.467248 -1.557808 -1.2232285
-0.4640488 -0.6111184 0.00955655 -1.4017141 0.24509884 0.34172952 -0.24892391 0.542669
0.05831782 -0.4321172 0.02554493 -0.54997635 1.2961278 1.5449939 2.0919416 0.82193065
-0.28493285 0.11072149 1.9075637 2.3333912 -0.59335446 1.5904337 -0.8550963 -1.6927642
1.0242474 -0.69856596 -0.6083125 -1.1214851 0.46662453 -0.54682237 3.490491 1.466341
-0.0888257 0.09320674 -0.17087644 -0.088427804 -0.34163013 -0.068836644 -0.18343137 -0.051564973
-0.04905473 -0.3331987 -0.032265533 -0.41893142 -0.18567836 -0.09280182 -0.15428345 -0.16902356
0.13075158 -0.12461547 -0.17685719 -0.096475944 -0.04460483 -0.15602541 -0.08033322 -0.107403025
-0.08098323 -0.07027638 -0.12443317 -0.1917214 -0.24606492 -0.31369928 -0.06638629 -0.16276585
0.86814326 -5.2208557 -1.1728185 -0.9893835 0.24315102 0.7562988 -1.2656064 -5.2448597
-0.15865788 1.1231031 0.49583608 1.352558 0.597054 0.3656358 -2.9369955 -1.6068115
-5.089516 -0.42824146 0.19555758 -0.6776688 0.4458854 0.13951685 0.9986781 -1.386648
0.034914423 -0.80846715 -1.4147544 0.9277293 -0.21113206 0.96715254 -0.1484409 -4.405289
0.27240977 -0.7037269 -2.0834537 -2.4119196 0.057767294 0.22264495 -0.7572572 -1.1339146
0.40271503 0.37486312 -3.259786 0.06047094 -0.92965084 -2.1036344 -1.3459152 -3.6725476
-3.2655199 -1.8749973 -0.17970629 -1.5073527 -3.723936 -0.034231286 0.48774594 -2.3100426
-1.4105028 0.016344745 -3.430504 -0.15293337 -4.156509 0.65543604 -3.4358754 -3.0300915
-0.68308276 -1.3878269 -1.4082315 0.051701184 0.6242944 0.035800345 -0.08612879 1.8070672
1.0132331 -0.43103987 -0.9222142 -0.46541688 1.9913794 2.275357 -0.9068247 -2.10655
0.75479525 0.41901517 1.6587068 2.7542343 -3.573334 1.2249506 -0.3044461 0.47974235
0.1301719 -1.2539564 1.0065929 -0.24684606 1.0870707 -0.9887601 0.35067877 -0.690212

bias f4 [64]
00000000: 0b53 63bd b618 953f e883 ce40 db78 15c0
00000010: 678b 7abe 6d32 4140 5b88 2840 06f2 01c0
00000020: 4545 1340 5eb9 c0be 472b b4bf be99 1240
00000030: 01f4 b03f 38b1 7e40 5c92 2e3d b17e ff3f
00000040: ff5a 3e3e 41da d1be e392 373c b711 823f
00000050: a7a4 48c0 044a d93f a8c1 c03f 3157 0240
00000060: f685 053f 0692 99be ebda ebbe f1c8 36bf
00000070: 154b 0fbc c4e0 8f3f adfa 3e40 4067 a83f
00000080: 365b 0040 4d99 9b40 abbe 8f40 9995 ad3e
00000090: 5e46 1f40 2705 53c0 a8a2 4540 c1c5 a43e
000000a0: 8b46 adbd 0441 4240 48c8 5fbe 35de 3a40
000000b0: 0160 993f 86b4 653f 1ff2 b240 23be 3d3d
000000c0: a67e 4340 c510 1e40 a9d9 52c0 fa35 643e
000000d0: acab a740 9b40 1840 9d92 83be 795d 993e
000000e0: 8acb d03f 2a68 2840 663b be3f 9751 9a40
000000f0: 445d b33e 05b3 4dbe 5384 913f 07c3 db3f
-0.055499118 1.1648166 6.453602 -2.3355014 -0.2446724 3.0187027 2.6333225 -2.030397
2.3011029 -0.37641424 -1.4075707 2.2906337 1.3824464 3.9795666 0.042620048 1.9960538
0.185894 -0.40986827 0.011204454 1.0161656 -3.1350496 1.6975713 1.5059099 2.0365717
0.52157533 -0.2999422 -0.4606546 -0.7140036 -0.008745928 1.1240468 2.98405 1.3156509
2.005567 4.8624635 4.492025 0.33903196 2.4886699 -3.2971895 3.0880527 0.32182124
-0.08460721 3.0352182 -0.21853745 2.9198124 1.1982423 0.8972858 5.592056 0.046323907
3.054605 2.4697735 -3.294535 0.22286215 5.239706 2.3789432 -0.25697795 0.29954126
1.6312115 2.6313577 1.4861877 4.8224597 0.35032094 -0.20087822 1.1368507 1.7168893

weight f4 [1, 64]
00000000: 5fd9 ce3c 9204 a33e 5aa8 c83f a548 7ebe
00000010: 2d55 f43c 25a0 f23e a48a 9cbe 7b27 bfbe
00000020: 7b0e 6dbd 1379 1fbe 6489 07bf f1c7 be3d
00000030: 6ca2 033e eb1c 5b3e e32c d1bc d76e 8cbe
00000040: 286d b53c 9571 77bb fe1c 0c3e 1a6b 0b3f
00000050: 1452 c7be 2af2 c63b 3f78 08bd ac12 d3bf
00000060: 7f67 d03e 2752 d83d 8c0b 45bc a37a 04bf
00000070: 9b44 99bc 28bc 573e 3957 77bf 0a31 fdbd
00000080: 0789 28bf 4e1c af3e 1407 8f3f 6a2e a03d
00000090: 2ce7 dbbe 8c25 24be 84c4 653e 3402 233f
000000a0: def0 f53c 1375 783f e8a2 663d 1f69 8fbf
000000b0: 2643 2dbc a3ac 003d e622 7f3f a911 113c
000000c0: 0518 913f fccb ed3e e319 71be 4555 42bf
000000d0: 5104 2d3f 8e08 653f eb1c e1bd b0a0 b3bc
000000e0: 997d ce3d d69e 053f 5f8b cf3e 9ec6 703f
000000f0: 4834 69bd fd82 123d b4fc 67bf 53c7 4bbe
0.025250135 0.31839424 1.5676377 -0.24832399 0.029825771 0.47387806 -0.30574524 -0.3733481
-0.057875138 -0.1557353 -0.52944016 0.093154795 0.12854928 0.2139775 -0.025534099 -0.27428314
0.022146776 -0.003775691 0.13682935 0.544603 -0.38929808 0.0060713487 -0.0333178 -1.6490073
0.4070396 0.10562544 -0.012026679 -0.5174963 -0.018709471 0.2106787 -0.96617466 -0.12362869
-0.6583409 0.34201282 1.1174035 0.07821353 -0.42949808 -0.16029948 0.22438246 0.63675237
0.030022081 0.9705364 0.056307703 -1.1203955 -0.0105750915 0.03141464 0.99662626 0.008854308
1.1335455 0.4644469 -0.23545031 -0.7591136 0.6758471 0.8946618 -0.10991844 -0.021927208
0.100825496 0.5219549 0.4053602 0.94053066 -0.056934625 0.03576945 -0.9061997 -0.19900255
