models/simple_tag/PPO-not-shared/adversary_0/actor_0.pt (torch, 14792 bytes, 6 tensors)

weight f4 [32, 12]
0.45703796 1.1137604 0.44575855 0.008477001 0.06041651 -0.20435724 0.49390793 -0.22875385
-0.18123826 -0.4924306 -0.06870971 -0.13116394 0.4722094 0.66550875 -0.32943305 0.9174111
0.9860936 -0.39460555 1.168132 -0.505918 1.0466087 0.21708578 -0.52446854 -1.4839574
0.046482094 0.5515181 0.45993578 -0.66895205 0.38653812 0.44640157 -0.71367186 -0.018399227
-0.2564263 2.6356902 0.5025512 0.20053242 -0.18561842 -0.45215732 -0.32464516 -0.004703068
-0.60804313 -0.1838546 0.3270881 -0.007419948 -3.2719638 1.7591002 -0.6440673 0.676796
-0.60741496 0.599206 -1.1313897 1.3495178 -0.37898555 0.9085176 0.42697155 0.24351862
1.1451336 -1.6001368 0.3529772 -1.1420279 -0.2877003 0.030641649 0.51106936 -1.2817377
0.19472104 0.8338826 -0.26064333 0.1723199 -1.0309789 2.0172975 0.30080184 0.7973408
-0.1753605 0.23434667 0.15635622 -0.13951376 0.58262724 -0.04431267 -1.0636714 -0.30707687
1.2920817 2.3276927 -0.64477295 -1.1631191 -0.932853 -0.37030283 0.5027166 -0.73630255
-0.8542972 0.5938245 -1.0845524 -0.17384517 -0.56530285 2.1938055 -0.5089463 0.64711785
-0.26278087 -0.7111309 -0.27194676 0.2549077 1.1512413 -0.35515478 -0.44613406 -0.33083734
2.8440325 -1.157019 0.2939655 -1.0515344 0.12341362 0.5498277 1.7524488 0.6767936
-0.4151831 -0.22363344 -0.60843694 0.22891434 -1.2225757 -1.4926305 0.25818306 -0.22665256
-1.0459216 0.1319417 0.21155371 0.19000755 0.08391129 0.07025584 0.39407155 0.20708038
2.5908532 -2.551593 -0.32251304 -0.8411533 -0.06511133 0.14477983 0.015912356 -0.07094683
0.08837567 0.11064093 -0.16922745 -0.027102282 0.2148782 -0.29980358 0.027675562 0.21552415
-0.7526544 1.4718096 -0.31253824 0.59986424 -0.5669351 0.28200433 -0.5087371 0.36651087
1.25812 -1.0190485 1.3260982 0.31304747 0.76767206 0.017893516 -1.5652497 1.0409373
0.33358926 -0.17367111 0.5612043 -0.26296678 0.6746087 -0.6844243 1.2314072 -0.4879566
-0.74456525 -0.021261916 -0.18213758 0.25039035 0.17060784 0.058648992 -0.14355049 0.2982961
3.5216806 -1.5577736 0.53083915 -0.4931884 1.0292332 1.4629495 -0.13784085 -0.59134203
0.021359872 1.2252542 -0.04160924 0.83572817 1.4538939 1.6077359 0.34543422 -0.32300615
-0.0014756322 0.73832506 -0.9155052 0.4609548 0.46873972 0.60723656 -0.15831372 0.21060205
1.3595842 -0.76838475 -0.2769829 0.33733037 1.3910782 0.08243021 -0.6564977 -0.66300213
0.256095 1.308796 -0.4954806 0.21347623 1.5910589 1.3075724 -0.14901076 -0.26797608
-0.37021437 0.34448296 1.5331666 0.37957793 -0.9184345 -0.13836758 -0.02056842 0.35458225
0.13210557 -2.7814665 -0.12963066 -0.14613682 -0.44988555 0.61813486 -0.51864576 -0.644043
0.35412008 -0.06125675 0.52605325 -0.07907221 0.5918818 1.2576933 0.1304446 -0.48862347
0.08646484 -0.03870814 0.9846778 0.19445182 -0.38196087 -0.317006 0.07136627 0.86508584
-1.1676873 -3.0766816 -0.54401225 -0.1380032 0.65654707 0.38449237 1.0628201 0.86359
00000000: e100 ea3e b38f 8e3f 773a e43e 1fe3 0a3c
00000010: 4d77 773d 0643 51be 80e1 fc3e 733e 6abe
00000020: 8696 39be dd1f fcbe adb7 8cbd d74f 06be
00000030: 6ec5 f13e c85e 2a3f 73ab a8be 74db 6a3f
00000040: a170 7c3f bd09 cabe 5985 953f d883 01bf
00000050: 46f7 853f bc4b 5e3e 9243 06bf 51f2 bdbf
00000060: 0264 3e3d 4a30 0d3f b47c eb3e 7140 2bbf
00000070: 53e8 c53e bf8e e43e 33b3 36bf fab9 96bc
00000080: 4f4a 83be 26af 2840 32a7 003f 5f58 4d3e
00000090: c112 3ebe 2a81 e7be e437 a6be 321c 9abb
000000a0: b7a8 1bbf 6144 3cbe 1778 a73e 0923 f3bb
000000b0: db67 51c0 322a e13f 98e1 24bf 8142 2d3f
000000c0: 8c7f 1bbf 9065 193f 61d1 90bf 00bd ac3f
000000d0: 650a c2be 9c94 683f 049c da3e f25c 793e
000000e0: bd93 923f 48d1 ccbf 6db9 b43e f82d 92bf
000000f0: 744d 93be 3204 fb3c 71d5 023f fb0f a4bf
00000100: f464 473e 5479 553f 0b73 85be a174 303e
00000110: 1ef7 83bf 671b 0140 b302 9a3e 871e 4c3f
00000120: b491 33be 93f8 6f3e d81b 203e b2dc 0ebe
00000130: 0f27 153f 3481 35bd 6226 88bf 2e39 9dbe
00000140: ef62 a53f ebf8 1440 d70f 25bf 16e1 94bf
00000150: 74cf 6ebf 5598 bdbe 09b2 003f 537e 3cbf
00000160: 39b3 5abf e204 183f 9dd2 8abf 7804 32be
00000170: b0b7 10bf 4f67 0c40 4e4a 02bf 84a9 253f
00000180: 378b 86be ad0c 36bf 9b3c 8bbe 4383 823e
00000190: e05b 933f d9d6 b5be af6b e4be 8363 a9be
000001a0: a104 3640 3319 94bf a582 963e ae98 86bf
000001b0: 48c0 fc3d 82c1 0c3f 3e50 e03f 5842 2d3f
000001c0: e192 d4be 2a00 65be 86c2 1bbf 8568 6a3e
000001d0: 5c7d 9cbf 840e bfbf 9230 843e 9c17 68be
000001e0: c2e0 85bf ba1b 073e 89a1 583e 5791 423e
000001f0: afd9 ab3d 4be2 8f3d bfc3 c93e e10c 543e
00000200: 8ad0 2540 4d4d 23c0 6e20 a5be d355 57bf
00000210: 1759 85bd 2a41 143e a15a 823c 924c 91bd
00000220: 4efe b43d b697 e23d f649 2dbe 9b05 debc
00000230: 0809 5c3e db7f 99be dcb7 e23c 5db2 5c3e
00000240: f5ad 40bf 4264 bc3f 0305 a0be b490 193f
00000250: a922 11bf df62 903e 983c 02bf 50a7 bb3e
00000260: 130a a13f 2e70 82bf 96bd a93f c247 a03e
00000270: 2886 443f 6c95 923c 1a5a c8bf 6f3d 853f
00000280: 36cc aa3e d7d6 31be 16ab 0f3f 95a3 86be
00000290: 28b3 2c3f 6e36 2fbf c09e 9d3f 73d5 f9be
000002a0: d49b 3ebf 782d aebc 4682 3abe 2a33 803e
000002b0: d2b3 2e3e ed39 703d e6fe 12be 44ba 983e
000002c0: 3763 6140 2065 c7bf 13e5 073f 3183 fcbe
000002d0: eabd 833f ee41 bb3f 2726 0dbe 3162 17bf
000002e0: e6fa ae3c 21d5 9c3f 736e 2abd 48f2 553f
000002f0: 3219 ba3f 4aca cd3f c1dc b03e 1061 a5be
00000300: 006a c1ba df02 3d3f 8c5e 6abf 4402 ec3e
00000310: a7fe ef3e db73 1b3f fe1c 22be 10a8 573e
00000320: db06 ae3f ddb4 44bf b4d0 8dbe 91b6 ac3e
00000330: da0e b23f 2cd1 a83d 3c10 28bf 82ba 29bf
00000340: e21e 833e a186 a73f a2af fdbe 8399 5a3e
00000350: d1a7 cb3f 885e a73f 4796 18be 2934 89be
00000360: bd8c bdbe 1260 b03e ce3e c43f 0a58 c23e
00000370: 861e 6bbf 3bb0 0dbe 1a7f a8bc ce8b b53e
00000380: af46 073e 8c03 32c0 e6bd 04be e4a4 15be
00000390: 6657 e6be 163e 1e3f f8c5 04bf 01e0 24bf
000003a0: 3a4f b53e 5ce8 7abd 6dab 063f 9cf0 a1bd
000003b0: 9185 173f 18fc a03f 4593 053e db2c fabe
000003c0: 7a14 b13d 6d8c 1ebd d813 7c3f 611e 473e
000003d0: 6090 c3be 9c4e a2be 7b28 923d 4476 5d3f
000003e0: c776 95bf 5ae8 44c0 6344 0bbf b650 0dbe
000003f0: 7813 283f 2fdc c43e 7d0a 883f 3c14 5d3f

bias f4 [32]
-1.4858166 -0.39457455 -0.39338928 0.81201154 0.07958195 0.068424225 0.057118952 -0.441359
-0.34799713 -0.29347003 0.499003 -1.0968795 -0.0006243126 0.0977736 0.58268803 -0.14672594
-0.6832647 -0.644046 0.1881952 -0.7830849 0.3524707 -0.88498986 0.069943845 -0.30677786
0.09050672 -0.7508779 0.06664386 -0.6653359 0.36629707 0.85454065 -0.033341214 -0.6113923
00000000: 3d2f bebf ad05 cabe 526a c9be fddf 4f3f
00000010: ddfb a23d 0022 8c3d 90f5 693d cff9 e1be
00000020: ae2c b2be b441 96be 527d ff3e 8c66 8cbf
00000030: e9a8 23ba 863d c83d 0b2b 153f 533f 16be
00000040: 6fea 2ebf 33e0 24bf 3eb6 403e 4178 48bf
00000050: 0a77 b43e b28e 62bf b83e 8f3d fd11 9dbe
00000060: 965b b93d 8939 40bf 937c 883d 7453 2abf
00000070: 4a8b bb3e 2dc3 5a3f cc90 08bd 3584 1cbf

weight f4 [64, 32]
0.51004267 -1.289167 0.5810363 1.2416171 -0.9988158 1.4758434 -0.3482384 0.29591537
-0.37483898 0.708034 -0.68908876 0.43286636 -0.3444289 -0.5255547 -0.988085 -0.032165833
0.009478187 0.23532026 0.06802284 0.16694023 0.66205263 -0.2889063 1.3186148 0.5431185
-1.1386547 -0.24348177 0.20568264 -0.10198839 0.72684216 -0.78511953 -0.37213275 -0.02545881
0.104507215 0.3581601 -0.1262194 -0.99105453 0.6740559 -0.5383401 0.5884998 -0.43693647
1.5809599 -0.300376 1.1273098 -0.09361961 -0.1387615 0.5656222 1.6896585 0.28423265
0.23096257 0.40848148 -0.12373633 0.28622666 -0.1692555 -0.6959074 -0.65983075 -0.49244475
1.8165392 0.4200365 0.47628114 0.50950825 -0.6680722 1.5453 1.236437 -0.42555386
-0.15120465 0.2725494 0.060080998 -0.42254305 0.03984367 -0.09401648 0.039432302 0.09541704
-0.30662954 -0.1945741 -0.109393306 -0.23795258 -0.12442542 -0.44919994 -0.26256752 -0.15516134
0.22826661 0.13473104 -0.1410016 0.09108303 -0.20119259 0.035906866 -0.26929072 -0.11827217
-0.042833406 -0.08660007 -0.3949171 -0.26654422 -0.1759184 -0.10369886 -0.47617054 -0.04954482
0.5020177 0.36483988 0.6398028 1.4574366 -0.61148465 1.0000498 0.3510552 0.7776276
-1.0957993 -0.0666279 -1.0887082 -0.07905411 -0.58647424 -0.17057435 -1.1113645 0.38711685
0.21201731 0.5728173 -0.60758835 -0.19062673 -0.3658184 -0.3418535 1.1306032 0.75988054
-0.43841973 0.12324103 -0.49657965 0.9049461 1.0215054 -1.3251939 -0.90289 0.27537376
-0.4281589 0.18573439 -0.039970774 -0.3838964 -0.68741614 -0.09262168 -0.097842254 0.10295724
-0.044975225 -0.21558303 -0.41995865 -0.09594753 -0.10598352 0.04596647 -0.0393378 -0.18252976
-0.036999576 0.25890347 0.019271674 0.19775555 -0.44787693 -0.07984257 -0.48219988 0.34730318
-0.15748602 -0.22949788 -0.06975396 -0.18948977 -0.017484115 -0.26391536 -0.19756453 -0.6385598
0.59635115 -0.5537214 0.02919321 0.18169405 0.77318424 0.51177543 -1.5269767 0.30659384
-0.5902856 0.8038834 0.16716287 0.28725138 0.6816382 0.33288163 -0.27993274 -1.559176
0.8074584 -0.51222515 1.1191648 -0.961275 0.76348335 0.8378918 -0.60735273 0.16247176
-1.1290408 -0.09232019 0.2626189 -0.7460337 -0.21293038 -0.11362125 -0.4121317 0.5153365
-0.18521908 0.15519693 0.15582901 -0.40857133 -0.34103784 0.12862505 -0.07180407 -0.5854625
-0.38405713 0.19146302 -0.43122616 0.07154601 0.059153628 0.07804129 -0.30703744 -0.2478848
0.2888291 -0.11898541 -0.1364611 -0.23076828 -0.25512627 0.04736445 -0.43228853 -0.43141556
-0.41783684 -0.064563505 -0.034571014 -0.4657449 -0.14789984 0.061492853 -0.19990133 -0.08121223
-0.81565464 0.9773953 0.9523533 0.3721174 0.13378355 0.59048593 1.2655988 1.2002043
0.79969114 0.20416102 -1.0204316 0.18078174 1.0278444 0.4292354 0.24713868 0.23225234
0.55224395 0.4929026 -0.32026985 0.5880799 -1.3667331 1.0575726 -0.097542986 1.051652
0.32324865 -0.8968385 0.5765234 0.7951534 0.593272 -0.95407474 -0.14521118 0.56391895
00000000: 2892 023f 6d03 a5bf ccbe 143f 4fed 9e3f
00000010: 64b2 7fbf 70e8 bc3f 4e4c b2be 3882 973e
00000020: e5ea bfbe b741 353f 1f68 30bf a9a0 dd3e
00000030: fc58 b0be c18a 06bf 23f3 7cbf 52c0 03bd
00000040: 664a 1b3c cbf7 703e 8f4f 8b3d 61f2 2a3e
00000050: 487c 293f 87eb 93be 5fc8 a83f d009 0b3f
00000060: 70bf 91bf 4953 79be 789e 523e 4adf d0bd
00000070: 5412 3a3f 98fd 48bf 2f88 bebe ff8e d0bc
00000080: e107 d63d c360 b73e a93f 01be c0b5 7dbf
00000090: ed8e 2c3f a8d0 09bf eca7 163f 23b6 dfbe
000000a0: e55c ca3f e2ca 99be b04b 903f a3bb bfbd
000000b0: 7f17 0ebe 9ecc 103f bb46 d83f f186 913e
000000c0: 7481 6c3e 7c24 d13e 7969 fdbd 4d8c 923e
000000d0: 5051 2dbe fd26 32bf abea 28bf b821 fcbe
000000e0: 5b84 e83f 060f d73e 1fdb f33e 226f 023f
000000f0: c806 2bbf 64cc c53f 9143 9e3f 32e2 d9be
00000100: 64d5 1abe 988b 8b3e 7e17 763d 9057 d8be
00000110: 1e33 233d b68b c0bd c483 213d 026a c33d
00000120: 8cfe 9cbe 6f3e 47be 9909 e0bd d7a9 73be
00000130: c1d2 febd 89fd e5be 406f 86be 9de2 1ebe
00000140: b9be 693e eff6 093e b962 10be bd89 ba3d
00000150: 6e05 4ebe 1413 133d 79e0 89be ae38 f2bd
00000160: 1572 2fbd 615b b1bd 9332 cabe 7c78 88be
00000170: f423 34be 1160 d4bd a0cc f3be 82ef 4abd
00000180: 3b84 003f 4bcc ba3e 1eca 233f 488d ba3f
00000190: 428a 1cbf a201 803f 82bd b33e 9a12 473f
000001a0: 2743 8cbf 3574 88bd ca5a 8bbf 1fe7 a1bd
000001b0: 2d23 16bf 0bab 2ebe 3141 8ebf 2e34 c63e
000001c0: 111b 593e 28a4 123f e98a 1bbf a733 43be
000001d0: 8d4c bbbe 6c07 afbe 9bb7 903f 8887 423f
000001e0: 8d78 e0be cb65 fc3d b03f febe 8caa 673f
000001f0: b0c0 823f f49f a9bf cd23 67bf cafd 8c3e
00000200: a537 dbbe 2831 3e3e 65b8 23bd 128e c4be
00000210: 81fa 2fbf 6fb0 bdbd 8561 c8bd 3fdb d23d
00000220: f137 38bd ccc1 5cbe d204 d7be 2380 c4bd
00000230: e30d d9bd 5647 3c3d ac20 21bd 15e9 3abe
00000240: de8c 17bd ff8e 843e a1df 9d3c 6e80 4a3e
00000250: 2050 e5be 8084 a3bd e7e2 f6be b9d1 b13e
00000260: 0444 21be 7e01 6bbe 2adb 8ebd 9b09 42be
00000270: d93a 8fbc ea1f 87be 5b4e 4abe a878 23bf
00000280: 78aa 183f b0c0 0dbf 9926 ef3c 010e 3a3e
00000290: 67ef 453f b703 033f f973 c3bf def9 9c3e
000002a0: f51c 17bf 4dcb 4d3f be2c 2b3e 9d12 933e
000002b0: d77f 2e3f 766f aa3e 5853 8fbe 1493 c7bf
000002c0: 98b5 4e3f 3021 03bf cb40 8f3f 1e16 76bf
000002d0: a573 433f 1480 563f 787b 1bbf ff5e 263e
000002e0: 6984 90bf 5e12 bdbd fc75 863e 11fc 3ebf
000002f0: 6c0a 5abe 42b2 e8bd ed02 d3be 18ed 033f
00000300: 12aa 3dbe f2eb 1e3e a491 1f3e 4330 d1be
00000310: 839c aebe 49b6 033e 030e 93bd dfe0 15bf
00000320: 23a3 c4be e20e 443e adc9 dcbe b786 923d
00000330: 134b 723d 1dd4 9f3d 0334 9dbe 83d5 7dbe
00000340: 68e1 933e 9fae f3bd 75bc 0bbe 854e 6cbe
00000350: e99f 82be 3a01 423d ec54 ddbe 80e2 dcbe
00000360: b6ee d5be df39 84bd 569a 0dbd 1e76 eebe
00000370: 0e73 17be eedf 7b3d efb2 4cbe 9952 a6bd
00000380: bece 50bf 9436 7a3f 6dcd 733f 2c86 be3e
00000390: 8efe 083e 162a 173f 24ff a13f 4ba0 993f
000003a0: 8fb8 4c3f 960f 513e 819d 82bf d91e 393e
000003b0: 6890 833f bec4 db3e ec11 7d3e 8fd3 6d3e
000003c0: dc5f 0d3f bb5d fc3e 69fa a3be 688c 163f
000003d0: 1cf1 aebf 8a5e 873f 9ec4 c7bd 889c 863f
000003e0: d980 a53e 3597 65bf 0a97 133f 2c8f 4b3f
000003f0: ace0 173f 3e3e 74bf 3db2 14be fe5c 103f

bias f4 [64]
0.9289269 -0.28298038 -0.15236236 0.7623325 -0.7756667 0.08207356 -0.5735108 -0.65943176
-0.37042722 -0.40150154 -0.2908789 -0.36382458 -0.30405366 -0.5355109 0.6681316 0.733833
-0.76533216 -0.1545881 0.22646081 -0.38785335 -0.06976106 1.0911669 -0.44147968 -0.83134615
-0.8788677 -0.5971551 -0.1759819 -0.24343283 0.43137223 -0.177927 -0.35430142 -0.8210508
-0.08977628 0.5114053 -0.7369509 -0.29755583 -0.5995626 0.32580757 -0.35624656 -0.10406347
-0.07610472 0.9353429 -0.44668669 -0.33306602 -0.017670803 -0.7628354 -0.18906845 -0.3456926
-0.640336 -0.1453295 -0.41633672 -0.11420494 0.03726219 -0.07585621 -0.7296685 -0.044846028
-0.017934766 -0.24882331 -0.59285367 -0.5208158 1.3520339 -0.3080218 -0.19049041 -0.55518234
00000000: 27ce 6d3f cee2 90be e104 1cbe 3928 433f
00000010: 1892 46bf 2f16 a83d 9bd1 12bf 85d0 28bf
00000020: a3a8 bdbe 9c91 cdbe 14ee 94be 3747 babe
00000030: ecac 9bbe 3e17 09bf ac0a 2b3f 7bdc 3b3f
00000040: cfec 43bf 584c 1ebe 58e5 673e b794 c6be
00000050: e3de 8ebd 5bab 8b3f a009 e2be 1ad3 54bf
00000060: 79fd 60bf 28df 18bf 9934 34be 7546 79be
00000070: d2dc dc3e 7f32 36be ff66 b5be 6330 52bf
00000080: a0dc b7bd 75eb 023f d0a8 3cbf 3d59 98be
00000090: ef7c 19bf 40d0 a63e f365 b6be 3b1f d5bd
000000a0: cbdc 9bbd a272 6f3f 1eb4 e4be a187 aabe
000000b0: 5cc2 90bc 2e49 43bf 299b 41be 9ffe b0be
000000c0: 0fed 23bf 42d1 14be 162a d5be 48e4 e9bd
000000d0: 3da0 183d 805a 9bbd 8ecb 3abf 78b0 37bd
000000e0: eeeb 92bc 8acb 7ebe 42c5 17bf 2f54 05bf
000000f0: 720f ad3f 09b5 9dbe eb0f 43be 6e20 0ebf

weight f4 [5, 64]
-0.15001547 0.5143865 -0.17581002 0.28167593 0.08733988 0.18744005 -0.015778566 -0.12366154
0.16672258 -0.2552267 -0.12102702 -0.70065236 0.06613105 -0.24772978 -0.050817817 -0.42799664
0.36301062 0.021507548 -0.90530145 0.12300674 0.81673855 -0.5934241 0.63869584 0.59800416
-0.0776992 0.4790451 0.040705707 0.72331625 -0.438483 0.62800586 0.39568895 0.6698043
0.04929496 1.1495125 0.73984283 0.012700984 0.49562272 0.92708826 0.044200324 -0.12712969
0.071893536 -0.52159417 -0.048319798 1.2007583 0.60588396 0.0009971502 -0.010029132 -0.0855121
0.45984378 0.1299217 0.021433244 -0.04404708 0.61107713 -0.01485027 0.5335836 1.1871473
-0.0578977 0.8842063 -0.13910635 -0.33986786 0.03889389 -0.0599756 0.07286093 0.4201677
0.85955924 -1.445345 0.26976135 0.7673028 -0.24725376 0.5456687 0.17145391 -0.33477417
-0.5482073 -0.28908655 -0.27256462 0.056101054 0.18172531 -0.07896064 0.7065408 0.8327591
-0.31635505 0.07560221 0.20769297 -0.9420542 -0.99334574 0.8081518 -0.42523074 -0.32602394
0.66844416 -0.8461746 -0.20827916 -0.026109034 0.47507295 -1.1498498 -0.38467044 0.13671748
-0.064947374 0.6279643 -1.3325703 -0.007757859 -1.3767105 0.20111401 0.016228102 0.04830196
-0.042258073 0.78005165 0.2602164 -0.5742572 -0.38291997 -1.1142962 0.10352312 0.062302165
0.14946139 -0.089618355 -0.9560935 0.112619616 -1.7455362 -0.105188034 -0.14776455 -0.65139955
-0.023337131 -1.3326423 -0.33246022 -0.73146594 1.0593109 -0.13590729 0.078736596 0.08732859
-1.6758174 1.2777414 -0.06818964 -0.94500536 0.28427273 -0.66219795 0.048983857 -0.26139307
0.3812232 0.13116601 0.59658456 -0.7028572 -0.0021400275 0.12559195 -1.0588875 -0.8213915
-0.023007588 0.10110613 0.19907111 0.6371546 1.0659243 -1.4037669 -0.36212218 0.294503
-0.30964714 -0.09482508 0.04418405 -0.30940005 -0.17306142 1.1730534 0.020489555 0.6807117
0.086888745 -1.1298463 1.40389 0.14675362 0.94675875 0.294403 -0.20689128 0.18338643
-0.09177473 -1.0401568 0.77293646 0.7986731 0.17683402 0.80092293 -0.16466811 0.16614303
0.2878144 -0.061553843 0.7920984 0.0428712 1.3593159 0.045961205 -0.37367752 0.34579903
0.05983549 0.86574346 0.40932295 0.7917078 -2.0482633 0.062117588 0.01688597 -0.11286595
0.1755773 0.24560504 0.12967354 -0.8050549 0.16163899 0.66212565 0.10813001 0.41324714
0.10235719 0.82556814 0.43856144 0.47294047 0.05802204 0.13564952 -0.12492609 0.687512
0.5737167 0.08699987 1.0209428 0.69237745 0.42475584 0.5209265 -0.39087254 -0.10064251
0.11061249 -0.566591 0.0909625 -0.7847528 0.48633513 -0.32747456 -0.05158337 -0.24193864
0.06416728 0.42101493 0.029462272 0.15480816 0.1992305 -1.0964322 0.13320859 -0.13180242
-0.012344181 0.44611314 -0.44834733 -0.16746868 -0.42316526 0.51709884 0.012563247 0.27380773
-0.083027616 -0.0899799 0.8155202 0.05344713 -0.6357393 -0.033186175 -0.12624718 -1.4471836
0.037069384 0.42922345 0.96341085 0.56755155 -1.2340571 0.07865686 0.0888947 0.15847354
00000000: a89d 19be d5ae 033f 8b07 34be d437 903e
00000010: 40df b23d 49f0 3f3e 0d42 81bc 4342 fdbd
00000020: 53b9 2a3e 13ad 82be 04dd f7bd f45d 33bf
00000030: b76f 873d e0ac 7dbe 5826 50bd 6022 dbbe
00000040: 87dc b93e 9930 b03c d6c1 67bf f5ea fb3d
00000050: c715 513f a4ea 17bf 9281 233f cd16 193f
00000060: c220 9fbd 6645 f53e 07bb 263d 412b 393f
00000070: d880 e0be fec4 203f be97 ca3e 4b78 2b3f
00000080: 83e9 493d 3a23 933f 5766 3d3f ca17 503c
00000090: 43c2 fd3e a855 6d3f 660b 353d 492e 02be
000000a0: eb3c 933d 3287 05bf fbea 45bd 73b2 993f
000000b0: 361b 1b3f cfb2 823a 3a51 24bc f820 afbd
000000c0: a570 eb3e 320a 053e c594 af3c b66a 34bd
000000d0: 8d6f 1c3f 8c4e 73bc ef98 083f 71f4 973f
000000e0: 2426 6dbd 585b 623f e571 0ebe 2903 aebe
000000f0: 334f 1f3d faa8 75bd 1c38 953d 3920 d73e
00000100: 130c 5c3f 1101 b9bf 291e 8a3e f56d 443f
00000110: 1730 7dbe f2b0 0b3f 9d91 2f3e 8567 abbe
00000120: 5057 0cbf 2703 94be 978d 8bbe 38ca 653d
00000130: 3316 3a3e 1eb6 a1bd dcdf 343f b32f 553f
00000140: 4af9 a1be 55d5 9a3d 77ad 543e 772a 71bf
00000150: e84b 7ebf 09e3 4e3f d8b7 d9be 9cec a6be
00000160: 281f 2b3f e69e 58bf 2247 55be 9de2 d5bc
00000170: c33c f33e 472e 93bf 86f3 c4be abff 0b3e
00000180: 2103 85bd 45c2 203f aa91 aabf a335 febb
00000190: 0d38 b0bf d5f0 4d3e ccf0 843c 47d8 453d
000001a0: cd16 2dbd 77b1 473f 153b 853e 8502 13bf
000001b0: 160e c4be 42a1 8ebf ee03 d43d 8e30 7f3d
000001c0: 680c 193e d489 b7bd 8bc2 74bf 1da5 e63d
000001d0: bb6d dfbf d36c d7bd 974f 17be 1fc2 26bf
000001e0: 832d bfbc 0694 aabf 3a38 aabe 5a41 3bbf
000001f0: 8097 873f 482b 0bbe a740 a13d 55d9 b23d
00000200: 2f81 d6bf 088d a33f 03a7 8bbd dfeb 71bf
00000210: 328c 913e ce85 29bf 4ca3 483d 50d5 85be
00000220: b02f c33e 6250 063e c4b9 183f 73ee 33bf
00000230: b43f 0cbb 2d9b 003e a089 87bf b746 52bf
00000240: 697a bcbc bb10 cf3d 4cd9 4b3e 901c 233f
00000250: 3570 883f a2ae b3bf 1468 b9be 19c9 963e
00000260: 128a 9ebe a733 c2bd 56fa 343d af69 9ebe
00000270: 0337 31be 9d26 963f b6d9 a73c 1f43 2e3f
00000280: baf2 b13d ce9e 90bf abb2 b33f 9546 163e
00000290: c85e 723f fdbb 963e 4fdb 53be a7c9 3b3e
000002a0: 64f4 bbbd dc23 85bf 2adf 453f d775 4c3f
000002b0: fa13 353e 4909 4d3f c29e 28be 6621 2a3e
000002c0: 695c 933e e21f 7cbd f6c6 4a3f b699 2f3d
000002d0: 10fe ad3f d141 3c3d a952 bfbe 920c b13e
000002e0: 0f16 753d 5da1 5d3f c792 d13e 5dad 4a3f
000002f0: bf16 03c0 036f 7e3d 7254 8a3c 4326 e7bd
00000300: 89ca 333e e37f 7b3e 24c9 043e 1418 4ebf
00000310: b184 253e 1181 293f 4473 dd3d 2195 d33e
00000320: a5a0 d13d 6f58 533f 208b e03e 4125 f23e
00000330: 85a8 6d3d b5e7 0a3e 40d9 ffbd c900 303f
00000340: 19df 123f fd2c b23d 41ae 823f a63f 313f
00000350: 9979 d93e 705b 053f 7220 c8be a91d cebd
00000360: cd88 e23d 1c0c 11bf 8c4a ba3d 8fe5 48bf
00000370: eb00 f93e bfaa a7be 1549 53bd c3be 77be
00000380: 236a 833d 458f d73e dd5a f13c 0886 1e3e
00000390: 1503 4c3e e457 8cbf d567 083e 37f7 06be
000003a0: 3f3f 4abc f168 e43e c88d e5be e97c 2bbe
000003b0: 1ea9 d8be 9760 043f 14d6 4d3c 8730 8c3e
000003c0: 620a aabd 6247 b8bd efc5 503f 61eb 5a3d
000003d0: d0bf 22bf 3aee 07bd f146 01be 503d b9bf
000003e0: 11d6 173d 2dc3 db3e 18a2 763f 0f4b 113f
000003f0: 95f5 9dbf d916 a13d 6d0e b63d e346 223e

bias f4 [5]
0.13945407 1.0334132 -0.24138023 -0.19306822 0.7144163
00000000: 0ccd 0e3e e246 843f 612c 77be adb3 45be
00000010: fde3 363f
