models/simple_tag/PPO-not-shared/adversary_0/critic_0.pt (torch, 14098 bytes, 5 tensors)

weight f4 [32, 12]
-1.6617695 -0.707326 -0.5721214 -0.038108055 1.6674328 -1.2841529 -0.38677713 0.07059709
0.6628534 -1.1326249 -1.8700143 0.674659 -0.33901775 -0.45618883 1.6936061 2.6439288
-0.5534835 -0.14955929 -1.9110368 0.7315223 2.3091784 -0.8330579 0.011839286 0.5119465
0.40339732 -0.40732434 0.108675286 -0.054849915 0.5129688 -0.08104884 -0.58428437 0.5195003
-0.121940576 0.6264671 0.66056204 0.6621443 0.05611241 -1.2547879 -0.49632138 -0.69693106
-1.3065082 0.015422067 0.2912385 -1.2685316 -0.55758405 4.7806635 -0.029852584 5.1784225
-2.3728955 -0.32869187 0.42008275 0.5857452 -0.2273987 0.34070268 -0.584451 -0.50760823
-2.5106742 1.0703793 0.71061224 1.6307513 0.05541235 -0.2860361 1.0331632 0.1730714
1.019288 -2.3111715 0.4661714 1.4448898 -0.8483757 1.3778099 -0.23637377 -0.48687518
-0.55429834 -0.4057441 1.5167527 -0.48571315 0.74796426 -1.5364851 -2.2584393 -1.1811681
-0.006396022 3.315183 -0.47740063 -1.2747847 -1.6704175 1.3809918 -1.124789 1.5607357
-0.47734785 -0.3987024 -0.52447516 0.32328528 7.0003524 -0.73279184 3.6563087 -2.0196328
0.22800024 0.47585836 4.017205 0.30825844 0.113210835 -0.37104243 -0.9655766 1.9604247
2.4641693 -1.4577049 0.43374974 -0.9116468 -1.326311 -1.3274437 1.1321428 0.0403993
0.07462061 -0.89212906 0.17770721 -0.8531945 -0.47995126 -0.003928182 0.37305307 3.3126714
-0.10303453 1.4546803 -1.3299924 1.7478895 0.07096449 0.085771225 -1.4392893 -0.111386724
-3.1438198 0.50443697 1.9642822 -1.0697856 -0.5297677 -0.9272559 -0.60454816 0.91096824
-0.6239445 -0.31318542 0.9252721 -0.12609847 -1.3494884 4.8026404 -0.33080068 4.068728
-0.015535645 0.0012617215 0.0057492973 0.065299235 0.026336677 0.019981598 -0.01919944 0.084026515
-0.02224667 0.06808164 -0.020278 0.0827963 1.2438712 -0.28853923 2.2010083 -1.2080647
1.9929354 -0.3051029 1.2383211 0.8431823 -4.780195 0.62764084 -2.2562883 -0.46300805
0.028673848 -0.3471293 1.1737653 1.7476381 -0.53070265 2.3265998 1.1425085 -0.23755392
-0.24991725 -1.3371439 -1.2852454 -1.7516284 0.2042961 -0.7519318 -1.3852372 0.7390322
-2.0457523 -1.9409882 -0.2671505 1.0607432 2.3356483 0.4320299 -1.367495 -1.0467685
0.7834855 1.7920996 -0.955111 0.03333955 0.46429577 2.4117856 -0.61758417 -0.7168141
-0.701733 1.2389804 0.30146268 0.22099847 -0.09977818 -1.4468331 2.4506497 0.7635307
1.1996956 1.4246553 -1.633763 -1.3736478 1.5613647 2.5059114 1.2775242 2.1249456
-0.42599726 -0.05596362 -1.0430568 0.05495128 0.39050084 0.9750343 -3.222449 -0.3376715
1.7965741 0.044833947 -1.2396907 -1.1165051 -0.47543165 0.16193065 -1.1567222 0.19919962
-1.1562052 -0.26490626 -0.27578458 -1.8528637 1.1208507 1.7152487 2.7099993 -0.6661
-0.13669921 -0.2568514 -0.9352713 1.447434 1.1517574 2.4538302 -1.8900648 1.3251352
-0.50817657 -0.5585538 0.2706345 1.573308 0.19272533 -0.21501133 0.79107785 1.1002827
00000000: ddb4 d4bf 5113 35bf 8c76 12bf 3117 1cbd
00000010: 706e d53f 1f5f a4bf a707 c6be 3595 903d
00000020: c3b0 293f daf9 90bf a15c efbf 74b6 2c3f
00000030: bc93 adbe 9591 e9be 16c8 d83f 2136 2940
00000040: 18b1 0dbf 1226 19be db9c f4bf 0c45 3b3f
00000050: 94c9 1340 4843 55bf 91f9 413c ed0e 033f
00000060: 188a ce3e d18c d0be 2691 de3d 4eaa 60bd
00000070: ec51 033f effc a5bd a993 15bf f9fd 043f
00000080: fbbb f9bd 2660 203f 981a 293f 4a82 293f
00000090: 20d6 653d e49c a0bf d61d febe 136a 32bf
000000a0: a93b a7bf d6ac 7c3c 361d 953e 3e5f a2bf
000000b0: d4bd 0ebf 32fb 9840 688d f4bc a3b5 a540
000000c0: 85dd 17c0 4d4a a8be 1615 d73e 66f3 153f
000000d0: 34db 68be 9570 ae3e 959e 15bf 9df2 01bf
000000e0: e3ae 20c0 3002 893f afea 353f 75bc d03f
000000f0: 0ff8 623d 5373 92be b13e 843f a139 313e
00000100: 0778 823f 3cea 13c0 05ae ee3e 26f2 b83f
00000110: 262f 59bf 135c b03f f70b 72be b447 f9be
00000120: 7fe6 0dbf b1bd cfbe f424 c23f 65af f8be
00000130: 967a 3f3f 8bab c4bf 458a 10c0 8430 97bf
00000140: b995 d1bb f52b 5440 db6d f4be 252c a3bf
00000150: 3ed0 d5bf 57c4 b03f 16f9 8fbf 30c6 c73f
00000160: f066 f4be b922 ccbe 0144 06bf a685 a53e
00000170: e302 e040 3f98 3bbf f600 6a40 aa41 01c0
00000180: e578 693e b5a3 f33e f28c 8040 0dd4 9d3e
00000190: 15db e73d 46f9 bdbe 0730 77bf 32ef fa3f
000001a0: f3b4 1d40 1396 babf 7214 de3e af61 69bf
000001b0: 8fc4 a9bf ade9 a9bf 0eea 903f bd79 253d
000001c0: b1d2 983d 9262 64bf e1f8 353e f46a 5abf
000001d0: 2cbc f5be fbb7 80bb d000 bf3e cf02 5440
000001e0: c503 d3bd f732 ba3f 313d aabf d8ba df3f
000001f0: d555 913d d3a8 af3d a23a b8bf b91e e4bd
00000200: 5834 49c0 c822 013f 996d fb3f bcee 88bf
00000210: db9e 07bf a560 6dbf abc3 1abf 3735 693f
00000220: d4ba 1fbf d759 a0be a2de 6c3f f51f 01be
00000230: 09bc acbf 3baf 9940 b55e a9be 0533 8240
00000240: 3889 7ebc 5960 a53a 9a64 bc3b 9bbb 853d
00000250: 04c0 d73c 73b0 a33c 2548 9dbc 1816 ac3d
00000260: a63e b6bc 636e 8b3d 0c1e a6bc 1b91 a93d
00000270: 2c37 9f3f 6abb 93be 52dd 0c40 dda1 9abf
00000280: 8218 ff3f 7336 9cbe 4e81 9e3f ccda 573f
00000290: 5cf7 98c0 12ad 203f 0767 10c0 640f edbe
000002a0: 6be5 ea3c eeba b1be f13d 963f 9bb2 df3f
000002b0: 21dc 07bf 03e7 1440 b83d 923f 5641 73be
000002c0: 4fea 7fbe 8827 abbf ec82 a4bf 5c35 e0bf
000002d0: ff32 513e 9a7e 40bf 744f b1bf 3731 3d3f
000002e0: 9bed 02c0 4d72 f8bf f3c7 88be 6fc6 873f
000002f0: 437b 1540 0633 dd3e 130a afbf 83fc 85bf
00000300: 8192 483f 8563 e53f 2882 74bf 0d8f 083d
00000310: 2db8 ed3e b25a 1a40 ff19 1ebf 2181 37bf
00000320: c6a4 33bf e996 9e3f 5159 9a3e 6c4d 623e
00000330: 8158 ccbd d431 b9bf 72d7 1c40 bf76 433f
00000340: a08f 993f 1b5b b63f 251f d1bf b1d3 afbf
00000350: ccda c73f da60 2040 ea85 a33f 1cff 0740
00000360: 501c dabe 1c3a 65bd e382 85bf 9814 613d
00000370: baef c73e d99b 793f 9b3c 4ec0 47e3 acbe
00000380: 24f6 e53f cda3 373d 2fae 9ebf a4e9 8ebf
00000390: c76b f3be 26d1 253e 790f 94bf fcfa 4b3e
000003a0: 88fe 93bf cba1 87be a333 8dbe a32a edbf
000003b0: 0978 8f3f 458d db3f a170 2d40 8885 2abf
000003c0: e1fa 0bbe 0782 83be f16d 6fbf 8445 b93f
000003d0: c96c 933f 8e0b 1d40 a5ed f1bf 089e a93f
000003e0: dc17 02bf 62fd 0ebf 9b90 8a3e 2862 c93f
000003f0: ca59 453e ee2b 5cbe 1484 4a3f 10d6 8c3f

bias f4 [32]
0.84496814 -0.13417605 3.1659288 -0.7057444 -0.5125911 1.9569383 0.0663827 -0.94840175
-0.4026138 -0.9631348 -1.3794941 -0.75885445 -0.5362399 -0.11712631 -2.0693486 -0.4011612
-1.2581186 -1.0782752 -0.73146945 -1.837756 -1.0106881 -0.67125434 -2.2478232 -1.1487402
0.06916641 -1.3893718 -1.9491136 -0.5027221 0.64481664 -0.16265893 -0.04525733 -0.8611135
00000000: d54f 583f 7265 09be 949e 4a40 aaab 34bf
00000010: 2c39 03bf f47c fa3f a7f3 873d 75ca 72bf
00000020: 6523 cebe 0190 76bf 4393 b0bf 4944 42bf
00000030: 0547 09bf ebdf efbd 3570 04c0 0065 cdbe
00000040: 080a a1bf ec04 8abf 9541 3bbf 973b ebbf
00000050: 3a5e 81bf 53d7 2bbf 56dc 0fc0 eb09 93bf
00000060: 1ea7 8d3d efd6 b1bf 8e7c f9bf 65b2 00bf
00000070: b412 253f 1090 26be c05f 39bd ef71 5cbf

weight f4 [64, 32]
-1.1717689 -2.556763 -0.2587021 -0.43801627 -0.9074978 -0.6850053 -0.6309324 -0.9292148
-0.55311847 -0.16606317 -0.8089183 -1.4555062 -0.15745007 0.023340868 -0.45505902 -0.6645318
-0.64542246 -0.48653764 -1.2614001 -0.6859822 -0.9509318 -0.31694517 -0.75333303 -1.1966392
-1.7112973 -0.80515623 -0.12794776 0.010632755 -1.0371516 -0.6816858 -0.09723127 -0.13831297
-1.0835818 0.014395291 0.47438738 -2.2151456 -0.25242645 0.4132728 -1.0158689 -0.23495065
1.5561545 0.4570267 0.18547605 -1.7642488 -0.05643695 -0.40802047 -2.386477 -1.9576155
-0.38116834 0.088688396 -2.3226085 -2.1285834 -0.012046412 0.7078116 -1.3092972 1.407083
1.0757251 -0.7504002 -1.1561352 -2.1688077 0.18906228 -0.72711855 -0.0040967613 -0.4195438
-1.4798988 -1.3851668 -0.42382264 -1.1823013 -0.12598671 -1.309432 -0.21507972 -1.8122241
-0.29098964 0.03489567 -0.33301744 -1.1346524 -0.005824355 -1.0195943 -0.5239604 0.085726276
-0.13636509 -0.0130864605 -0.77055204 -0.47653785 -0.021141246 -0.19544984 -0.16555269 -1.3380814
-1.0856295 -0.60653764 -0.25010625 -0.16206282 -1.4944203 -0.09542186 -0.22349861 -0.24996966
0.48746836 -1.1817164 -0.24081619 -0.48963484 -1.2845408 -0.12790108 -0.43611374 -0.2271908
-1.0943699 0.7225869 -1.1545892 -0.72450143 0.010260716 -2.6027744 0.49653992 2.009367
0.262277 -1.9926215 -0.46740952 -0.26232514 1.2614104 0.6614509 0.27715632 -1.6215676
-1.0804024 -2.8079069 -0.43937144 1.6862814 -1.128424 0.36030966 0.45354715 0.8257376
-0.6340733 -1.0802057 -0.4261291 -1.0204126 -0.5289269 -1.3133295 -0.42547795 -1.2335277
-0.9635754 -0.033157293 -0.47491437 -1.836637 0.0052964464 -0.84359705 -0.6111132 0.04396934
-0.038286272 -0.56640244 -0.10234581 -0.93609244 -0.6927927 -0.40076956 -1.7178106 -0.7850135
-0.73852116 -1.909585 -1.543766 -0.6045647 -1.0349888 -0.09838996 -0.13073057 -0.08214186
1.6075559 -0.6519435 0.8684492 -1.2228209 -0.18239246 -1.5970056 -0.75453407 0.24400951
-0.7387467 -1.3963183 -2.1387942 0.39881608 0.058263518 -1.382999 0.5393809 -1.8737112
-0.7236408 -0.1080046 -0.7166434 1.7717823 -0.93617004 -2.2818172 0.54039353 -3.0037873
1.605085 0.2523755 -2.5080397 2.626459 -2.446719 1.2138827 1.2314961 -1.8435692
0.40148142 -1.1450438 1.9090208 -1.0221107 0.33581984 0.7428893 0.62325656 -1.934103
-0.29563922 0.2912999 0.104477026 -1.1679475 0.115139864 -0.80277306 -0.30060747 0.34388223
0.5819405 -0.3476991 -0.2589471 -0.040741764 -0.5330644 -0.5123208 0.509878 0.085762724
-0.9307009 -1.0398834 0.34325153 -0.17386214 0.6114328 0.2169537 0.99411786 0.90195113
0.6671199 -0.88947624 -0.85181266 -1.9379897 0.008137338 -0.05388791 -0.28784207 -0.33332083
-2.888401 -0.387994 0.030988868 1.3949515 0.031689417 0.14894748 -2.0027754 -1.793832
-0.26013905 -1.5830499 2.3744428 0.19943371 -0.9517131 -0.41089797 -0.3715176 -2.1568718
-1.4066335 0.32534108 -1.0311251 -0.42099482 -0.34153596 -1.5834663 -1.3278968 0.30021158
00000000: 86fc 95bf 01a2 23c0 9a74 84be ab43 e0be
00000010: c751 68bf 825c 2fbf c984 21bf 05e1 6dbf
00000020: 2c99 0dbf 770c 2abe 4515 4fbf 074e babf
00000030: 973a 21be 5935 bf3c 7ffd e8be c21e 2abf
00000040: 683a 25bf 761b f9be 8f75 a1bf 889c 2fbf
00000050: 4470 73bf a346 a2be 6fda 40bf 792b 99bf
00000060: ca0b dbbf b81e 4ebf bd04 03be 0235 2e3c
00000070: 62c1 84bf f682 2ebf 3021 c7bd eaa1 0dbe
00000080: cfb2 8abf 3ada 6b3c e7e2 f23e f2c4 0dc0
00000090: 0a3e 81be 7e98 d33e fe07 82bf e796 70be
000000a0: 1230 c73f 67ff e93e 6fed 3d3e e8d2 e1bf
000000b0: 6e2a 67bd 0fe8 d0be 0abc 18c0 2593 fabf
000000c0: 7f28 c3be 43a2 b53d 9ea5 14c0 b63a 08c0
000000d0: 505e 45bc 2433 353f 0d97 a7bf 4c1b b43f
000000e0: 5cb1 893f 3a1a 40bf 3dfc 93bf bfcd 0ac0
000000f0: 8b99 413e 7124 3abf 203e 86bb 72ce d6be
00000100: 536d bdbf 254d b1bf 48ff d8be a655 97bf
00000110: a902 01be 789b a7bf dc3d 5cbe f6f6 e7bf
00000120: 98fc 94be c3ee 0e3d 4381 aabe 4a3c 91bf
00000130: 3bda bebb 1182 82bf 4522 06bf 4291 af3d
00000140: 4aa3 0bbe 9868 56bc e642 45bf c5fc f3be
00000150: 6830 adbc 0124 48be a586 29be 4046 abbf
00000160: e8f5 8abf 0d46 1bbf ed0d 80be ccf3 25be
00000170: 2a49 bfbf 896c c3bd d2dc 64be 0cf8 7fbe
00000180: 7495 f93e 7c42 97bf 8598 76be 6bb1 fabe
00000190: d56b a4bf 80f8 02be 4d4a dfbe b4a4 68be
000001a0: 5014 8cbf 75fb 383f 94c9 93bf ed78 39bf
000001b0: 901c 283c db93 26c0 7b3a fe3e 7899 0040
000001c0: 2c49 863e 390e ffbf 4d50 efbe 7b4f 86be
000001d0: e575 a13f d954 293f 6fe7 8d3e 878f cfbf
000001e0: a04a 8abf bfb4 33c0 4bf5 e0be 12d8 d73f
000001f0: 3370 90bf 827a b83e 5537 e83e 8a63 533f
00000200: a152 22bf 2e44 8abf 982d dabe e19c 82bf
00000210: c167 07bf 2e1b a8bf 3fd8 d9be 3ce4 9dbf
00000220: e1ac 76bf f1cf 07bd fa27 f3be ec16 ebbf
00000230: d08d ad3b faf5 57bf ea71 1cbf 3219 343d
00000240: 11d2 1cbd c0ff 10bf ae9a d1bd c1a3 6fbf
00000250: dd5a 31bf ab31 cdbe 38e1 dbbf a5f6 48bf
00000260: b90f 3dbf 486d f4bf 209a c5bf c1c4 1abf
00000270: 837a 84bf ad80 c9bd 3cde 05be fe39 a8bd
00000280: 64c4 cd3f c5e5 26bf b052 5e3f 6585 9cbf
00000290: 17c5 3abe ae6a ccbf 2529 41bf a1dd 793e
000002a0: 811e 3dbf 8fba b2bf 01e2 08c0 9f31 cc3e
000002b0: baa5 6e3d 1c06 b1bf de14 0a3f c5d5 efbf
000002c0: 8640 39bf 8431 ddbd f175 37bf c3c9 e23f
000002d0: d7a8 6fbf 4b09 12c0 3b57 0a3f 0d3e 40c0
000002e0: 6d73 cd3f 5d37 813e b983 20c0 e717 2840
000002f0: 0b97 1cc0 8260 9b3f aaa1 9d3f 13fa ebbf
00000300: f98e cd3e cc90 92bf cb5a f43f 86d4 82bf
00000310: 94f0 ab3e fe2d 3e3f be8d 1f3f b090 f7bf
00000320: 065e 97be 4325 953e 0df8 d53d 4e7f 95bf
00000330: 73ce eb3d 8982 4dbf 39e9 99be 5511 b03e
00000340: 0dfa 143f 9e05 b2be b794 84be d6e0 26bd
00000350: e976 08bf 7527 03bf 5d87 023f 5ea4 af3d
00000360: 6a42 6ebf e61a 85bf aabe af3e eb08 32be
00000370: dc86 1c3f 1c29 5e3e 827e 7e3f 45e6 663f
00000380: 5fc8 2a3f b7b4 63bf 6510 5abf 0c10 f8bf
00000390: 7852 053c 92b9 5cbd 0960 93be 07a9 aabe
000003a0: 90db 38c0 26a7 c6be 5edc fd3c c58d b23f
000003b0: c3cc 013d b085 183e 792d 00c0 499c e5bf
000003c0: f230 85be 61a1 cabf dff6 1740 5a38 4c3e
000003d0: 78a3 73bf 3861 d2be 8e37 bebe 300a 0ac0
000003e0: 910c b4bf 1b93 a63e e8fb 83bf a28c d7be
000003f0: cddd aebe 06af cabf 86f8 a9bf 55b5 993e

bias f4 [64]
0.4618428 1.9523817 0.537302 -1.2915088 0.78434706 -0.37740427 6.7391467 -3.2780845
-4.612055 -0.16912068 0.8109525 0.5810641 -0.32138273 0.49923426 -3.6350212 -4.606233
0.9308174 6.253857 1.7419616 6.6814327 1.0232022 1.5013622 -2.368296 0.4035997
-0.61173505 -0.45551017 1.0148404 1.2490001 -0.23820552 1.4406457 -0.60147727 0.47776598
-1.6467984 -0.15229093 1.7088164 0.9459257 3.4327922 3.974503 0.0672235 2.7814763
3.6955354 -1.961867 1.7392523 1.2449803 0.47359166 0.3990964 2.0546062 -0.040843412
0.9719352 1.8451025 0.92212516 4.313909 -4.3143187 1.7818159 1.4582834 1.457251
-0.0403398 -0.29729554 0.8310184 0.4715506 0.4158791 -0.080604576 -0.52749187 -1.829464
00000000: a976 ec3e a5e7 f93f a08c 093f 2950 a5bf
00000010: f8ca 483f 223b c1be 17a7 d740 23cc 51c0
00000020: f495 93c0 f92d 2dbe 959a 4f3f 9ec0 143f
00000030: 478c a4be a29b ff3e 30a4 68c0 4366 93c0
00000040: 0d4a 6e3f 991f c840 99f8 de3f 4cce d540
00000050: 4af8 823f a32c c03f 2992 17c0 9fa4 ce3e
00000060: ab9a 1cbf a138 e9be 4ae6 813f 3cdf 9f3f
00000070: 26ec 73be 1467 b83f 6afa 19bf be9d f43e
00000080: 4aca d2bf 27f2 1bbe 7fba da3f 3028 723f
00000090: deb2 5b40 425e 7e40 79ac 893d b503 3240
000000a0: a783 6c40 751e fbbf d29f de3f 845b 9f3f
000000b0: 9b7a f23e 5d56 cc3e ab7e 0340 6c4b 27bd
000000c0: bfd0 783f 522c ec3f 6510 6c3f 8b0b 8a40
000000d0: e60e 8ac0 8b12 e43f 08a9 ba3f 3387 ba3f
000000e0: 593b 25bd 1f37 98be 9fbd 543f 156f f13e
000000f0: 1bee d43e 0314 a5bd b509 07bf e02b eabf

weight f4 [1, 64]
0.26905814 0.89822435 0.4716506 0.654239 0.138123 -0.35358626 0.8730972 -0.0066592023
-0.72935414 0.0077775996 0.040770303 0.17914733 0.014074379 0.6223003 -0.39828074 -0.5742766
0.9130816 0.4861014 0.60425407 1.2735881 -0.25780344 0.31583056 -0.033867784 0.072516054
0.11839065 -0.7818843 -1.0232846 0.5554491 0.026156522 0.96482736 -0.9506174 0.13290522
0.17342626 -0.05422205 -0.58957857 -0.030183857 0.498191 -0.23010063 0.022307148 0.5875703
0.29066274 0.28016773 0.38356835 -0.68304175 -0.38566017 0.0034340564 0.77644336 0.151865
-0.036863923 -0.80896264 -0.006179222 0.37635243 -0.056379583 0.06976589 0.13679896 0.34593427
0.010803517 0.00017909604 0.3154905 1.4537667 -0.0006930119 0.04708543 -0.88267934 -0.20217043
00000000: fdc1 893e 08f2 653f 307c f13e 357c 273f
00000010: 1e70 0d3e 4209 b5be 4c83 5f3f 7035 dabb
00000020: f4b6 3abf 3cdb fe3b c3fe 263d 6672 373e
00000030: 3998 663c 134f 1f3f 74eb cbbe cb03 13bf
00000040: b7bf 693f 48e2 f83e 65b0 1a3f ef04 a33f
00000050: d0fe 83be 8bb4 a13e f2b8 0abd 4c83 943d
00000060: cc76 f23d 9229 48bf fdfa 82bf ea31 0e3f
00000070: 3446 d63c edfe 763f a95b 73bf 4e18 083e
00000080: a796 313e f117 5ebd 9fee 16bf 2344 f7bc
00000090: e412 ff3e 809f 6bbe 7bbd b63c 026b 163f
000000a0: bfd1 943e 2572 8f3e 1263 c43e d3db 2ebf
000000b0: 4075 c5be e80d 613b fec4 463f 8082 1b3e
000000c0: a0fe 16bd 2d18 4fbf 127b cabb 44b1 c03e
000000d0: 47ee 66bd 6be1 8e3d 0715 0c3e 4c1e b13e
000000e0: 3c01 313c bacb 3b39 f987 a13e 0715 ba3f
000000f0: 3eab 35ba a7dc 403d 46f7 61bf c405 4fbe
