models/simple_tag/DQN-not-shared/agent_0/qnet_target_0.pt (torch, 14916 bytes, 6 tensors)

weight f4 [32, 10]
0	0xbe83561f	-0.25651643
1	0x3f459905	0.77186614
2	0x3eb1f9cc	0.34760892
3	0x3f3e1f77	0.7426676
4	0xbeee1bf7	-0.4650571
5	0xbd4d581b	-0.050132852
6	0xbf10316d	-0.5632542
7	0x3beaf04f	0.0071697603
8	0x3ecdf352	0.402247
9	0xbd06079c	-0.0327221
10	0xbeea0409	-0.45706204
11	0x3eb7d245	0.3590261
12	0xbf3c412b	-0.7353694
13	0xbf7ace0a	-0.9797064
14	0xbd3bb524	-0.045827046
15	0x3f16a070	0.5883856
16	0x3f0c099f	0.5470218
17	0x3e50ebeb	0.20402496
18	0xbb921c9b	-0.0044589764
19	0xbe94e003	-0.29077157
20	0x3f0e87c7	0.5567593
21	0x3f1de9c2	0.6168481
22	0x3f080435	0.5313142
23	0x3f2e8f4f	0.6818742
24	0x3d9a6b8b	0.075400434
25	0x3e5a6207	0.21326457
26	0x3e290a4a	0.16507831
27	0x3cc48aa2	0.023991887
28	0x3e4113f1	0.18855263
29	0xba40bb32	-0.0007352113
30	0x3ed6b6a8	0.4193623
31	0xbcfff971	-0.031246873
32	0x3e010cc3	0.12602524
33	0x3f1612fc	0.5862272
34	0x3e98afcc	0.29821622
35	0x3d04e91f	0.032448884
36	0x3e9ef59d	0.31046763
37	0x3cd7df88	0.026351705
38	0xc0969c03	-4.7065444
39	0xbf375abf	-0.7162284
40	0xbe2183f6	-0.15772995
41	0x3f1b6417	0.606996
42	0xbea57a0a	-0.3231967
43	0x3ea5175f	0.32244393
44	0xbf8fe78c	-1.1242537
45	0x3ecd4d9c	0.40098274
46	0x3e90f93c	0.2831515
47	0xbf5f74d4	-0.8728764
48	0x3e758c71	0.23979355
49	0x3f74ef8a	0.9567801
50	0xbf7bd2cc	-0.98368526
51	0xbf5016d1	-0.81284815
52	0xbf1cf08c	-0.61304545
53	0xbf2f55cc	-0.6849029
54	0xbdde6a86	-0.108601615
55	0xbe1a38d1	-0.15060736
56	0xbd90c16a	-0.07068141
57	0xbc81b2ca	-0.015832324
58	0xbe29cf59	-0.16583003
59	0xbdfaa962	-0.122393385
60	0xbe155fd6	-0.1458734
61	0xbf4bb829	-0.7957788
62	0xbda56a08	-0.080768645
63	0x3f29c6a9	0.66318756
64	0x3f1421c0	0.57864
65	0x4005c120	2.0899124
66	0xbdde14bf	-0.10843801
67	0x3e5bb7c6	0.21456823
68	0xbe15cb87	-0.14628421
69	0x3ed00be1	0.40634063
70	0x3f858f76	1.0434406
71	0x3d712e78	0.058882207
72	0x3f849b9e	1.0359991
73	0xbf67004b	-0.9023482
74	0x3eca84b1	0.3955436
75	0xbd9d4e86	-0.07680993
76	0xb7840008	-1.573564e-05
77	0xbeac4009	-0.33642605
78	0xbf6442e7	-0.89164585
79	0xbf2eaa95	-0.6822904
80	0x3e7867a6	0.24258289
81	0xbc10a322	-0.008827956
82	0xbf49c1ad	-0.7881115
83	0xbddc81c0	-0.10766935
84	0xbec58375	-0.38576856
85	0x3e21c57e	0.15797994
86	0xbe37281d	-0.17886396
87	0x3e9eac6c	0.30990922
88	0xbf21f7a5	-0.632685
89	0xbe090725	-0.13381632
90	0x3ec2db8c	0.38058126
91	0xbf2c41e0	-0.6728802
92	0x3e084c97	0.13310467
93	0xbf9a7610	-1.206728
94	0xbc2dde83	-0.010612133
95	0xbde4243d	-0.111397244
96	0xbe86bf84	-0.2631799
97	0xbc41fdca	-0.011840293
98	0xbea418a4	-0.3205005
99	0x3ee8f197	0.45496818
100	0x3f344f82	0.7043382
101	0xbee403d4	-0.4453417
102	0xbed6e28b	-0.41969714
103	0xbe90c6e4	-0.28276742
104	0xc0154c78	-2.3327923
105	0xbf01467d	-0.5049818
106	0x3dd78be1	0.10524727
107	0x3cc4b4da	0.024012018
108	0x3eb1300d	0.34606972
109	0x3ea17691	0.3153577
110	0xbe9820c5	-0.297125
111	0xbd2b70b2	-0.04185552
112	0x3e7b062b	0.24514072
113	0xbee0848d	-0.43851128
114	0xbf0b0ee2	-0.54319584
115	0x3f762bf1	0.961608
116	0xbe5ef3bb	-0.21772663
117	0x3e71f5e7	0.2362896
118	0x3fbd3caf	1.4784144
119	0xbff02aca	-1.8763058
120	0xbedf39f4	-0.43598902
121	0xbec0bf2c	-0.37645853
122	0x3e6794cf	0.2261536
123	0xbb3c9c66	-0.0028779744
124	0xbe5cbbac	-0.21555966
125	0xbf2fdd9d	-0.6869753
126	0x40124155	2.2852376
127	0x3fe5d81c	1.7956576
128	0xbca74690	-0.020419389
129	0xbc12bf4e	-0.008956743
130	0xbe362896	-0.1778892
131	0xbea1c0b1	-0.31592324
132	0xbdb9db18	-0.09074992
133	0x3d4cf5a3	0.050038945
134	0xbc2760f7	-0.010215989
135	0x3ecbf854	0.39837897
136	0x3e85ea01	0.26155093
137	0x3f43ac05	0.76434356
138	0xbecd2340	-0.40065956
139	0xbdbe5885	-0.092942275
140	0xbf9353ed	-1.1509987
141	0xbe965af1	-0.29366258
142	0x3ec79cc4	0.3898679
143	0xbf214e18	-0.63009787
144	0x3fbcfee2	1.4765284
145	0x3e57960b	0.2105333
146	0x3f1b0e35	0.60568553
147	0xbf274358	-0.65337133
148	0x3f407fb5	0.75194865
149	0xbeb1d686	-0.3473398
150	0x3e8386af	0.25688693
151	0xbe981271	-0.2970157
152	0xbc994abe	-0.018712398
153	0x3de6b947	0.112658076
154	0xbdb7b76d	-0.089705326
155	0xbc953b1e	-0.018216666
156	0xc00c82a6	-2.1954741
157	0x400e7a26	2.2262053
158	0x3e6f1d4e	0.23351023
159	0xbe20f843	-0.15719704
160	0xbe86c543	-0.26322374
161	0xbf035a98	-0.5131011
162	0x3e8d3b13	0.27584133
163	0x3f3991a7	0.7248787
164	0xbd956552	-0.07294716
165	0x3ed6ddcd	0.41966096
166	0xbe2b313e	-0.16718003
167	0x3f0c5fe0	0.54833794
168	0x3f2d8ce1	0.6779309
169	0x3eb93998	0.36176753
170	0xbf8113b6	-1.008414
171	0x3eea360f	0.45744368
172	0xbeec1a47	-0.46113798
173	0x3f39a896	0.72522867
174	0x3ec784e8	0.38968587
175	0x3e8ddf87	0.277096
176	0x3f5b5084	0.8566973
177	0xbfcd4f48	-1.603982
178	0xbd53e3c3	-0.051730882
179	0xbe6b79cd	-0.22995682
180	0x3e629148	0.22125733
181	0xbf48dcec	-0.784621
182	0xbf94a93f	-1.161415
183	0x3edc6a1d	0.43049708
184	0xbcd9ef2b	-0.026603302
185	0xbfbee268	-1.4912844
186	0x3ea2520b	0.3170322
187	0xbeff46ca	-0.49858695
188	0xbed0f08c	-0.40808523
189	0x3fa1fcc8	1.2655268
190	0xbf20a605	-0.62753326
191	0x3eb59136	0.3546235
192	0x3f0112cc	0.50419307
193	0xbe856188	-0.26050973
194	0x3e9b4a70	0.3033023
195	0xbd1562e9	-0.03647128
196	0xbecac962	-0.39606768
197	0x3f0d3d44	0.5517161
198	0x3ff4ba4d	1.9119354
199	0xbfa5450c	-1.2911696
200	0xbe6b9570	-0.23006225
201	0xbf9eca62	-1.2405512
202	0xbe0500b5	-0.12988551
203	0x3eecf3ae	0.46279663
204	0xbaf486c1	-0.0018655882
205	0x3f11ca33	0.56949157
206	0x3dfb97df	0.122848265
207	0x3fc32189	1.5244609
208	0x3d6761e7	0.05648985
209	0x3f12da2a	0.5736414
210	0x3d907f3e	0.070555195
211	0xbe479f49	-0.19494356
212	0x3e090360	0.13380194
213	0xbe620d09	-0.22075285
214	0xbee9b15a	-0.4564312
215	0xbd6757da	-0.056480266
216	0xbd36bc20	-0.044613004
217	0xbd9a155f	-0.075236075
218	0x3efd5d7f	0.49485394
219	0x3ebfd415	0.37466493
220	0x3e1d0d5c	0.15337127
221	0x3f1e8cef	0.619338
222	0x3f046b9c	0.517267
223	0xbf790478	-0.97272444
224	0xbecdd4e5	-0.40201488
225	0xbf9abac2	-1.2088244
226	0x3e5e71fd	0.2172317
227	0xbeb1ad39	-0.3470247
228	0x3ed0c684	0.40776455
229	0xbfa7bc06	-1.3104255
230	0x3f793a3a	0.9735447
231	0x3e938e70	0.2881961
232	0xbe51acde	-0.204761
233	0x3db9b51e	0.090677485
234	0x3f2b4e36	0.66916215
235	0xbe8395a9	-0.2570012
236	0xc03744c3	-2.863572
237	0xbf319c13	-0.69378775
238	0x3ef91f72	0.48656803
239	0x3f1d64f1	0.6148215
240	0x3eb6af75	0.35680738
241	0x3eb75379	0.35805872
242	0x3f9b4afd	1.213226
243	0x3f800905	1.0002753
244	0x3f241d8f	0.641076
245	0x3d529db3	0.051419925
246	0x3ec91f54	0.39281714
247	0x3eb1c5ad	0.34721127
248	0x3f059a78	0.52188826
249	0x3f824aae	1.017904
250	0xbee08cc9	-0.4385741
251	0x3f2c1d50	0.6723223
252	0xbf3ea608	-0.74472094
253	0x3f4d189b	0.8011567
254	0xbe120360	-0.142591
255	0x3eacccdf	0.33750054

bias f4 [32]
0	0x3f3bccb7	0.73359245
1	0x3df25c3c	0.118339986
2	0x3f9e53d9	1.2369338
3	0x3f3fdf06	0.7494968
4	0xbe3e4c11	-0.18583705
5	0x3f1db5b9	0.6160541
6	0xbd0785fc	-0.03308676
7	0x3e355bcf	0.17710803
8	0x3ff620c3	1.9228748
9	0x3f2e1641	0.68002707
10	0xbea76ddd	-0.32701007
11	0xbe084e0b	-0.13311021
12	0x3de61f1a	0.11236401
13	0x3ff4291a	1.9075043
14	0x3e62d2ab	0.22150676
15	0x3cb921f1	0.022599192
16	0x3fe45dec	1.7841163
17	0x3f213347	0.6296887
18	0x3f50ba10	0.8153391
19	0x3fb56f4d	1.4174591
20	0xbec6e7c4	-0.38848698
21	0x3fec864c	1.8478484
22	0xbf9f497c	-1.2444301
23	0x3d11d878	0.03560683
24	0xbef897eb	-0.48553404
25	0x3efcacf1	0.49350694
26	0x3f99e991	1.2024404
27	0x3f94adc3	1.1615528
28	0x3da17455	0.07883517
29	0x3f942812	1.1574728
30	0xbea385b0	-0.31937933
31	0xbcc89f75	-0.024490098

weight f4 [64, 32]
0	0x3ec19f17	0.37816688
1	0x3dc91a90	0.098195195
2	0x3f66ba76	0.90128267
3	0x3abdd00e	0.0014481561
4	0xbf306409	-0.6890264
5	0x3f110877	0.5665354
6	0xbf198f0e	-0.5998391
7	0x3ee6ff48	0.4511664
8	0x3f575aa4	0.8412268
9	0x3e8ed819	0.27899244
10	0xbed468e9	-0.4148629
11	0xbf3203fd	-0.69537336
12	0xbf643497	-0.89142746
13	0x3f687609	0.9080511
14	0xbdd91c0c	-0.10601053
15	0xbf40cbca	-0.7531096
16	0x3f8f4933	1.1194214
17	0x3dadd799	0.084883876
18	0x3d5678d7	0.052361336
19	0x3efcc4dc	0.49368942
20	0xbf161dc6	-0.5863918
21	0x3f656e2c	0.89621234
22	0xbf835392	-1.0259879
23	0xbe87c8fd	-0.2652053
24	0xbf353960	-0.7079067
25	0x3f13f7ff	0.57800287
26	0x3f497ddd	0.7870768
27	0x3f07b5d1	0.53011805
28	0x3e620f59	0.22076167
29	0x3eba37b7	0.36370632
30	0xbf44bbd1	-0.76849085
31	0xbf2c6d2f	-0.673541
32	0x3efe650e	0.49686474
33	0x3ec10137	0.3769624
34	0x3f68c69d	0.9092806
35	0x3e2334f9	0.15938176
36	0xbf0e5629	-0.5560022
37	0x3f37788a	0.71668303
38	0xbf0b6363	-0.5444853
39	0x3ef81017	0.48449776
40	0x3f8179ae	1.0115259
41	0x3ef16d86	0.47153872
42	0xbea2e047	-0.31811735
43	0xbf41c73c	-0.7569463
44	0xbf4c1cfb	-0.7973172
45	0x3f38f5f4	0.72250295
46	0xbe51e689	-0.20498098
47	0xbf489134	-0.7834656
48	0x3f2d171a	0.67613375
49	0x3dd715ec	0.10502228
50	0x3e81d8aa	0.25360614
51	0x3f13878f	0.5762872
52	0xbf124c0a	-0.57147276
53	0x3f6abd3b	0.9169499
54	0xbf1c4b5e	-0.610525
55	0xbe8bfcef	-0.2734141
56	0xbf4083f7	-0.7520136
57	0x3eda0068	0.42578435
58	0x3f802cdf	1.0013694
59	0x3f486340	0.78276443
60	0x3ee93ead	0.4555563
61	0x3e8f3a20	0.27974033
62	0xbf5df3bb	-0.8670003
63	0xbec2035e	-0.37893194
64	0x3f54aaa2	0.83072865
65	0xbf5a05da	-0.8516518
66	0x3f5000b5	0.8125108
67	0xbe945da7	-0.289777
68	0x3ccf1e2b	0.02528294
69	0xbe18a2bd	-0.1490583
70	0xbfa9c7ca	-1.3264096
71	0xbf1bef5c	-0.6091211
72	0x3f39bbef	0.7255239
73	0xbf021bbd	-0.50823575
74	0xbf937afe	-1.1521909
75	0xbebd93d7	-0.37026855
76	0xbfe9a078	-1.8252096
77	0x3f53c399	0.82720333
78	0xbf9ee934	-1.2414918
79	0xc008088e	-2.1255221
80	0x3f815fee	1.01074
81	0xbee68b1d	-0.4502801
82	0x3e906321	0.2820063
83	0x3f0884fe	0.5332793
84	0xc003bfc4	-2.0585794
85	0x3f99dab8	1.2019873
86	0xbfa62174	-1.2978959
87	0xbf403546	-0.7508129
88	0xbf0094ba	-0.5022694
89	0x3e711898	0.23544538
90	0x3e8a0389	0.26955822
91	0x3e43eeca	0.1913406
92	0x3e98b67f	0.29826733
93	0x3f0f7b20	0.5604725
94	0xbf82feea	-1.0234044
95	0xbf735ba0	-0.95061684
96	0x3ef9c6a7	0.48784372
97	0xbfa0f3de	-1.2574422
98	0x3f120a09	0.5704656
99	0x3d7f8369	0.062381182
100	0xbf3b160b	-0.7308051
101	0x3e946c6b	0.28988966
102	0xbffdc074	-1.9824357
103	0xbeed42a7	-0.46339914
104	0x3eb53e7d	0.35399237
105	0x3e2083d0	0.15675282
106	0xbe96a87d	-0.2942542
107	0xbef69f69	-0.48168495
108	0xbf806b79	-1.0032798
109	0x3e4a8480	0.19777107
110	0xbf06a604	-0.5259707
111	0xc052018b	-3.2813442
112	0xbe123243	-0.14276986
113	0xbd8231ae	-0.06357132
114	0xbee6bca0	-0.45065784
115	0x3ed29fb9	0.41137484
116	0xbf809e51	-1.0048314
117	0x3f4dcaf9	0.80387837
118	0xbf0f2a41	-0.5592385
119	0xbf39062f	-0.7227506
120	0xbaac3a35	-0.0013139906
121	0xbed573a8	-0.416898
122	0x3f1df576	0.6170267
123	0x3e9bf2e2	0.30458742
124	0x3f0822b2	0.5317794
125	0xbdfab504	-0.12241557
126	0x3ea676d7	0.32512543
127	0x3e321c80	0.17393684
128	0x3f190e82	0.5978776
129	0xbf301099	-0.68775326
130	0x3f047847	0.5174603
131	0x3e6aed77	0.22942148
132	0x3e650409	0.2236482
133	0xbf6d3b20	-0.9266834
134	0xbeaaa465	-0.33328548
135	0x3ebe08d0	0.37116098
136	0xbe75590b	-0.23959748
137	0x3a8e2b4b	0.0010846643
138	0xbc96b42e	-0.018396463
139	0x3d9573e1	0.07297493
140	0xbf5df911	-0.8670817
141	0xbcffb6ea	-0.03121515
142	0xbf52df22	-0.82371724
143	0x3d8c1ef4	0.06841841
144	0x3f17e63e	0.59335697
145	0x3ea49b54	0.32149756
146	0xbf7b968f	-0.9827661
147	0x3c14fdc6	0.009093707
148	0x3dbb53be	0.09146832
149	0xbe8a3b6d	-0.26998463
150	0xbf2427eb	-0.6412341
151	0x3f35baae	0.70987976
152	0x3fb633dd	1.4234577
153	0x3f2b44f8	0.6690211
154	0x3b2b2ab6	0.0026117987
155	0x3f52ee08	0.82394457
156	0xbedf9994	-0.43671858
157	0xbe27621f	-0.16346024
158	0xbf597ee4	-0.84959245
159	0xbf5a6089	-0.8530355
160	0x3efe2305	0.49636093
161	0x3ea3acc5	0.3196775
162	0x3f399327	0.7249016
163	0x3e812b12	0.25228173
164	0xbebe8f56	-0.37218732
165	0x3f07d719	0.5306259
166	0xbe2a926f	-0.16657422
167	0x3f05ad84	0.5221789
168	0x3f262d02	0.64912426
169	0x3eedc33e	0.4643802
170	0xbed3c0e3	-0.41358098
171	0xbf16ef87	-0.5895924
172	0xbf34edad	-0.70675164
173	0x3f2c9752	0.67418396
174	0xba5772c3	-0.00082187
175	0xbed8452f	-0.42240283
176	0x3f4ce70f	0.8004007
177	0x3de9bea5	0.11413316
178	0x3eab68c9	0.33478382
179	0x3eab7414	0.33486998
180	0xbe8cee47	-0.2752554
181	0x3f5c8745	0.86143905
182	0xbf0e9740	-0.5569954
183	0xbe8eaec4	-0.2786771
184	0xbec15b33	-0.37764892
185	0x3f0c09cc	0.5470245
186	0x3f78306a	0.96948874
187	0x3f88b465	1.0680052
188	0x3f0c045d	0.5469416
189	0x3ee7cba4	0.45272553
190	0xbf2ac448	-0.6670575
191	0xbea7215c	-0.3264264
192	0x3dcac7e8	0.0990141
193	0xbf51e197	-0.8198485
194	0xbe989736	-0.29802865
195	0xbdc08634	-0.09400597
196	0xbf658169	-0.8965059
197	0x3eaabb9a	0.33346254
198	0xbe205e0b	-0.15660875
199	0xbf74837b	-0.95513123
200	0xbf25eedd	-0.648176
201	0xbf7a10a8	-0.97681665
202	0x3e1673a7	0.14692555
203	0xbf1dab15	-0.61589175
204	0x3f1e6cff	0.61885065
205	0x3b331e67	0.0027331354
206	0x3ead4346	0.33840388
207	0xbe2f917a	-0.17145339
208	0x3f0dd464	0.5540221
209	0x3c90e098	0.01768522
210	0xbe983ab0	-0.29732275
211	0x3f07bc3d	0.53021604
212	0x3ea55fbb	0.322996
213	0x3bdfe78b	0.006833022
214	0xbee17661	-0.44035628
215	0x3eb2c69f	0.3491716
216	0x3f8c99f8	1.0984488
217	0xbc8bff25	-0.017089436
218	0x3ed91b56	0.42403668
219	0xbf496a31	-0.7867766
220	0xbf82bd82	-1.0214083
221	0xbedb1cb1	-0.42795327
222	0x3f8a26c3	1.0793079
223	0xbeaf1d4f	-0.34202048
224	0x3f23729c	0.63846755
225	0x3f1c0219	0.609407
226	0x3e3b993d	0.18320175
227	0x3f17129f	0.5901279
228	0x3ef95832	0.487001
229	0x3f086e97	0.53293747
230	0x3ea06b97	0.31332085
231	0x3ed50078	0.4160192
232	0x3f0a6b97	0.5407042
233	0xbfb0b9f0	-1.3806744
234	0x3e1ccc48	0.15312302
235	0xbf47ae7d	-0.78000623
236	0x3f57f095	0.84351474
237	0xbdc4ded8	-0.096128166
238	0x3eb5458f	0.35404631
239	0xbe0c8bfa	-0.13725272
240	0xbd9e565b	-0.07731315
241	0x3ef09e88	0.4699595
242	0x3e91b985	0.28461853
243	0xbf1ceb8f	-0.61296934
244	0x3e3af5c2	0.18257812
245	0xbf1324c5	-0.5747798
246	0x3f340e47	0.70334285
247	0x3f007d93	0.5019161
248	0x3e1b92f6	0.1519278
249	0x3f28dd7e	0.6596297
250	0xbd136b3d	-0.035990942
251	0xbf827058	-1.0190535
252	0x3f2217bd	0.6331747
253	0xbe805694	-0.25066054
254	0x3f76dd26	0.96431196
255	0xbe0f5a52	-0.13999298

bias f4 [64]
0	0x3f73b018	0.9519057
1	0x3f9a67ee	1.2062967
2	0x3fa65643	1.2995075
3	0x3f127f0b	0.572251
4	0xbd839915	-0.064256825
5	0x3f8a3d2b	1.0799917
6	0xbe23dd6f	-0.16002439
7	0xbe6f7b38	-0.23386848
8	0xbf9f2cbf	-1.243553
9	0x3f49cfef	0.78832906
10	0x3e3db14e	0.18524668
11	0x3f944433	1.1583313
12	0xbdd833d4	-0.105567604
13	0xbcbfd18e	-0.023415353
14	0x3f997e83	1.1991733
15	0xbd973a3f	-0.073841564
16	0xbf3ff151	-0.74977595
17	0xbe8ba8fc	-0.27277362
18	0x3f96b69c	1.1774478
19	0xbe30a588	-0.17250645
20	0x3f82951f	1.0201758
21	0x3ee30e37	0.44346783
22	0xbf678cc4	-0.90449166
23	0xbebfc192	-0.3745237
24	0xbf0e4f4f	-0.55589765
25	0xbedd37d8	-0.43206668
26	0xbf6ea38c	-0.932183
27	0xbed6e556	-0.41971844
28	0xbee1e053	-0.44116458
29	0x3f9a2bbc	1.2044597
30	0xbfaf3f12	-1.3691123
31	0xbf16dd8e	-0.58931816
32	0xbf94c6d5	-1.1623179
33	0xbf1674dc	-0.58772063
34	0x3c69be5e	0.0142665785
35	0x3f87e415	1.061648
36	0xbe1db5b0	-0.1540134
37	0xbf27fbc9	-0.6561857
38	0xbef94484	-0.48685086
39	0xbbc9fe4f	-0.006164349
40	0xbf0ec029	-0.55761963
41	0x3f8be18d	1.0928208
42	0xbf071bce	-0.527768
43	0x3f9b127a	1.2115014
44	0x3f628757	0.8848776
45	0xbf60fb21	-0.8788319
46	0xbf171dfb	-0.5903012
47	0x3e4c5ce1	0.19957305
48	0xbf219e77	-0.63132423
49	0xbea7de53	-0.32786807
50	0xbfa6db7a	-1.3035729
51	0xbf47ff4a	-0.78123915
52	0x3f93c495	1.1544367
53	0x3f8c55c7	1.0963677
54	0xbf012de0	-0.50460625
55	0xbf48bc2d	-0.78412133
56	0xbee058ee	-0.43817848
57	0xbf0e0b66	-0.5548614
58	0x3f6a4a5c	0.91519713
59	0x3f650fe3	0.89477366
60	0xbfae2243	-1.3604206
61	0xbf3b8603	-0.7325136
62	0xbf481c57	-0.78168243
63	0xbf9b9962	-1.2156184

weight f4 [5, 64]
0	0xbf7068db	-0.93909997
1	0xbf740a84	-0.95328546
2	0xbfd8a17b	-1.692428
3	0xbf1dbfbd	-0.61620694
4	0xbf6a9f8a	-0.9164969
5	0xbf3fb85c	-0.74890685
6	0x3f34a391	0.7056208
7	0xbf905865	-1.1276976
8	0xbfe57fd7	-1.7929639
9	0xbf1e780d	-0.6190193
10	0xbed45f19	-0.41478804
11	0xbf6189db	-0.88100976
12	0xbf1d1126	-0.6135429
13	0xbf2f46de	-0.6846751
14	0xbfa24d07	-1.2679757
15	0x400250d0	2.0361824
16	0xbfae1452	-1.3599951
17	0x3fd4d1c9	1.6626521
18	0xbf642647	-0.89120907
19	0x3b39e580	0.0028365552
20	0xbfe1bb54	-1.7635293
21	0xbf85fe80	-1.0468292
22	0x40205440	2.5051422
23	0xbf552752	-0.83263123
24	0xbf83beb9	-1.0292579
25	0x4004a099	2.072302
26	0xbfc39cf6	-1.5282276
27	0xbf8f70cc	-1.1206298
28	0xbf37bbb2	-0.71770775
29	0xbf675855	-0.9036916
30	0xbfd2afc5	-1.6459891
31	0xbfd40a45	-1.6565634
32	0xbfbec693	-1.490435
33	0x3fa56e02	1.2924197
34	0xbf6ea914	-0.9322674
35	0xbf4e13d8	-0.8049903
36	0xbf386690	-0.720315
37	0x400185ca	2.0237908
38	0x3fadbeb5	1.3573824
39	0x3e9f44a6	0.31107062
40	0xbf890c09	-1.0706798
41	0xbf54c58b	-0.83113927
42	0x3ffaf50c	1.9606032
43	0xbf846ce1	-1.0345727
44	0xbf59a056	-0.8501028
45	0xbfd886a4	-1.6916089
46	0xbf2ab5bc	-0.66683555
47	0xbf738484	-0.9512408
48	0x40187815	2.3823292
49	0xbf903180	-1.1265106
50	0xbfbb1378	-1.4615316
51	0x404949e1	3.1451342
52	0xbf6b4f27	-0.9191765
53	0xbf3d9c6c	-0.74066806
54	0x3fcc0b73	1.5940994
55	0xbfd01a5c	-1.6258044
56	0x3f9099ba	1.1296914
57	0x400ecc1b	2.2312076
58	0xbfd2af33	-1.6459717
59	0xbf5e5a9f	-0.86857027
60	0xbfa76779	-1.3078452
61	0xbeebeace	-0.4607758
62	0x4025cd1e	2.5906444
63	0xbf856deb	-1.0424169
64	0xbf6b974e	-0.9202775
65	0xbf68a3a4	-0.90874696
66	0xbfe2cc53	-1.7718605
67	0xbf8495ed	-1.0358254
68	0xbf44740f	-0.7673959
69	0xbf4117ff	-0.7542724
70	0xbf4bb5fc	-0.7957456
71	0xbfd41fb1	-1.6572171
72	0xbfd607aa	-1.6721089
73	0xbeba73ad	-0.3641638
74	0xbf713ee5	-0.94236594
75	0xbf39fe6b	-0.72653836
76	0x3ee3c0d4	0.44483054
77	0xbf9c2829	-1.2199756
78	0xbf8f9d7b	-1.1219934
79	0x40028d94	2.0398912
80	0xbfb7a67a	-1.434768
81	0x3fa49328	1.2857409
82	0xbf6384b1	-0.88874346
83	0x3cc987d8	0.024600908
84	0xc00fc71f	-2.2465284
85	0xbfa6edff	-1.3041381
86	0x402387c7	2.5551622
87	0xbf139f31	-0.5766478
88	0xbfb303b8	-1.398551
89	0x3ffa983f	1.9577712
90	0xbfd65380	-1.6744232
91	0xbe9b4dd5	-0.3033282
92	0xbfa5c849	-1.2951747
93	0xbf50d4d6	-0.8157476
94	0xbf9ded22	-1.2337992
95	0xbff33e0d	-1.9003311
96	0xbfbbc121	-1.4668313
97	0x3f206608	0.6265569
98	0xbfcc54f2	-1.5963423
99	0xbf527975	-0.8221658
100	0xbf1278fe	-0.5721587
101	0x4007b787	2.1205766
102	0x3fc56c1b	1.5423616
103	0x3faf7e0d	1.3710343
104	0xbfbba9a7	-1.4661149
105	0xbf8a99dd	-1.0828205
106	0x4004fde1	2.0779955
107	0xbf8352b1	-1.025961
108	0xbf976247	-1.1826867
109	0xbfe64309	-1.7989208
110	0xbedb0971	-0.4278064
111	0xbf8cbe7e	-1.0995634
112	0x3fc62dee	1.5482767
113	0x3e2d0fbf	0.16900538
114	0xbfd23cae	-1.6424768
115	0x40461f8a	3.095675
116	0xbf1e1a7f	-0.6175918
117	0xbf55e6b4	-0.8355515
118	0x3fccc581	1.5997773
119	0xbfbc1a93	-1.469561
120	0x3f75bb97	0.95989364
121	0x40222369	2.5334113
122	0xbf226e03	-0.63449115
123	0xbf5b15f1	-0.85580355
124	0xbf924901	-1.1428529
125	0xbf21ff5a	-0.6328026
126	0x403749b5	2.8638737
127	0xbf435ff8	-0.7631831
128	0xbf5885b8	-0.8457904
129	0xbf4e92b7	-0.8069262
130	0xbfc7a4ea	-1.5597203
131	0xbf073375	-0.5281289
132	0xbf897bf1	-1.0740949
133	0xbf3f12f4	-0.74638295
134	0x3fd168b3	1.6360077
135	0xbf08864e	-0.5332993
136	0xbfa4517c	-1.2837367
137	0xbf89999f	-1.0750006
138	0xbe0d1cb3	-0.13780479
139	0xbf81b256	-1.0132549
140	0xbfe12816	-1.7590358
141	0xbf1ccb69	-0.6124788
142	0xbf868ffe	-1.0512693
143	0x3fe40731	1.7814695
144	0xbfd2a644	-1.645699
145	0x3feee941	1.8664933
146	0xbf614f6d	-0.8801182
147	0x3d17744e	0.03697615
148	0xbf9266ec	-1.1437659
149	0xbf37c58f	-0.71785825
150	0x4025c537	2.590162
151	0xbf923697	-1.142291
152	0xbed5b26a	-0.41737682
153	0x4002c601	2.0433352
154	0xbf94a3e5	-1.1612517
155	0xbff659ec	-1.9246192
156	0xbeabbf4d	-0.33544388
157	0xbf80169c	-1.00069
158	0xbf995742	-1.1979754
159	0xbf9192fb	-1.137298
160	0xbfeb240d	-1.8370377
161	0x3fc1c7cb	1.5139097
162	0xbe8ed051	-0.27893308
163	0xbf43cd7b	-0.76485413
164	0xbf174a7f	-0.59098047
165	0x3feb1e13	1.8368553
166	0x3fa76691	1.3078176
167	0xbf372067	-0.7153382
168	0xbe1bead3	-0.15226297
169	0xbf1d50a9	-0.614512
170	0x3feaafb6	1.8334873
171	0xbf85d4d1	-1.0455571
172	0xbf24e2c7	-0.64408535
173	0xbfe65803	-1.7995609
174	0xbf609b69	-0.8773714
175	0xbf2a4fdd	-0.6652811
176	0x404a00f0	3.1563072
177	0xc01612e3	-2.3449028
178	0xc005ce65	-2.0907223
179	0x4048b69f	3.1361463
180	0xbf8f214a	-1.1182034
181	0xbf4d2775	-0.8013833
182	0x3fd247bb	1.642814
183	0xbfbab9b4	-1.4587922
184	0x3f900eea	1.1254551
185	0x401d65b3	2.4593322
186	0xc023ba03	-2.5582283
187	0xbf60cbcf	-0.8781099
188	0xbf86485d	-1.0490834
189	0xbf4d66b8	-0.8023486
190	0x3fd9a69c	1.700397
191	0xbf9bc217	-1.2168607
192	0xbf44ae3a	-0.7682835
193	0xbf8533e8	-1.0406466
194	0xc00ecccc	-2.2312498
195	0xbffe3bc5	-1.986199
196	0xbf01f00b	-0.507569
197	0xbf5f0aab	-0.87125653
198	0x3f841d24	1.0321393
199	0xbf21e1a9	-0.63234955
200	0xc003ae8e	-2.057529
201	0xbf35ee3a	-0.7106663
202	0xbf8d05b4	-1.1017365
203	0xbf34824f	-0.70511335
204	0xbdc90c49	-0.09816796
205	0x3d293273	0.041307878
206	0xbfaa78a9	-1.3318073
207	0x3feebca3	1.8651317
208	0xbf8e07cf	-1.1096133
209	0x40012891	2.018101
210	0xbf8631fc	-1.0484004
211	0xbd708db3	-0.058728885
212	0xbfa5f271	-1.2964612
213	0xbf5b7f7a	-0.8574139
214	0x403d9e03	2.9627693
215	0xbfd58b96	-1.6683223
216	0xbdf8e080	-0.12152195
217	0x3ffb0aaa	1.961263
218	0xbfc4eba6	-1.5384414
219	0xbf8c5922	-1.0964701
220	0xbf2f8cd9	-0.6857429
221	0xbf7a86e6	-0.9786209
222	0xbf8a5a8b	-1.0808882
223	0xc03945cd	-2.8948853
224	0xbfab4adc	-1.338222
225	0x3fa728a5	1.3059279
226	0xbfe9a201	-1.8252565
227	0xbf590cb0	-0.84784985
228	0xbee4abf8	-0.44662452
229	0x3fc1a470	1.5128307
230	0x3f887e7e	1.0663602
231	0x3f3759ae	0.71621215
232	0xbfb1bd9c	-1.3885989
233	0xbeab8c88	-0.33505654
234	0x3fdafde4	1.7108731
235	0xbf500eb9	-0.81272465
236	0xbf6ea879	-0.9322582
237	0xbfd26924	-1.6438336
238	0x3e66a0c7	0.22522269
239	0xbf847813	-1.0349144
240	0x40522ece	3.2841067
241	0xbf8b96f6	-1.0905445
242	0xc00e269b	-2.2211063
243	0x403bd174	2.934659
244	0xbf13a18b	-0.5766837
245	0xbf7e39fe	-0.9930724
246	0x3fbe2c48	1.4857264
247	0xbfc5ba74	-1.5447526
248	0x3ef26ae9	0.4734719
249	0x4015d15e	2.3409038
250	0xbf94daf5	-1.162932
251	0xbf496074	-0.786628
252	0xbf8c04df	-1.0938987
253	0xbf482d88	-0.78194475
254	0x40078e39	2.1180556
255	0xbed689ab	-0.41901907

bias f4 [5]
0	0xbec5c96b	-0.38630232
1	0xbee7c542	-0.45267683
2	0xbf35ab5d	-0.70964605
3	0xbf38edce	-0.7223786
4	0xbef3717f	-0.47547528
